models/hyperparameter_optimization/augment/Set15/train_lr0/input_train_lr0_1e-06/GNN.pth (torch, 994184 bytes, 18 tensors)

input_layer.weight f4 [128, 8]
00000000: 7912 8c3e 65a6 983e a3a1 a9bd c812 a43e
00000010: dfa5 9ebd 5005 913d a642 30be 799e 543e
00000020: 7dfd 9d3e 06cd 84be 7e42 9d3e a613 7b3d
00000030: 8004 863e 258e 423d e9bd 2f3e 6777 4cbd
00000040: 617b 8d3e 76bf 5d3d 9c03 29be f9b9 ac3d
00000050: f2cd 26be 48d4 29bd 860b 13be 7b2a 703e
00000060: 2ae4 8ebe 50e7 26be 0e76 ccbd 13af 59be
00000070: 84f9 073d fdc9 b2be 79a7 a43e 2ac5 99be
00000080: 28ae 8c3e 83ed 693d 771c ebbd 4521 663e
00000090: 94f6 613d 33e8 913e ef7e 2e3d c55a e4bd
000000a0: 4222 bc3d da5a c4bd 24a2 183e 7e0d a43e
000000b0: c65b 513e fb45 1ebe f25b 533e 728e 813d
000000c0: 0fe5 343e 16aa 5cbe 4c31 b3be a1e0 0bbe
000000d0: 91d8 8abe d97b 943e fde8 d23d 19f6 153e
000000e0: d01e eb3d 5789 c9bb 7a76 8d3e e09d 80be
000000f0: bdc7 b33c 1f1b 77be df6e df3d 025c f9bd
00000100: 3a7d dc3d f8da 96bd 4e66 963e bd94 56be
00000110: 4ceb 57be a3ee 57be 2d81 a43e b14c f13d
00000120: ce8a b03e 1664 95be 7b8c b3be 7b9f 8dbe
00000130: 1a8a 73be d9f1 113e 72c7 013e d369 963e
00000140: 49f7 3abe 58ce 76be 1386 403e 7056 12be
00000150: 68fb 5b3e f2d2 abbd 6197 503e 6fa5 8cbe
00000160: e6b3 36be 43b4 e63d 22d6 973d 1f9c b8bd
00000170: 45af 573e 642a 763e 3945 83be eb47 41be
00000180: 4b42 a53e c553 f4bd 4059 00be 4127 afbe
00000190: 2a54 4fbe b5d6 b43d 8325 3fbd 3f66 83be
000001a0: 66fa cd3b 4a4d 77be 8293 99be 755c 47be
000001b0: 296e 9ebe 1886 66be c79c b43e 94c2 883d
000001c0: 6027 df3d 7ad5 a8be 0bc7 6dbe 6b03 f1bd
000001d0: 1a5d 613d 6448 9fbe 22fe 1bbe bdbd 58be
000001e0: b5f1 c2b5 3bb7 06be b4b3 c8bc 0254 75be
000001f0: 6880 78be c936 53be 8dd9 f7bd 07e0 8ebe
00000200: 88c6 953e 0cb4 8fbd 6f9a 9b3e c779 da3d
00000210: 6049 99be e22a 7b3e e339 c7bd 63c7 0abe
00000220: 4142 96be 59f6 b3be 1efb cd3d 962b 9ebd
00000230: 3667 0c3e 538e 94be 2e40 853e bfe0 84be
00000240: c60e 7abd 0189 9d3d 815c 3a3e e139 903e
00000250: 4501 a53e c488 8fbe 0341 b43d e4b8 1bbe
00000260: 1db2 1ebd be7d 87be 55e0 a43e f6db 84be
00000270: 5d24 423e 8fa6 fd3d 5b96 f83d 1ebc 43be
00000280: e499 a63e f48e a03d 3567 3b3d 2f86 9fbe
00000290: cb01 183e c740 59bd d4db 25be 667c 9b3e
000002a0: ca25 a03d b54e 48be eb3d 37be ba50 8abc
000002b0: 4603 4a3e b806 b9bd f791 4ebe 83f4 f7bd
000002c0: 283c 87be 5add fc3d a15f 8c3e 3d6b aabe
000002d0: eb63 a73d 4c91 3b3e fc17 7d3d 4fee 00be
000002e0: e0c3 393e a8a1 3b3e d482 073e c678 7ebd
000002f0: 91bc bfbd d4a3 1c3d 8dd2 7fbd 9bc6 d7bd
00000300: 14fb 6b3e 9b2a 9b3e 0d5d 0fbd 5f1e a2bd
00000310: eba2 a13b fcee acbc a768 b23d 2be9 ca3d
00000320: 7b69 a4be 1e9b 05be c187 983e cd98 0d3e
00000330: 2e0e 90bc 7346 5abe 427f 5dbe b026 a2be
00000340: a205 ecbd c775 f83d 1b76 673e bd0c 2d3e
00000350: ce02 a0be 6ab7 59be fd8a 64bd e51b af3e
00000360: ac72 423d cd83 bbbd 0f21 153e d3e4 09be
00000370: e254 6abe 6035 843e a09e 24be 4727 91bd
00000380: 2d14 b4be 4fae 733e 0506 893e b7de fc3d
00000390: b370 7cbe bba7 b2be 2505 93be 75fc 863e
000003a0: 6127 2c3e 27f4 983e 87b6 3d3e 5a5b a93d
000003b0: b3e6 62bb 92aa 89be a317 9bbe f250 a9be
000003c0: 111d 123e d8bf 31be f1b8 91bd eb5a 50be
000003d0: a7f1 83bd c1d0 7ebe ce8f 6cbe 2d2f f03d
000003e0: 7331 d7bd beb4 5d3e 554a e8bd 34ca 84be
000003f0: c782 7fbd 4f7f 2fbe 7e86 ddbd 6154 acbe
0.27357844 0.2981445 -0.08282783 0.3204558 -0.07746481 0.070810914 -0.17212924 0.20763578
0.3085746 -0.2593767 0.30714792 0.061298035 0.26175308 0.04749884 0.17162289 -0.04991856
0.27633193 0.05413767 -0.16505283 0.08433909 -0.162895 -0.041462213 -0.14359865 0.23453705
-0.2790845 -0.16299176 -0.09983455 -0.21258192 0.03319694 -0.3491973 0.32159021 -0.30033237
0.2747662 0.057111274 -0.114800386 0.22473629 0.055166796 0.28497466 0.042601522 -0.111501254
0.09186222 -0.09587641 0.14905602 0.32041544 0.20445165 -0.15456383 0.20640543 0.063259974
0.17665504 -0.21549258 -0.34998548 -0.13659908 -0.27118352 0.29000738 0.10298345 0.1464466
0.114804864 -0.0061504054 0.27629453 -0.2512045 0.021945829 -0.2413144 0.10909819 -0.12175752
0.107660726 -0.07365984 0.29374927 -0.20955177 -0.21085852 -0.21087126 0.32129803 0.11782206
0.344809 -0.29177922 -0.35068116 -0.27660736 -0.2378315 0.14252414 0.12673739 0.29377612
-0.18258394 -0.24102151 0.18801145 -0.14290786 0.21482623 -0.08389844 0.20370246 -0.27469966
-0.17842063 0.11264851 0.074138895 -0.09014153 0.21062954 0.24039608 -0.2563875 -0.18875091
0.3227714 -0.1193004 -0.12534046 -0.34209636 -0.2024695 0.088300146 -0.046666633 -0.25663945
0.0062859533 -0.24150577 -0.29995352 -0.19468863 -0.3094342 -0.2251209 0.35275862 0.06677738
0.10896182 -0.3297537 -0.2322046 -0.1176823 0.05502043 -0.31109917 -0.15233663 -0.2116613
-1.4524472e-06 -0.13155834 -0.024499752 -0.23957828 -0.24267733 -0.20626368 -0.121020414 -0.27905294
0.2925303 -0.07016763 0.3039126 0.106677584 -0.29938793 0.24528077 -0.09727838 -0.13552622
-0.29347423 -0.35148886 0.100576624 -0.07723157 0.13711247 -0.29014835 0.26025528 -0.25952718
-0.061049245 0.07692147 0.1819935 0.28169158 0.3222753 -0.2803403 0.088014625 -0.15207249
-0.03874408 -0.2646312 0.32202402 -0.25949067 0.18959184 0.12385284 0.12138053 -0.1911473
0.32539284 0.07839766 0.045752723 -0.3115706 0.14844434 -0.053040292 -0.16197139 0.30368346
0.07819708 -0.19561274 -0.17894714 -0.016884197 0.19727811 -0.090344846 -0.20172869 -0.12107184
-0.26413083 0.12346907 0.2741671 -0.3328494 0.08173355 0.18317145 0.06179045 -0.12590908
0.18141127 0.18323386 0.132335 -0.062126897 -0.09362138 0.038242176 -0.062456656 -0.10535928
0.23044997 0.30305943 -0.03500085 -0.07915949 0.0049327514 -0.02111005 0.08711367 0.099077545
-0.32111725 -0.13047454 0.29791072 0.1382782 -0.017584886 -0.21315937 -0.21630576 -0.3167014
-0.11524512 0.12131839 0.22603647 0.1689939 -0.3125214 -0.21261373 -0.055796612 0.3420097
0.04747264 -0.091559984 0.14563392 -0.13466196 -0.22883943 0.25821972 -0.16076136 -0.0708757
-0.35171643 0.23796962 0.26762405 0.12347167 -0.24652366 -0.34893593 -0.28714862 0.26364484
0.16811897 0.29873773 0.1852666 0.08269377 -0.003462237 -0.26887947 -0.3029147 -0.3306957
0.142689 -0.17358339 -0.07115353 -0.20347182 -0.06442576 -0.24884321 -0.23101732 0.11727748
-0.105074786 0.21650979 -0.11342303 -0.2593552 -0.06238058 -0.17138408 -0.10816668 -0.33658126

conv_block.0.lin_l.weight f4 [128, 128]
00000000: da1a a13c 0820 25bd adad 163d 6bfe ae3b
00000010: f0dc e8bb 9d15 7b3d d363 6b3d 74d1 053c
00000020: 2190 8abd 5cb5 a9bd c10c 54bd 9cbe aebd
00000030: d5c4 aa3d 3309 973b 5d96 92bd cc9a 78bc
00000040: 7203 dd3c ff58 c1bc f8b6 86bc bba6 46bd
00000050: db13 9c3d 3fa5 993c efd9 9b3d 8461 cf39
00000060: 1a7e 5e3d b701 9ebd 4679 033d 2abe 67bd
00000070: ba09 893d 0d30 77bd a90c 78bd 2da1 82bd
00000080: 3286 9abd 975f a1bd 0fab 8abd 9147 8f3d
00000090: be75 23bc ecf7 163c 002f ae3d cedb 44bd
000000a0: a605 fdbc e257 92bd d3b3 803d 66e4 a1bd
000000b0: 75fc 74bd 5ef0 6ebc 78f3 083c 1a54 763d
000000c0: 654d c3bc 5a4a 1fbc abe6 003d 29a5 2a3d
000000d0: 7fdf ad3d 5ba1 8d3d 55f9 8fbd 0306 3c3d
000000e0: aad0 693d d706 b1bd 1347 323d 68b3 55bd
000000f0: a695 413d 51c9 c33c dda1 e8bb 598f 50bc
00000100: 8e5e 63bd 2cf0 81bd 04c1 c63c 9461 6e3b
00000110: 61db 6dbd 6eab 95bd 939a d63c b3f8 323d
00000120: cdfe 9d3d 00c9 54bd d5fe 29bd 5f87 3cbd
00000130: 6e17 093d 7119 b8bd 7cdc a5bd e556 73bc
00000140: 7ff4 24bd 6e23 593d bf2f 11bd 93e0 dd3b
00000150: 35f7 72bd 2f11 943d b636 883d bb7e b43c
00000160: b1fc 093d c032 a6bd 756f 81bd 4510 56bb
00000170: a8bc 54bb 5c04 023d 3999 f43c 650e 95bb
00000180: d132 0c3d 4846 86bc 2be1 433d 0a8a 82bd
00000190: f412 3e3d 1dd5 9e3d 6517 44ba 741a 463d
000001a0: ac51 83bd e563 f33a c6d4 d6bc 439c 39ba
000001b0: 8896 03bd f418 823d b8b1 17bd 1724 ea3c
000001c0: 8489 453d 429b a33d 5611 8e3d 85d1 55bd
000001d0: 11d9 69bc c13c 713d 4628 c33c ae2d 453d
000001e0: 9a76 ef3c 79e3 aabd 49db 273d 4d42 913d
000001f0: 2e60 2d3d 4a79 0fbd 1d95 9cbc ecca 19bd
00000200: 2ce3 bf3c 6cc4 2b3d 33cc 77bd a372 fb3b
00000210: c511 4ebc 9570 7e3d 38f7 4abc f367 56bd
00000220: f2ad 523d 75db 1dbd 0741 d0bb ce29 cebc
00000230: 2871 193d 9b2e 78bc c9df fb3c 3c89 73bd
00000240: 988b 2dbc 2721 ae3d d21b 49bd 33c3 60bc
00000250: 3251 56bb cfef 523c 030c 13bd 2d5f 0a3d
00000260: 3ff4 afbc 6508 2b3c ceac ad3d 504b 9f3d
00000270: d574 b8bc f575 3bbd 3f5c 55bd 5c2e 2ebc
00000280: dadc ee3b e453 f63c 280a fbbc 8d5b 2e3d
00000290: 3267 29bb 639f bb3c a01e b33d b4b5 603b
000002a0: 8864 953b ed7e c3bc 1687 893d a351 9ebd
000002b0: ecff 20bd b6a4 523c 849e 553d 1e66 adbd
000002c0: fef6 26bc 15a3 a03c 3f66 a33d 6127 283d
000002d0: 5669 a83d 956b 77bc 3947 a6bd d5c0 623c
000002e0: d774 753d f717 513b 87df 783c 0aac b53d
000002f0: cf7c a3bd 2831 953c 9c0c f93c e6e0 a43c
00000300: 6b0a a2bc c470 08bd 0831 503d 57ac de3c
00000310: 33a7 e13c 0e09 ccba e38b 5ebd 1599 1e3d
00000320: 07ff 34bd 13c0 61bd 7a24 19bd 662d 8cbd
00000330: 3cdf 91bd 5ffa a0bb a962 aebd 60b2 8b3d
00000340: 3376 86bd e674 013d 72fe 1d3d f193 07bd
00000350: b0f5 b23c aa77 ab3d 5188 a7bd 9ecb b93b
00000360: 8972 773d bffc ae3d b033 d53c e13f 9e3d
00000370: 2347 3abd 2ba8 a23d 670b 3f3c e3d4 6abd
00000380: cc07 693d f4dc 983d de87 97bd 3a07 433d
00000390: 0836 e63c 72c2 9c3d fb80 a9bd 2a3c 3b3d
000003a0: aa54 b83d 9c49 ccbc f2a2 ef3c fe96 99bd
000003b0: 3a64 c83c 9718 78bd d14f aabd 4705 2b3d
000003c0: d088 443d b132 583d 0b67 893d 29b3 a9bc
000003d0: a4be 8dbd e192 5e3d 1542 923d af7f 83bd
000003e0: e58c 9abd 288c 50bd 35d3 44bd 571e 773d
000003f0: 2c7f aabd 0c37 083d 93db 523c 1124 71bd
0.019666124 -0.04031375 0.036786724 0.0053403876 -0.007106416 0.06129991 0.057468247 0.008167613
-0.06765772 -0.08286545 -0.051769976 -0.085324496 0.08338324 0.004609251 -0.07157586 -0.015173625
0.026979182 -0.023602007 -0.016444668 -0.04849885 0.07620975 0.018755553 0.07609927 0.00039554772
0.05431948 -0.07715171 0.032098077 -0.05657784 0.06691308 -0.06034856 -0.06055895 -0.06378398
-0.07545127 -0.078795604 -0.06770908 0.06996072 -0.009976802 0.009214383 0.08505058 -0.048061185
-0.030886482 -0.071456686 0.06284299 -0.07904892 -0.059811074 -0.014583675 0.008358829 0.0601388
-0.023840616 -0.009722317 0.031469982 0.041661415 0.08489894 0.06915542 -0.07029978 0.04590417
0.057083763 -0.08643883 0.043524813 -0.05217305 0.047261856 0.023899706 -0.0070993737 -0.012729489
-0.055510096 -0.06344637 0.024261959 0.003637408 -0.058070544 -0.07308088 0.026196754 0.04369421
0.07714615 -0.0519495 -0.041502792 -0.046027537 0.03346961 -0.089892276 -0.08098695 -0.01485226
-0.040272232 0.053012304 -0.035445925 0.006771156 -0.059317786 0.0722984 0.0665106 0.022033086
0.03368825 -0.081151485 -0.06320087 -0.0032663506 -0.003246108 0.03174244 0.029858219 -0.004548835
0.03422815 -0.016390935 0.04782216 -0.06373985 0.046404794 0.07755492 -0.00074802927 0.04836507
-0.06412062 0.00185692 -0.026224505 -0.0007080475 -0.03212598 0.06352416 -0.03703472 0.028581662
0.04822685 0.079885975 0.069369 -0.052201767 -0.014272944 0.05889583 0.023822915 0.048139267
0.029231358 -0.08344168 0.04098061 0.07092724 0.042328052 -0.03502778 -0.019114072 -0.037547037
0.023423754 0.04193537 -0.060497474 0.007673578 -0.012577479 0.062119085 -0.012388043 -0.052345227
0.05143542 -0.03853937 -0.006355408 -0.025166418 0.03746143 -0.01514783 0.030746358 -0.05945705
-0.010592364 0.08502417 -0.049098797 -0.013718414 -0.0032702205 0.012874558 -0.035900127 0.033782173
-0.02147877 0.010439013 0.084802255 0.077780366 -0.022516647 -0.04576679 -0.052089926 -0.01063117
0.007289511 0.030069299 -0.030644491 0.04256778 -0.0025848863 0.02290315 0.08746076 0.003428799
0.0045591034 -0.023864234 0.06715219 -0.07730415 -0.039306566 0.012856653 0.052153125 -0.08466743
-0.010190723 0.019609014 0.07978486 0.04105318 0.08223216 -0.015101333 -0.081190534 0.01383992
0.05992588 0.0031905153 0.015190012 0.088707045 -0.0798279 0.018211916 0.03040152 0.020126771
-0.019780358 -0.033310667 0.05082801 0.027181787 0.027545547 -0.0015566663 -0.054332625 0.03872021
-0.044188526 -0.055114817 -0.037388302 -0.068445966 -0.07122657 -0.004912659 -0.08514912 0.06821132
-0.065655135 0.031605624 0.038572736 -0.033100072 0.021845669 0.083724335 -0.08180297 0.005670025
0.060411964 0.08544301 0.026025623 0.07727028 -0.045477998 0.07942232 0.011660433 -0.05733193
0.0568922 0.074640185 -0.073989615 0.047614314 0.028101936 0.07654275 -0.08276554 0.045711674
0.090005234 -0.024937443 0.029252503 -0.074995026 0.024461854 -0.060570326 -0.08316005 0.04175308
0.047982037 0.052782718 0.06709107 -0.020715313 -0.069211274 0.054339293 0.071415104 -0.06420838
-0.07546405 -0.050914913 -0.048052985 0.06033167 -0.08325037 0.03325562 0.012869733 -0.058872286

conv_block.0.lin_r.weight f4 [128, 128]
00000000: e6bb 073d 6277 a6bd 6c2f 3f3c 214b a93d
00000010: 2d69 b23d 921d cd3b aa0a 7f3d cb00 31bd
00000020: 9f4b a7bd 1245 89bd 5e21 13bd f234 a8bd
00000030: 37c7 5e3d 4489 8b3b a174 25bd b338 5fbd
00000040: 10fa 823c 321a 36bd 3ee4 10bd e5c3 36bc
00000050: 1079 9dbd 5d8b 7cbc 1aff b13d e1c7 8c3d
00000060: 925d 253c a422 8bbd 1f13 c63c 067b 4cbd
00000070: 1420 9bbd 4a59 2bbd 63c5 85bd e382 3c3d
00000080: b003 98bd a911 4bbc 8700 2e3c dba9 3ebd
00000090: e4e3 28bd 5847 1b3d 4281 8bbd 60a8 453d
000000a0: 5970 d6bc 4aab 92bd d698 22ba 75c7 8cbc
000000b0: c6a7 393b ee89 d0bc 0279 523c 35ad 003d
000000c0: 9464 703d e9c3 2dbd b82a ed3c 7cef 8f3d
000000d0: 7b15 923a 0f55 afbb 2bf7 543d 843f a4bd
000000e0: c6cf 7fbd 9131 b13d 0848 5d3c 4964 4fbb
000000f0: defc b3bd 9d2b 81bd dd9f ba3b dfd4 96bc
00000100: 6110 1c3d 33c9 88bd 9f62 0c3d c303 47bd
00000110: 6d26 03bd ff6c 853d 6df5 053d 3b94 6fbd
00000120: 7330 313d c4c1 d83c 89a5 c9bc ad5f adbd
00000130: f5cd 2e3d fe8b 463d 18d1 3f3d 8278 143d
00000140: 6d3d 153c 4640 90bd 5759 79bd 01e9 58bc
00000150: 357f e83c f913 96bb a075 33bd 0427 193d
00000160: cb8c 853c 91ea 81bd 6ebe 8f3d 44e2 3f3d
00000170: 87a3 903d 32cd c9bc df85 2e3d 28f5 833c
00000180: f6ca 973d 5d37 853d af81 893b 44ba 423d
00000190: 9e95 b6bc 7596 20bd d42d c63c 12b7 413d
000001a0: b316 4d3d 7ed5 3d3d fbea a53d 1192 583d
000001b0: ae65 3f3d a2b7 9abd 3768 86bd 4b64 f13c
000001c0: 5b80 7d3d 8c20 a03c 4fca b23c c0fb 163d
000001d0: c63c 3cbd ddca eebb 603a 5fbd fadc 1bbd
000001e0: 80ad dfbc 224b 30bd 3d18 c9bb 6a2d a4bd
000001f0: 7a3a 693d f61a 95bd 92eb 08bd c73f 55bc
00000200: 31d0 92bd d1bb ddbc dee9 993d f495 9bbd
00000210: 7ec8 883d d3ea 4dbd 84dd 92bd a99a 183d
00000220: 72d1 e13c 6284 753d f0b7 253d a71c 593d
00000230: 53d0 0a3d 25c2 8dbb aec4 853d 74d4 8bbd
00000240: fe23 acbd 54f5 14bd 8b1b 80bd 68b8 923d
00000250: 0f72 2f3d 1126 b43d a788 3dbd eb7d a53d
00000260: 5453 99bd 4fec 7cbd f776 ad3d 2b78 0d3b
00000270: a935 7c3c d298 10bd 2e42 f53c c01c 8cbc
00000280: 9121 913d 838e 473d cc09 41bb f402 0cbd
00000290: b73b 65bd a6da 143d 8fb3 8b3c 3c55 89bd
000002a0: 451b 02bd 3ea0 97ba 3f5d 893d d228 45bd
000002b0: 289d 8b3b 1c3e 51bd 1528 a13d 629a 1cbd
000002c0: ccb7 bfbc 576e 813d a5d6 8a3d bba4 403d
000002d0: e533 b33d e53e 70bd 1a99 1ebd 10d4 b33d
000002e0: 5e1d af3d a284 ab3d 1376 89bd bfb9 173d
000002f0: f756 b13d d88f 413d 69dc 5b3c c728 9c3d
00000300: b0f2 a03d ae9d 613d 845e 0e3d 6035 9dbd
00000310: 3620 adbd a5f9 d73c a2d5 90bd 0639 d23a
00000320: 5e17 f5bc 9d7f 823b 2558 27bd 6533 663d
00000330: b926 a13d afba 96bd ace8 9c3d cdc0 88bd
00000340: 999a 5fbd 0018 163d dcbb c7bc 09b7 8dbd
00000350: 5233 35bd e089 b83d 9b1f 75bd 5086 fabc
00000360: 44fc 4cbd cff2 183d befd 5f3d 0a87 1cbd
00000370: 017d 9c3b a667 98bb cea9 82bd 1098 4e3c
00000380: d831 dc3c 7a97 893d 7cc8 ac3d c037 3bbd
00000390: b931 c1bc 59bd c9bc 9c6b 6cbd 15d9 423d
000003a0: 872f fe3c 8a7d 5dbc 63f8 793d 4d40 8cbb
000003b0: c804 393d 1b4e 383d 8f35 a8bd fd28 8cbb
000003c0: 1b74 423d 3037 aabc edd1 36bc a0b4 3e3d
000003d0: e459 8bba be6b 3bbd c497 873d cf55 493d
000003e0: 58df 823c 8f7e 75bd 3c80 80bd d999 41bc
000003f0: e119 903b 143e 963d b697 3b3c 2b52 c03a
0.03313818 -0.08128239 0.011669021 0.08266283 0.08711467 0.0062596286 0.06226603 -0.043213647
-0.081687205 -0.06702627 -0.035920493 -0.082132235 0.054389205 0.0042583067 -0.04039443 -0.054497432
0.01598838 -0.044458576 -0.03537392 -0.011155103 -0.076891065 -0.015414086 0.08691235 0.068740614
0.01009311 -0.067937165 0.02417904 -0.04992201 -0.07574478 -0.0418332 -0.06531789 0.04602326
-0.07422578 -0.012394347 0.010620243 -0.046548706 -0.04123296 0.037909836 -0.06811763 0.048256278
-0.026176618 -0.07161577 -0.0006202584 -0.017184952 0.002832876 -0.025456395 0.012846233 0.031415183
0.05868967 -0.042423163 0.028951034 0.070281 0.0011145318 -0.005350716 0.05199353 -0.08019927
-0.062454008 0.08652032 0.013505943 -0.0031645468 -0.08788465 -0.06307147 0.0056953267 -0.018412052
0.038101558 -0.06679001 0.03427374 -0.04858757 -0.032019068 0.0651493 0.03270476 -0.058490973
0.043259095 0.026459582 -0.024615066 -0.08465514 0.042676885 0.04847335 0.046830267 0.036247738
0.009108883 -0.07043509 -0.060876217 -0.013239146 0.02838097 -0.0045800176 -0.043813348 0.037390724
0.016302487 -0.06343568 0.070187435 0.046846643 0.0706244 -0.024633978 0.04260814 0.01610811
0.074117586 0.065047 0.0041963677 0.047540918 -0.02228814 -0.039205987 0.024191774 0.04729373
0.050070476 0.04634618 0.081014596 0.052873675 0.04672783 -0.075545564 -0.06562846 0.029466769
0.061889987 0.01954677 0.021824984 0.03686118 -0.045956396 -0.007287367 -0.05449903 -0.038052537
-0.027304411 -0.043040402 -0.0061369226 -0.080164745 0.056940533 -0.07280533 -0.033427782 -0.013015694
-0.071686156 -0.027067097 0.0751531 -0.07596961 0.06678866 -0.050272774 -0.07171157 0.03725687
0.027565692 0.059940703 0.04045862 0.05300584 0.03389008 -0.0043261223 0.06531654 -0.068276316
-0.084053025 -0.036366776 -0.062552534 0.07164079 0.042833384 0.08796323 -0.0462729 0.080806576
-0.07486597 -0.0617488 0.08469956 0.0021586518 0.015393653 -0.03530199 0.029938783 -0.017103553
0.070864804 0.048719894 -0.0029455302 -0.034182504 -0.05596515 0.036341332 0.017053394 -0.0670571
-0.031764288 -0.0011568142 0.067072384 -0.048134632 0.004260678 -0.051084623 0.07868973 -0.03823317
-0.02340307 0.06319874 0.067792214 0.0470321 0.087501325 -0.05865373 -0.038720228 0.08780682
0.08550523 0.08374907 -0.06711974 0.037042376 0.08659165 0.04725632 0.013419249 0.07624965
0.07858789 0.055082016 0.034758106 -0.07676196 -0.084534094 0.026364157 -0.07071997 0.0016038723
-0.029918369 0.003982498 -0.040855546 0.056201357 0.07868714 -0.07359826 0.07661566 -0.06677399
-0.054590795 0.036643982 -0.02438157 -0.06919677 -0.044238396 0.090106726 -0.059844594 -0.030581623
-0.050045267 0.037340935 0.054685347 -0.03821472 0.004775644 -0.0046510277 -0.06380044 0.012609497
0.026879236 0.06718345 0.08436677 -0.045707464 -0.02358328 -0.02462642 -0.05771981 0.047570307
0.031028522 -0.0135187 0.061027896 -0.004280126 0.045170575 0.044996362 -0.082133405 -0.004277347
0.047474008 -0.020778269 -0.011158449 0.046558976 -0.0010631648 -0.045757048 0.06620744 0.0491541
0.01597564 -0.05993515 -0.06274459 -0.011816465 0.0043976163 0.07336059 0.011449745 0.0014672925

conv_block.1.lin_l.weight f4 [128, 128]
00000000: ae97 babc ac0c ba3d 9635 70bd 9b97 9cbd
00000010: bbc9 2fbb 241f 4e3d aec1 373d d379 173d
00000020: bff7 7c3d 0171 b83d d990 6ebd a927 8fbd
00000030: e1fb 8a3d 62fc 3e3d 70f1 3b3d a71a d43c
00000040: fc96 763c 6b65 74bb de1d edbc 1cc9 5b3d
00000050: a919 6ebd ed99 783d 910f 96bd 0684 8b39
00000060: 72cc 973d 8d9a 18bc 136c a0bd 5626 04bd
00000070: 5e98 593d 1bf3 a53d 0aad 92bd ce65 a7bd
00000080: e85e b1bc df6c 563d 0907 733d 7997 3e3d
00000090: 01fc 8fbd c383 533d 4584 3b3d 28a5 683d
000000a0: d9cb 1cbc 48e4 5fbc dde6 5b3d a601 52bc
000000b0: 3702 e6bc 255f 253c 4ffe ae3b f011 853d
000000c0: 0445 583c 09be a4bc 9298 a13d e9d1 33bd
000000d0: 712c b03c ae8e e53c a100 ac3d 811a aabd
000000e0: b7ba 163d 55e0 033d 7930 a83d 4577 57bd
000000f0: e477 f8bc 6354 633c 2f8b ba3d b857 a0bb
00000100: beca 92bd 98bc b23c 242b 0e3d 0842 8a3d
00000110: 332e c8bc 4a50 92bd 0708 b1bd 6db6 a33d
00000120: b281 2abd 90f7 14bd 59f3 08bd 711b 5abd
00000130: 2852 9f3d ac89 90bc 4a22 eb3b 2f66 40bd
00000140: 73ed a93d b200 88bd 5488 acbc 46a4 b9bd
00000150: 7e6f 9e3d 3b5f 1d3d 31de cbbc 35f8 893d
00000160: 49cf 383d a7e0 053d 0abb 8f3c cc20 933d
00000170: 92cd ffbc 6d83 8b3d 8beb 953c 107c 80bd
00000180: 5de7 4dbc b720 b7bd 1d2f aa3c 5746 9cbd
00000190: aac8 6dbd d37b 223d d87e 463d 51b4 92bd
000001a0: 2f06 96bd 5fe5 693d 4cf8 803d 74d2 063d
000001b0: 07b4 11bd dd31 7ebd 74d0 163c 5250 6f3c
000001c0: 1e9d 82bd 3d18 7d3d 8d5b af3c 4c41 8fbd
000001d0: 7882 af3d c08c 9fbd b100 1abd fbc0 8f3d
000001e0: 63e1 b63d 1fbf 353d c9bb 55bd ee03 02bd
000001f0: c75b 2dbd 1be4 22bd f457 a23d 3995 193d
00000200: 9c2b 61bd e7a4 b8bd 3b21 86bb df86 853c
00000210: dd11 8dbd 88b2 84bd e1fd a03d cebe 7e3d
00000220: c830 6b3d 435a 28bb e5d8 9c3c afbe 3cbd
00000230: a46a 68bd fc23 9f3d ede4 7fbc dbe9 7dbd
00000240: b128 bb3c beea 823d 0d83 863d f9be f43c
00000250: 8075 2b3d 781f 9c3d ea70 ea3c 21a9 e23c
00000260: 006b b1bd 2ab5 11bd 9c75 e23c 9dd2 29bd
00000270: fc5f 3cbd 8358 463d 35f2 403d 2dd4 74bd
00000280: ebd4 113d 1557 613d b7d4 34bd 994d 323d
00000290: 9838 2a3d 6df4 323d a518 9cbb cf6b aabd
000002a0: fc8d 4d3c d896 4fbd 41fc 493d 9059 e7bc
000002b0: 38c5 01bd 4c5d 92bb e391 9a3d fcb7 4839
000002c0: bd9e 03bd b38b 73bd 5160 b0bd 1ce9 bf3b
000002d0: 25bb 57bd dd8d 74bd 726b 24bd 04d0 8fbd
000002e0: a2af 42bd c759 5d3d c03c 003d 1b5b 2f3d
000002f0: c062 85bd 68f6 5abc 200b 433d 5b5b c93c
00000300: 12b2 e53b 4292 9a3a 15a1 ba3b e0f2 853d
00000310: 8d3f e53c dd02 4a3d 3b76 3c3d 8f76 64bb
00000320: 7f0e a13d 652f 3abd 0aec 0d3d 2c55 89bd
00000330: 7925 42bb 7564 95bd f9dd e33c 079e 2ebc
00000340: 13fb 9abd 1a2b 1b3d 9868 12bd c5e3 a7bd
00000350: d1f8 373d 40dd a5bd 8870 1b3d 117a fc3a
00000360: aadd a2bd e206 9cbd 8724 423d b869 663d
00000370: ebc7 993d 17df a93d 36dd b23d e90b 8e3d
00000380: 1267 83bd 674b 8bbd 2456 423d adba 913d
00000390: 02e6 28bc d37a aebd 18eb ad3d 53f8 943d
000003a0: 3d30 c43c 4feb 22bc c4dc 21bd 45b6 3b3d
000003b0: 1537 a2bd 0d11 f5bc 1dd9 cd3b ae0a a13d
000003c0: a9c2 d5bc 297e ad3d e034 5a3d b80e aebd
000003d0: 9e91 59bd 4eb6 aebd b326 0dbd 55b9 85bd
000003e0: 7728 62bd fa12 5dbd bbfb 6a3d 6173 7a3d
000003f0: 4692 113d 5cfe 373d 5282 d93c 4c48 0fbd
-0.022777405 0.09084448 -0.058644854 -0.07646104 -0.0026823122 0.050322667 0.04486244 0.036981415
0.061759707 0.09005929 -0.058243606 -0.069899864 0.06786323 0.04662741 0.04588455 0.025891615
0.015050646 -0.0037291895 -0.028944906 0.05365859 -0.05812994 0.06069367 -0.07327188 0.0002661051
0.07412042 -0.0093141915 -0.078331135 -0.032263122 0.053123824 0.08103009 -0.07161911 -0.081737146
-0.0216517 0.05234992 0.05933288 0.046531174 -0.07030488 0.05163933 0.04578044 0.05679813
-0.009570085 -0.013665266 0.053686965 -0.012817776 -0.028077228 0.010093485 0.0053403745 0.06497562
0.013200048 -0.020110147 0.078904286 -0.043901358 0.021505566 0.028022137 0.083985575 -0.083058365
0.03679916 0.03219636 0.082123704 -0.05260398 -0.030330606 0.0138751 0.091085784 -0.0048932694
-0.07167576 0.021818444 0.03470911 0.06750876 -0.024436092 -0.0714422 -0.08644109 0.07993779
-0.041627593 -0.036368906 -0.0334352 -0.053248826 0.07779342 -0.017643772 0.0071757184 -0.04697245
0.08297243 -0.066407576 -0.0210611 -0.09064536 0.07736109 0.038420897 -0.024886223 0.06736795
0.045119558 0.03268495 0.017545242 0.0718399 -0.031225953 0.06812177 0.018300792 -0.06273663
-0.012567368 -0.08941787 0.020774418 -0.07630604 -0.058052696 0.03966887 0.04846081 -0.07163299
-0.07325398 0.05710351 0.06297359 0.032915547 -0.035572078 -0.062059272 0.009204973 0.014606552
-0.06377624 0.061790694 0.02140596 -0.06994876 0.08569807 -0.07790518 -0.037598316 0.0701923
0.08929708 0.04437172 -0.05218104 -0.03174203 -0.042323854 -0.03976832 0.07926932 0.037495825
-0.05497323 -0.090158276 -0.004093317 0.016299663 -0.06888173 -0.06479365 0.078609236 0.062193684
0.05741957 -0.0025688566 0.019146392 -0.046080288 -0.056742325 0.07770535 -0.015618545 -0.0619906
0.022846552 0.0639243 0.06567965 0.02987622 0.041860104 0.0762319 0.028618295 0.027668538
-0.08662987 -0.035573162 0.027643971 -0.041460622 -0.045989975 0.048424255 0.047105987 -0.05977266
0.035603445 0.05501469 -0.044148173 0.043531034 0.04155788 0.043690134 -0.00476368 -0.08321344
0.012546059 -0.050680965 0.049312834 -0.028240949 -0.031682223 -0.0044666883 0.07547357 0.00019142026
-0.032133806 -0.0594594 -0.08612121 0.005856646 -0.05266871 -0.059705604 -0.04014153 -0.07022098
-0.047530778 0.054040696 0.031307936 0.042811494 -0.06512976 -0.013364412 0.04761803 0.024579694
0.007009753 0.0011792856 0.005695472 0.06540465 0.027984405 0.049319137 0.04601119 -0.0034860705
0.07864093 -0.045455355 0.034648933 -0.06705698 -0.0029624386 -0.07294551 0.027815806 -0.010657794
-0.0756742 0.0378829 -0.03574428 -0.081977405 0.044915024 -0.08098841 0.037949115 0.0019262453
-0.07952435 -0.076185 0.047398116 0.056253165 0.075088345 0.08294504 0.08733599 0.069358654
-0.064161435 -0.06801491 0.04744543 0.07115684 -0.010308744 -0.085195206 0.08492106 0.072739266
0.023948783 -0.009943797 -0.03951718 0.045828123 -0.07920662 -0.029915357 0.0062819854 0.07863365
-0.026093798 0.08471329 0.05327308 -0.08498901 -0.053117387 -0.085308656 -0.034460735 -0.0652949
-0.05521437 -0.053973176 0.057368975 0.06114519 0.035539888 0.04492031 0.0265514 -0.034981057

conv_block.1.lin_r.weight f4 [128, 128]
00000000: 723e a6bd 0437 7d3d 49ad 2fbd 789f 883d
00000010: 51c1 7ebd c3d8 613d 18ee b73c 6acc 713d
00000020: bb78 e03c a73c b83d ab2f 80bc 0171 6e3d
00000030: a4ef 93bd 9430 69bd 8f31 a6bd d440 3c3d
00000040: b5f4 a0bd bb01 8fbc b486 b83c 604b 21bd
00000050: aabd 1dbc a8fb 8d3d 1cfe f63c eb65 d9bc
00000060: 5eb8 6c3d 84af ab3c 6cfb 4cbc 10b7 8b3d
00000070: c1b9 2a3d e5fe 983c ff0a 4a3d 5f02 683d
00000080: 5c16 ac3d c178 49bd ad62 a7bd 5509 afbc
00000090: 6b96 cfba 2439 253d d8db 7fbb de81 233d
000000a0: 50cd fbbb 43ab 603c ab29 1a3d 242e 9bbd
000000b0: 6f89 4b3c 9535 b3bc 6fcd 3a3d 2bb7 2f3c
000000c0: 9cbe aebd d019 8abd 0951 a6bd 5210 f23b
000000d0: fb36 8e3d 18de 3d3d 45a6 aebd 3301 56bd
000000e0: d201 ed3c 87d7 633d 1f7a b8bc f891 483d
000000f0: bc75 4e3d a9de 033d 67b3 6f3d f05b c2bc
00000100: 7fc1 73bb 3d5c 81bd 692c 0c3d 7d09 acbc
00000110: d5db 9a3c b8a1 0dbd 52ed 003d 291d 2fbc
00000120: 95e3 a13c 46dc 88bd 0131 503d 6da8 92bc
00000130: 4f60 dd3b 0f83 8cbd 0aef 943d 4aa3 98bd
00000140: d2c6 7fbd 6d4e d33c af45 b8bd 47ca 26bd
00000150: 4a2e 963c 4040 43bd 9156 7ebd 3f54 3c3d
00000160: 2c08 a0bd c904 923d 7846 dc3b e5df b8bc
00000170: 601c 3eb9 e50e d2bc 7a0e e73b 7d5e b53c
00000180: 7f59 a93d 3c24 94bd cc18 6fbd 2b0c 46bc
00000190: 5db4 5ebd 436f 98bd 693a 7fbd da35 24bd
000001a0: 99a5 173d 55ca a4bd 7efb 92bd 45b8 643c
000001b0: 513c 55bd ac6d b13d 5e96 bb3d 5d1a 963d
000001c0: a1d6 a43d 8f4c 923a 8526 4dbd 3361 2bbd
000001d0: 9888 53bd 4d42 003d dabc 21bd 37eb 71bd
000001e0: 5000 97bd 1290 74bd 9239 733c ae03 173d
000001f0: 2682 7ebd 7c06 463c e2c7 043d 4bee b23d
00000200: 2f81 69bd bd22 b1bd 148e 923d cb17 b4bc
00000210: 4555 003d 775c 99bd a833 8abd dadc b23d
00000220: e000 883a 7fa2 393d bef9 30bd deeb a43d
00000230: b72e 9fbd a20b 853d 3f6a 873d b42d 2dbc
00000240: 7867 0f3d 9586 81bd 6ae5 b6bc 83b6 9a3d
00000250: f8ce 6a3d e2a1 643c c522 563d 4d24 dc3c
00000260: e62f 16bd f174 c33c f32e 9cbd 0b99 5cbd
00000270: d33e d0bc 5d14 a2bc ac17 3abd d72d 843d
00000280: 00f4 23bd d468 dd3c dcdd 3e3d 5dde b3bd
00000290: 435f 873d e8b5 e0bc e3e0 9abd 53d5 ac3d
000002a0: c929 6e3d 15f3 85bd c64c fbbc 7871 9cbd
000002b0: 65a8 173c 3724 77bd 359d 3cbd d035 b9bd
000002c0: 9e65 27bd 0adf b4bb 46cb 81bd 5596 60bc
000002d0: ce32 f9bc ff09 ee3c 38e4 8dbb 0b0d babc
000002e0: dc85 83bd e3de f0bc fe64 853d 47db b2bd
000002f0: a532 263d c176 183c 0c44 1d3c 95e7 b2bc
00000300: 09e9 83bd 45c9 493c 426f 0f3c 712a 8ebd
00000310: 2509 953d 4a79 a6bb 3946 2d3d cc08 3a3d
00000320: 0e5f 2a3d 08fc 7ebb 38f2 b1bb 9bb8 853d
00000330: bc77 3d3d 8d3a 483d 9990 a9bd 01ec 683d
00000340: cfac 8e3b 0bb1 973c 4553 b63c 9875 2cbd
00000350: 65a1 2a3d 235b 533d b7f7 54bc 5f14 6cbc
00000360: f66a a9bd ced5 22bb cb37 ae3d 0322 9d3d
00000370: 1f6b d73a 4c36 843c af83 40bd 8e76 b5bb
00000380: 27b4 883d e6b2 28bd 8f15 123c e8e1 b33d
00000390: a779 7e3d 50ab cebb 96b4 833d 12ca e43c
000003a0: 36d1 073d 043a 4e3d 4fa6 a13d fea5 4c3d
000003b0: cbc9 53b9 ac06 b3bd b293 423d 05e2 f2bc
000003c0: 9d47 87bc f77f 993b 72c3 9e3d 7761 8fbd
000003d0: 1251 0b3c b4a3 b3ba 9a05 01bd 5f0f b2bd
000003e0: e736 823d e025 54bd 45ba 4c3d 5b7d 62bc
000003f0: 735b de3b 841e 9fbd 16dd 60bd e9f2 dfbc
-0.08117379 0.061820045 -0.042889867 0.06671041 -0.06219608 0.05513836 0.0224524 0.059032835
0.027401319 0.089959435 -0.01564773 0.058213238 -0.07223442 -0.056931093 -0.08114921 0.045960262
-0.07859174 -0.01745688 0.022525169 -0.039378524 -0.009627739 0.06932765 0.030150466 -0.026537856
0.057793014 0.020957716 -0.0125111155 0.06822026 0.041681055 0.01867623 0.049326893 0.056642886
0.08402702 -0.049187426 -0.08173118 -0.021366755 -0.0015837675 0.040337697 -0.003904095 0.039918773
-0.0076843873 0.013712707 0.037637394 -0.0757716 0.012422903 -0.021876136 0.045606073 0.010724823
-0.085324496 -0.067432046 -0.08120925 0.0073871994 0.069440804 0.046354383 -0.08527807 -0.052247237
0.028931532 0.055625465 -0.02251917 0.04896733 0.05040525 0.032194767 0.0585207 -0.02372548
-0.003719419 -0.06316421 0.03422204 -0.021000618 0.018903652 -0.034578055 0.031476326 -0.010688105
0.01976184 -0.06682639 0.050827984 -0.017902577 0.0067558656 -0.06860935 0.072721556 -0.0745302
-0.06244547 0.025794232 -0.08997666 -0.04072025 0.01833262 -0.047668695 -0.062094275 0.04597878
-0.07814059 0.07129819 0.0067222677 -0.022567699 -0.00018130383 -0.025641868 0.0070512863 0.022139782
0.08269023 -0.07233474 -0.058373258 -0.012087862 -0.054371227 -0.074430965 -0.062311564 -0.04009042
0.03702316 -0.08046404 -0.071768746 0.013959949 -0.052059475 0.086634964 0.0915954 0.07329247
0.0804875 0.0011161732 -0.050085563 -0.041840743 -0.051643938 0.03131323 -0.039486744 -0.05906221
-0.073731065 -0.05970771 0.014845269 0.036868744 -0.062135838 0.012086507 0.032417186 0.08736857
-0.057007965 -0.08649204 0.071560055 -0.021984002 0.03133132 -0.074883394 -0.06748134 0.0873353
0.0010376237 0.045320984 -0.043206923 0.080528006 -0.07772582 0.064963594 0.06612062 -0.0105699785
0.035010785 -0.063244976 -0.02232619 0.075543426 0.057326287 0.0139546115 0.052279253 0.026872778
-0.036666773 0.023859473 -0.07626142 -0.05385689 -0.025420582 -0.0197851 -0.04543273 0.06454056
-0.04002762 0.027027525 0.0465983 -0.08782647 0.066099666 -0.02743049 -0.07562425 0.08439126
0.05814532 -0.06540505 -0.030676257 -0.0763883 0.009256457 -0.06033727 -0.04604836 -0.09043467
-0.040868394 -0.0055197524 -0.063375995 -0.013707717 -0.030419733 0.0290575 -0.0043301843 -0.022711297
-0.06422016 -0.029403156 0.06513403 -0.0873323 0.040575642 0.009305657 0.009598743 -0.021838943
-0.06440932 0.012316053 0.008754553 -0.06941689 0.07277135 -0.0050803768 0.042303298 0.045418546
0.041594557 -0.0038907547 -0.005430486 0.06529351 0.046256766 0.048883963 -0.08279533 0.056865696
0.0043540965 0.018517038 0.022256503 -0.042104334 0.041657824 0.051600587 -0.012998513 -0.014409154
-0.08272354 -0.0024846676 0.085067354 0.07672503 0.0016435123 0.016139172 -0.047000583 -0.0055378145
0.06674986 -0.041186236 0.008916273 0.087833226 0.062127735 -0.006307043 0.064309284 0.027928386
0.033158503 0.050348297 0.07893049 0.04996299 -0.00020197702 -0.08741507 0.047504134 -0.02964879
-0.01651364 0.004684444 0.07752122 -0.07001012 0.008503215 -0.0013705404 -0.031499483 -0.08694338
0.06358128 -0.051793933 0.049982328 -0.013823832 0.006785804 -0.07769492 -0.054898344 -0.027337508

conv_block.2.lin_l.weight f4 [128, 128]
00000000: e433 983d 3a85 4dbc a80f dfbc 31fe 9dbd
00000010: 5688 ba3c 3f84 143d a1fa 9abd 85e8 0abd
00000020: 226a 10bd 8ceb 563d 4348 a4bd 7816 943d
00000030: ecbd b0bc 745b 6d3b 4d8e 04bd 3a0b a53d
00000040: ea57 78bd 78f4 92bd 6bc4 873d 5a68 a03d
00000050: f4c0 d2bb 57b0 6a3d ac3a 9ebd c1c8 95bc
00000060: 81b6 8bbd 59bc 3f3d f947 adbb 8c65 32bd
00000070: eea0 76bd bd25 cb3a 6c9f 84bd 2d51 84bc
00000080: 43db 40bd f47e 653d f30c 60bd 91f5 9cbd
00000090: 4bc2 08bd 3da2 9f3d 8664 96bd 01a8 a1bd
000000a0: 72d8 30bd e21b 693b d369 cd3c 8bd5 84bd
000000b0: 281b babb 4330 1a3d 476c babc 097e 183d
000000c0: 8298 efbc 6ea9 a83d 23f1 2fbd 9d35 23bd
000000d0: b437 8dbd 72d4 9d3d b63a eabc f28a c0bc
000000e0: 2f23 a0bd 89da 0a3d e7b1 903c 34f9 d2bc
000000f0: 25da 92bd 4da8 c23b 00a8 9abd b88b ae3c
00000100: bffd a1bd 2ee3 573d b791 303d 4a51 6b3d
00000110: da44 4fbc 0f4f 7f3d 7a3b 7ebd f08c 5abd
00000120: d98a 793d 4151 993d 5c0d 5e3d a2ca 66bd
00000130: b02c 3c3d 5ffc 8abd 591d 9dbd 2e56 44bc
00000140: d9de 923d 8947 aa3d d8a3 473d f274 b0bd
00000150: 1470 74bd 89f2 053d 5045 3d3d a751 af3d
00000160: aab0 793c aa65 2d3d b352 02bd 3582 66bd
00000170: 63e9 68bd ba58 6dbd 9459 abbd 657f 643d
00000180: b370 90bd a7cd 4dbd 2717 6cbd 4c4d 513d
00000190: 0ad5 a63d 151c 3e3a 643c 073c a261 933c
000001a0: 69a3 b33d f920 51bc 4761 01bd 7c17 973d
000001b0: 2213 50bd 7507 7d3d 90da 203c 3666 2abd
000001c0: 0a1d 973d 5e7d 47bd 56ae f73c 9453 253d
000001d0: 7023 363d e2a2 2abd 719a 02bc 8112 5abd
000001e0: 8efd 9a3c 2c4f 91bd bca7 943d 0337 963c
000001f0: 7d4c 24bd c7c3 853c 4c7e 88bd 680a a03a
00000200: 61a4 183d 28fa a63d a6eb e239 8ef0 363d
00000210: 120b 2fbd 354a f7bc bdee 24bd 9806 01bd
00000220: 072f 5c3d 87ee 52bd 98db b2bd 0489 a6bc
00000230: c7c9 07bd 8213 aebd 7608 7d3d b068 08bd
00000240: f026 583d e9ca 8ebd b77e c43c 99cd 29bd
00000250: 115f f7bc 2976 3cbd afd6 61bd 29db 133d
00000260: be4a dd3b 1268 a0bd 9e66 b03d cc19 863d
00000270: 8986 333d f978 96bd 4159 8cbd 8199 2d3d
00000280: a23c 8fbd b67c 71bd 80e3 5fbd fdae 2c3d
00000290: b1b5 ea3a 4a19 acbd 21d4 fdbc ad02 92bd
000002a0: 90a1 dd3c 95aa 95ba c61e 06bd 9674 4cbd
000002b0: cbd5 e73c 66b4 9cbd 3d0d f83c fd47 033d
000002c0: e680 97bd 3fd5 07bd ed05 7cbc db44 283c
000002d0: 2b92 d33b a68e a239 9893 d5bc 963d 98bd
000002e0: 58fe 033d 3cea 233c 39fa 95bd 9851 613d
000002f0: 3056 d13c 99e6 6fbd 7818 d5bc b64c f6bc
00000300: be3c f93c 7f49 973c 5b3f 47bd 3308 94bd
00000310: e4a2 9a3d d165 89bd 0098 873d 2458 53bd
00000320: c168 923d 4f59 8cbc ae5d 1abc d247 253d
00000330: b4fb b43d ce7c 8f3c ef6b 653d 81e5 b03b
00000340: 87bf 973d cf5d 8e3c 4205 9c3d ee10 abbd
00000350: 1871 4e3d 4e31 0ebd 2745 0d3d 116d 943c
00000360: 0417 0dbb cd6c 3e3d 1b24 55bd 7286 983d
00000370: ee7a da3c bee6 383d 2452 a53d 70ba 043d
00000380: 7f16 a73d 105b ab3d ea51 e3bb 2cbb 9a3c
00000390: 244a b23d d75a 39bc 25e5 48bd 2d2a 0abd
000003a0: 3f8a 0ebc 20d7 a1bd f023 a9bd ee32 10bd
000003b0: b297 59bd cb97 8a3d 0bdd 8dbd 1a26 38bb
000003c0: 5bd9 adbd 201e 73ba 1f42 82bd 8e5b 603d
000003d0: eca1 1dbd d0e1 083d 7dd0 863d fe5e 953d
000003e0: 2bca 5fbd 817b 17bc 5424 dbbc fdc5 8cbd
000003f0: 46c0 383d 55da 003d 5427 a8bd 51e6 463c
0.07431772 -0.012543971 -0.027229145 -0.07714499 0.022770088 0.036258932 -0.07567335 -0.033913154
-0.035257466 0.05247073 -0.08021595 0.07230848 -0.021574937 0.003621784 -0.03236227 0.08058782
-0.060630716 -0.07175535 0.06629261 0.078324035 -0.006431693 0.057297077 -0.077260345 -0.018284203
-0.06821919 0.04681048 -0.005288121 -0.043553874 -0.06021207 0.0015498918 -0.0647572 -0.016151989
-0.047084104 0.056029275 -0.05469985 -0.076640256 -0.033388417 0.07794616 -0.07343392 -0.07893372
-0.04317517 0.0035569598 0.025074875 -0.064860426 -0.005679507 0.037643682 -0.022756709 0.03722957
-0.029247526 0.08235441 -0.042954575 -0.03984605 -0.0689539 0.07706536 -0.028592449 -0.023503754
-0.07819211 0.033899818 0.017662955 -0.025753595 -0.07170514 0.005940473 -0.07551575 0.021306857
-0.07909726 0.05270689 0.043107715 0.05745057 -0.012650693 0.062331256 -0.06206844 -0.053357065
0.06092343 0.07486201 0.05421196 -0.05634559 0.045941055 -0.06786417 -0.07671613 -0.011983437
0.07171411 0.083144255 0.048740238 -0.086160555 -0.0596772 0.032702003 0.04620868 0.08560496
0.015239874 0.042333283 -0.03181715 -0.05627652 -0.0568632 -0.057945944 -0.08366695 0.055785555
-0.07052746 -0.050244953 -0.057639267 0.051099107 0.08146103 0.00072521094 0.008254144 0.01799089
0.087714024 -0.012764209 -0.03158691 0.07377526 -0.050799496 0.06177469 0.009817734 -0.041601382
0.07378586 -0.048703544 0.030234497 0.04036291 0.04446739 -0.041659243 -0.007971392 -0.053240303
0.018919732 -0.07095179 0.07258555 0.018336779 -0.040112007 0.016328705 -0.06664714 0.0012210133
0.03726614 0.08153182 0.0004328165 0.044663005 -0.042735167 -0.030186752 -0.04026674 -0.03150043
0.053755786 -0.05149701 -0.087332904 -0.020329006 -0.033151414 -0.084998146 0.061775647 -0.033302963
0.05277151 -0.06972296 0.023986204 -0.04145584 -0.030196698 -0.046011124 -0.05513638 0.03609768
0.0067532947 -0.0783235 0.08613323 0.06547889 0.043829475 -0.073472925 -0.06852961 0.04238272
-0.06993987 -0.058956824 -0.05466032 0.04215907 0.0017906931 -0.08403261 -0.03098494 -0.071294166
0.027054578 -0.0011418635 -0.03274419 -0.049915873 0.028300187 -0.07651596 0.03027975 0.032051075
-0.07397632 -0.03316235 -0.015382272 0.010270323 0.0064566336 0.0003100533 -0.026071355 -0.074336216
0.032224983 0.010004576 -0.07323117 0.055009454 0.025553793 -0.058569524 -0.026012644 -0.030065876
0.030424472 0.018467663 -0.048644405 -0.072281264 0.075506 -0.06708873 0.066207886 -0.05159773
0.071488865 -0.01713243 -0.009421749 0.040351696 0.08837071 0.017515566 0.056011137 0.0053984527
0.07409578 0.017378716 0.0761819 -0.083528385 0.050400823 -0.03471499 0.034489777 0.018118413
-0.002152861 0.04649048 -0.052036386 0.074475184 0.026669946 0.045141928 0.08072308 0.032404363
0.08158588 0.08366978 -0.006937255 0.018888079 0.087055475 -0.011313162 -0.049046654 -0.03373163
-0.008699953 -0.0790236 -0.08258808 -0.03520482 -0.053123184 0.067672335 -0.06926926 -0.0028098882
-0.08488723 -0.00092742033 -0.06360268 0.054774813 -0.0384845 0.033418477 0.06582735 0.07293509
-0.05463616 -0.009245754 -0.026750721 -0.06873701 0.04510524 0.031458218 -0.08210626 0.012139873

conv_block.2.lin_r.weight f4 [128, 128]
00000000: 13ab 223d 2ce1 a03d a32d b3bb 9e7e 193c
00000010: f5da 403d fb6d 98bc e314 d6bc b253 223c
00000020: 8405 d03c 9ab1 80bd 5519 893b 6e16 983d
00000030: ff39 163d 4f92 98bc fa54 ae3d f152 a2bc
00000040: 0112 fd3c 711d 85bb 0b05 213d 6e02 8b3d
00000050: f0c2 6d3c 4ff8 00bd 693f 54bd 189f ae3d
00000060: b12c 98bd 7a48 a7bd 2fc2 923c ca48 eb3c
00000070: 5831 ad3d 2a3e 25bd a2bb fd3c fc31 7cbc
00000080: 8110 04bc ade4 cdbc fd72 443d 5632 35bc
00000090: ced5 ccbc 97bc 65bc aeec f0bb e1fd 06bd
000000a0: 80e1 a3bd 551d 7fbd e571 8e3d 3019 20bd
000000b0: 1aa6 e0bc 0bf2 25bd f526 813d e436 7cbc
000000c0: 056a 0f3c b889 863d 9072 233b 89eb 6f3d
000000d0: 24f3 8a3d 7da1 233d 6dce 08bd 01e3 9e3d
000000e0: 8846 25bc 1315 323c efdf 27bc cccc 0cbc
000000f0: 5aef 92bd aad3 bbbc 5f0c 653d 8eb0 a03c
00000100: 8750 0ebd beb8 33bd d14a 8c3d 774c 41bd
00000110: 14df 82bd f1fb 5dbd 86c2 65bd 036b 1a3d
00000120: 6235 46bd 244f a5bd fde6 993d 7990 3bbd
00000130: 6af4 ca3b d412 9a3d 758b 6fbd b04a 8dbc
00000140: da72 26bd 7ccd 30bd d5b4 8bbd d8ea 93bd
00000150: 5aec 9b3d f687 753d 3a4f 0ebd 607c fdbb
00000160: dcc7 57bd 3b15 2e3d 08d2 a53d c6af 61bd
00000170: a47e b23d fbcf b7bd 58bc 883d 27a1 54bd
00000180: 69bb aabc 5718 a73d 7a17 8737 eef1 a13d
00000190: 5f96 933d eab9 6c3d 0b6e 363d 5bd5 8bbc
000001a0: e73c 733d 5836 623d 2c34 b9bc 846c 743d
000001b0: d657 8ebc a0e8 6a3d e6a8 c9bc 0479 4f3d
000001c0: dd53 49bc 1e00 4f3c c4f7 8abd cc2b 023d
000001d0: 2cb7 adbd 65bb 153c 7125 f43c 98a3 853d
000001e0: cbe8 333d 203d a63d 54e1 a23c f544 2d3d
000001f0: c951 983d e1a6 733d 1a5e 7a3d 91c0 5b3c
00000200: 30b8 c0bc 3a1b 7c3b d793 0d3d b1ca 143c
00000210: 6d2d 80bd 29f0 6ebd 00e1 163a 71a3 7cbd
00000220: 3f04 9fbd 9ca6 5bbd 7890 95bd a02f 623d
00000230: 5b42 b13c c7e5 8fbd c8af 70bd f9a0 f5bc
00000240: 22bd aabd 9b62 81bc 803f 9fbd 631e 6dbd
00000250: f9b3 7c3d 1ed9 89bd d98d 4dbd 7fd8 bbbc
00000260: a125 89bd d0e8 b33d 6828 0fbd 6f61 95bd
00000270: f2c8 293d 3a22 953d df6f edbb 9c2b 81bd
00000280: 5850 353d f887 5e3c f8b8 0c3b e153 89bd
00000290: d625 b1bd ebdc 6dbd e7b2 89bd 92d5 91bd
000002a0: e367 80bd c73a 0dbd d0a3 57bd 0613 863d
000002b0: 71ef 18bc 112d ccbb d384 093d c851 9cbd
000002c0: a81f a5bd c89a 873d 8580 ef3c d1ec 26bd
000002d0: 1fd2 893d 80df 263b 95ee dbbb de60 2e3d
000002e0: 610e 6d3b a01b 563d 8089 9f3d 7c30 87bd
000002f0: 330f 6c3c 5a97 983d e578 83bd 7064 c93c
00000300: ab4d 463d 275f cebc 81bd f0bc aaf1 4abd
00000310: a2cd cfbc 6de2 53bc bd0f 4d3d 6608 903d
00000320: 64f5 00bd 0551 a53d 8609 9c3b 1abd 9dbc
00000330: 90ee 58bd 9881 94ba 2c33 713c 000f 93bd
00000340: e191 6b3d 97a7 e6bc 094f a23d 5374 08bd
00000350: c24d 8bbd 82a1 b13b e9fb 02bd 776d 51bd
00000360: 2536 a5bd 1537 9fbd e435 5ebd 1587 173c
00000370: 8da3 373c 83b7 71bd 8939 a3bd b868 0f3d
00000380: e197 5c3d 167a 313c 3c47 49bd 651e 4cbc
00000390: ac1f ad3d 18b1 b83c f322 08bd 8ea5 9f3c
000003a0: 4929 123d 633a abbd a0cb 153d d500 52bd
000003b0: 9516 a0bd dc45 a2bc 7b59 05bc 5a9d a23d
000003c0: 5181 38bd 697d 893d c52d b43d cf0b fb3c
000003d0: ff83 353d b862 4abd 5ed3 b0bd 4b20 3ebd
000003e0: 8814 02bd 49ea b7bc 288e 933d b127 4dbd
000003f0: f57d 063d d7b7 b2bc 89b9 46bd f417 0d3d
0.03971393 0.07855448 -0.005468087 0.009368567 0.047083814 -0.01860713 -0.026133006 0.00990765
0.025393255 -0.06283875 0.004183928 0.07426153 0.036676403 -0.018624453 0.08512302 -0.01981494
0.030892374 -0.0040623476 0.03931145 0.06787573 0.014511809 -0.031486806 -0.051818285 0.085264385
-0.07430399 -0.08168121 0.01791486 0.028721232 0.08456677 -0.040342487 0.03097326 -0.015392777
-0.008060575 -0.025133455 0.047961224 -0.011059364 -0.025004294 -0.014022014 -0.007352433 -0.03295696
-0.08001995 -0.062283833 0.069553174 -0.03908652 -0.027422953 -0.040514033 0.063062586 -0.015393946
0.008753304 0.065692365 0.002494011 0.058574233 0.06784657 0.03994893 -0.033399988 0.07758141
-0.010087617 0.010869282 -0.010246261 -0.008593749 -0.07174559 -0.022928078 0.05592 0.019615438
-0.034744766 -0.043877356 0.068502076 -0.047192063 -0.06390205 -0.05419535 -0.056093715 0.03769971
-0.048390754 -0.080717355 0.07514761 -0.045792077 0.006193687 0.075231224 -0.058482606 -0.017247528
-0.040636875 -0.043164715 -0.068216 -0.07222527 0.0761344 0.059944116 -0.034743525 -0.007735774
-0.052680835 0.042500716 0.08096701 -0.05509927 0.08715561 -0.08975216 0.06676549 -0.0519115
-0.020841317 0.08158939 1.6104186e-05 0.079074726 0.072064154 0.05779449 0.04453854 -0.01706951
0.059384253 0.055227607 -0.022607885 0.0596738 -0.017375868 0.057350755 -0.02461667 0.05065252
-0.012288061 0.012634305 -0.06785539 0.03178005 -0.08482203 0.009138917 0.02980301 0.06525344
0.04392318 0.081171274 0.019882835 0.04230209 0.07437474 0.05948532 0.0611249 0.013412611
-0.023525327 0.0038468377 0.03456482 0.0090815285 -0.06258664 -0.058334503 0.00057555735 -0.061679307
-0.07764482 -0.053625688 -0.07302946 0.0552212 0.021638086 -0.070262484 -0.058761388 -0.029983984
-0.083368555 -0.015794089 -0.077757835 -0.057890307 0.061695073 -0.06730865 -0.050184105 -0.022930382
-0.0669663 0.0878464 -0.034950644 -0.072939746 0.041451402 0.07281919 -0.007246002 -0.06307146
0.044266075 0.013582222 0.0021472555 -0.06705452 -0.08649795 -0.058072012 -0.06723576 -0.071208134
-0.06269815 -0.034479883 -0.05264646 0.06546597 -0.009334431 -0.0062309583 0.033573937 -0.07632786
-0.080626786 0.06621319 0.029236088 -0.04075319 0.067295305 0.0025462806 -0.006711791 0.04257285
0.00361719 0.05227244 0.07789898 -0.066010445 0.014407921 0.07450743 -0.06419543 0.024584025
0.048413914 -0.025191857 -0.029387238 -0.049546875 -0.025366608 -0.012932402 0.050063837 0.07032852
-0.031484023 0.08072094 0.0047618775 -0.01925521 -0.052961886 -0.0011330126 0.014721673 -0.071805954
0.057512168 -0.028156085 0.07925231 -0.03331406 -0.068019405 0.0054208646 -0.03197852 -0.051129784
-0.08066968 -0.07774178 -0.054250613 0.009248515 0.011208427 -0.0590129 -0.07969958 0.035011977
0.05385578 0.01083233 -0.0491402 -0.0124584185 0.084533066 0.022545382 -0.033236455 0.019488122
0.035683904 -0.08360746 0.036571145 -0.051270325 -0.07816807 -0.019808702 -0.00813901 0.07940169
-0.0450452 0.06713373 0.08797792 0.03064528 0.044315334 -0.04941055 -0.08634065 -0.046417516
-0.03175786 -0.022450583 0.072048485 -0.05008668 0.032834966 -0.021816177 -0.048516784 0.03444667
