models/hyperparameter_optimization/initial_test/initial/Set3/architecture_pool_heads/input_architecture_pool_heads_1/GNN.pth (torch, 994184 bytes, 18 tensors)

input_layer.weight f4 [128, 8]
00000000: 63b5 593e 1e53 8a3e a3a1 a9bd 7ce5 873e
00000010: dfa5 9ebd c03a 193d a642 30be 799e 543e
00000020: 8f2a a03e 06cd 84be 7a0e 8e3e 7579 d5bb
00000030: 338d 6a3e 40d4 213d c4a6 873d 6777 4cbd
00000040: db56 8e3e 2d50 733d 9c03 29be 6807 053d
00000050: f2cd 26be 48d4 29bd 860b 13be 7b2a 703e
00000060: 2ae4 8ebe 50e7 26be 0e76 ccbd 13af 59be
00000070: 08d0 01bb fdc9 b2be e496 c73e 2ac5 99be
00000080: 8120 8a3e c27b 2b3d 771c ebbd 79ef 543e
00000090: 1fe5 ea3c 7f37 7b3e 5cf8 2e3d c55a e4bd
000000a0: ba81 443d da5a c4bd 4fa9 d33d 3239 963e
000000b0: 2a45 403e fb45 1ebe 27eb 7f3e 728e 813d
000000c0: e39a 0f3e 16aa 5cbe 4c31 b3be a1e0 0bbe
000000d0: 91d8 8abe 836d 8d3e f470 073e 19f6 153e
000000e0: dc8b 943d 5789 c9bb 2362 853e e09d 80be
000000f0: a434 cdb8 1f1b 77be b15c 2c3d 025c f9bd
00000100: 3dd8 ad3d f8da 96bd 05bf 963e bd94 56be
00000110: 4ceb 57be a3ee 57be 726a b83e b14c f13d
00000120: cb0e 9b3e 1664 95be 7b8c b3be 7b9f 8dbe
00000130: 1a8a 73be b160 f43d 8b37 db3d d369 963e
00000140: 49f7 3abe 58ce 76be 08df 023e 7056 12be
00000150: 4977 353e f2d2 abbd 012e 543e 6fa5 8cbe
00000160: e6b3 36be 6e03 293e 3d71 8d3d 1f9c b8bd
00000170: 523e 403e 9fd5 783e 3945 83be eb47 41be
00000180: 1bf9 9a3e c553 f4bd 4059 00be 4127 afbe
00000190: 2a54 4fbe 7432 953d 8325 3fbd 3f66 83be
000001a0: 24ae 023c 4a4d 77be 8293 99be 755c 47be
000001b0: 296e 9ebe 1886 66be 4ab1 d73e 94c2 883d
000001c0: 06b0 f73d 7ad5 a8be 0bc7 6dbe 6b03 f1bd
000001d0: 04d0 573d 6448 9fbe 22fe 1bbe bdbd 58be
000001e0: 06e2 a3bb 3bb7 06be b4b3 c8bc 0254 75be
000001f0: 6880 78be c936 53be 8dd9 f7bd 07e0 8ebe
00000200: 729f 573e 0cb4 8fbd 8075 983e af29 a13d
00000210: 6049 99be a2a8 763e e339 c7bd 63c7 0abe
00000220: 4142 96be 59f6 b3be a968 953d 962b 9ebd
00000230: 3310 ee3d 538e 94be feb7 3b3e bfe0 84be
00000240: c60e 7abd 1097 673d 0b4f 193e d7b3 673e
00000250: c0dd 9c3e c488 8fbe 816f c5ba e4b8 1bbe
00000260: 1db2 1ebd be7d 87be 7388 933e f6db 84be
00000270: 8008 243e 0741 013e 1b65 6f3d 1ebc 43be
00000280: d781 ba3e be44 843d e837 af3c 2f86 9fbe
00000290: 370b e83d c740 59bd d4db 25be 667c 9b3e
000002a0: 00e0 e83c b54e 48be eb3d 37be ba50 8abc
000002b0: acc6 5c3e b806 b9bd f791 4ebe 83f4 f7bd
000002c0: 283c 87be a162 0a3e 3540 343e 3d6b aabe
000002d0: 8471 963d 9ba6 1b3e 7527 7b3d 4fee 00be
000002e0: d0a2 0a3e b673 033e 0d93 9b3d c678 7ebd
000002f0: 91bc bfbd a095 cf3c 8dd2 7fbd 9bc6 d7bd
00000300: 558e 563e 2099 9b3e 0d5d 0fbd 5f1e a2bd
00000310: 790f 35bb fcee acbc 3f53 62bb 2be9 ca3d
00000320: 7b69 a4be 1e9b 05be 220a 943e 7793 523e
00000330: 2e0e 90bc 7346 5abe 427f 5dbe b026 a2be
00000340: a205 ecbd 101c 553d 7529 383e 056e 623e
00000350: ce02 a0be 6ab7 59be fd8a 64bd e51b af3e
00000360: 16b2 ab3d cd83 bbbd 866d 063e d3e4 09be
00000370: e254 6abe ab94 823e a09e 24be 4727 91bd
00000380: 2d14 b4be 9f65 8b3e a6ef 5d3e 5989 b93d
00000390: b370 7cbe bba7 b2be 2505 93be 75fc 863e
000003a0: d3ba 1a3e 0e87 983e c53a 283e 064c be3d
000003b0: b3e6 62bb 92aa 89be a317 9bbe f250 a9be
000003c0: 6660 313e d8bf 31be f1b8 91bd eb5a 50be
000003d0: a7f1 83bd c1d0 7ebe ce8f 6cbe 2d2f f03d
000003e0: 7331 d7bd 2508 753e 554a e8bd 34ca 84be
000003f0: c782 7fbd 4f7f 2fbe 7e86 ddbd 6154 acbe
0.212606 0.27016538 -0.08282783 0.2654227 -0.07746481 0.037409544 -0.17212924 0.20763578
0.3128247 -0.2593767 0.2774542 -0.006514723 0.22905426 0.039509058 0.06623605 -0.04991856
0.2780064 0.059402633 -0.16505283 0.032477766 -0.162895 -0.041462213 -0.14359865 0.23453705
-0.2790845 -0.16299176 -0.09983455 -0.21258192 -0.0019807834 -0.3491973 0.38982308 -0.30033237
0.26977924 0.04186607 -0.114800386 0.20794477 0.028673707 0.24532889 0.042717323 -0.111501254
0.04797528 -0.09587641 0.103350274 0.29340512 0.18776384 -0.15456383 0.24992047 0.063259974
0.14023928 -0.21549258 -0.34998548 -0.13659908 -0.27118352 0.27622613 0.13226682 0.1464466
0.072532386 -0.0061504054 0.26051435 -0.2512045 -9.784967e-05 -0.2413144 0.042080585 -0.12175752
0.0848851 -0.07365984 0.2944261 -0.20955177 -0.21085852 -0.21087126 0.3601871 0.11782206
0.30284724 -0.29177922 -0.35068116 -0.27660736 -0.2378315 0.11932505 0.10703953 0.29377612
-0.18258394 -0.24102151 0.12780392 -0.14290786 0.17721285 -0.08389844 0.20720674 -0.27469966
-0.17842063 0.16505215 0.06906364 -0.09014153 0.18773773 0.2430024 -0.2563875 -0.18875091
0.30268177 -0.1193004 -0.12534046 -0.34209636 -0.2024695 0.07285014 -0.046666633 -0.25663945
0.007976089 -0.24150577 -0.29995352 -0.19468863 -0.3094342 -0.2251209 0.42127448 0.06677738
0.12094121 -0.3297537 -0.2322046 -0.1176823 0.052688614 -0.31109917 -0.15233663 -0.2116613
-0.0050013093 -0.13155834 -0.024499752 -0.23957828 -0.24267733 -0.20626368 -0.121020414 -0.27905294
0.21056917 -0.07016763 0.29777145 0.07869279 -0.29938793 0.24087766 -0.09727838 -0.13552622
-0.29347423 -0.35148886 0.07295353 -0.07723157 0.116241835 -0.29014835 0.18331906 -0.25952718
-0.061049245 0.05654055 0.14971559 0.22627197 0.30637932 -0.2803403 -0.0015063138 -0.15207249
-0.03874408 -0.2646312 0.2881504 -0.25949067 0.16018867 0.12622462 0.05844603 -0.1911473
0.36427185 0.06458424 0.021388963 -0.3115706 0.11330264 -0.053040292 -0.16197139 0.30368346
0.028427124 -0.19561274 -0.17894714 -0.016884197 0.21560162 -0.090344846 -0.20172869 -0.12107184
-0.26413083 0.13514186 0.17602618 -0.3328494 0.0734587 0.15200274 0.061316926 -0.12590908
0.1353867 0.12837109 0.07596407 -0.062126897 -0.09362138 0.025339901 -0.062456656 -0.10535928
0.20952733 0.30390263 -0.03500085 -0.07915949 -0.002762763 -0.02111005 -0.0034534482 0.099077545
-0.32111725 -0.13047454 0.2891398 0.20564066 -0.017584886 -0.21315937 -0.21630576 -0.3167014
-0.11524512 0.052028716 0.17984565 0.22112282 -0.3125214 -0.21261373 -0.055796612 0.3420097
0.083835766 -0.091559984 0.13127717 -0.13466196 -0.22883943 0.2550405 -0.16076136 -0.0708757
-0.35171643 0.27225968 0.2167345 0.090594 -0.24652366 -0.34893593 -0.28714862 0.26364484
0.1511033 0.2979054 0.16428669 0.09291844 -0.003462237 -0.26887947 -0.3029147 -0.3306957
0.1732193 -0.17358339 -0.07115353 -0.20347182 -0.06442576 -0.24884321 -0.23101732 0.11727748
-0.105074786 0.23928888 -0.11342303 -0.2593552 -0.06238058 -0.17138408 -0.10816668 -0.33658126

conv_block.0.lin_l.weight f4 [128, 128]
00000000: 926a bf3c 0dc2 30bd 4400 ba3d 0d3b a638
00000010: cdb5 b6bc 9daf 303d 9725 153d 22bc d53c
00000020: 2cdd 4cbd 9010 94bd 91c2 71bd a7ab d7bd
00000030: be54 db3d d402 afbc 83bc 78bd 33e5 2abc
00000040: 1a5c 4e3c 7106 02bd ba12 cdbc 9eef 83bd
00000050: 5700 b43d 7224 443c bff5 4d3d 7ce0 b23c
00000060: ca09 c63d 674c 25be d062 5bbd c2ee b4bd
00000070: be82 4e3d 3a1b 01bd 9158 f03a 3c46 a3bd
00000080: 314d a9bd 9f40 84bd 09f9 8bbd 9147 8f3d
00000090: e564 3a3d 7b56 b33b e100 833d 9b46 8fbd
000000a0: e3c2 08be 24b3 e5bd 4a0f 423d eb2b ffbd
000000b0: b3ec 6fbd b6f1 cabc 8bc3 b7bd 5ed4 483d
000000c0: 8d12 f8bc b2b0 b93c dff4 45bc 6031 023d
000000d0: cc30 8e3d 493d bc3d 2291 15be 2a72 143d
000000e0: 1e07 af3d 2b13 e6bd 07a6 bb3c 02ab 8fbb
000000f0: 582e b23d 4249 013d 36d9 db3c ca9a 233d
00000100: 86e0 83bd 24a4 96bd bd26 24bc fbd4 27be
00000110: 5d95 80bd 0915 b3bd 581d 913d 8a80 a53c
00000120: 6243 943d 208c 87bd 6080 a6bd 7404 7bbd
00000130: 7edb 8c3c bde3 35be eea6 f5bd d0f6 c83c
00000140: feb8 3dbd 6efe 3c3d cebf b9bd c8ec 9e3a
00000150: 12fb efbc 10d4 643d 9d66 ed3c cc98 893c
00000160: 50be 4c3c a675 b5bd 5fd2 d1bd f0fc 1abd
00000170: d926 c5bc d5e4 6abb 2c71 a5bb d7c2 17bd
00000180: c5e4 a4bc 5dea e2bc 40e3 553c 82bf 16bc
00000190: 2604 7fbd 7962 973d b89d c1bc 14a7 223d
000001a0: 7bc9 37be ca6f 643d 8fb8 fdbc 99d6 07bc
000001b0: 9756 7ebd cd62 643d 78c6 7cbd cb01 a03c
000001c0: d87d 093d 7812 c23d b6e7 8e3d ce28 68bd
000001d0: 6eaa 3bbc ddd8 823d 4c67 10bc f6d1 b43d
000001e0: aeae a8bb fe6d cebd 12e3 323c 696d 8b3d
000001f0: 79f1 023c 7613 843c a40e a8bc 84a7 d4bd
00000200: 7f5d 3a3c 8203 f53c fb65 96bd 42df b23b
00000210: 1405 c4bc ab41 433d a0f9 bebc fda5 82bd
00000220: 9945 223d 8851 4cbd d264 20bc 58d1 0cbd
00000230: ed0a d53c 38c6 c0bc 8dab 943c 9f9b 86bd
00000240: 20bd b1bc 1d09 a73d f232 7ebd da42 b0bc
00000250: 1581 82bc 4a5f dab8 23c8 34bd 6d33 b83c
00000260: 10f2 0abd 1cb8 723a 2f83 963d aa08 8a3d
00000270: 9afc 06bd 7ba0 6dbd 5a14 84bd b850 a6bc
00000280: d365 c9bb 87f2 933c da0a 2abd 8d5b 2e3d
00000290: 4c4f 78bc 7864 bd3c b742 9f3d d025 c7bb
000002a0: 7ec6 c6bb 3eea 08bd 006c 6b3d fd46 b1bd
000002b0: dcdc 55bd 36c0 423c 7a16 2a3d f959 c5bd
000002c0: 0ae7 a6bc 0401 013c 215a 8f3d 43f3 fb3c
000002d0: 0b95 943d b2f7 d9bc 58a0 bdbd b6b8 cc3a
000002e0: 97d7 453d d3c4 91bb 23f9 813b 7e9c 9a3d
000002f0: e94a bebd 27dc b43b f648 973c ad63 f43b
00000300: 1d49 08bd 6034 3bbd 4a1c 253d dd5b 513c
00000310: 30bd 693c de23 25bc 4794 88bd 328a 163d
00000320: 7b3d 60bd a8ea 85bd b599 38bd fcfd 9fbd
00000330: c085 a6bd de8b a5bc c571 c4bd 5435 663d
00000340: a6cc a0bd dd2d e43c 19a0 e03c 331a 3abd
00000350: 02ff 0a3c 36f1 943d 259c bcbd 7ac3 00bc
00000360: ac8c 483d 7a17 943d 9258 873c 3290 8a3d
00000370: 2301 58bd 64a5 8f3d 017b 243b 2ea6 74bd
00000380: fc4e 3e3d 37c4 803d 6b8f abbd 0363 133d
00000390: ac40 823c 2aeb 843d 2663 bfbd 2b32 173d
000003a0: f39a 9d3d 6ba1 19bd fa26 9e3c 0459 b5bd
000003b0: 3020 693c a7d2 95bd c65b c1bd 40d8 033d
000003c0: 7485 423d f04c 253d 11a7 663d ff95 04bd
000003d0: faf6 96bd d324 373d 924c 833d 2042 9dbd
000003e0: ac19 a0bd 8057 85bd 3365 77bd 1809 643d
000003f0: 4a1e bbbd a6ca a53c 5010 8d3b d49a 90bd
0.023366246 -0.04315381 0.09082082 7.926496e-05 -0.022303486 0.043136228 0.0364128 0.026090685
-0.050015613 -0.072297215 -0.059023444 -0.10530787 0.10709523 -0.021363653 -0.060726654 -0.010430622
0.012595201 -0.031744424 -0.025033344 -0.06442188 0.08789127 0.01197158 0.05028319 0.021835558
0.09669836 -0.16142426 -0.05356103 -0.08834602 0.050417654 -0.031520106 0.0018336942 -0.079723805
-0.08266676 -0.06457638 -0.06834609 0.06996072 0.045506377 0.0054729558 0.06396652 -0.06995889
-0.13355593 -0.11215809 0.047377862 -0.124595486 -0.058575343 -0.02477346 -0.08972844 0.049030654
-0.030282283 0.022667263 -0.012082308 0.03178537 0.06942901 0.09191377 -0.14606145 0.036241688
0.08546279 -0.11234125 0.022906316 -0.0043843994 0.087002456 0.031564005 0.026836973 0.03994254
-0.06439309 -0.07355526 -0.010019002 -0.1638984 -0.06278489 -0.087442465 0.07085675 0.020202894
0.07239415 -0.066185236 -0.08129954 -0.061283544 0.017194506 -0.17762657 -0.1199473 0.024531752
-0.046319 0.04614108 -0.09069787 0.001212501 -0.029294524 0.0558663 0.028979594 0.016796492
0.012496546 -0.0886033 -0.10245203 -0.037838876 -0.024066376 -0.003584196 -0.0050488915 -0.037051048
-0.020128617 -0.027699644 0.013054669 -0.009200932 -0.062259816 0.07391829 -0.023634776 0.03971012
-0.17947952 0.055770673 -0.030971793 -0.00829091 -0.062094297 0.055758286 -0.061712712 0.019532105
0.03356728 0.09476179 0.06977789 -0.05667954 -0.011454208 0.0638902 -0.00881369 0.08829109
-0.0051477766 -0.10079573 0.010918396 0.06807978 0.007992142 0.016122561 -0.020514794 -0.103835136
0.01137483 0.0299089 -0.0734367 0.0054587433 -0.023928203 0.047670048 -0.02331239 -0.06379316
0.039617155 -0.04988244 -0.009789662 -0.034379333 0.026006186 -0.023532018 0.018148208 -0.06572651
-0.021696627 0.08156035 -0.062060304 -0.021516252 -0.015930692 -0.00010412799 -0.044136178 0.02248546
-0.033922255 0.0009259002 0.0734924 0.06739934 -0.032955743 -0.058014374 -0.06449194 -0.020302162
-0.0061461716 0.018059982 -0.041514255 0.04256778 -0.015155625 0.023119196 0.07776397 -0.0060775056
-0.0060661426 -0.033426516 0.057476044 -0.08656118 -0.05221258 0.011886647 0.04152534 -0.096363015
-0.02037384 0.007873777 0.069996126 0.030755645 0.0725499 -0.026607368 -0.09259099 0.0015619013
0.048301306 -0.004448512 0.003966467 0.0754938 -0.09291632 0.0055194083 0.018467408 0.0074581713
-0.03327285 -0.045704246 0.04031018 0.01277825 0.014266297 -0.010079352 -0.06668907 0.036752887
-0.054746132 -0.06538898 -0.04506846 -0.078121156 -0.081309795 -0.020208295 -0.09592012 0.0562032
-0.078515336 0.0278539 0.02742009 -0.04543514 0.00848365 0.0727257 -0.0920947 -0.007859105
0.04896228 0.0723104 0.016521726 0.06765784 -0.05273546 0.07013968 0.002509773 -0.059728794
0.046462044 0.06287425 -0.08376964 0.035983097 0.015899979 0.064901665 -0.09345083 0.03691308
0.0769557 -0.037507456 0.019305695 -0.08854869 0.0142288655 -0.07315569 -0.094413325 0.032188654
0.047490552 0.040356576 0.05631167 -0.03236961 -0.07371326 0.044712853 0.06411089 -0.07678628
-0.078173965 -0.0651083 -0.060399245 0.055672735 -0.091366366 0.020238232 0.004304923 -0.07060781

conv_block.0.lin_r.weight f4 [128, 128]
00000000: cf38 2f3c 4c23 adbd b11c 0b3b fdf5 db3d
00000010: e3b9 793d dc82 5abc c0fc 5a3d 7a78 45bd
00000020: e378 85bd c963 a6bd a3b4 c6bc b6ca c0bd
00000030: 4fb3 083d 9bcf de3c 0c83 4abd b338 5fbd
00000040: 3e83 c8bb 6052 00bd 8afb 54bd 1966 26bc
00000050: 17ed b8bd 9bed f8bb d97b 943d d386 693d
00000060: 4401 ba3b 6042 dfbd 080e b4ba 1a7f 71bd
00000070: f259 b3bd d18c 62bd 8fcd 96bd 9e5d 1c3d
00000080: f974 9dbd bb76 9ebc 66aa a4ba dba9 3ebd
00000090: 0a40 4ebd 3f5b 3a3d ff25 98bd 02e9 0c3d
000000a0: 25b4 89bd 9d82 c8bd 52b6 10bc 374c ccbc
000000b0: 8c01 15bc 7090 c1bc e549 92bc fd4d d83c
000000c0: a7f1 523d def2 54bd 773d 853c 84bc 873d
000000d0: 2a3a d7bb af63 bcbc c5d1 e63c 0802 c6bd
000000e0: 8670 9bbd 5016 9b3d ff58 563c e69b 36bd
000000f0: 2a5a e4bd 32f0 96bd 6c25 26bb 3f2e ddbc
00000100: 124b 3c3d fc16 a5bd e6f1 c43c 351f b1bd
00000110: 93e2 61bd da96 6b3d 9e75 bf3c ecc1 57bd
00000120: 28c6 0f3d 557c 773c d3a1 0e3b 13ef bbbd
00000130: 177f c83c 4112 d63b 0f9a 783c 6ceb dd3c
00000140: 4598 f3bc bfec 80bd ff47 cbbd c26d 62bc
00000150: e03b 873b 71b3 cabc 92d8 8ebd 0bfa 9d3c
00000160: 3a17 88bc bfbc c2bd b130 3e3d dba3 373d
00000170: 5181 443d dd0a f0bc bad2 123d 5e17 523c
00000180: 6a93 753d 12e6 7d3d 4a51 3dbc e56c 203d
00000190: 41f1 2cbd e5c0 63bd 8c1d 283b b454 5c3d
000001a0: 3faf 5f3c e43d 4f3d 68ea 863d ff17 f73c
000001b0: 03f0 143d 19e6 91bd 724f a8bd 7369 0e3d
000001c0: 9f3e 883d 0348 a13b bc5d bb39 60e7 eb3c
000001d0: c63c 3cbd 86b6 7dbc 0fe1 93bd 5968 1abd
000001e0: 2cfd 04bd c359 67bd 6218 bfbc ec02 91bd
000001f0: 045c 523d 7662 e4bd fe38 2cbb 37d3 03bd
00000200: 991b aebd 2c81 07bd 046b 853d a4df afbd
00000210: b701 6d3d 05e8 65bd 2e02 a4bd 4014 f63c
00000220: f69e 9d3c 7622 533d 65de 0e3d 8360 293d
00000230: 0ef1 d03c 30fa 51bc bdf0 713d 9b36 97bd
00000240: c04b bdbd ac27 30bd 1fb8 97bd f023 883d
00000250: ae31 0d3d a5f1 a83d 6441 6ebd 786c 8a3d
00000260: 17f3 b4bd 4fec 7cbd 2141 933d be50 c9bb
00000270: d895 2a3b d2a0 48bd 6291 b03c 07cc f4bc
00000280: e6f2 843d 427a 0f3d 7bea 85bc f402 0cbd
00000290: facd 83bd 0080 023d 9725 8b3b 193f a1bd
000002a0: 451b 02bd 9acc 05bc 495f 5e3d faab 61bd
000002b0: 5c90 cbbb 7e6e 65bd 9932 873d 0b3b 4dbd
000002c0: ba8c 10bd 9153 4f3d 915c 613d c87e 103d
000002d0: dbfb 983d c4e3 8cbd 40f6 52bd 00d6 9b3d
000002e0: 68ee 9d3d 884b 913d 4d5d 95bd 45b6 ea3c
000002f0: e126 a03d b053 0f3d 51c6 a2b9 f819 833d
00000300: fa13 953d f347 313d 9649 b73c 77b1 b7bd
00000310: ab2a bbbd 36fc 6c3c 2d9f acbd 8e62 b0bb
00000320: 1dbe 2abd 2d8d 10bc 6533 5abd 7ed4 313d
00000330: 228b 853d bfe2 a7bd ebe2 9d3d c2e2 a4bd
00000340: cdef 80bd 16f4 023d eed2 c3bc 1288 9bbd
00000350: 82ed 65bd fad5 a33d 568e 86bd b5b1 2bbd
00000360: 0a48 6fbd e138 003d 2c94 2b3d c209 39bd
00000370: 34d7 a1b9 017c 3dbc 1563 8abd 3faa ba3b
00000380: d7df 663c 1637 623d c3c2 ad3d f18b 5dbd
00000390: b7f5 14bd b873 00bd a910 8ebd d077 133d
000003a0: 99cb c43c 5384 b3bc f7dd 413d 4931 77bc
000003b0: e4dd 043d 71ef 153d 1c72 bebd 78d0 8bbc
000003c0: 9858 2b3d 9208 0dbd 3d09 bfbc 61a1 0f3d
000003d0: e459 8bba 0ae9 6fbd 3dcc 5a3d d30b 163d
000003e0: 9ef0 963b ffdc 87bd 2c19 99bd 3c73 84bc
000003f0: 40bc 9f3b 2611 853d f403 923b ad35 39bc
0.010694697 -0.08453998 0.0021226818 0.10740278 0.06096829 -0.013336863 0.053463697 -0.0482106
-0.06517198 -0.08124501 -0.024256056 -0.09413664 0.033374127 0.027198603 -0.049441382 -0.054497432
-0.006119161 -0.03132856 -0.0519977 -0.010156178 -0.09029596 -0.007596684 0.072501846 0.057013344
0.0056764204 -0.10901332 -0.0013737092 -0.058959104 -0.0875739 -0.055310074 -0.07363426 0.038175218
-0.076883264 -0.019343724 -0.001256299 -0.046548706 -0.05035404 0.045497175 -0.07429122 0.0344019
-0.06723813 -0.097905375 -0.008832531 -0.024938686 -0.009094607 -0.023628443 -0.017857501 0.026404375
0.05149999 -0.05198943 0.01626466 0.066277534 -0.006568213 -0.022996752 0.028176198 -0.09668356
-0.075898215 0.07572615 0.013082742 -0.04458227 -0.1115001 -0.07370032 -0.0025351895 -0.02699959
0.04597003 -0.080610245 0.024041127 -0.086485304 -0.05514772 0.05751691 0.023371514 -0.052675173
0.035101086 0.015105327 0.0021763935 -0.09176459 0.024474664 0.0065329378 0.015173449 0.027089797
-0.029735694 -0.06295156 -0.099258415 -0.013820114 0.0041270107 -0.024743767 -0.06974901 0.019284269
-0.016612638 -0.09508657 0.046433154 0.044834 0.04797489 -0.029302055 0.035845496 0.012822954
0.059955038 0.06198699 -0.011555025 0.03916635 -0.042222265 -0.05560388 0.0025652377 0.053791717
0.013652622 0.050596133 0.06587678 0.03016281 0.036361706 -0.07123966 -0.08218278 0.034768533
0.06652569 0.0049219145 0.00035737257 0.028796852 -0.045956396 -0.0154854115 -0.07220661 -0.03769717
-0.032468006 -0.056482088 -0.023327056 -0.070806354 0.051357284 -0.111515924 -0.0026279087 -0.032183852
-0.085013576 -0.033082172 0.06514552 -0.08587578 0.057862964 -0.056129474 -0.08008228 0.030038953
0.019240838 0.051546536 0.03488006 0.041351806 0.025505569 -0.012815997 0.059067477 -0.07383462
-0.09242964 -0.043006584 -0.07408165 0.066474795 0.034471206 0.08249215 -0.05816783 0.0675897
-0.08835428 -0.0617488 0.07190157 -0.0061436584 0.0026029255 -0.048981495 0.021553699 -0.029882444
0.06491642 0.035028704 -0.01634716 -0.034182504 -0.06435771 0.03186035 0.0042464244 -0.07873363
-0.031764288 -0.008166457 0.05429009 -0.05509565 -0.0062122773 -0.056013577 0.066014476 -0.050105136
-0.035290457 0.050616805 0.05501992 0.035277158 0.074699126 -0.0687938 -0.051504374 0.07609177
0.07711488 0.070944846 -0.07293186 0.028651366 0.078199156 0.03499192 -0.00031046805 0.064014375
0.07279201 0.043281507 0.022373956 -0.089693956 -0.09138998 0.014464429 -0.08428798 -0.0053828424
-0.041685212 -0.008822721 -0.05327167 0.04341554 0.06520678 -0.08197545 0.07709297 -0.08051063
-0.06295738 0.03197106 -0.02390429 -0.07594313 -0.05613471 0.07999797 -0.06570117 -0.04191752
-0.05841831 0.031304244 0.041889355 -0.04517532 -0.00030868652 -0.011565209 -0.0675718 0.0056965644
0.0140914535 0.055228315 0.084844135 -0.054088537 -0.036367144 -0.031360358 -0.069367714 0.036002934
0.024022864 -0.021913683 0.047330823 -0.015087434 0.032438174 0.036605302 -0.092991084 -0.01706718
0.041832536 -0.034432 -0.023319835 0.035066012 -0.0010631648 -0.058571853 0.053417433 0.03663237
0.0046063205 -0.066339485 -0.07475504 -0.01616823 0.004874736 0.064974114 0.0044560377 -0.011304301

conv_block.1.lin_l.weight f4 [128, 128]
00000000: c629 aebd 3b77 a53d 4171 fdbd 88ed a6bd
00000010: ee3c c5bc 5f31 113d bf52 47bb fd85 123d
00000020: df0d b13d 45cb b93d 9c61 9fbd 8226 e5bb
00000030: 260f 443d 2c5b 1a3d b209 ac3b e882 f83b
00000040: 3ec1 c93c fcc0 013a 6458 18bd 27a2 003d
00000050: f6b6 3bbc cf2b 6c3d 3e6b 48bd fa2c c63d
00000060: 324f 423d 2153 a1bd 3dbf d6bd 3fa2 cebc
00000070: d1f5 b53d 5967 ab3d 9ce9 a1bd 94bc f5bd
00000080: 8bad e8bb b66f f73c 181d 2d3d 7997 3e3d
00000090: 37a0 babd 57c1 f63b 8507 913c 2013 6a3b
000000a0: 9332 abbc 8527 14bd d51e 3a3d 1783 f5bc
000000b0: 4185 c6bc 9c5c 30bd 826b 9c3b 2003 873d
000000c0: 2b4a bf3b 6358 a5bc 25bc 993d d538 233d
000000d0: 6ff5 04bc b96e b33c 845f bf3d d249 94bd
000000e0: 6537 67bc 4ce8 ad3c 0dec 803d ca16 aebc
000000f0: 842f 2fbd 01af 9e3b 4914 b53c b727 8ebc
00000100: c1e4 97bd f334 6e3c 242b 0e3d 62b9 973d
00000110: 9edf eebc 808e 87bd b223 b5bd 1502 a43d
00000120: 9ee0 cfbc 90f7 14bd e1ae 73bd 5d25 4dbd
00000130: 2852 9f3d 287c 1ebd c71b 503c 36cd c4bd
00000140: 6f60 c53d bca5 59bd d273 863c ee6a d1bd
00000150: bf66 983d 4d02 163d 1891 0dbd 23ec 853d
00000160: 68c0 a53c 3edf 98bd e5ab 323b 23d7 a73d
00000170: 21ce babc 1976 673d a799 943c 48a2 63bd
00000180: 16ec 07bc 8d41 50be 24c2 5c3b a762 b9bd
00000190: c86a 0dbd a594 a23c a737 1c3d 22c5 f9bd
000001a0: 7c49 9abd dcd4 503d 09eb cd3d aec8 ce3b
000001b0: d9a2 36bd 828f a7bd ead9 f9bd c306 973b
000001c0: 6671 61bd 1d9c 683d 8054 bbbc 26f3 80bd
000001d0: 07d9 a23d 5367 b9bd 1cb5 a0bd 5030 df3c
000001e0: 11e5 f53d ec40 563d e0ba d2bd d80e 0abd
000001f0: f1fc 32bd ea52 79bd 18be 933d 440a 833b
00000200: 8911 1dbd 70dd a1bd cfee 5f3d 88d6 a33c
00000210: bf69 17bd 6da7 63be 5491 fb3c 40bd 5e3d
00000220: 8681 223d 91a5 e4bc 75e2 623c 3874 21bd
00000230: 059a 5dbd 35b5 a53d a7d2 cbbb 6009 8bbd
00000240: 413e 7bbc 1b2e 683d 9098 733d 8c35 5c3c
00000250: e72c b33b 53b4 8d3d aad0 5fbb 7b79 c83c
00000260: b8aa e1bd 28b5 93bd 38fb 5f3d f25a 2bbd
00000270: f316 2cbd 921e 8b3d f6ae 523d e6fe 6ebd
00000280: ece2 1ebb 1c20 4e3d 594a 9dbc 994d 323d
00000290: ec08 823c 1a98 c63c f72d 92bd 0c7d d0bd
000002a0: a729 803c b10e 94bd ca44 143d e0b3 eabc
000002b0: bb36 cebd 3dcc e53c e391 9a3d 8f74 823a
000002c0: 785c e1bc d128 96bd 82b6 c8bd 0b23 ebbc
000002d0: 918f 4dbd 0b4a e1bd 39bd 04bd 4858 9ebd
000002e0: 9c2e a1bd f712 5a3d a213 853c 2d1f 76bc
000002f0: 641a 9ebd 8422 a9bc aaaa 483d 868d d93c
00000300: 1f83 3f3c b45c e93b 15a1 ba3b ae7e 513d
00000310: 711a 1c3b d7a6 843d 37ea 4d3d d46b dbbc
00000320: ccfd 833d 652f 3abd 6ea0 7f3c 4a5f d3bd
00000330: 7925 42bb 2812 9fbd c24b 183c 6100 493c
00000340: 6b3a 8cbd f191 3d3d e776 92bd 9bae 70bd
00000350: 80e4 4b3d 2924 c4bd 3792 163d 4623 a1bb
00000360: bdbb 9cbd 1a84 83bd f483 1f3d bfae 683d
00000370: d073 563a e297 493d b5f8 a93d 8764 983d
00000380: 0701 88bd 7833 84bd bf68 fc3c 3dc4 983d
00000390: 8801 bcbd 10b3 dabd 8a8e a33d 9c5f b53c
000003a0: af8e e43c fda1 21bc 0117 0cbd 25a0 113d
000003b0: 3220 98bd a28a b7bc d697 17bd 2688 a93d
000003c0: a5ef 9cbd beae ae3d 79b1 533d 47ca 6dbd
000003d0: 60ef 08bd c7f6 dcbd eb5d 85bc 5659 95bd
000003e0: 98da e8bd a5c6 1fbd 003e 7b3d f20f 5d3d
000003f0: dee4 e23c 41cc 1a3d fff2 093d 5bb2 9c3c
-0.085040614 0.08079382 -0.12375117 -0.08150774 -0.024076905 0.035447475 -0.003041431 0.035772312
0.08645224 0.09071974 -0.077822894 -0.006993116 0.04786601 0.037684605 0.005250179 0.0075839646
0.024628278 0.00049497164 -0.03719367 0.03140464 -0.0114571955 0.057658967 -0.0489304 0.09676547
0.047438808 -0.07877184 -0.104856946 -0.02522385 0.088847764 0.083693214 -0.079058856 -0.11998859
-0.007100766 0.030204635 0.042264074 0.046531174 -0.0911259 0.007530372 0.01770378 0.0035716966
-0.02089814 -0.0361705 0.04543956 -0.029969735 -0.024233462 -0.04305707 0.004773558 0.06592393
0.005837699 -0.020183748 0.07506589 0.03984912 -0.008115157 0.021903383 0.0934439 -0.072406426
-0.014112328 0.021228932 0.06295023 -0.021251101 -0.042769924 0.0048426394 0.0221044 -0.017352922
-0.07416678 0.014538991 0.03470911 0.07408406 -0.029159363 -0.066189766 -0.08844699 0.080082096
-0.02537566 -0.036368906 -0.05949295 -0.05008446 0.07779342 -0.038692623 0.012701935 -0.096094534
0.09637534 -0.053136572 0.01641265 -0.10225473 0.07441472 0.036623288 -0.0345622 0.0653918
0.020233348 -0.07464455 0.0027263102 0.08195331 -0.022803368 0.05650911 0.018139673 -0.055574685
-0.008296033 -0.20337506 0.0033685053 -0.090520196 -0.034525663 0.01984627 0.03813901 -0.12195803
-0.07533547 0.05098425 0.10054595 0.006310544 -0.044588897 -0.08181669 -0.12199767 0.0046089604
-0.055039786 0.056789506 -0.022867441 -0.06296377 0.07951551 -0.09052911 -0.07847044 0.027244717
0.120065816 0.052308008 -0.1028955 -0.033705562 -0.043698255 -0.06087009 0.07213992 0.0039990265
-0.0383468 -0.07903564 0.054671105 0.019999757 -0.03696608 -0.22231837 0.030708946 0.0543797
0.039674304 -0.02791098 0.013847937 -0.039417475 -0.054101963 0.08091203 -0.00622018 -0.067888975
-0.015334667 0.056684595 0.059471667 0.013440501 0.0054679993 0.0691916 -0.0034151473 0.024471989
-0.1101889 -0.07212287 0.05468294 -0.04183478 -0.042014074 0.0679294 0.051436387 -0.05834856
-0.0024244143 0.05032359 -0.01920049 0.043531034 0.015873395 0.02424245 -0.07137673 -0.10180101
0.015644861 -0.07229365 0.036198415 -0.028650224 -0.10069033 0.02805149 0.07547357 0.000995295
-0.027509913 -0.07332004 -0.098004356 -0.028703233 -0.050185744 -0.11000451 -0.03240702 -0.07731682
-0.07870218 0.053240743 0.016244713 -0.015022081 -0.07719877 -0.020646341 0.048990883 0.026556741
0.011688977 0.007121647 0.005695472 0.0511462 0.0023819471 0.06477135 0.050272193 -0.026784815
0.06444892 -0.045455355 0.015602214 -0.10320909 -0.0029624386 -0.07767135 0.009295406 0.012268157
-0.0684708 0.04628176 -0.07151585 -0.058760267 0.04977846 -0.095772095 0.036760535 -0.004917535
-0.07652996 -0.06421681 0.0389442 0.056807276 0.00081807096 0.049217112 0.0829939 0.07441049
-0.06640821 -0.064551294 0.030811666 0.074593045 -0.091799796 -0.10678685 0.079861715 0.022140317
0.027900068 -0.009865281 -0.034201626 0.035553116 -0.07428016 -0.022404972 -0.037010036 0.082779214
-0.07662896 0.08529423 0.051682923 -0.058054235 -0.03343141 -0.107892565 -0.016280135 -0.0729243
-0.113698184 -0.0390078 0.061338425 0.053970285 0.027697023 0.037792448 0.033679005 0.019128015

conv_block.1.lin_r.weight f4 [128, 128]
00000000: bef7 f6bd 69dc 573d a83d 06bc 7f31 533d
00000010: f8a9 553c 71c2 1c3d 8a91 18bc 9387 403d
00000020: 7b5d bd3d 3df5 c03d b13e 183c ac19 6cbb
00000030: b98a bcbc f8b2 86bd a8d0 56bd 57e6 45bc
00000040: 06ad dfbd ea67 cfbc d170 493d ee30 3bbd
00000050: c632 3a3c cf3d 823d db57 fc3b fed2 223d
00000060: 6da6 153d a08e 2b3d 0faa 04be 0939 963d
00000070: d2e1 d73c efb7 f03c 7996 623d 39dc ac3d
00000080: 4fc8 b43d 8004 6fbd 04bd 4dbd 5509 afbc
00000090: 7dcc bb3c 895e 383d 114d 2abd ee0b 873d
000000a0: 8422 0cbd 29f8 793c e22b e53c 3921 98bd
000000b0: 4335 3cbb a4a4 933b 6fcd 3a3d 6d81 773b
000000c0: a6b7 b5bd 629a aabd 0e73 fbbd 6421 f43c
000000d0: 6f4c bb3d d97a 5b3d 6728 8cbd 5c8a 70bd
000000e0: c1c7 2f3d 3448 693d 593b 8fbd 3fb2 723d
000000f0: 14c0 0f3d 3a0e a33c 79d2 b13c b80a 0ebc
00000100: 7b74 c1bb dc83 86bd 692c 0c3d 2fe9 083a
00000110: c5cc a2bb 4ccc acbc eaa1 153d d86b b1bc
00000120: d1b2 b63b 46dc 88bd a151 843d 540e 963c
00000130: 4f60 dd3b b34e a4bd 1d5f c53d c6c5 9e3c
00000140: a970 9bbd f445 c43c 69fa 67bd 7e45 0ebd
00000150: 3b75 2b3c 2962 80bd 1df7 fabc f98e 223d
00000160: 718b babd 0a2d 153e bae1 91bc c466 483c
00000170: 7031 3fbd 1491 5bbd 5a04 8e3c 39ad b1bb
00000180: 89bf 443d 020d 50bd 0f63 453d a37d 9f3c
00000190: 72ce 99bd c063 73bd 25c2 9abd 87ee 72bd
000001a0: f522 213d 55ca a4bd c712 fdbd 2c1d 5f3c
000001b0: 75e5 5cbd c999 613d b575 d83d 577b a23d
000001c0: c100 bf3d 75f3 093d b485 1abd c3ab a8bd
000001d0: 7c05 a6bd 2f3f 293d 7386 6bbd 620d 47bc
000001e0: cce1 b4bd ae30 9abd e464 16bd ed22 1e3d
000001f0: fe81 a6bd ff02 0abd 8068 193c 15b2 193e
00000200: 7e54 49bd 21d1 a9bd b429 393d 6717 37bd
00000210: d0aa 003d 66d1 8ebd 717d c0bd a876 ad3d
00000220: 0f2d 143d 95e9 863d 823a 36bd 0896 993d
00000230: ccf5 a1bd be0e 8f3d 9717 7c3d bc08 6fbc
00000240: d8fc dd3c 5de1 6dbd 062d 13bd 064d 743d
00000250: 11ab 853d 0d28 433c 10dc d03d 1477 2b3e
00000260: 48e9 f0bc 2e93 adbc ded9 c0bd d40f fdbd
00000270: 5202 f8bc 8518 d4bd 53a6 57bd e729 7e3d
00000280: 5714 5cbd b705 053d e9c4 dbbb 5dde b3bd
00000290: af7e c03c 1f5e 82bd 11f0 43bd cd5f b13d
000002a0: 61ba de3c dd99 93bd 7afd 10bd 7d16 90bd
000002b0: 7f35 4b3d 430b 06be fa7c 1dbd 3fa7 bebd
000002c0: 1332 14bd d9cb 4fbd b3d7 01bd c7b7 ae3d
000002d0: 1f2e 9abd 9a9f 233d c7f6 92ba da8b e0bc
000002e0: 9e11 a8bd 03ee 16bd 5e36 503d 44fe cebc
000002f0: a85d f03c ede1 023c 4e50 d1bd 081a 49bd
00000300: d34f 74bd 080a 953c 426f 0f3c 2478 85bd
00000310: 5743 8c3d 02c8 5dbc 0f9a 183d beb5 6c3d
00000320: f97a 453d 08fc 7ebb 37fd a6bc 0797 a63d
00000330: bc77 3d3d a9a6 d23c 32ab c0bd 887e 0d3d
00000340: 57ba 00bd 2327 193d 095f 4d3d 764d d6bd
00000350: 473d 3d3d 7b15 683d 3d4e 17bc fd6b 24bc
00000360: 73e8 eebd 0488 6ebd 62e1 bd3d acfd 873d
00000370: c091 8dbc 7b09 563c e862 5fbd 2e3a 24bd
00000380: d0d6 523d d158 49be 4946 d63b 8b3e 8e3d
00000390: e625 103e b636 603c 1d01 8e3d 1624 ef3c
000003a0: 4356 cb3c 043a 4e3d f8a6 c33d 5fde 323d
000003b0: 7041 3a3b b599 a9bd 05d5 13bd 7e5e 30bd
000003c0: d179 173c edf6 313c b75b 8d3d 7292 f7bd
000003d0: aca6 e53c 690a cfbc 1eb8 97bd 42ca 00be
000003e0: 18e6 d03d 757c 3bbd 50c5 f5bc 84db 09bc
000003f0: 14a6 dcba bca4 06be 00ce 4abd b5e1 58bd
-0.12058972 0.052700434 -0.008193411 0.051560875 0.013041012 0.03827137 -0.009312043 0.047004294
0.092463456 0.094217755 0.009292291 -0.0036026044 -0.023015367 -0.06577104 -0.052445084 -0.012078843
-0.109216735 -0.025318105 0.049179856 -0.04570096 0.011364644 0.06359445 0.007700903 0.039752
0.03653567 0.041884065 -0.12955497 0.07335097 0.026352797 0.029384581 0.055319283 0.08440442
0.08827268 -0.0583539 -0.050229087 -0.021366755 0.022924656 0.04501203 -0.041577403 0.06594072
-0.034212604 0.01525692 0.027975027 -0.07428212 -0.002871827 0.0045057107 0.045606073 0.0037766353
-0.08872919 -0.083302274 -0.12277804 0.029801078 0.09145438 0.053583954 -0.06843644 -0.0587257
0.04291511 0.056953624 -0.069937415 0.05925202 0.03509529 0.019904245 0.021706806 -0.008669548
-0.005903778 -0.06568119 0.03422204 0.00052227353 -0.004968258 -0.02109351 0.036531366 -0.02165787
0.005575516 -0.06682639 0.06460882 0.018317379 0.0067558656 -0.08022823 0.09637282 0.019381415
-0.075898476 0.023959137 -0.056635294 -0.03473424 0.010464962 -0.062687226 -0.03063541 0.03968713
-0.091086276 0.14567962 -0.01780783 0.0122315325 -0.046678007 -0.053605154 0.01733606 -0.005422261
0.048034225 -0.050793655 0.048190173 0.019469088 -0.075100794 -0.0594213 -0.075565614 -0.05930951
0.03933998 -0.08046404 -0.12357097 0.013617795 -0.053929765 0.0550783 0.10569326 0.079336815
0.09326316 0.033679444 -0.037725165 -0.08235886 -0.08106515 0.041320022 -0.057501268 -0.012149187
-0.0883213 -0.07528816 -0.03671731 0.038607527 -0.08130263 -0.033694264 0.009363294 0.15009339
-0.049152844 -0.08291841 0.045205787 -0.044700053 0.0314129 -0.06973533 -0.09398926 0.084698975
0.036175784 0.06587521 -0.04448939 0.07499319 -0.0790821 0.06985234 0.061545935 -0.014589485
0.027098104 -0.05807625 -0.03593161 0.059643768 0.06526769 0.011911404 0.101982236 0.16744643
-0.029408112 -0.021188345 -0.09416555 -0.123565346 -0.030274544 -0.10356239 -0.052648854 0.06205168
-0.053730335 0.032476153 -0.006706823 -0.08782647 0.023497907 -0.063656084 -0.047836367 0.08660851
0.027188482 -0.072070815 -0.035397984 -0.07035539 0.049611565 -0.13090234 -0.038449265 -0.093092434
-0.036180567 -0.050731514 -0.031699847 0.085311465 -0.07528328 0.03994713 -0.0011212461 -0.027410436
-0.08206485 -0.03684808 0.0508331 -0.025267728 0.029341534 0.007988435 -0.10220395 -0.04909709
-0.05964644 0.01819326 0.008754553 -0.06517056 0.068487816 -0.013536455 0.037256297 0.05779051
0.04821298 -0.0038907547 -0.020384414 0.08134275 0.046256766 0.025714235 -0.09407653 0.034544498
-0.031427708 0.03739084 0.05013946 -0.10463993 0.046201017 0.05666111 -0.009234962 -0.010035512
-0.1166543 -0.058235183 0.09271504 0.06640181 -0.017281413 0.013063784 -0.054537684 -0.040094547
0.051474392 -0.19662787 0.0065391404 0.06945523 0.14076957 0.013684919 0.06933806 0.029192012
0.024821406 0.050348297 0.09553331 0.0436691 0.0028420351 -0.082812704 -0.036091823 -0.043058865
0.009245352 0.010862094 0.06902259 -0.12088479 0.028033577 -0.025273519 -0.074081644 -0.12577155
0.10200137 -0.04577299 -0.030001312 -0.008414153 -0.0016834163 -0.13148779 -0.049512863 -0.052949626

conv_block.2.lin_l.weight f4 [128, 128]
00000000: 2d0d 8a3d 7a89 9dbb 912e c33b fbd0 8bbd
00000010: 2d4a 943c 225d 373d 973f a8bd 7449 a8bd
00000020: 894c 2bbd a89c 213d 0d2a 91bd c84c 663d
00000030: 8c9d 75bb e627 70bc b554 a1bc 8c78 893d
00000040: f992 8ebd bd8f d9bd 9365 d53c e6df bd3d
00000050: 6311 91bc 3d01 283d d480 adbd 84e8 d1bc
00000060: d738 9fbd 1a57 143d ff01 28bc b6fb 4dbd
00000070: 8cb6 73bd 9cca 85bb 91b9 9ebd c886 dcbb
00000080: 39d0 5dbd 96e0 653d 3eef 11bd 2688 1abe
00000090: 68b5 f9bc 3086 6c3d 3ed0 d1bd 6758 abbd
000000a0: 7097 43bd 02aa 3f3b 815d 9f3c 3b9b 9fbd
000000b0: f4a0 14bc 9fee 0a3d 1c54 dbbc 4bb7 2abc
000000c0: 54f0 16bd a8b5 963d 2b94 10bd dbab 25bd
000000d0: 18e0 98bd bae1 643d d864 6fbc d661 8abd
000000e0: 4b4d a6bd 2b15 663d 4695 8f3c eed5 0fbd
000000f0: 3969 bcbd 0959 243c 7df7 8cbd 0dd0 183d
00000100: f773 babd b6d9 303d f040 2b3d 0f46 0f3d
00000110: 4181 9bbc 5663 d43c 6441 56bd ef59 69bd
00000120: 1ca2 613d f088 993d 6c78 783d 831a 64bd
00000130: 8a0c 183d 1b69 55bd 1aef cfbd 0c6c 5ebd
00000140: 42a9 833d 4eea ba3d 1e54 193d 8639 b5bd
00000150: 8e49 9fbd c89c 3f3c 3557 713d 4501 9e3d
00000160: 6f7e 243c 0f27 1f3c 142a 20bd bead 87bd
00000170: ff15 b8bd f7d0 6fbd aab6 b5bd 8d17 ef3c
00000180: b8cf a9bd a3fc 82bd 32a0 80bd 7c02 6b3d
00000190: 0c1f a23d 0fe9 18bd 31e6 53bc 946b f9bc
000001a0: 9e86 a73d 3357 8ebc 4870 0ebd f465 ac3d
000001b0: d444 2cbd 731d 023d 2d1d 0e3c c735 6abd
000001c0: 0a1d 973d 1bd1 abbd 4d41 fc3b f232 533d
000001d0: ae11 313d 4089 93bd 4e9b 8bbc f4e1 73bd
000001e0: 61b0 433c 72e0 a3bd b47e 903d 9595 72bc
000001f0: 7d4c 24bd 409f 933b f056 89bd d8aa 97bc
00000200: 6c69 7d3d 778a 443e 1c11 e13b e77d 623c
00000210: 3b10 13bd 64f1 473c 3ae2 a2bc 3b59 f2bd
00000220: 144e 213e 961e a33c 1f31 aabd 8a6e 7fbd
00000230: f61c d93c a105 09be 2d91 e03d 8aec 343b
00000240: 7167 9a3d 49cb d6ba 7da3 503d fe3c 91bb
00000250: bf2d 0abd f5ce 71bd 18f0 12bd 9f11 eb3d
00000260: dfff 423d a7c3 a7bd b7bb 1d3e b5b8 b13d
00000270: 551d 793d 64d4 88bd 3770 34bd d24f 003d
00000280: 7742 48bd d985 62bd c3af fa3b 1dbb a1bb
00000290: b123 9fbb 7293 5abd 5e0c 6cbd 8d7e 2fbd
000002a0: 1e46 783d 94fd e4bc 9a3f febc 7526 32bd
000002b0: c382 d43c 1ef4 02be ddb6 133d d5ba 5d3d
000002c0: 7b44 f0bd fe1f d93c ed48 1bbd 810b 3c3d
000002d0: 9370 4b3d 77c2 af3c f864 debd eab9 a2bc
000002e0: 9eb1 74bb c2bc 693c ed89 03be 1a8f 8c3d
000002f0: 0c95 ac3b 5589 99bd 91ed 8dbd 1b05 86bd
00000300: 38a0 f63a 251a 61ba 7bc8 76bd f734 35bd
00000310: 89e2 eb3c a25d 75bd e177 b93d b9a1 d7bc
00000320: d996 1c3e 09c6 21bd d356 773b f014 4a3d
00000330: 91ea f23d 0b1d 223d 7a26 7c3d 7c5d 0c3d
00000340: 97c5 ab3d ad02 8d3d 93a6 903d c08a 18be
00000350: a747 803d 5d32 34bd ae61 123c cfd2 b03d
00000360: c49d e0bd 24eb 9f3d d22b 563d cc3c 933d
00000370: ae06 493d 46b7 373d 6f77 c63d 8d68 153d
00000380: 60ff ef3d 14e7 f93d 8110 d9bc a687 183d
00000390: 1f01 b93d 2863 fa3b 772c 8ebd 08f6 94bd
000003a0: 226b bebc aecb bcbd cf0a 12be 7615 443c
000003b0: e192 20bd d771 a03d 8072 2bbe 40bf 733c
000003c0: 3707 c9bd 81cb d6b8 e447 fcbd b2a8 db3c
000003d0: ee00 93bd 99b1 523b 870d 883d 6d67 ac3d
000003e0: 5044 ebbd e2d0 cabb 00a0 5c3d 869e 01be
000003f0: 3003 2e3d 8e81 1b3d 25b1 abbd a829 8f3d
0.06740794 -0.0048076482 0.005956479 -0.06826969 0.018101776 0.044766553 -0.08215254 -0.08217135
-0.041821036 0.03945604 -0.07088099 0.056225568 -0.0037477938 -0.01465795 -0.019693712 0.067124456
-0.069616266 -0.10623119 0.02604941 0.09271221 -0.017708486 0.041016806 -0.08471838 -0.025623567
-0.07774513 0.03621588 -0.010254382 -0.05028888 -0.059500262 -0.004082991 -0.07750238 -0.0067299344
-0.054153655 0.056122385 -0.03562855 -0.15090999 -0.030482009 0.05774516 -0.10244797 -0.08366471
-0.047751844 0.002924562 0.019453766 -0.0779328 -0.009071577 0.033918973 -0.026773505 -0.010419677
-0.03685029 0.07358867 -0.035297554 -0.040447097 -0.074646175 0.055879332 -0.014611445 -0.06756942
-0.08120211 0.05617253 0.017527234 -0.03511613 -0.09199757 0.010030993 -0.06883142 0.037307788
-0.0910415 0.043176375 0.041809976 0.034978922 -0.018982532 0.025926273 -0.052308455 -0.056970533
0.05508624 0.07496822 0.06066172 -0.055689346 0.037121333 -0.05210219 -0.10153027 -0.05430226
0.06428768 0.09126721 0.037433736 -0.08848862 -0.07777701 0.011695094 0.058921058 0.07715086
0.01003991 0.009713902 -0.03910263 -0.066249356 -0.089885704 -0.058548894 -0.08872731 0.029186035
-0.08291572 -0.06395843 -0.06280555 0.057375416 0.07916078 -0.037331637 -0.0129333 -0.030446805
0.08179973 -0.017375564 -0.03477505 0.084178835 -0.042057827 0.031766366 0.008673948 -0.057180192
0.07378586 -0.08389493 0.007698214 0.051562257 0.04322975 -0.07203913 -0.017041828 -0.059541658
0.0119439075 -0.08001794 0.07055417 -0.014806171 -0.040112007 0.004505068 -0.06706035 -0.018514082
0.061868116 0.19193445 0.0068684947 0.013823963 -0.03590415 0.012203548 -0.019883264 -0.118334256
0.1575244 0.019912045 -0.0831015 -0.062361278 0.026503067 -0.13381054 0.1096519 0.0027606809
0.07539261 -0.0016387488 0.050937165 -0.0044323197 -0.033735033 -0.05903526 -0.035873502 0.1147797
0.0476073 -0.081916146 0.15403639 0.08677808 0.06081899 -0.06681135 -0.04405233 0.031326123
-0.04889151 -0.05530343 0.007650347 -0.0049356357 -0.0048565497 -0.05336327 -0.05762898 -0.042845298
0.060613744 -0.027952947 -0.031036187 -0.043493707 0.025941258 -0.12788436 0.036063064 0.054133255
-0.117318116 0.026504513 -0.037911344 0.04590941 0.049667906 0.021455033 -0.10859102 -0.019864041
-0.0037337313 0.014266195 -0.12845583 0.06863232 0.005266791 -0.07496897 -0.06930078 -0.065439425
0.001881606 -0.00085869647 -0.060249787 -0.044239964 0.028794544 -0.05990375 0.09056068 -0.026322233
0.15291919 -0.0394955 0.003774096 0.049336374 0.11861146 0.03957848 0.06156013 0.03426884
0.08387297 0.06885276 0.070630215 -0.14896679 0.062636666 -0.043993343 0.008934421 0.086339585
-0.109675914 0.078085214 0.052287884 0.071893305 0.049078636 0.044852518 0.09690749 0.03647666
0.11718631 0.12202278 -0.026497127 0.03723874 0.09033417 0.007641215 -0.06942075 -0.07273489
-0.023244444 -0.09218536 -0.14261936 0.011968007 -0.039202575 0.07834213 -0.16742897 0.0148771405
-0.09815829 -0.00010242221 -0.123183995 0.026813839 -0.07177912 0.0032149313 0.06643205 0.084181644
-0.11487639 -0.0061894516 0.053863525 -0.12658128 0.04248351 0.03796535 -0.08383397 0.06990367

conv_block.2.lin_r.weight f4 [128, 128]
00000000: bca7 1f3b 7451 8a3d 23c2 90bc ccf7 173d
00000010: 33d6 f73c 5d42 5abd 603c 4abd 7865 1d3b
00000020: 6cd3 853c edf2 a0bd bded 86bd cda0 993d
00000030: d3f8 ba3c b207 34bd 85b4 c03d 1415 0fbd
00000040: 1ef4 933c d603 16bd 34f3 4bbb ff4b 4d3d
00000050: ea50 5c3c 90cc adbc dcc6 59bd 72c4 183d
00000060: 5c4f 91bd 62a4 c6bd 7aa3 8f3c 944b 883c
00000070: 5a1f 873d 076e 27bd a72a db3c 7506 d6ba
00000080: d077 34bc e477 b9bc 99f9 a23c 8ef5 b4bc
00000090: 9a8c 24bd edfe dbbc 4f73 cbbb 75fe f1bc
000000a0: 20f0 03be b608 87bd 9ce5 8f3d e1cc 04bd
000000b0: 8d66 1ebd ea2f 98bd caa5 883d 01bc 9cbb
000000c0: ec20 dd3a 3464 5d3d 9e6f efba f36e 973d
000000d0: f2ce 2a3d 7133 343d 00b6 1abd 8fb8 413d
000000e0: d502 e3bc 2d3d 15bc 8338 babc ad74 4fbd
000000f0: 66df b0bd 4eb0 bfbc 428d 613d 7661 003b
00000100: 338b 66bd 7b11 5bbd b762 3b3d c1df 2dbd
00000110: ff58 9ebd de9f a6bd 95e9 b4bd 8cd0 223d
00000120: 87a5 46bd 244f a5bd 6d86 a13d 6e93 6dbd
00000130: bbbc 8b3b 73df c03d 6158 86bd 6db5 a13b
00000140: e338 39bd 8175 5ebd 1bbd 69bd a905 b9bd
00000150: c101 903d 52d4 683d 27f2 29bc a96c 32bd
00000160: 99e0 25bd 15eb fd3c c422 943d 46c9 6cbd
00000170: 5edf b73d 36ab c2bd 78ea 883d a69a c4bd
00000180: 783c 94bc 6fc5 643d 1156 8c3b d550 073d
00000190: b456 5b3d 6102 4f3d 6d16 593d 1432 8fbc
000001a0: a535 8c3d 8331 2f3d 2c36 47bd 526e 603d
000001b0: 8c79 18bd 4751 483d e3a7 fabc a7fb 143d
000001c0: 2178 97bc 8fe2 fbba cdb5 adbd debe b63c
000001d0: 7fe2 a6bd 1d42 5f3a 9c5b 503d 94fd 7b3d
000001e0: 8793 133d 25b6 9d3d a276 c13c 86dd d73c
000001f0: c951 983d 85a7 723d 119f 063d b206 c1bc
00000200: feea 253d d821 b33d b4be 2e3d 2c0e a93d
00000210: 00bd dbbd cc3c 1c3c 048b 9c3c 2f94 b8bd
00000220: ac24 9b3d 6360 12be 6378 5ebd 7c9b 56bd
00000230: a08e a73d f32c ff3c bf9b 5fbd 40d1 3bbd
00000240: 92d2 61bd 6adb 0c3d 233f 55bd 0500 82bd
00000250: bc83 a13d 6a58 f1bd fc91 cd3c 4865 c53d
00000260: 9cbc 3fbd 4836 203e ffb6 34bd 7631 78bb
00000270: f3a1 dd3d d4a7 14ba a352 073d 9a40 cdbd
00000280: a919 ca3d 4c41 26bd 277a d93d ceab 42be
00000290: 7036 24be 7ac5 03bd fded f7bd 22f7 1dbc
000002a0: ac27 7bbd 8bf1 17bd f43f 5abd 0fc5 963d
000002b0: 1cee 00be fa08 fa3c 3879 c13d d5f9 b1bd
000002c0: 4e00 2cbe db1f b53d 2dce 4c3a b121 4cbd
000002d0: 26f5 7a3d 8b2d 7a3d 696f 26bd 7521 5e3d
000002e0: 137a fdbd 42ec 1e3d cddb ee3d 8cfa 13be
000002f0: 6e9b 5f3d 70e1 ef3d 8a38 8cbe 33c7 e9bc
00000300: b0f6 1d3d 4638 d939 d48a b4bd 9be1 04be
00000310: 9087 723c 5b74 2b3c 3a81 7d3d 7331 d33d
00000320: 7c27 2a3d fe06 923d 6981 ed3c 1622 dbbd
00000330: 13ad 0fbd 5cfc 1b3d fdff 9a3c 1973 53bd
00000340: fa1f 733d c154 32bd 24cd 0a3e c143 fbbd
00000350: 7e2a f0bd dadb 673d 462d 7cbd c129 f1bc
00000360: 543b 79be 9f17 babd 2a35 2d3d faa1 4d3d
00000370: 4f93 f93c f7af 93bd 274d 99bc 21cd e13d
00000380: 40fd 033e 20ef 13bd fe01 9ebc 803d 54bd
00000390: 4f36 7d3d e99c 973d 6852 31bd be2b 2e3d
000003a0: fa1f c03d 5b89 0dbe 55f1 cabd 2fd0 18bb
000003b0: 9789 6dbd ff53 1dbd 2690 e1bd 4155 683c
000003c0: 23f7 1bbd 7a2b e83d fd95 fe3c 4d8e cf3d
000003d0: 4c30 d03c 0186 953a 0fc9 16be 0da1 a2bc
000003e0: aeb9 83bd a015 0a3c d24f 813b a433 17bd
000003f0: f57d 063d f3af 833d b02b 2abd 3ebf 0a3e
0.0024361452 0.06753817 -0.017670697 0.037101552 0.030253505 -0.053285945 -0.049373984 0.002401678
0.016336165 -0.078588344 -0.06588314 0.075013734 0.022823727 -0.04395265 0.09409431 -0.03493221
0.01806074 -0.036624752 -0.0031120302 0.050121304 0.013447026 -0.021215707 -0.053168163 0.03729672
-0.07095215 -0.09699322 0.017534006 0.016637601 0.06597777 -0.040876415 0.026753737 -0.0016328829
-0.011014894 -0.022640176 0.019894408 -0.022089746 -0.04017315 -0.026854957 -0.006208814 -0.02954028
-0.12884569 -0.06593458 0.070262164 -0.03242195 -0.03867202 -0.07431014 0.06672247 -0.004783154
0.0016870773 0.05405064 -0.0018267517 0.07394209 0.041701265 0.04399437 -0.037771225 0.04729515
-0.027711311 -0.009108824 -0.022732025 -0.05064838 -0.0863636 -0.023399498 0.055066355 0.0019589341
-0.056285094 -0.053483468 0.04574844 -0.042449716 -0.077318184 -0.08135961 -0.08833615 0.039749667
-0.048497703 -0.080717355 0.07886968 -0.058001928 0.004264442 0.094176196 -0.06559826 0.0049349577
-0.045220267 -0.05431128 -0.05706511 -0.09034283 0.070315845 0.05684311 -0.010372675 -0.043560658
-0.040497396 0.030995885 0.072331935 -0.057809137 0.08978151 -0.09505312 0.06685346 -0.09599809
-0.01809524 0.05585235 0.004282721 0.03303607 0.053549483 0.050539378 0.052999903 -0.017479934
0.068461694 0.042771827 -0.048635647 0.05479271 -0.03722529 0.048905637 -0.030597633 0.036372807
-0.0184899 -0.00192173 -0.08481941 0.02230781 -0.081486695 0.00085166265 0.050868616 0.061521128
0.036029365 0.07700757 0.023616139 0.026350748 0.07437474 0.05924179 0.03286654 -0.023562763
0.04050731 0.087466896 0.042662337 0.08254656 -0.10729408 0.0095359795 0.019109257 -0.09012639
0.07575354 -0.14294581 -0.05431403 -0.052394375 0.081815004 0.031149363 -0.05459189 -0.045853853
-0.055132456 0.034388937 -0.052062165 -0.0634766 0.078864545 -0.11784442 0.025094025 0.096384585
-0.04681073 0.15645707 -0.04411983 -0.0037871278 0.10821905 -0.00056707603 0.033037793 -0.100220874
0.098681755 -0.040589616 0.10619002 -0.19010851 -0.16036391 -0.03217075 -0.121059395 -0.009641441
-0.06131713 -0.037095588 -0.053283647 0.07361805 -0.12590832 0.030521858 0.09446949 -0.0869023
-0.16796991 0.088439666 0.0007812705 -0.049836818 0.061268948 0.06107859 -0.040633593 0.054231126
-0.123767994 0.03879953 0.116630174 -0.14451045 0.05459159 0.11712921 -0.27386886 -0.028537368
0.038565338 0.00041431392 -0.08815542 -0.12976687 0.014802828 0.010464753 0.06189082 0.10312166
0.04154156 0.0713024 0.028992372 -0.10699861 -0.035077166 0.038082466 0.018920893 -0.051623438
0.059356667 -0.04353786 0.13554817 -0.122687824 -0.11726855 0.05660615 -0.061566614 -0.029438855
-0.24339038 -0.090865366 0.04228703 0.0502033 0.03046575 -0.07211297 -0.018713547 0.11025453
0.12889576 -0.03611672 -0.01928806 -0.051816463 0.06181937 0.07402975 -0.04329148 0.042522185
0.09381099 -0.13821928 -0.09909312 -0.0023317446 -0.057992544 -0.038410183 -0.11013822 0.014180482
-0.038077485 0.113364175 0.03107738 0.101345636 0.025413655 0.0011407734 -0.14725135 -0.019852186
-0.064319 0.008428007 0.003946283 -0.036914483 0.032834966 0.06430044 -0.04154557 0.13549516
