models/hyperparameter_optimization/initial_test/initial/Set2/train_patience/input_train_patience_5/GNN.pth (torch, 994184 bytes, 18 tensors)

input_layer.weight f4 [128, 8]
00000000: 21bf 753e 62bd 973e a3a1 a9bd f7e1 873e
00000010: dfa5 9ebd 3b62 0c3d a642 30be 799e 543e
00000020: 30c1 a63e 06cd 84be 4497 8c3e f7d1 ccba
00000030: 76a0 663e 0be1 143d 8c66 373e 6777 4cbd
00000040: 9f92 913e 4de8 9f3d 9c03 29be d54a 1e3d
00000050: f2cd 26be 48d4 29bd 860b 13be 7b2a 703e
00000060: 2ae4 8ebe 50e7 26be 0e76 ccbd 13af 59be
00000070: ba70 843c fdc9 b2be fc13 c83e 2ac5 99be
00000080: f1bd 7e3e 25e8 323d 771c ebbd cc02 5c3e
00000090: 6ecd 093d 7d8b 863e 34d3 b03c c55a e4bd
000000a0: 31d7 56ba da5a c4bd 93fe f43d e0f6 9b3e
000000b0: cf22 493e fb45 1ebe 8c3a 723e 728e 813d
000000c0: fcf4 2f3e 16aa 5cbe 4c31 b3be a1e0 0bbe
000000d0: 91d8 8abe b783 8e3e bfc8 d63d 19f6 153e
000000e0: 13f5 cc3d 5789 c9bb fec2 863e e09d 80be
000000f0: 827e 693b 1f1b 77be eb52 e73c 025c f9bd
00000100: f22c 9d3d f8da 96bd 557f 953e bd94 56be
00000110: 4ceb 57be a3ee 57be 4dc9 b13e b14c f13d
00000120: 41e4 a63e 1664 95be 7b8c b3be 7b9f 8dbe
00000130: 1a8a 73be 934b d53d 1e73 f73d d369 963e
00000140: 49f7 3abe 58ce 76be e99b 153e 7056 12be
00000150: 4569 2e3e f2d2 abbd 6013 8c3e 6fa5 8cbe
00000160: e6b3 36be 9e7c 143e 61a4 a23d 1f9c b8bd
00000170: f393 483e 3238 643e 3945 83be eb47 41be
00000180: 7512 ac3e c553 f4bd 4059 00be 4127 afbe
00000190: 2a54 4fbe fd84 8c3d 8325 3fbd 3f66 83be
000001a0: 978a cc3b 4a4d 77be 8293 99be 755c 47be
000001b0: 296e 9ebe 1886 66be 455e d13e 94c2 883d
000001c0: f6db e33d 7ad5 a8be 0bc7 6dbe 6b03 f1bd
000001d0: e28f 8e3d 6448 9fbe 22fe 1bbe bdbd 58be
000001e0: 07e2 a3bb 3bb7 06be b4b3 c8bc 0254 75be
000001f0: 6880 78be c936 53be 8dd9 f7bd 07e0 8ebe
00000200: 3316 693e 0cb4 8fbd 1d65 9c3e 1bd1 523d
00000210: 6049 99be 496d 6e3e e339 c7bd 63c7 0abe
00000220: 4142 96be 59f6 b3be 7928 ab3d 962b 9ebd
00000230: 87fd e73d 538e 94be 6031 5e3e bfe0 84be
00000240: c60e 7abd 0fb7 5a3c ce93 2d3e 3ff7 923e
00000250: 67ab 9e3e c488 8fbe 3558 113d e4b8 1bbe
00000260: 1db2 1ebd be7d 87be f5bb 9c3e f6db 84be
00000270: bd34 3a3e 0f60 f93d 07b9 6a3d 1ebc 43be
00000280: f7f1 bd3e 235d 1b3d 1a8a 843c 2f86 9fbe
00000290: 71de 053e c740 59bd d4db 25be 667c 9b3e
000002a0: 5d57 f93c b54e 48be eb3d 37be ba50 8abc
000002b0: 1fb1 5b3e b806 b9bd f791 4ebe 83f4 f7bd
000002c0: 283c 87be 5f65 0f3e 3fdf 5c3e 3d6b aabe
000002d0: 5bdf 843d ec64 2a3e 9b37 c03d 4fee 00be
000002e0: c20f 133e cddf e23d 9d43 cc3d c678 7ebd
000002f0: 91bc bfbd 424d c23c 8dd2 7fbd 9bc6 d7bd
00000300: 9a1a 5e3e be95 a23e 0d5d 0fbd 5f1e a2bd
00000310: 7220 35bb fcee acbc 410a aebb 2be9 ca3d
00000320: 7b69 a4be 1e9b 05be 59a2 923e ed94 333e
00000330: 2e0e 90bc 7346 5abe 427f 5dbe b026 a2be
00000340: a205 ecbd 1851 8d3d 5ab7 3b3e 422f 463e
00000350: ce02 a0be 6ab7 59be fd8a 64bd e51b af3e
00000360: b041 733d cd83 bbbd 71a8 1a3e d3e4 09be
00000370: e254 6abe 4234 803e a09e 24be 4727 91bd
00000380: 2d14 b4be 825f 943e e429 7c3e 9629 be3d
00000390: b370 7cbe bba7 b2be 2505 93be 75fc 863e
000003a0: 3559 183e 1ab9 953e 696d 263e 71be f73d
000003b0: b3e6 62bb 92aa 89be a317 9bbe f250 a9be
000003c0: 8616 303e d8bf 31be f1b8 91bd eb5a 50be
000003d0: a7f1 83bd c1d0 7ebe ce8f 6cbe 2d2f f03d
000003e0: 7331 d7bd a470 823e 554a e8bd 34ca 84be
000003f0: c782 7fbd 4f7f 2fbe 7e86 ddbd 6154 acbe
0.23998691 0.29636675 -0.08282783 0.26539585 -0.07746481 0.034273367 -0.17212924 0.20763578
0.32569265 -0.2593767 0.27459157 -0.0015626539 0.22522148 0.03634743 0.17910212 -0.04991856
0.28432176 0.0780798 -0.16505283 0.038645584 -0.162895 -0.041462213 -0.14359865 0.23453705
-0.2790845 -0.16299176 -0.09983455 -0.21258192 0.016167033 -0.3491973 0.39077747 -0.30033237
0.24877144 0.04367842 -0.114800386 0.21485442 0.03364318 0.26278296 0.021585084 -0.111501254
-0.0008195518 -0.09587641 0.11962619 0.30461788 0.19642185 -0.15456383 0.23655146 0.063259974
0.17183298 -0.21549258 -0.34998548 -0.13659908 -0.27118352 0.27834865 0.10487508 0.1464466
0.10007682 -0.0061504054 0.26320642 -0.2512045 0.0035628383 -0.2413144 0.02823778 -0.12175752
0.07674588 -0.07365984 0.2919871 -0.20955177 -0.21085852 -0.21087126 0.34723893 0.11782206
0.3259602 -0.29177922 -0.35068116 -0.27660736 -0.2378315 0.10414805 0.12082504 0.29377612
-0.18258394 -0.24102151 0.14610256 -0.14290786 0.17032345 -0.08389844 0.27358532 -0.27469966
-0.17842063 0.14500663 0.07941509 -0.09014153 0.19587688 0.22287062 -0.2563875 -0.18875091
0.33607832 -0.1193004 -0.12534046 -0.34209636 -0.2024695 0.06861303 -0.046666633 -0.25663945
0.006242107 -0.24150577 -0.29995352 -0.19468863 -0.3094342 -0.2251209 0.40892234 0.06677738
0.111259386 -0.3297537 -0.2322046 -0.1176823 0.06961037 -0.31109917 -0.15233663 -0.2116613
-0.00500131 -0.13155834 -0.024499752 -0.23957828 -0.24267733 -0.20626368 -0.121020414 -0.27905294
0.22762375 -0.07016763 0.30545893 0.05146895 -0.29938793 0.23283876 -0.09727838 -0.13552622
-0.29347423 -0.35148886 0.08357329 -0.07723157 0.113276534 -0.29014835 0.21698523 -0.25952718
-0.061049245 0.013349309 0.16950914 0.2870426 0.30990145 -0.2803403 0.03548451 -0.15207249
-0.03874408 -0.2646312 0.3061215 -0.25949067 0.1818418 0.12176525 0.057305362 -0.1911473
0.37098667 0.03793062 0.016179133 -0.3115706 0.13073136 -0.053040292 -0.16197139 0.30368346
0.030437166 -0.19561274 -0.17894714 -0.016884197 0.21454285 -0.090344846 -0.20172869 -0.12107184
-0.26413083 0.14003514 0.21569537 -0.3328494 0.06487914 0.16640061 0.09385606 -0.12590908
0.1436148 0.11077843 0.09973834 -0.062126897 -0.09362138 0.02371848 -0.062456656 -0.10535928
0.21689835 0.3175487 -0.03500085 -0.07915949 -0.0027637747 -0.02111005 -0.005311281 0.099077545
-0.32111725 -0.13047454 0.28639486 0.1753728 -0.017584886 -0.21315937 -0.21630576 -0.3167014
-0.11524512 0.06900233 0.18331662 0.19353965 -0.3125214 -0.21261373 -0.055796612 0.3420097
0.059388816 -0.091559984 0.15103318 -0.13466196 -0.22883943 0.2503987 -0.16076136 -0.0708757
-0.35171643 0.28979117 0.24625355 0.09285276 -0.24652366 -0.34893593 -0.28714862 0.26364484
0.1487778 0.29242784 0.16252674 0.12096871 -0.003462237 -0.26887947 -0.3029147 -0.3306957
0.17196092 -0.17358339 -0.07115353 -0.20347182 -0.06442576 -0.24884321 -0.23101732 0.11727748
-0.105074786 0.25476563 -0.11342303 -0.2593552 -0.06238058 -0.17138408 -0.10816668 -0.33658126

conv_block.0.lin_l.weight f4 [128, 128]
00000000: 812e f83b eebe 1cbd efd3 1f3d 05fc 1e3b
00000010: 4962 2bbc 62dc 863d 05a1 593d a9b0 1d3c
00000020: 9f5d a2bd 45ec b5bd 7294 41bd 707a adbd
00000030: c2f8 a03d c1e2 1dbd e7d4 8dbd 33e5 2abc
00000040: 658f bb3c 2c86 a4bc 5e73 40bc caa5 3bbd
00000050: 2703 9e3d 95f1 be3c 94e4 983d 5406 ddbb
00000060: 5f78 303d e49e 88bd b762 9d3b 0e13 76bd
00000070: 9075 c5bc d7f9 9dbd 2ce6 54bd 7121 63be
00000080: 3006 93bd 096a f9bd cea0 a5bd 9147 8f3d
00000090: 28f4 e9bb dfb4 743c b569 613d c1a7 42bd
000000a0: becc dfbc 5712 d0bd c0c7 bfbd 9f2a acbd
000000b0: c1ed 6ebd aa14 3cbc 1129 4d3c 6287 823d
000000c0: 6b17 b1bc f6e2 89bc da36 e0bd 2e31 373d
000000d0: 68fe 8bbd 4df8 813d c233 d4bd a69e 4a3d
000000e0: 8117 563d 2a4d ccbd 33fc 383d 3570 4ebd
000000f0: 2d29 2b3d cd0b a23c 348a edbc 32fd 4ebc
00000100: 3dd2 51bd b6a6 76bd 1c5b a43c a640 d3bc
00000110: d447 5fbd 7dad 93bd a235 813c 1614 1e3d
00000120: 3bec a43d 77df 6abd f1f0 c1bd 50ee 50be
00000130: 584c d73c 9987 ddbd 7c2c adbd 2d3f 06bd
00000140: f882 56bd 5c09 6e3d 4712 1ebd 366e 333c
00000150: 4d90 88bd b737 8b3d e3f4 823d 3d1e ba3c
00000160: eccc 023d 5c96 9ebd 45f1 8ebd a32e f5bb
00000170: c8cd 463a b764 e63c 1c46 dd3c 912a 09bc
00000180: d04d 9dbd 0c16 56bc 21af 353d 86fe 5abd
00000190: e2a7 f2bc 3852 983d c349 fcba ec83 543d
000001a0: 5be8 ffbd 0a6d a03b 97f9 15bd a58f 38bb
000001b0: 23bf 49bd c3e5 883d fc96 19bd d9f2 523c
000001c0: 986d 4f3d 440e 8c3d 247a 803d ce01 43bd
000001d0: 40d5 993c 1236 a4bd ed0a 9e3c 1c42 243d
000001e0: a292 ce3c 6010 a6bd 1482 293d aee7 9b3d
000001f0: 2bbf 263d 7730 fdbc 1baa adbc 5ea4 a4bd
00000200: 875d 3a3c 8703 f53c f865 96bd 44df b23b
00000210: 0b05 c4bc ac41 433d 9bf9 bebc fda5 82bd
00000220: 9c45 223d 8751 4cbd d564 20bc 58d1 0cbd
00000230: ee0a d53c 33c6 c0bc 92ab 943c 9f9b 86bd
00000240: 1abd b1bc 1b09 a73d f332 7ebd da42 b0bc
00000250: 1181 82bc 495a dab8 23c8 34bd 7033 b83c
00000260: 10f2 0abd 16b8 723a 2f83 963d aa08 8a3d
00000270: 9afc 06bd 7aa0 6dbd 5914 84bd b850 a6bc
00000280: c365 c9bb 8af2 933c d90a 2abd 8d5b 2e3d
00000290: 434f 78bc 7664 bd3c b742 9f3d cd25 c7bb
000002a0: 7cc6 c6bb 3dea 08bd 006c 6b3d fd46 b1bd
000002b0: dadc 55bd 33c0 423c 7a16 2a3d f859 c5bd
000002c0: 0ae7 a6bc 0b01 013c 215a 8f3d 43f3 fb3c
000002d0: 0b95 943d aef7 d9bc 58a0 bdbd beb8 cc3a
000002e0: 98d7 453d d4c4 91bb 32f9 813b 7e9c 9a3d
000002f0: e84a bebd 31dc b43b fb48 973c b863 f43b
00000300: 1b49 08bd 6034 3bbd 4a1c 253d de5b 513c
00000310: 38bd 693c de23 25bc 4694 88bd 358a 163d
00000320: 7b3d 60bd a8ea 85bd b499 38bd fcfd 9fbd
00000330: c085 a6bd da8b a5bc c571 c4bd 5735 663d
00000340: a5cc a0bd da2d e43c 19a0 e03c 311a 3abd
00000350: 0aff 0a3c 36f1 943d 259c bcbd 73c3 00bc
00000360: ae8c 483d 7c17 943d 9258 873c 3290 8a3d
00000370: 2401 58bd 64a5 8f3d 067b 243b 2da6 74bd
00000380: fc4e 3e3d 37c4 803d 6b8f abbd 0463 133d
00000390: ac40 823c 2ceb 843d 2663 bfbd 2b32 173d
000003a0: f39a 9d3d 69a1 19bd fd26 9e3c 0359 b5bd
000003b0: 3020 693c a5d2 95bd c55b c1bd 40d8 033d
000003c0: 7385 423d f14c 253d 13a7 663d ff95 04bd
000003d0: faf6 96bd d324 373d 924c 833d 2042 9dbd
000003e0: ac19 a0bd 7f57 85bd 3465 77bd 1509 643d
000003f0: 4a1e bbbd aaca a53c 5110 8d3b d49a 90bd
0.007573903 -0.038268022 0.039020475 0.0024259102 -0.010460445 0.065850034 0.053132076 0.009624639
-0.07928013 -0.088829555 -0.04726071 -0.08470619 0.07859947 -0.038546328 -0.069253735 -0.010430622
0.022895524 -0.02008351 -0.011746256 -0.045812406 0.07715445 0.023308555 0.07465473 -0.006745139
0.043083545 -0.06670931 0.0048030275 -0.060076766 -0.02410391 -0.07713669 -0.05197732 -0.22180726
-0.071789145 -0.12178428 -0.08087312 0.06996072 -0.0071397014 0.014935701 0.05503245 -0.047523264
-0.027319308 -0.10159748 -0.09364271 -0.08406567 -0.05833221 -0.011479536 0.012521998 0.063734785
-0.021617612 -0.016831856 -0.10947962 0.044724636 -0.068356335 0.06346188 -0.103614345 0.049467705
0.05226851 -0.099756554 0.04516239 -0.050399978 0.041787315 0.019781018 -0.028996564 -0.012633609
-0.05122589 -0.06021758 0.020062976 -0.025787663 -0.05451186 -0.07210825 0.015772644 0.038593374
0.0805287 -0.05734202 -0.09469784 -0.20403409 0.02628152 -0.10816879 -0.0845575 -0.032775093
-0.052370995 0.058114395 -0.03859165 0.010951569 -0.06668148 0.06797736 0.06394365 0.022719497
0.03193371 -0.077435225 -0.06979612 -0.007482366 0.00075837644 0.028124196 0.02701097 -0.008371965
-0.07680857 -0.01306678 0.04435647 -0.05346539 -0.029621068 0.07437557 -0.0019248057 0.051883623
-0.1249549 0.004895811 -0.03661498 -0.002816179 -0.049254548 0.066844486 -0.037497506 0.012875282
0.050641626 0.068386585 0.062732965 -0.047609143 0.018778443 -0.080181256 0.01929232 0.04010211
0.025216404 -0.08108592 0.041383818 0.07612549 0.040709656 -0.030906899 -0.021199277 -0.08039163
0.011374838 0.029908909 -0.07343668 0.0054587442 -0.023928186 0.04767005 -0.02331238 -0.06379316
0.039617166 -0.049882438 -0.009789665 -0.034379333 0.026006188 -0.023532009 0.018148217 -0.06572651
-0.021696616 0.081560336 -0.062060308 -0.021516252 -0.015930684 -0.00010411867 -0.044136178 0.022485465
-0.033922255 0.00092589983 0.0734924 0.06739934 -0.032955743 -0.05801437 -0.064491935 -0.020302162
-0.006146164 0.018059988 -0.04151425 0.04256778 -0.015155616 0.023119193 0.07776397 -0.0060775043
-0.0060661417 -0.033426512 0.057476044 -0.08656118 -0.052212574 0.011886644 0.04152534 -0.09636301
-0.02037384 0.007873784 0.069996126 0.030755645 0.0725499 -0.02660736 -0.09259099 0.0015619022
0.04830131 -0.0044485126 0.003966474 0.0754938 -0.09291631 0.005519413 0.018467417 0.0074581765
-0.033272844 -0.045704246 0.04031018 0.0127782505 0.014266305 -0.010079352 -0.06668906 0.0367529
-0.054746132 -0.06538898 -0.045068458 -0.078121156 -0.081309795 -0.020208288 -0.09592012 0.056203213
-0.07851533 0.027853895 0.02742009 -0.045435134 0.008483658 0.0727257 -0.0920947 -0.007859099
0.048962288 0.07231042 0.016521726 0.06765784 -0.052735463 0.07013968 0.0025097742 -0.05972879
0.046462044 0.06287425 -0.08376964 0.0359831 0.015899979 0.06490168 -0.09345083 0.03691308
0.0769557 -0.03750745 0.0193057 -0.08854868 0.0142288655 -0.07315568 -0.09441332 0.032188654
0.04749055 0.04035658 0.05631168 -0.03236961 -0.07371326 0.044712853 0.06411089 -0.07678628
-0.078173965 -0.06510829 -0.06039925 0.055672724 -0.091366366 0.02023824 0.0043049236 -0.07060781

conv_block.0.lin_r.weight f4 [128, 128]
00000000: 3182 b33c c210 aabd 2eb2 95bc ca95 a33d
00000010: 713e bd3d dadf 77ba 8ebc 8f3d 830e 3abd
00000020: 9d4b d7bd 9b58 74bd ced2 21bd 374f a3bd
00000030: 3edd 7b3d c0ac 9dbc c0a9 35bd b338 5fbd
00000040: c0cd bf3c 4f11 44bd 29ff 2abd eac1 15bc
00000050: 5c42 a9bd 0f78 a0bc 6c6d b63d 861b 713d
00000060: 6e9e 43bc 95f0 c1bd a0c3 23bc 213a 2bbd
00000070: 668e d6bd 9b7e 90bd 63c5 85bd bb1d 9f3c
00000080: 3034 a0bd 5d98 20bd 8e29 b13b dba9 3ebd
00000090: 6b71 84bd b053 043d f95a b3bd f7ff 513d
000000a0: 29a4 57bd fcc4 cdbd 295d e0bc c19f e8bb
000000b0: 6724 b0bb 6b40 cbbc aa28 66bc e575 c43c
000000c0: 261f 423d f12a 5abd 86db ab39 0686 8a3d
000000d0: a540 c7bc 694c ddba 8f46 ab3c 7e86 b7bd
000000e0: d841 69bd 6447 a03d 5398 883c 2866 e5bc
000000f0: cb87 ebbd f8a7 9ebd f5c2 a9bc 2bf6 33bd
00000100: 6573 0c3d 949e 9cbd e1dc 2b3d cb3e 99bd
00000110: 38d9 1ebd 68ce 753d 440f bf3b 179e 4dbd
00000120: 9f57 0e3d 8357 df3c 10cf 2ebd c56a e3bd
00000130: b0ba 373d c8cc b93c dfe6 573d 42d8 1d3c
00000140: 6722 8bbc cd65 97bd 734a 6fbd b690 92bc
00000150: 915c cebb a503 373b d053 1bbd 3968 c83c
00000160: ca2b b13c e8e2 91bd 6bff 873d 8820 623d
00000170: cb9b 883d 9fb0 87bc 8e29 4f3d 3e63 c73c
00000180: 0cdd 363d c37e 5d3d a5e0 443c 44ba 423d
00000190: a25f 67bd 73e0 0ebd 95ab cf3c d309 2f3d
000001a0: e780 ba3c 5191 b53c 3130 a13d 1d26 0f3d
000001b0: c836 c93c a11b a1bd af41 80bd 7ea2 ab3c
000001c0: 9c38 813d f408 70bb 3b9a d03c 4d1d 013d
000001d0: c63c 3cbd f2eb 0dbd 39a1 47bd 8be6 82bd
000001e0: f8e0 98bc 1335 4ebd 8003 c9bc 3e69 adbd
000001f0: b171 823d b09b c5bd 4f2d 01bd 5ea8 38bd
00000200: 991b aebd 2d81 07bd 046b 853d a4df afbd
00000210: b701 6d3d 05e8 65bd 2e02 a4bd 4014 f63c
00000220: f69e 9d3c 7622 533d 65de 0e3d 8860 293d
00000230: 0ef1 d03c 30fa 51bc bdf0 713d 9b36 97bd
00000240: c04b bdbd ac27 30bd 1eb8 97bd ee23 883d
00000250: ae31 0d3d a5f1 a83d 6341 6ebd 7a6c 8a3d
00000260: 17f3 b4bd 4fec 7cbd 2241 933d bf50 c9bb
00000270: fc95 2a3b d2a0 48bd 6291 b03c ffcb f4bc
00000280: e6f2 843d 447a 0f3d 77ea 85bc f402 0cbd
00000290: facd 83bd ff7f 023d aa25 8b3b 163f a1bd
000002a0: 451b 02bd 9acc 05bc 495f 5e3d faab 61bd
000002b0: 4e90 cbbb 7e6e 65bd 9932 873d 083b 4dbd
000002c0: b68c 10bd 9453 4f3d 945c 613d c97e 103d
000002d0: dcfb 983d c4e3 8cbd 3bf6 52bd 00d6 9b3d
000002e0: 68ee 9d3d 8a4b 913d 4d5d 95bd 45b6 ea3c
000002f0: e126 a03d b153 0f3d 0fc5 a2b9 f819 833d
00000300: fa13 953d f547 313d 9949 b73c 76b1 b7bd
00000310: ab2a bbbd 41fc 6c3c 2d9f acbd 8d62 b0bb
00000320: 1cbe 2abd 268d 10bc 6233 5abd 82d4 313d
00000330: 238b 853d bfe2 a7bd ebe2 9d3d c1e2 a4bd
00000340: cdef 80bd 16f4 023d eed2 c3bc 1288 9bbd
00000350: 80ed 65bd fad5 a33d 578e 86bd b4b1 2bbd
00000360: 0a48 6fbd e138 003d 2f94 2b3d c209 39bd
00000370: 47d7 a1b9 007c 3dbc 1563 8abd 42aa ba3b
00000380: e2df 663c 1937 623d c3c2 ad3d f18b 5dbd
00000390: b4f5 14bd b873 00bd a810 8ebd d577 133d
000003a0: 99cb c43c 5384 b3bc fadd 413d 4331 77bc
000003b0: e7dd 043d 71ef 153d 1c72 bebd 74d0 8bbc
000003c0: 9758 2b3d 9108 0dbd 3a09 bfbc 63a1 0f3d
000003d0: e459 8bba 09e9 6fbd 3ecc 5a3d d40b 163d
000003e0: a4f0 963b ffdc 87bd 2c19 99bd 3e73 84bc
000003f0: 40bc 9f3b 2611 853d f203 923b a135 39bc
0.021912666 -0.083039775 -0.01827344 0.07987554 0.092404254 -0.0009455659 0.07018386 -0.045423996
-0.10512469 -0.059654813 -0.03950768 -0.079740934 0.06149029 -0.019247413 -0.04435134 -0.054497432
0.023413539 -0.04786807 -0.041747246 -0.009140471 -0.0826461 -0.019588498 0.08907589 0.05886414
-0.011939628 -0.094697155 -0.009995371 -0.041803483 -0.10476379 -0.07055398 -0.06531789 0.019423356
-0.07822454 -0.039207805 0.005406565 -0.046548706 -0.06466945 0.032306373 -0.08757586 0.051269498
-0.05264679 -0.100473374 -0.027388172 -0.0070991223 -0.0053754332 -0.02481099 -0.014047781 0.023981998
0.047392987 -0.05326361 0.0003277922 0.06763844 -0.024322817 -0.0016883734 0.020907668 -0.08961199
-0.05694756 0.07826117 0.016674196 -0.028002813 -0.1150051 -0.07746881 -0.020722846 -0.043935936
0.034289736 -0.07647434 0.041958693 -0.0748268 -0.038781375 0.060011297 0.005830677 -0.050199594
0.03475153 0.027263409 -0.04267794 -0.11104349 0.044855773 0.022680655 0.05271041 0.009634079
-0.016984178 -0.07392464 -0.05842061 -0.01789127 -0.006297656 0.0027925756 -0.037921727 0.02446376
0.021627326 -0.07123357 0.06640514 0.055206805 0.0667034 -0.016563712 0.05057674 0.024339315
0.0446444 0.054075968 0.01201645 0.047540918 -0.056487687 -0.03488202 0.025350371 0.04273398
0.022766544 0.022164019 0.0787052 0.034948457 0.024562255 -0.07866598 -0.06262528 0.020951506
0.063096255 -0.003662643 0.025464168 0.031522084 -0.045956396 -0.034648843 -0.04873774 -0.06391629
-0.018661961 -0.050343584 -0.024537802 -0.08467339 0.06369341 -0.09648836 -0.03153735 -0.045082442
-0.085013576 -0.033082176 0.06514552 -0.08587578 0.057862964 -0.056129474 -0.08008228 0.030038953
0.019240838 0.051546536 0.03488006 0.041351825 0.025505569 -0.012815997 0.059067477 -0.07383462
-0.09242964 -0.043006584 -0.074081644 0.06647478 0.034471206 0.08249215 -0.058167826 0.067589715
-0.08835428 -0.0617488 0.071901575 -0.006143659 0.002602934 -0.048981495 0.021553699 -0.02988243
0.06491642 0.03502871 -0.016347153 -0.034182504 -0.06435771 0.031860348 0.0042464333 -0.07873361
-0.031764288 -0.008166457 0.05429009 -0.05509565 -0.006212271 -0.056013577 0.066014476 -0.050105125
-0.035290442 0.050616816 0.05501993 0.03527716 0.07469913 -0.0687938 -0.051504355 0.07609177
0.07711488 0.07094486 -0.07293186 0.028651366 0.078199156 0.034991924 -0.00031045868 0.064014375
0.07279201 0.043281514 0.022373961 -0.08969395 -0.09138998 0.014464439 -0.08428798 -0.005382842
-0.04168521 -0.008822715 -0.05327166 0.043415554 0.06520679 -0.08197545 0.07709297 -0.080510624
-0.06295738 0.03197106 -0.02390429 -0.07594313 -0.0561347 0.07999797 -0.06570118 -0.041917518
-0.05841831 0.031304244 0.041889366 -0.04517532 -0.00030868707 -0.011565208 -0.0675718 0.005696566
0.014091464 0.055228326 0.084844135 -0.054088537 -0.036367133 -0.031360358 -0.06936771 0.036002953
0.024022864 -0.021913683 0.047330834 -0.0150874285 0.032438185 0.036605302 -0.092991084 -0.017067172
0.041832533 -0.034431998 -0.02331983 0.03506602 -0.0010631648 -0.05857185 0.053417437 0.036632374
0.0046063233 -0.066339485 -0.07475504 -0.016168233 0.004874736 0.064974114 0.0044560367 -0.01130429

conv_block.1.lin_l.weight f4 [128, 128]
00000000: 7e2b 83bd 3b77 a53d d17b e3bd 09cf 79bd
00000010: 2986 e2bc f80a 183d 80ac 143d be0e 0b3d
00000020: caa0 053d c23a a83d 64b5 a0bd c2bc 123d
00000030: ee44 213d 2e5b 1a3d 7705 99bd 8545 993c
00000040: 0bb0 623d 24c1 013a d8cd 9cbd 79cd 4f3d
00000050: 2cc4 4fbb 0929 6c3d c019 4abd cb20 aa3d
00000060: f79b da3d 241a 163a 4c95 8ebd d308 19bd
00000070: 5f06 ab3d 10c1 b53d 7ce9 a1bd 04be dcbd
00000080: 449a 36bd 302a de3c 4dc8 063d 7997 3e3d
00000090: f508 b8bd 44a6 373d 1be2 e13c 8768 f23d
000000a0: 3a00 abbc 2774 1ebd c228 2d3d eace 833b
000000b0: 2069 e3bc 4289 c5bc 2571 d83b 71bc e53c
000000c0: 6fc3 f93c 5546 aabc e194 823d 93ba 5a3d
000000d0: 4716 db3b 39d9 ba3c b0d3 de3d d349 94bd
000000e0: 4aca ca3c 58a4 9e3d 925d 8a3d 32b4 19bc
000000f0: 85d2 8abd 03af 9e3b 05b6 e7bc 0b6b 16bb
00000100: b9e2 97bd fd34 6e3c 242b 0e3d 619a 8b3d
00000110: 8437 20bd 35d9 c7bd b223 b5bd 1ef2 953d
00000120: 2550 81bd 90f7 14bd 322f a4bd 897c a7bd
00000130: 2852 9f3d ff11 0abd 0b0b 523c 5933 7cbd
00000140: 7af8 e33d 58d4 3fbd 4afa e6bb 8b66 c4bd
00000150: 9168 983d 1bf2 1e3d 1f6f 3abd 1fec 853d
00000160: 6445 aa3b de7d d3bb 90bc af3b 115a a43d
00000170: e1b2 0abc d539 003d a799 943c ecd1 86bd
00000180: 7461 7c3c c2b7 38be 85b0 c83d d132 2abe
00000190: 9a91 08bd b04e 16be fc31 1d3d 2e63 85bd
000001a0: 7e49 9abd dcd4 503d f703 333e 9a7f e03b
000001b0: f32e 35bd 348f b0bd e8d7 b7bd dc78 4f3c
000001c0: a9bb 67bd 905c 7c3d bca3 0ebe df9b bfbc
000001d0: 1b93 983d 787a 8bbd 3e98 0ebe 11a6 4f3d
000001e0: 72e0 df3d 8899 433d b77b 15be dd0e 0abd
000001f0: fc0c 2cbd 2017 99bc c23c 753d 92ba bcbc
00000200: e907 21bd 70dd a1bd 4c2f 423b e808 353c
00000210: e238 afbd 9e89 0dbe 0a41 b53c 5468 683d
00000220: bfa9 043d d45f 1fbd c203 383c 1928 5dbd
00000230: 56f5 53bd 781f a63d 06f3 9a3c da08 4abd
00000240: 8e6b 103c 1b2e 683d 2e0d 633d 6eff 1b3c
00000250: e701 af3c 99bc 8d3d 6c8a 303c d0ac 9c3c
00000260: 9116 a8bd 303c 76bd 3cbb 443d be69 1bbd
00000270: 1a60 39bd 24d8 183d bd41 513d a370 61bd
00000280: cd34 403c 2c19 6d3d 0c9d e0bc 994d 323d
00000290: 500e 153d 06d4 f73c 9ce4 36bd 9ddd cdbd
000002a0: 34fe 7d3c 8201 43bd 997b 1a3d 7e87 f3bc
000002b0: 4894 abbd b032 f03c e391 9a3d a09c 8ebb
000002c0: 7847 eebc 5a66 70bd 7e27 f3bd cbfe 14bd
000002d0: f5b8 a9bd 46f6 aabd 1e89 17bd a88c 9ebd
000002e0: 5ecb a1bd dcad 883d f795 fc3b 7617 38bc
000002f0: 7daa a4bd ed20 a9bc 3bcb 873d 787b 003d
00000300: 7d84 3f3c 005d e93b 15a1 ba3b 1293 853d
00000310: 52d3 703c c8cf 723d 6b8b 4e3d 54b7 b8bc
00000320: 3b04 7b3d 652f 3abd c165 243b f74a e0bd
00000330: 7925 42bb 18e5 babd fefc 35bc 0a67 59bc
00000340: fd5c a2bd 407f f13c 564a a6bd e4c6 83bd
00000350: 6b9e 4b3d a798 bfbd 6799 1e3d 4b23 a1bb
00000360: 9528 95bd 28a9 c4bd 4da6 273d 59c1 013d
00000370: c440 183c 8f29 153d 3ef2 a93d 462a 983d
00000380: df4c 8ebd 8a8b 17bd a056 393d 4a79 a43d
00000390: 1ea9 58bd 576e d2bd c484 a33d 356d 903d
000003a0: 6dff e43c fda1 21bc b292 87bd 83c7 493c
000003b0: e1db 98bd 6c05 cabc bb93 9bbc e9e5 a93d
000003c0: 0fcb a9bd 6d4c a93d 8131 963c 541f 91bd
000003d0: a173 7ebd 319d bebd 6da7 973c 7ed0 e0bd
000003e0: 5c03 debd e62a 5ebd 4083 903d f20f 5d3d
000003f0: 7d17 0b3d ffa3 1d3d 4c7c 263d 453d 02bb
-0.0640478 0.08079382 -0.111076005 -0.06098846 -0.027651863 0.037119836 0.03629732 0.033949606
0.032624044 0.08214332 -0.078470975 0.035824545 0.039372377 0.037684612 -0.074717455 0.018709907
0.05534367 0.00049497397 -0.07656449 0.050733063 -0.003170262 0.05765632 -0.049340963 0.08307036
0.10674279 0.0005725941 -0.0696207 -0.03736193 0.083508246 0.088747144 -0.07905862 -0.1077843
-0.044580713 0.027119726 0.032905865 0.046531174 -0.089860834 0.044836298 0.027573636 0.11836343
-0.020874131 -0.03868499 0.042275198 0.004022469 -0.027760088 -0.024113301 0.0066052848 0.028043957
0.030488698 -0.02078549 0.06376053 0.053400587 0.0066860053 0.022808658 0.1088022 -0.07240643
0.024754662 0.0774619 0.06756128 -0.009381341 -0.06778435 0.0048426404 -0.028285036 -0.0022951986
-0.07416291 0.014539001 0.03470911 0.06816555 -0.039115444 -0.09758226 -0.08844699 0.07321571
-0.063141145 -0.036368906 -0.08016814 -0.0817805 0.07779342 -0.03370857 0.012820016 -0.061572406
0.111313775 -0.046833366 -0.0070488798 -0.09589871 0.074418195 0.03880511 -0.04551613 0.06539177
0.0051962603 -0.0064542135 0.0053630546 0.08024991 -0.0084655 0.031305153 0.018139673 -0.06583008
0.015404094 -0.18038848 0.097992934 -0.16620947 -0.03334198 -0.14678454 0.038377747 -0.06513058
-0.07533549 0.05098425 0.17481981 0.006851149 -0.044234227 -0.08621064 -0.08976728 0.012663092
-0.05657545 0.061611712 -0.13929647 -0.023389755 0.07449933 -0.068104684 -0.13925263 0.050695483
0.109314814 0.04775384 -0.14597975 -0.03370558 -0.04200457 -0.018687785 0.059872396 -0.023038182
-0.039314184 -0.07903564 0.0029630242 0.011049487 -0.085557714 -0.13822028 0.02212574 0.05674012
0.032388445 -0.03890975 0.011231365 -0.05399332 -0.051747642 0.08111471 0.01891471 -0.049324848
0.008814706 0.056684595 0.05543249 0.009521348 0.021363212 0.06920738 0.01077519 0.019125372
-0.08207429 -0.060115993 0.048030123 -0.03794264 -0.045257665 0.037315503 0.051088084 -0.05503906
0.011731339 0.057885334 -0.027418636 0.043531034 0.036390603 0.030252468 -0.044651613 -0.10052035
0.015502501 -0.04760886 0.03771553 -0.029727694 -0.08377892 0.029321045 0.07547357 -0.0043521672
-0.029086813 -0.05869136 -0.11872767 -0.036375802 -0.08287231 -0.08347754 -0.036996 -0.07741672
-0.07900117 0.06673786 0.007708307 -0.011236062 -0.080403306 -0.020645583 0.0663056 0.03136775
0.0116893025 0.007121682 0.005695472 0.06522192 0.01469882 0.059280187 0.050425928 -0.022548355
0.06128333 -0.045455355 0.0025085064 -0.109517984 -0.0029624386 -0.091257274 -0.011107681 -0.013269195
-0.07927892 0.029479623 -0.08119647 -0.0643442 0.049711626 -0.09355288 0.038720515 -0.0049175373
-0.07283131 -0.096025765 0.04093008 0.03167853 0.009292785 0.036416586 0.08298157 0.07429938
-0.06948256 -0.03699831 0.045248628 0.080309466 -0.052895658 -0.10274952 0.079843074 0.070520796
0.027953828 -0.009865281 -0.06619777 0.012315634 -0.074638136 -0.024660788 -0.018991342 0.08295805
-0.082906835 0.0826653 0.018334152 -0.070860535 -0.06212199 -0.09307326 0.018512452 -0.10977267
-0.108404845 -0.05424013 0.07056284 0.053970285 0.033957947 0.038486477 0.040645882 -0.0019872945

conv_block.1.lin_r.weight f4 [128, 128]
00000000: 79f2 bdbd 69dc 573d ef13 e13b 7726 803d
00000010: 776f d03c 43a8 9e3c ea54 b5ba 9e10 573d
00000020: f16f a63c fc07 c73d 8743 983c fb1b 0f3d
00000030: 5c76 81bd b9a5 7bbd 9102 76bd 30bd 533c
00000040: 02ee d2bd 3468 cfbc d91b dbbb 5e47 5fbd
00000050: d796 de3a ce3d 823d 5ef1 c93c bbcd 9c3b
00000060: 32ea 393d 97ac 113d 2136 fdbd 5c6d fe3d
00000070: d0f0 de3c 2250 ac3c f1f0 503d 05a5 e13c
00000080: 19ed 313d 902c 22bd 9413 bfbd 5509 afbc
00000090: 4d34 de3c 698d 133d 25e6 25bd 9069 a03d
000000a0: 37d5 c6bc 5a89 1b3d 00ee 783c 8fd5 f3bc
000000b0: 9405 853b bebf 20bc 6fcd 3a3d d887 07bd
000000c0: 0a1b b0bd a974 c6bd e7a9 fbbd 33ba 0b3d
000000d0: 9e39 bf3d 2bec 053d 05e0 c5bd 5d8a 70bd
000000e0: 891f 313d 741e cb3d f660 52bd e985 663d
000000f0: eb8c e03c 3a73 a33c 202c 1b3d 87b6 ce3c
00000100: c567 c1bb 7c7d 86bd 692c 0c3d 40b5 7ebc
00000110: c4e0 53bc 6059 cebc eaa1 153d 32c4 f9bc
00000120: d999 a73c 46dc 88bd 5189 3c3d 8936 b93b
00000130: 4f60 dd3b 00c5 b1bd d3ac 003e 7ee8 683c
00000140: 2a2b 69bd 04cd d33c b6c2 80bd 7093 33ba
00000150: 3a75 2b3c cdbb 9cbd 50a8 8fbd 7692 223d
00000160: bead a2bd 1ea6 8b3d 9968 7db9 c028 d2bc
00000170: 634d 30bd fd8d 4bbd 5904 8e3c d51f e03c
00000180: a1c1 373d 11af adbd 0344 98ba 12be 7abb
00000190: a36e 8dbd afa9 eebd 3dfb 99bd c803 acbd
000001a0: f522 213d 55ca a4bd 313b d7bd 7c3b 7a3c
000001b0: 71cc 67bd 2ea1 853d c806 d03d 577b a23d
000001c0: 669c 9b3d 6b53 8f3d ca79 08bd 7399 b4bd
000001d0: 13c8 aabd 4e20 fd3c 5b6a 85bd 7d8b 10bc
000001e0: 90b8 d4bd 1a6a 8ebd d6c4 91bb e628 1e3d
000001f0: 6550 a9bd e086 a1bc 9baf fc3c 2ca1 da3d
00000200: 7621 99bd 21d1 a9bd 755d c43d 7081 44bd
00000210: 1fb2 fc3d 4c68 bdbd 5ab5 ddbd f0b9 b33d
00000220: ea2b 273d f00e 3e3d 86d3 b4ba 94f6 a43d
00000230: e6ed 89bd e20e 8f3d 4549 933d fe2a 06bd
00000240: 675d 9f3c 09e1 6dbd 99f7 fcbd 8c1e 5d3d
00000250: 35e0 a33d 9728 423c be81 aa3d 8071 2d3e
00000260: 4d92 54bd 9127 cd3c ddd4 febd 0a22 d6bd
00000270: 8129 e4bc 6174 7ebd 53a6 57bd ac67 753d
00000280: cf79 28bd 1693 c23b 6fce 4b3d 5dde b3bd
00000290: 8549 2f3d 2ac4 44bd a298 82bd c619 ab3d
000002a0: d54e 473d 12d9 f7bd bafd 10bd 31ac 3bbd
000002b0: 4881 4b3d b2b2 81bd 711b 1cbd ff74 d0bd
000002c0: 07fb 08bd ed2b f7bb 80aa 1ebd e89e ad3d
000002d0: a9e2 6abc 6954 c03c 9f03 72bb da8b e0bc
000002e0: 1d11 90bd a3b8 61bd 1043 223d 1d8f 8cbd
000002f0: d5a5 c53c eae1 023c 1f65 11be ad68 bfbd
00000300: d45a 74bd 980b 953c 426f 0f3c e49b 92bd
00000310: 602c 3f3d a7ef 8bbc d599 183d bcf8 253d
00000320: 57d9 363d 08fc 7ebb 8a87 d8bb 9a9f a83d
00000330: bc77 3d3d 8e3b dd3c 72cf a8bd 3cbb da3d
00000340: edca 9bbc 090a 07bc 1cb4 fa3c f248 03be
00000350: 9b3d 3d3d c331 623d fa2e b6ba b16a 24bc
00000360: 4e44 febd 7d4a 09bd ef04 be3d 2dcd ac3d
00000370: 1024 d9bc 79a9 8d3c e862 5fbd f88e 37bc
00000380: 00f3 0f3d cd31 29be 67ae fd3b 9f8a 873d
00000390: 5fc2 043e 0b33 353c fb08 8e3d d37a 463c
000003a0: 574d cb3c 043a 4e3d 482a fe3d f4b0 423d
000003b0: 14a5 81b9 024b a9bd d276 013d 1f17 22bd
000003c0: 8449 d63a bd00 183c bc59 df3d c2f8 f9bd
000003d0: 5af7 e53c 7c31 8ebc 9390 11be 54f9 94bd
000003e0: 3bfa c83d dd92 93bd 6f10 a3bd b0da 09bc
000003f0: 2599 82bc b486 c5bd a7d7 55bd 44c0 b9bc
-0.092747636 0.052700434 0.0068688313 0.062573366 0.025443776 0.019367343 -0.001383451 0.05250608
0.02031705 0.0971832 0.018586887 0.034938794 -0.063214034 -0.061437342 -0.06006104 0.012923524
-0.10299303 -0.025318243 -0.0066866693 -0.05451142 0.001698221 0.063594446 0.024651226 0.004785267
0.04538936 0.035564985 -0.1236384 0.124232024 0.027214438 0.021034304 0.05101103 0.027544508
0.043439005 -0.03959328 -0.09329906 -0.021366755 0.027124548 0.03602353 -0.040502686 0.078326344
-0.02427159 0.037972786 0.015193462 -0.029764919 0.004059503 -0.00981134 0.045606073 -0.033088535
-0.08598907 -0.0969022 -0.12288266 0.03411312 0.093371615 0.03269593 -0.09661869 -0.058725704
0.043242965 0.09917918 -0.051362 0.05628005 0.027410945 0.019952405 0.037883878 0.02523352
-0.005902263 -0.06566903 0.03422204 -0.015546143 -0.012932006 -0.025189102 0.036531366 -0.030489061
0.020459102 -0.06682639 0.046029393 0.005652253 0.0067558656 -0.08680153 0.12565927 0.014215587
-0.05692593 0.025854595 -0.06287138 -0.0006850278 0.010464961 -0.07653008 -0.07014525 0.039690457
-0.07943295 0.06818794 -0.00024166926 -0.025654197 -0.04304255 -0.049695957 0.017336057 0.027358929
0.044862393 -0.08480657 -0.0011616949 -0.0038260263 -0.06905868 -0.11653458 -0.07518623 -0.08399159
0.03933998 -0.08046404 -0.10509337 0.015272971 -0.056591455 0.06524883 0.101575434 0.079336815
0.0759819 0.069983326 -0.033319272 -0.088183306 -0.083389424 0.030899193 -0.06514426 -0.008822319
-0.10386765 -0.06953831 -0.0044485135 0.038613223 -0.08267287 -0.019717634 0.030845454 0.10675272
-0.07477085 -0.08291841 0.09588138 -0.047975004 0.123386614 -0.09248409 -0.10825606 0.08775699
0.040813364 0.046400964 -0.0013795949 0.080548435 -0.06734829 0.069852605 0.071917094 -0.032755844
0.019453717 -0.05807594 -0.12351913 0.05398421 0.080017485 0.011850498 0.083255276 0.16937828
-0.051897336 0.02504328 -0.12442944 -0.10455711 -0.027851822 -0.062122706 -0.052648854 0.059913322
-0.04113179 0.005937944 0.049757417 -0.08782647 0.042794723 -0.04803864 -0.06376769 0.08354525
0.048659164 -0.1210195 -0.035398223 -0.04581851 0.04968384 -0.063329116 -0.038112108 -0.10178565
-0.033442523 -0.007543078 -0.03873682 0.084775746 -0.014336267 0.02347775 -0.0036928428 -0.027410436
-0.07034514 -0.055107724 0.039614737 -0.06863234 0.024126926 0.007988432 -0.14198731 -0.09346137
-0.059656933 0.018194005 0.008754553 -0.0715864 0.04667318 -0.017082049 0.03725608 0.040520415
0.044640865 -0.0038907547 -0.0066079544 0.082335666 0.046256766 0.027005937 -0.08242692 0.106802434
-0.019017661 -0.008242139 0.030603461 -0.12820795 0.04620133 0.055223238 -0.0013899498 -0.010035203
-0.12415372 -0.033518303 0.09278285 0.08437572 -0.026506454 0.017292725 -0.054537684 -0.01120352
0.035143852 -0.16522904 0.0077417376 0.06618237 0.12964772 0.011059533 0.06935307 0.0121142445
0.024817152 0.050348297 0.12410408 0.047532037 -0.0002472779 -0.0826626 0.031607457 -0.03957283
0.0016348814 0.00927752 0.10905787 -0.1220565 0.028072048 -0.01735758 -0.14215307 -0.07274118
0.09813353 -0.07205746 -0.07962119 -0.008413956 -0.015942166 -0.09644833 -0.052207615 -0.022674687

conv_block.2.lin_l.weight f4 [128, 128]
00000000: 49b4 ef3c 976a 8cbb cf64 cfbc 8d93 8dbd
00000010: 3366 ae3c 7a96 e43b 6c60 cabd 2991 5bbd
00000020: b475 32bd 07f2 433d 9b86 b9bd 9980 8a3d
00000030: 9f0d 84bc aa13 fbbb 7128 babc ad86 983d
00000040: 356f 8ebd 2cf1 d7bd dfb7 d73c ea6f b13d
00000050: b481 aabc 39e5 453d 787c aabd a619 43bd
00000060: a68f 8cbd 3e43 e03c 328a 26bc 9747 69bd
00000070: 47f0 8cbd c474 883b 724d b6bd 5c54 bfbc
00000080: 5ea4 5abd 326a 263d 1717 33bd 7754 93bd
00000090: 90f4 30bd 41b3 5c3d 2dff a9bd 8b10 b9bd
000000a0: e517 43bd 09eb 633b e144 8e3c d364 9dbd
000000b0: c22c 393c 17c9 11bd ec50 edbc 9ad8 bc3c
000000c0: 413f 74bc c231 983d 03b3 11bd 6c93 11bd
000000d0: 999a 98bd 250b 433c 296e 88bc 322b 3bbd
000000e0: 117d d7bd ef79 ee3c 9c09 b03b bdd0 08bd
000000f0: 4db9 e1bd 1677 a9bc 5cab c7bd 8d18 923d
00000100: dcde a2bd 8d2f 023d 8d27 373d e882 793d
00000110: 78ab 86bc 3869 c93c 4baa 88bd 0f97 6bbd
00000120: b2e1 7c3d f088 993d 67b6 7b3d 2cb2 52bd
00000130: e2c8 173d 2815 9fbd 90bb ddbd 82fb 98bc
00000140: 22c6 893d b382 bf3d a924 333d e949 48bd
00000150: 2d9e c8bd e8bc 83bc c64b 373d afc7 953d
00000160: 08bc 49bd 9c80 c3bc cd0b 09bd b37f a4bd
00000170: eee2 a8bd 0270 81bd 4784 b8bd c1d3 1c3d
00000180: 2ec9 8bbd d0ea 5ebd 8736 80bd db9f 3f3d
00000190: 5232 873d 67fa 90bc bde3 aa3c 6c54 183d
000001a0: 7522 b33d 5a02 30bd b9af fd3b 1d75 ac3d
000001b0: 5c02 76bd 0c9f 093d 6831 f23b 6eb4 18bd
000001c0: 0a1d 973d 7e45 c6bd b05f 143d 2b7e 213d
000001d0: 8167 323d e313 edbd d318 42bc be86 63bd
000001e0: b797 123c 58f1 babd fead b53d c8b3 b33b
000001f0: 7d4c 24bd 4f95 513b f3b8 80bd 6c53 733b
00000200: cbb4 4f3d db2a 4e3e 207c 63bc 3528 ca3c
00000210: 84e2 6cbd 0a79 1cbe e187 43bd d1df 6fbd
00000220: f039 303e 0f6e 6cbc a409 19be 17ae a13d
00000230: 091f 9b3d 8256 11be f02f 863b 6d44 133d
00000240: f3a9 873d 7432 1bbd fd67 e83c 4089 4fbd
00000250: df79 02bd 809d 82bc 133b e6bb c1c0 c93c
00000260: e347 84bd d63d 6dbd 2252 a13d b95d c43d
00000270: 6f0a a93d 4ad8 2bbd d7de 9fbd 4843 e33c
00000280: 64a2 8fbd 5ea9 2ebd 6153 963c 5fc3 6c3d
00000290: 1a48 bcbc 8180 abbd fda1 cdbd d234 41bd
000002a0: 96a8 6f3d aa52 1dbd 63fe 48bd 9fa0 c4bc
000002b0: 77a1 a23c 3b7a 05be a911 a53d 3270 dd3c
000002c0: 1f4d e3bd 29ee c23b fa1c 8abd 50b4 0d3d
000002d0: c799 a43b ffe3 033d 0dc3 bdbd 37c1 63bd
000002e0: 4c5d 9238 3b30 6e3c 7dd1 913b 67db a33c
000002f0: 3db1 97bc a7b0 62bd c868 ecbc f9d7 90bd
00000300: 6963 1fbd 115f ce3b 6c1a 7cbd 1cb4 29bd
00000310: 1876 cb3c 7b38 0fbd e10b e63d e007 d1bc
00000320: 10b5 573e 6a7a 0cbd 1fd3 97bb 0dd9 343d
00000330: 4cb0 a83d 4641 123d 2f9e 623d 512d 2838
00000340: 0148 e23d e98c 233d 5c22 aa3d 2923 12be
00000350: e4c6 9d3d f955 6bbd 8839 c43d b5d2 a13d
00000360: 5f2e 10be a665 a13c 5fad b2bd a8c0 9d3d
00000370: 5631 c73c b3c1 573d d0cc e03d 3b63 453d
00000380: b9bc 183d 0e13 0e3e 0e34 b7bc 72cc b43c
00000390: 198d df3d b699 9f3c 80a7 173b 3beb 2fbd
000003a0: 1cae 24b8 2e23 95bb 0745 fabd 7ffe 90bc
000003b0: bf4c 5cbd 8531 643d be36 2cbe 3ec1 e43c
000003c0: 5bd9 adbd 3960 43bc d040 01be 7478 c43c
000003d0: d0e5 01bd a23a 143d ae1b 1f3d e6c2 a03d
000003e0: fbed a5bd 56a5 f1bc d10f 483d b6e8 abbc
000003f0: 4543 eb3c af7c 4b3d d02a 38be 979a 823b
0.029260771 -0.0042851674 -0.025316624 -0.06912909 0.021288967 0.006975946 -0.09881672 -0.053605232
-0.04356928 0.047838237 -0.09058877 0.06762809 -0.016119776 -0.0076622562 -0.022724362 0.07447562
-0.06954805 -0.10544047 0.026332794 0.08663924 -0.0208138 0.048314307 -0.08324522 -0.047631882
-0.06863336 0.027375814 -0.010164784 -0.05695304 -0.06881767 0.00416431 -0.0890149 -0.023355655
-0.05337941 0.04062862 -0.043723192 -0.07193845 -0.043201983 0.053881887 -0.08300624 -0.090363584
-0.04763021 0.0034777543 0.017366828 -0.07685246 0.011302175 -0.035592165 -0.02896925 0.023052502
-0.014907659 0.074313655 -0.03557111 -0.035540983 -0.07451362 0.0119045125 -0.016654091 -0.04569549
-0.105219014 0.029110877 0.0053722393 -0.033402193 -0.110216714 -0.020686667 -0.09749481 0.07133589
-0.07952663 0.03178363 0.044715453 0.060915858 -0.016439185 0.024586305 -0.06673106 -0.057517108
0.061738677 0.07496822 0.06145325 -0.05143945 0.03705681 -0.07767707 -0.1082679 -0.018674616
0.06727244 0.09351101 0.043736134 -0.04889861 -0.09795795 -0.016081288 0.044749998 0.07313477
-0.049251586 -0.023865037 -0.03345852 -0.08032169 -0.082464084 -0.06320192 -0.09009605 0.03828788
-0.06825481 -0.054423153 -0.062604 0.04678331 0.06601395 -0.017697526 0.020860547 0.037189886
0.087468065 -0.042970993 0.007741895 0.08420775 -0.060060844 0.033598945 0.0073911436 -0.037281446
0.07378586 -0.09681223 0.036224067 0.039426964 0.04355574 -0.11576059 -0.011846739 -0.055548422
0.008947304 -0.09128064 0.08871077 0.005484078 -0.040112007 0.0031979864 -0.06285276 0.003712858
0.050709527 0.20133536 -0.013884574 0.024677375 -0.05783321 -0.15280548 -0.047737006 -0.058563057
0.17209601 -0.014430537 -0.14945084 0.07894533 0.07574279 -0.14193156 0.00409507 0.035953928
0.06624212 -0.037889913 0.028369898 -0.050668 -0.031854507 -0.015944242 -0.007026085 0.024628045
-0.06459024 -0.0579203 0.07876994 0.09588189 0.08253943 -0.041954316 -0.07806175 0.027742043
-0.070133954 -0.04264199 0.018350305 0.057803508 -0.0229836 -0.083741195 -0.100406624 -0.047169514
0.058510385 -0.038408913 -0.049070727 -0.024002371 0.019852383 -0.13034908 0.08060009 0.027031038
-0.11098694 0.005948801 -0.06743808 0.034595788 0.0050232145 0.032199856 -0.092657186 -0.055604186
6.9792004e-05 0.014537866 0.004450022 0.02000208 -0.018517131 -0.05534425 -0.028858557 -0.070724435
-0.038913164 0.006297954 -0.061548635 -0.04143153 0.024836585 -0.034965973 0.112327345 -0.02551645
0.21065164 -0.03429643 -0.004633322 0.04415231 0.08236751 0.03570678 0.055326637 4.0096525e-05
0.1104889 0.039929304 0.08307335 -0.14271225 0.07703951 -0.057455037 0.09581286 0.07901517
-0.14080189 0.01970179 -0.08724474 0.07702762 0.024315517 0.05267496 0.10976565 0.048190337
0.037289355 0.13874456 -0.022363689 0.022070143 0.10915584 0.019482475 0.002314061 -0.042948943
-3.92628e-05 -0.004551313 -0.12220197 -0.017699478 -0.05378413 0.055711288 -0.16817757 0.027924176
-0.08488723 -0.011924797 -0.1262238 0.023983218 -0.031713307 0.03618873 0.038844757 0.07849674
-0.08102032 -0.029497784 0.04884321 -0.020984989 0.0287186 0.049679454 -0.17985082 0.0039857137

conv_block.2.lin_r.weight f4 [128, 128]
00000000: c581 0a3d 1ab0 923d 9435 59bc 957f 8b3c
00000010: 1630 323d ec1a 76bc 6b81 55bd 82eb fabb
00000020: ff01 813c 285d 8abd 8aec 09bd cb6c 893d
00000030: 4d20 dd3c da16 05bd a3aa 8d3d b105 07bd
00000040: 3b0b b23c 62b2 2fbd 8e29 383c f789 803d
00000050: cbe6 36ba c2fd adbc 1e35 87bd 1624 853d
00000060: 8f0b 94bd 4f25 dfbd ff37 923c 66ca a23c
00000070: 961e 8b3d c4be 1abd cf52 0b3c fc18 9ebc
00000080: 4040 4bbc 1dc9 21bd 7e56 6a3d 5d33 2a3c
00000090: 8221 1cbd 7ddf 1dbd cea1 cfbc 3bcb 1cbd
000000a0: a6c4 b8bd 3124 84bd 606b 8c3d 5d47 80bd
000000b0: 93fd 4fbb 0cea 67bd 1e6c 803d ee05 84bc
000000c0: e037 39bc 8d16 163d 9c0f 8fb8 00fe 6a3d
000000d0: f72f 7d3d ba78 203d 914e 22bd 8946 1f3d
000000e0: 3213 12bd 3120 113c 8b72 aebc 53ae 62bc
000000f0: 03f9 c1bd c5ac e6bc 2589 223d a6be 7e3c
00000100: 6651 39bd 330b 5abd bcd0 553d 582d 73bd
00000110: 647d 36bd 6a48 a9bd 6c4f 42bd 8c6b 003d
00000120: 29e8 25bd 244f a5bd 4c86 a13d 252d 20bd
00000130: d3d6 06bc b5fb 463d ef56 c5bd 49ff 97bc
00000140: 6160 03bd 0867 edbc 692a 84bd 0937 acbd
00000150: e5ac 8e3d f2ea a63d cf7c 64bd f54b 3ebd
00000160: fcca a3bc ba61 43bd 1080 8a3d c18c 86bd
00000170: f8e3 713d 408b bbbd b344 873d a876 99bd
00000180: 1b8c c03c 6b9e 943d a261 863b 8a34 963d
00000190: 933e 7a3d d007 393d 3aff 183d 06e4 95bc
000001a0: 08a1 833d 482f 1c3d 5f74 3cbd 526e 603d
000001b0: f09b c0bc 1c89 113d 714d 15bd ac57 0c3d
000001c0: dd53 49bc bf94 e7bc 4660 acbd ea59 333d
000001d0: b6be babd 952e 8ebb cb54 b23c 7d90 8a3d
000001e0: df11 4f3d 5ead 8b3d cd9d 163d 91d3 d13c
000001f0: c951 983d 9d51 823d f757 973d ef5f 653c
00000200: ee5e 123d ff22 da3d 63b6 8c3d c9b5 32bc
00000210: 2110 32bd b99d d7bc ec90 0d3b 920c d9bd
00000220: 02f1 cf3d 5bba bebd bb25 b9bd 5018 503e
00000230: bd99 66bc a0f9 a93c 7c17 bcbd 1e19 9cbd
00000240: ee81 0fbe c06f 203d e16b f4bd 3210 83bd
00000250: 0890 a63d 6bb8 b6bd 2c49 fd3c ab79 c43d
00000260: 3a1c 55bb 3b45 193e 8147 28bd ac2a de3b
00000270: 2290 da3d 2073 57bd 9c08 adbc b1ec 6ebd
00000280: 8826 b93d 225b 5cbc b3f4 1a3e 6dc5 9dbd
00000290: d08d 09be 5843 b8bd 6bb9 babd 6425 b93b
000002a0: 0ebd 1abd 4cb7 97bb bc10 a1bd 854b 883d
000002b0: a3ee 04be 9a1f 693d 31df da3d 1fb0 89bd
000002c0: 3134 26be 181c 9c3d 066e abbc da8c 6cbd
000002d0: 9f2d e93c d799 7f3d 0aa5 e1bd f605 293d
000002e0: 445b 87bd 774b 423d 6d36 893d 82e1 2bbe
000002f0: aa67 583d e01f dc3d 5efd 14be 00ba b6bd
00000300: 3155 69bd 86d3 7cbc 2e70 bdbd 390f f6bd
00000310: 220e c7bb 8208 f7b9 a851 a63d 1a43 043e
00000320: d59b 1a3e 5224 823d fd5c a03c 4071 67bd
00000330: 690c 25bd 0669 023d ddfc 00bc 9830 9abd
00000340: 05ae c43c 9bba 06be c424 093e aca6 01be
00000350: 2981 c5bd 4e5d c13d 3fbb 0e3e 483c 22bc
00000360: ed41 25be 956a b0bd c164 f9bc 7e99 983d
00000370: ffbf 06bd 07f5 1cbd e991 e1bd 6034 cf3d
00000380: 5d1a e73d cc6d cabd 1de4 2abd 5c15 9cbd
00000390: 3dd9 b73d 65eb 413d e480 f03d 7495 173d
000003a0: 01ee b93d 7c74 9bbd 3258 51bd 502c 0abd
000003b0: 3b70 bfbd 7b20 9fbd eb00 93bd 50ab c63d
000003c0: fbe4 83bd b022 e63d 1245 9a3d 1688 ad3d
000003d0: 0e6a 133c 0d85 a53d d520 dbbd 1fb5 3ebc
000003e0: d7f3 75bd 7227 b0bc 982d 8b3a aaae 71bd
000003f0: 58c5 863c b25d c43c ca9b edbd f417 0d3d
0.033815164 0.07162495 -0.013257403 0.01702861 0.04350289 -0.015021067 -0.052125376 -0.0076574693
0.015748022 -0.067560494 -0.033672847 0.06710204 0.026992941 -0.032492496 0.06917312 -0.032964412
0.02173387 -0.04289473 0.011240376 0.06276315 -0.000697714 -0.021239165 -0.06601928 0.065010235
-0.07228767 -0.10895788 0.017848967 0.019871902 0.06792943 -0.037779585 0.00850363 -0.019299023
-0.012405455 -0.039498437 0.05721139 0.0103882225 -0.038117893 -0.038543213 -0.02534571 -0.038279753
-0.09021883 -0.064522155 0.06856418 -0.062636115 -0.0031736835 -0.05661969 0.06270622 -0.016116109
-0.011304826 0.0366426 -6.821679e-05 0.05737114 0.06181332 0.039177634 -0.039625708 0.038885627
-0.035662837 0.008857773 -0.021294853 -0.013835507 -0.09471323 -0.028158555 0.039681572 0.015548384
-0.045243643 -0.053233337 0.052201018 -0.059369415 -0.044553176 -0.08265765 -0.047439024 0.031352565
-0.04050461 -0.080717355 0.07886943 -0.039105553 -0.008229929 0.04857989 -0.09635722 -0.018554347
-0.032074336 -0.028979793 -0.064534016 -0.084089346 0.06966571 0.08150281 -0.05578309 -0.046459157
-0.019994251 -0.04770062 0.06762707 -0.065698154 0.0590553 -0.09157419 0.066049 -0.07493335
0.023504307 0.07256778 0.004100994 0.0733424 0.06109483 0.045173466 0.037352778 -0.018297207
0.06427199 0.03813103 -0.046009418 0.05479271 -0.023511857 0.03553115 -0.036450807 0.034263298
-0.012288061 -0.02826917 -0.084168 0.04378692 -0.091184065 -0.004339049 0.021768948 0.0676584
0.050554153 0.068201765 0.036771584 0.025613578 0.07437474 0.06363223 0.07389825 0.013999923
0.035735063 0.10651206 0.06870725 -0.010907599 -0.043472413 -0.026320325 0.0021601273 -0.10598101
0.101533905 -0.09312888 -0.090404 0.20321774 -0.01407474 0.020748913 -0.09184167 -0.07621978
-0.14014408 0.039169073 -0.11934639 -0.063995734 0.081329405 -0.08921894 0.03091868 0.09593519
-0.0032518045 0.14967816 -0.041083816 0.006779989 0.106720224 -0.052600026 -0.02112227 -0.058331195
0.090405524 -0.013449462 0.15132408 -0.077036716 -0.13433003 -0.0899722 -0.09117397 0.0056502093
-0.037777953 -0.004630005 -0.0786452 0.06655029 -0.12981658 0.056914903 0.10687102 -0.067230456
-0.16230847 0.07622546 -0.020926487 -0.057751514 0.028464137 0.062402572 -0.11017807 0.04126545
-0.066092044 0.04743525 0.06699834 -0.16785243 0.052833237 0.10748267 -0.14549777 -0.089221954
-0.05696601 -0.0154312905 -0.09249912 -0.12014622 -0.006074683 -0.0004711785 0.081210434 0.12916222
0.15098508 0.06354584 0.01957559 -0.056504488 -0.04029504 0.03183844 -0.007872787 -0.075288
0.02400876 -0.13157122 0.13392931 -0.12661237 -0.09643776 0.094416246 0.13938616 -0.0099020675
-0.1613843 -0.08614079 -0.030443551 0.07451151 -0.032897945 -0.038319614 -0.11014158 0.101174116
0.11284325 -0.09884223 -0.041721452 -0.076212615 0.08976982 0.04734363 0.11743334 0.037007764
0.09078599 -0.07590577 -0.0511095 -0.033733666 -0.09347578 -0.07769867 -0.071779095 0.09700644
-0.06440159 0.11237085 0.07532705 0.08473222 0.008997453 0.08082018 -0.106996216 -0.011639862
-0.060046997 -0.021503184 0.0010618446 -0.059004463 0.016451523 0.023970459 -0.1160198 0.03444667
