models/test_training/database_1/input/GNN.pth (torch, 994184 bytes, 18 tensors)

input_layer.weight f4 [128, 8]
00000000: eabd 9ebd ba9d 83bc 1f40 2dbd 08c6 64bd
00000010: 345a 7fb9 0a84 bb3e 4db7 223e bc8c 4a3e
00000020: 66ea 153e d36b 7f3e 6da9 85bc b956 2dbb
00000030: 3ed6 ea3c 5bdf 9dbe 45d2 91be b88b 313d
00000040: d1a5 0dbe 1e96 d4bb 5b25 a6bd bbfb 153e
00000050: 4e2f 583e 6722 f0bd 424d b33e 0aed 8e3e
00000060: 98ee 8abe b2c9 8bbe 4c75 92be 8e67 46be
00000070: ddee 0cbe ef00 dabc 0717 b0bd 65eb 36be
00000080: e408 e6bd 2bf7 02be 4ebd c93e 952e 06be
00000090: 299c 81be 08d1 5a3e 9a4b a7bc f694 8a3e
000000a0: edbd 473e ca6f 8e3e 3c92 84be f76f 453e
000000b0: cab0 913e 3ec9 32be 481c 9b3e 2bb3 873e
000000c0: 9304 4ebb 402c 353e 2d27 fdbd d3e1 9dbe
000000d0: 66b7 3c3d f18c 873d 169d 6cbe b096 2f3e
000000e0: 7da1 9abe 1b0e 633e 81e3 ac3e d6ff ea3d
000000f0: 4a27 63be e6b4 493e 4ac7 a33d e5e3 c43d
00000100: 442e c03d ddb3 5d3e 029e 1bbe ace0 a2bd
00000110: c44b 933d 3c36 1dbc a980 3e3e 1a28 3ebe
00000120: a1f2 52bc ecef e8ba 964e c0bd 0fc1 793e
00000130: 680f 8eba b24d a7be 17e3 1cbd 8434 24be
00000140: b045 46bc 754c 28bd 2c8f b3be fbf1 83bd
00000150: 08b4 0abd cc83 d5bd d767 d23e 38fe 9dbd
00000160: e80b 473e 2413 ea3d eecd 98be 4334 663d
00000170: 6727 8f3e 4acf 6cbe 4203 6abe cb30 b13e
00000180: 759d 713e adfa 49be 84e3 503e f343 39bd
00000190: e778 b2be b2ed 8f3c 2f20 acbc e231 d9bd
000001a0: a9b5 0a3d 30ca 9abe de1d 873e 5e3a 793e
000001b0: 336c 273e 71bf b03d 2a30 403e e5f9 82be
000001c0: 7bed b4bd 7640 0abd 3178 49be 5bb4 85be
000001d0: 3f2c 753e d28a 7d3e 4e66 a4be f868 e63d
000001e0: d52c 753d 43fb 8b3e 805c 3f3e ba70 bb3e
000001f0: 330e edbd 288e 523e e7da 9c3e 0ff1 aabe
00000200: 314e 91be f1a8 fa3c a47c 383e 94dd 33be
00000210: 9f05 c13c 968c 06ba e60b 0b3c 948a 42be
00000220: 2e42 223e dbbf 923e 1a34 7bbe 2869 19bb
00000230: 2bd8 a3bb 8a39 b73c 7a2b b13e 6d58 d43d
00000240: ba86 a4bd e9ce 923e 82c4 09be 6a40 d2bd
00000250: 4090 eebb 0bd9 89be 2ac5 57bc 66a2 75be
00000260: 6ba0 283b 09ba 9a3c 448b 623d 1ea7 98be
00000270: e8ed abbe 5044 1c3e 0b21 c53e aea1 a0be
00000280: cee3 ac3c 9240 85be a763 17bb 09b7 be3e
00000290: 3c22 833e b659 84be c8fe 9d3e 5919 3d3e
000002a0: 5f29 0eba 3612 be3e f3ca 0fbe 1881 a8bd
000002b0: befa 36be fcd5 d63c 3541 0abc 4dc7 e63c
000002c0: 46b2 4bbe 48fa 22be d896 413e f8b8 9ebe
000002d0: 1787 61bd d250 00bc 5caf 12be 9ec0 033e
000002e0: 90f5 c6bb 78e8 653e e19c 00bd 1c7f 64be
000002f0: 1f80 8c3e 6be3 893d da5f cfbd e69e 6ebe
00000300: 6048 d9bb cca5 acbe 695a e63d 25f3 7a3e
00000310: 4eca 9ebe 4804 6dbe b523 82be df25 983e
00000320: fd9a 9a3e 3b8f acbb ecc8 903e db0f f2bd
00000330: d3bc afbe b162 8e3d 83c2 ad3c d977 b13e
00000340: 5e9b d6b8 fc5c 6b3e 835e 7c3e ca8d 883e
00000350: 9da1 b3be 14f3 963e 7a4f 9abe 2d49 a23e
00000360: b40c 70bc 246c a0be 6028 093e 3362 93bd
00000370: 2297 a2be bb40 03be 3490 043e 7efc 8c3e
00000380: 559a debd b792 6b3e 7471 063c c76c 36bb
00000390: d661 c43c 3b98 6dbe 8476 96be 7583 e3bd
000003a0: 00af a8be 41d6 28be fdd1 943d 2871 6ebe
000003b0: 152c 16be 5c1b 82bd 12d5 26bd c3d9 47be
000003c0: 29e6 85bb 8043 4bbd 5efc d23d 8c89 c3ba
000003d0: 89ca 34be c749 f9bd 4f87 85bb 24e8 61be
000003e0: 05be 1fbb 017f ccbc 410f 033e bba8 bc3c
000003f0: 0241 673e c4f4 3ebc 91c1 85be a4d5 213e
-0.07751067 -0.01606642 -0.04229748 -0.05585292 -0.00024352298 0.36624175 0.15890236 0.19780248
0.14640197 0.24943475 -0.01631614 -0.0026449396 0.028666612 -0.3083447 -0.28480735 0.043346137
-0.13832785 -0.006487622 -0.08112594 0.14646809 0.21111795 -0.11725312 0.3501988 0.2791522
-0.27135158 -0.2730232 -0.28605115 -0.1937544 -0.13762994 -0.026611773 -0.08598142 -0.17863233
-0.112321645 -0.127896 0.3940224 -0.13103707 -0.25314453 0.21368802 -0.020421792 0.27066773
0.19506045 0.27819663 -0.25892818 0.19280992 0.28455192 -0.1745958 0.30295014 0.26503882
-0.0031435832 0.17692661 -0.12360988 -0.30836353 0.04607334 0.06618679 -0.23106799 0.17147326
-0.3020133 0.2217335 0.33767322 0.11474578 -0.22182956 0.19697914 0.07996996 0.0961378
0.093838245 0.21650644 -0.15196994 -0.07953009 0.071921855 -0.00959545 0.18603767 -0.18569985
-0.01287523 -0.0017771698 -0.09389989 0.24390052 -0.0010838332 -0.32676464 -0.038302507 -0.16035658
-0.012101576 -0.04108854 -0.3507017 -0.064426385 -0.033863097 -0.10425529 0.4109485 -0.07714504
0.19438136 0.11429432 -0.29844612 0.056202184 0.2795975 -0.2312595 -0.22852805 0.3460754
0.23595221 -0.19724531 0.2039929 -0.045230817 -0.34857866 0.017569397 -0.02101144 -0.106052175
0.03386465 -0.30232382 0.26389974 0.24338672 0.16349868 0.086302646 0.18768373 -0.2558128
-0.08834358 -0.03375288 -0.19674756 -0.26114163 0.2394266 0.24759987 -0.32109302 0.1125049
0.05985721 0.27340135 0.1868763 0.3660944 -0.11574974 0.20562041 0.3063576 -0.33387038
-0.28379968 0.030598136 0.18016297 -0.17564994 0.02356225 -0.0005132643 0.0084867235 -0.18998176
0.15845558 0.28662 -0.24531594 -0.0023408625 -0.0050001345 0.022366304 0.34603482 0.103684284
-0.080335096 0.28673485 -0.13453868 -0.10266192 -0.0072803795 -0.26923403 -0.013169566 -0.23987731
0.0025730382 0.018887537 0.055308595 -0.29815 -0.33579946 0.15260434 0.38501772 -0.31373352
0.02110472 -0.26025826 -0.002310017 0.3724902 0.25612056 -0.25849694 0.30858445 0.184667
-0.0005423035 0.3712327 -0.14042263 -0.08227748 -0.17869088 0.026225083 -0.008438398 0.028171206
-0.19892225 -0.15915787 0.18905199 -0.31000495 -0.055060472 -0.007831769 -0.14324707 0.12866446
-0.006071754 0.22451961 -0.03139961 -0.22314113 0.274415 0.0673283 -0.10125704 -0.23302802
-0.006630942 -0.33720243 0.11247713 0.24506815 -0.3101372 -0.23146164 -0.25417867 0.29716393
0.30196372 -0.005266098 0.2827829 -0.118194304 -0.3432375 0.06952418 0.021210914 0.3466175
-0.000102332546 0.2298469 0.24645428 0.26670676 -0.3508424 0.2948233 -0.3013876 0.31696454
-0.014651466 -0.31332505 0.13394308 -0.071964644 -0.3175593 -0.12817661 0.12945634 0.27536386
-0.1086928 0.23005186 0.00820576 -0.0027835832 0.023972433 -0.23202603 -0.29387295 -0.11109058
-0.32946014 -0.16487981 0.072666146 -0.23285353 -0.14665253 -0.06352875 -0.040730543 -0.19516663
-0.004086275 -0.04962492 0.103020415 -0.0014918311 -0.17655386 -0.12172275 -0.004074968 -0.22061211
-0.0024374735 -0.024962904 0.12798788 0.023029676 0.22583392 -0.011655036 -0.26124242 0.15804154

conv_block.0.lin_l.weight f4 [128, 128]
00000000: 3052 1c3d 06c1 d2bc 4fe1 df3c c1e9 52bd
00000010: a5ef 57bd ff9c b2bd db78 153d 9b76 8abd
00000020: 1dba c1bd 46ac 86bd 245d adbd b05c 60bd
00000030: 5a50 003d c06a c93c 59b8 9dbd b640 f53c
00000040: b892 df3c e90e 44bc 0bdc 8c3d 2673 9c3d
00000050: 7350 843d 4e61 c5bd 7d0a b83c e5a4 d1bd
00000060: 2017 7fbd 1143 893d 4704 a9bc 0fa3 b3bd
00000070: 1afe 0abd a1ca 593d 81ee 8cbd fe97 653d
00000080: 73f7 4bbd ac20 2a3d 7e65 3ebb 03e2 e33c
00000090: 8f9d 7b3d c8e9 89bd 7118 693d a5a6 8c3b
000000a0: b5e2 f4bc bd67 90bd 8db4 25bb bb92 c53c
000000b0: 2f83 853d a212 9c3c b33b 0f3d 9fc2 b2bd
000000c0: 6db4 babd 4f2c afbb 2f05 bbbd 6eda b7bc
000000d0: 597d 97bd 95ec fa3c 5f80 a7bd aaf7 71bd
000000e0: a5bc 423d e98e 58bd 0f83 91bd 7269 513d
000000f0: 5c16 9b3d dfc7 143c e775 16bd 2d21 54bd
00000100: e3f2 8bbd 2894 6b3b 0833 26bc b6b1 aebc
00000110: 9720 7cbd 26a7 893d 911e 82bd 4e33 42bd
00000120: 52d7 983d c73b cfbb 16cb a0bb abee 0b3d
00000130: ac1f 16bc 58fc 23bc e610 cd3c f250 a93c
00000140: 775a 9dbd 6d5e 0e3c c5be 4ebd c76e 8f3d
00000150: 1320 593c 6a8a 4e3c 31a0 8b3d 7dfd febc
00000160: 3bea 0b3d 8a12 b5bd a589 e73c dc1e 703d
00000170: 22b2 51bd 599d cbbc cf81 a43b cdb0 42bd
00000180: 1a56 97bd e765 65bd 9310 adbd 0d02 b53c
00000190: 9a4b 10bd 1bbd 853d 500d 7abd 0fb5 623d
000001a0: da2a 45bd 4150 c6bd eea3 ae3c 1bd4 56bd
000001b0: dfb5 93bd f0ad 6fbd b5ab 6bbd a728 c1bc
000001c0: 7f80 9f3c 521e 293c e454 063d 5d29 293d
000001d0: a76e b63b 966e 4ebc 5c57 b9bd 254b 1d3d
000001e0: 8e77 b1bd 0a40 9cbc f23f 5fbc 94a5 7c3d
000001f0: 4675 95bd ed56 23bd d4d1 173d c34c b73c
00000200: 4175 d13b 1266 1f3d d321 463d a405 923d
00000210: 154e 913d 9c30 36bc e620 9b3d 774d c9bc
00000220: 4285 5b3d c468 433d 12fb 28bc 6083 f8bc
00000230: 060d 91bd 36be 103c 1ec9 b3bc b5d8 1a3d
00000240: 130e 403d 3567 903d 9a80 06bd e985 823d
00000250: 24ff 26bd 8028 6abc 434b 19bd 3718 8c3d
00000260: 8930 af3b 9b05 80bc 9749 1fbd 9831 933d
00000270: ca13 2ebc 419b 773d 6ba1 7fbd 06d7 a9bd
00000280: 05d3 e2bc 0e8d 973d af13 a9bd 7160 cb3c
00000290: 38ef 2bbd 53bd 843c 687f a3bd 09c7 413d
000002a0: 1c39 4d3c 4ffc 87bd 7b8f 883d 7fdb 1bbd
000002b0: bd15 4bbc 8660 98bd 0057 b53c 50fd 043d
000002c0: f5e9 6abd 3085 963d 38ae 373c efe3 a3bc
000002d0: 4eb7 0e3d f557 89bb a47b 1f3c 15ae 3c3d
000002e0: dd64 b9bd 3ec1 673d 1f08 823d 61e5 fcba
000002f0: bd9c 9fbd a308 843c 2561 6f3d 9aa5 9ebd
00000300: d54b 9c3d ccf6 eb3a 53ed 17bd 85a9 82bd
00000310: f3bd b0bd 4ed4 93bd 0edb 733d 8ed8 37bd
00000320: 35ca 7cbd b7fb 18bc 3fd1 8d3d 5f5d b8bd
00000330: 336e 5dbc a6c4 33bc 31b2 093c 6883 68bd
00000340: b077 68bc 1429 863d 093b 90bd 5408 9f3d
00000350: daa3 333d f071 a1bd f31e 5b3b 07d7 223d
00000360: a9ca 41bc a92b 4abd d34b 5dbd d741 2dbc
00000370: 5b99 8abd a97d 38bc a70e 0b3d e2d9 dd3c
00000380: 1ddf adbc 9ff8 0b3d d5b1 3abd 50b6 abbc
00000390: 8337 59bd 5c45 70bd 7b08 b23b 3b3b 123d
000003a0: 2923 953d 0fc0 2e3d 8906 4e3d 9910 663c
000003b0: 797e 9fbc 2428 373d 3c69 10bd cb57 2b3d
000003c0: a80e 2abd b0d7 14bc b877 dd3c 111b 283d
000003d0: 6123 a03b 84ee 393d 4ec2 9c3d 520d 3b3d
000003e0: c1be 0f3d 4b5c 2ebd 8ef3 6e3d f334 8ebd
000003f0: 3829 24bb f437 893c afe3 fdba a996 a43d
0.038164318 -0.025726806 0.027329115 -0.051492456 -0.052718777 -0.08721351 0.03649221 -0.067609034
-0.094593264 -0.06575827 -0.08465031 -0.054775894 0.03132663 0.024587035 -0.07701177 0.029938083
0.02729164 -0.0119664455 0.06877907 0.0763915 0.06460657 -0.096377 0.022465939 -0.10236529
-0.062277913 0.06702245 -0.020631922 -0.08771335 -0.033933736 0.053171758 -0.068814285 0.056053154
-0.049796533 0.041535065 -0.0029052193 0.027817732 0.061429556 -0.06734043 0.056908075 0.0042923265
-0.029893259 -0.070510365 -0.0025284619 0.024117818 0.06519162 0.019051854 0.034969043 -0.08728527
-0.09116445 -0.005345858 -0.09131848 -0.022443023 -0.07396955 0.03063039 -0.08178782 -0.05907408
0.047543187 -0.052870665 -0.071050756 0.05112595 0.07572624 0.009080856 -0.036733534 -0.05178945
-0.06833436 0.0035946462 -0.010144003 -0.021324974 -0.061554518 0.06721334 -0.06353486 -0.04741221
0.07462944 -0.0063242647 -0.004907022 0.03416316 -0.009162825 -0.010008894 0.025032472 0.02066848
-0.076832704 0.008689505 -0.0504749 0.07003551 0.013252276 0.012606243 0.068176635 -0.031126732
0.034158926 -0.08841427 0.028263876 0.05862318 -0.05119527 -0.024855303 0.005020357 -0.04753189
-0.073894694 -0.056005385 -0.08450427 0.022095704 -0.03522835 0.0653021 -0.061047852 0.055348452
-0.04813657 -0.09683276 0.021318402 -0.052448373 -0.072124235 -0.05851549 -0.0575368 -0.023578955
0.019470451 0.01032217 0.0327958 0.041299213 0.00556739 -0.012599608 -0.090498656 0.03840174
-0.08665381 -0.019073505 -0.013626086 0.061681345 -0.07297759 -0.03987782 0.037065342 0.02237547
0.0063921516 0.0389157 0.0483721 0.07129982 0.07094971 -0.011119988 0.07574634 -0.02457307
0.05359388 0.047707334 -0.010313766 -0.030336082 -0.07082562 0.008834412 -0.021946486 0.037804324
0.046888422 0.07050935 -0.032837488 0.063731976 -0.040770665 -0.0142918825 -0.03742529 0.06840556
0.005346362 -0.015627673 -0.03888854 0.07187194 -0.010624835 0.060450796 -0.0624098 -0.082929656
-0.027688513 0.07399951 -0.082557075 0.02482626 -0.041976184 0.016203558 -0.07983285 0.047308955
0.012525823 -0.06639921 0.06667992 -0.038051125 -0.0123953195 -0.074402854 0.022136211 0.03246814
-0.057352025 0.07349622 0.011210971 -0.020006148 0.03484278 -0.0041913935 0.009734068 0.046064455
-0.09052441 0.056580774 0.06349205 -0.0019294434 -0.07793567 0.0161174 0.058442254 -0.0774643
0.07631651 0.0018002628 -0.037091564 -0.063799895 -0.0862998 -0.07218228 0.05953508 -0.044884257
-0.061716277 -0.009337357 0.06924676 -0.09002184 -0.013515043 -0.010972178 0.008404301 -0.056765944
-0.014188692 0.06550804 -0.0704251 0.0776526 0.043857433 -0.0788306 0.0033435195 0.039755847
-0.011828103 -0.049358044 -0.05402739 -0.0105747795 -0.067675315 -0.0112604285 0.03394952 0.027081434
-0.021224553 0.03417265 -0.04557975 -0.020960957 -0.053031456 -0.058659896 0.00543314 0.035701018
0.07282097 0.04266363 0.0502992 0.014042043 -0.019469487 0.044716015 -0.03525661 0.041831773
-0.041517884 -0.009084627 0.027034625 0.041041438 0.00488703 0.04539348 0.07654248 0.045667
0.035094026 -0.042568486 0.05833774 -0.06943693 -0.0025048982 0.016750313 -0.0019370223 0.08036549

conv_block.0.lin_r.weight f4 [128, 128]
00000000: f4c7 81bd e693 e73c a621 903d dcf7 14bb
00000010: 3e92 3fbd 98c4 f83c a792 a93c b25d c2bd
00000020: 857c 52bd 6848 e8bc 6b4f 3bbd 54a3 bfbd
00000030: d3a4 0ebb fb61 35bd 67c6 2f3b 548f 18bd
00000040: 2244 763d 7ed3 89bc bb6b 1c3c 8412 9dbd
00000050: 35fa 0cbc f8b7 d23b 8a83 b6bc ed6e 8d3d
00000060: 7c64 653d 7b8b dfbb eb8b 77bd 46d0 613d
00000070: e179 8abd 5c95 9b3d 878f ed3c 3cc1 b6bd
00000080: bd86 8d3c 0650 8639 d3bf bdbd d83c babd
00000090: 7096 98bd 1831 763b 0320 8dbd 99c5 9f3d
000000a0: b3fe 463d 6cf7 853d f8d5 d03c 8705 1f3c
000000b0: 348e 5cbc e9c6 23bc ebce 74bd 7d3f 303d
000000c0: 1636 ef3c a98e 2ebd 57ed 373d 7571 543c
000000d0: af17 4a3d d23e 19bd f6d7 84bd 6750 513d
000000e0: d931 1a3b 4fc0 aabd 7f58 92bb f6cb 66bc
000000f0: 117d 84bc abb3 01bd 343f acbd dea6 48bd
00000100: 4f3e 33bd deed 0e3c 7bcd 4ebd a85c 1c3d
00000110: 1257 a6bd 8fae 57bd ac1e 783c 0d16 5c3d
00000120: d893 8cbd 25fb 803d 343c a03d ace9 c13c
00000130: cd57 113d a05c ecbc 9f18 f5ba 1050 8c3d
00000140: bbc9 debb 86e1 b7bc aaaa 3a3d a155 bbbb
00000150: 77d3 81bb 2c95 9c3d ac70 34bd fc33 fb3c
00000160: 8c75 4c3d e0ea bfb9 4c5a 99bc 0250 233d
00000170: 7be6 873c 3a46 ce3b c7a4 173c d06d 463d
00000180: e6f0 603d a86b 2fbd 8c0d aaba 5da0 993d
00000190: f999 093d d20d 89bd 0858 863d c2f2 9dbd
000001a0: 11fd 1ebd ee7a a43b b35e 32bd 3496 9d3c
000001b0: 7fc9 6f3a f9ef 883d e2a4 b3bc f090 7f3d
000001c0: 9584 573b d3f9 b7bd 1f0c 183d e26b 813d
000001d0: 6fc2 c3bd 3b3b 0c3c e9d9 1cbd 65b7 323d
000001e0: 467d e93c 196c 143d 53a6 6f3d 8fde 893d
000001f0: 6f9e 72bd 0a8e 5b3d 6d75 f0bc 1bf2 973d
00000200: 1774 99bd 77aa 10bc 4016 87bd ccd5 b1bd
00000210: 8df0 bebd 140e 85bd d4dc d5bc d7e4 543d
00000220: b464 c5bd 1539 0d3d 70df 3f3d 015b 0dbd
00000230: e164 553b 17e6 12bd eb94 eabc 40f3 3ebd
00000240: f484 523d 20e7 73bd 4af4 713d e718 a93c
00000250: fea3 8f3d fafd 8fbb 0cac 813d 4cdf 97bd
00000260: 1953 7bbc b50e c3bc dbf4 68bd dbb4 81bd
00000270: e2ed 9f3d 83e4 843b 503c 4a3d 108f 773c
00000280: 3fea 1d3d b957 a0bd 3f4f 46bc da48 183d
00000290: 5150 fabb cbf8 2fbd ba8e 273b 7c7c a2bd
000002a0: fe57 e63c 8a64 333c 7bd0 94bd aa8f 273d
000002b0: aae0 9ebd 74b6 313d a964 88bd c3a3 acbd
000002c0: 3061 3c3c e718 9dbc 33f5 783d 8acd 3ebd
000002d0: 3e55 a23d 094e 783c 8bed ab3b 6c17 d83b
000002e0: 6ff6 843c fb29 1e3d 907f 4dba 84e5 8d3d
000002f0: 95f3 a8bd 5949 3bbd cecb 01bd 5139 8fbd
00000300: c6c9 89bd ade0 7bbd bc26 123c 92c6 1fbd
00000310: e532 a3bd cdd7 0b3d 051f 993d 054c f33c
00000320: 68ae 8ebd c8b5 9f3d 776a 30bb 3a16 4ebc
00000330: dac5 f8ba dd67 993d 0dbd 58bd eb59 84bd
00000340: 318b c43c 07e3 94bd ef7b 29bd f9ae 98bc
00000350: 17e8 823d d00c 19bd 0586 4dbc 9e26 b7bd
00000360: d9da 2d3d 9650 96bd ed8d c639 9759 4c3c
00000370: 7d72 f7bc 6399 573c 2db5 8a3b e3f8 75bd
00000380: 9302 abbd 7abf 9d3d 6dbf b2bd b04f 27bd
00000390: 51ed 1a3d 38b0 cfbc 6cb7 8cbc b520 283c
000003a0: ee88 a4bc 2f09 043d 5afa 3ebd 53ee 563c
000003b0: c3de bbbd 31ed aebc a9c5 823d 5e48 083d
000003c0: c647 ffbb 8734 8f3b 6b0a 973d 9c88 dabc
000003d0: b669 2f3d 7932 813d fcfb 06bd 0ccb 263d
000003e0: 1462 b73c a37b 26bd 4404 92bd 2e4c a8bc
000003f0: 4ef5 8f3d 5a4f 183d 3b2a 883d 07c1 74bd
-0.06336966 0.028268766 0.07037668 -0.0022730744 -0.046770327 0.03036718 0.020699812 -0.09490527
-0.051388282 -0.028354838 -0.045730036 -0.09357324 -0.0021765723 -0.044282895 0.0026821138 -0.037246063
0.06012357 -0.01682448 0.009547169 -0.07669547 -0.008604576 0.006430622 -0.02227952 0.06905923
0.056004032 -0.0068220473 -0.06043617 0.055130266 -0.06761528 0.075968474 0.028999103 -0.08923575
0.017276162 0.00025618094 -0.09265103 -0.09093636 -0.07450569 0.0037565883 -0.068908714 0.07801361
0.048582744 0.065413326 0.025492653 0.009705908 -0.013461638 -0.009996154 -0.059767645 0.043029297
0.029200595 -0.04261652 0.04490408 0.012966503 0.049338993 -0.037413426 -0.06486504 0.05110207
0.0023528247 -0.08337461 -0.004466116 -0.014086714 -0.016172918 -0.031665485 -0.084104925 -0.048987262
-0.043760594 0.008723704 -0.05048893 0.0381743 -0.08122076 -0.052656706 0.0151440315 0.053731967
-0.068641365 0.06297902 0.07823983 0.023670994 0.035484124 -0.02885276 -0.0018699354 0.06851208
-0.0067989505 -0.022446405 0.045572914 -0.005716995 -0.003961976 0.0764564 -0.044052765 0.030664437
0.04991679 -0.00036605354 -0.018719815 0.039871223 0.016589394 0.0062949928 0.009255595 0.04844457
0.05491724 -0.04282728 -0.0012974008 0.0750129 0.033594105 -0.06692089 0.065597594 -0.07712318
-0.03881556 0.005019537 -0.043547343 0.019236661 0.0009147152 0.06686396 -0.021929208 0.062394083
0.0032885422 -0.08983197 0.037120935 0.06319405 -0.0955857 0.0085590435 -0.038293753 0.04363193
0.028502118 0.036235902 0.05850823 0.06731903 -0.059233125 0.053602256 -0.029352868 0.07419225
-0.074928455 -0.0088297045 -0.06596041 -0.08683357 -0.09323225 -0.06496826 -0.026106276 0.05197605
-0.09638348 0.034478266 0.046843946 -0.034510616 0.003256135 -0.035863962 -0.028635463 -0.0466187
0.051396325 -0.05954659 0.059070863 0.020641757 0.07013701 -0.00439429 0.063316435 -0.074156374
-0.015339636 -0.023810724 -0.056874137 -0.063333236 0.078090444 0.004055561 0.049373925 0.015109792
0.038553473 -0.07829232 -0.012103855 0.03717885 -0.007638969 -0.042961877 0.002556725 -0.079339
0.02811813 0.010949263 -0.07266327 0.040908493 -0.07757695 0.04338689 -0.066598244 -0.084296726
0.011497781 -0.019176913 0.060780715 -0.046582736 0.07926415 0.015155324 0.005246823 0.006594589
0.01623079 0.038614254 -0.00078391377 0.06928542 -0.082495846 -0.045724247 -0.031688504 -0.06993354
-0.06727938 -0.061493564 0.008920368 -0.03900773 -0.07968692 0.03414135 0.0747662 0.029699335
-0.06966859 0.07798344 -0.0026918927 -0.012578541 -0.0018979863 0.074905135 -0.052914668 -0.06462463
0.023992153 -0.072698645 -0.041377958 -0.018638121 0.06391924 -0.037365735 -0.01254416 -0.089429125
0.042445038 -0.07339589 0.00037871246 0.012472532 -0.03020596 0.013159129 0.0042330236 -0.06005181
-0.083501 0.07702537 -0.08727918 -0.04084748 0.03782398 -0.025352582 -0.017177306 0.010261704
-0.020084824 0.03223532 -0.046625473 0.013118344 -0.09173348 -0.021353336 0.06385357 0.03327214
-0.0077905385 0.0043702754 0.07375034 -0.026676469 0.042825423 0.06308455 -0.032955155 0.040720984
0.022385634 -0.040645253 -0.0712972 -0.020544138 0.0702921 0.03718505 0.0664868 -0.059754398

conv_block.1.lin_l.weight f4 [128, 128]
00000000: d10c 12bd 4254 5fbd c8dd 9a3d eb7b cbbb
00000010: 044b 3dbd 5525 f83d 16ca 0b3d 5a72 9ebd
00000020: 20e1 5f3d 4085 77bb 7973 cbbb 8fbe ff3b
00000030: aa2f 95bd 6249 a9bd 8ae4 7b3d cf3e 00bc
00000040: c454 113b aecc 0f3d 22ae 61bd 7a96 863d
00000050: f80d 643d c815 a03c 49cc c53b 621c e33d
00000060: dd0f 0c3d 7e66 26bc 2771 82bd c0c8 093d
00000070: 89b7 aabd 7713 88bd 7da8 7ebc 814a 17bd
00000080: 83ee 05bc fb38 58bd 8796 ae3b 57df b6bd
00000090: efec 863d afe3 743d a009 363c bad3 7ebc
000000a0: 648d 0d3e dab9 d7bb cbfe 7d3d 8bc1 9b3d
000000b0: 4225 743c 5348 493d a02f 5dbc 90a6 b6b9
000000c0: 5835 0abd d49d 2ebd 2984 33bd efdd c0bb
000000d0: e1c5 70bd f2f1 a1bd e031 a03d 30e7 4b3d
000000e0: a5d2 86bd 660b 9c3d 22c1 0bbc 55f4 28bd
000000f0: e1e9 493d 5be2 97bc 3434 8f3c f426 cf3b
00000100: bac2 1c3d 8334 72bd 527c 26ba 88a8 2f3c
00000110: 2454 34bb 9b8d 8d3d 313f 8f3d 968b 8cbd
00000120: 5a69 ca3d b4e6 b3bc 5484 dbbc 0b06 1abc
00000130: 65e1 c43c e6c5 773d 40c2 a13c a2e8 a63c
00000140: c123 033e 4d4b 01bb 157a 84bd 50cd 3ebd
00000150: a3a5 7b3d 2c76 87bd 3d1a 91bd f8bb bebc
00000160: 1945 883a e39a 9dbd 3be9 1c3d 634e b0bd
00000170: 75dc 3cbc be04 92bd 00c9 cdbc c3b3 8e3d
00000180: 30ab 8b3d 574b 4c3c dc4d 9b3c 759e 893b
00000190: d65b 4b3d 0d01 adbd f0c0 083d ccfc 81bc
000001a0: 4a56 a7bd 9dcd c23c 7420 5e3d 59f4 033d
000001b0: 4fb3 edbc dd78 c83a 6fa6 e6bc 567b 8b3d
000001c0: cd55 1f3d 4a4a 9fbd e4bd 58bd 1150 b5bd
000001d0: 2fdd 5f3b e422 fe3c b405 68bd 1028 973d
000001e0: 859b 063d 5995 133c 3509 1abd 8f99 5ebd
000001f0: c6a6 303c 86fb 8f3d 67b9 eb3c daf9 6fbb
00000200: 886d 4c3d 2ded a33d 4e70 8abd 0655 b23c
00000210: 47d4 9ebd df6e 65bd 9551 523d ca0f 91bd
00000220: 4db3 ac3d 546c 71bc bd53 703c 2ff5 ee3c
00000230: f444 f93c acc0 833b 7009 923d e30a 6f3d
00000240: 3c4f 83bc 96aa da3c bcbc 34bd 2b08 8b3d
00000250: 24ae f03a 75b0 47bb d4cc 37bc 8b96 d8bd
00000260: d470 32bd 8006 6d3c e3a4 f0bb fed8 83bd
00000270: 7776 4cbe c75b 753d 1577 2a3b 2bec 16bd
00000280: 0aa6 173d c308 81bc e6de 90bd 2901 8dbd
00000290: cbd3 e6bd 53d2 b9bd 83fe 7abc 3a17 b9bb
000002a0: dae1 ccbd 0f5e 623d 932b 88bd 06d8 993d
000002b0: b475 a6bd f9cf b53d a98c 2dbd 1f17 98bd
000002c0: 6920 5bbb b5dd 93bd cf1b d5bc 92f0 463d
000002d0: 37d4 86bc 9d98 6c3d b764 353c 8221 603d
000002e0: 15f0 62bd fad4 a4bd c3c6 583d d1a9 c9bd
000002f0: 8328 2c3b 7fd1 43bd 0be9 a2bc d36f 073d
00000300: feb0 90bd 757a 6b3d 48ec abbc 5908 78bd
00000310: c620 8d3d f448 613d b148 b03c aabd 56bc
00000320: 6f7a f0bc d9ed 95ba 0cc6 3e3d f39d 443d
00000330: 8873 4cbd 2646 f6bc fbd6 843c 843d 8cbb
00000340: 4f22 02be dabd 8c3d d5d3 2fbd 470f 953a
00000350: c922 2ebd c724 aabd d1ad 953d 41ec 383d
00000360: 6a50 83bd b8ae abbc 4059 9ebb fce6 aabd
00000370: c020 6d3d 0ac2 d23c 6434 9c3a 73b4 47bd
00000380: d1e0 8e3d b004 f03c 46cd e53c 3021 063d
00000390: e5d7 38bd 38bc feba 38c5 babc b514 69bc
000003a0: e50e 17bc ceaf 623d 6fe0 9d3d 031c 90bd
000003b0: ebf3 bfbd d050 aebd c46e f23c 44e0 953d
000003c0: a34b 8bbd e7e6 a6bc 4895 63bd a242 37bd
000003d0: ab70 ecbc e06f 0ebd 3937 51bd ebe1 753c
000003e0: 8495 6bbd c6b3 a4bc 8327 693d 81b1 ee3c
000003f0: a9b1 2a3d 3ba4 0bbd c777 493d 01b1 b1bd
-0.035656754 -0.054523714 0.07561833 -0.0062098405 -0.04621412 0.121164955 0.03412827 -0.077366546
0.054658055 -0.0037768632 -0.006208834 0.007804699 -0.07284482 -0.0826595 0.06149725 -0.007827475
0.0022175768 0.035107307 -0.055097707 0.0657167 0.055677384 0.019541636 0.0060363156 0.11089398
0.034194816 -0.010156272 -0.06369238 0.033638716 -0.08335788 -0.066443376 -0.0155431 -0.036936287
-0.008174541 -0.052788716 0.005328003 -0.089293174 0.0658816 0.05978745 0.011110693 -0.015553409
0.13823467 -0.0065834345 0.062010568 0.07605275 0.014901461 0.04914124 -0.013500124 -0.00034837844
-0.03374228 -0.042630985 -0.04382721 -0.0058858315 -0.058782462 -0.079074755 0.07822013 0.049781024
-0.06583146 0.076193616 -0.008529933 -0.04124864 0.04929531 -0.018540552 0.017480947 0.0063217822
0.038271643 -0.05913211 -0.00063509226 0.010721333 -0.0027515972 0.06911775 0.06994475 -0.068625614
0.098833755 -0.021960594 -0.026796497 -0.009400855 0.024033258 0.060491465 0.019745946 0.0203746
0.12806608 -0.001972872 -0.06468598 -0.04658252 0.06143726 -0.06614336 -0.07085083 -0.02328299
0.0010396569 -0.07695558 0.038308363 -0.08608701 -0.01152717 -0.07129811 -0.025120258 0.069678806
0.06819761 0.012469134 0.018958025 0.0041997978 0.04964813 -0.08447466 0.033387125 -0.015867613
-0.08170755 0.023779685 0.05423017 0.03221545 -0.029016165 0.0015294809 -0.028155534 0.06810634
0.038900185 -0.077778414 -0.05291547 -0.08853162 0.0034158935 0.031022497 -0.056646064 0.07380688
0.03286316 0.009007775 -0.037606437 -0.054345664 0.010781949 0.07030396 0.02877493 -0.003661743
0.049909145 0.08004222 -0.06759702 0.021769058 -0.077553324 -0.056013938 0.051347334 -0.0708309
0.084326364 -0.0147353 0.014668402 0.029169647 0.030428387 0.004020771 0.07130706 0.05835999
-0.016028993 0.02669267 -0.044125304 0.06788667 0.0018362445 -0.0030470167 -0.011218268 -0.10575589
-0.043564633 0.014466882 -0.007343875 -0.06437872 -0.19967066 0.05990198 0.002601092 -0.03684632
0.03702358 -0.015751248 -0.070737645 -0.06884987 -0.11270865 -0.09073319 -0.015319469 -0.005648521
-0.10004015 0.055265483 -0.06648936 0.07511906 -0.08127919 0.08877558 -0.042370472 -0.07426285
-0.0033436066 -0.07220022 -0.026014237 0.04856927 -0.016458614 0.05776273 0.011071376 0.054719456
-0.05540474 -0.080484346 0.05292393 -0.09846843 0.0026269264 -0.047807213 -0.019886514 0.03306563
-0.070650086 0.05748983 -0.020986691 -0.060554836 0.06891017 0.055001214 0.021519037 -0.013106743
-0.029355256 -0.0011438682 0.04657559 0.048002195 -0.049914867 -0.030062746 0.016215792 -0.004279794
-0.127084 0.06872149 -0.04292663 0.0011372351 -0.042513642 -0.08307796 0.073085435 0.045147184
-0.06411822 -0.020957336 -0.004832417 -0.08344838 0.05789256 0.02572729 0.0011917469 -0.048756074
0.06976474 0.02929911 0.028051984 0.032746494 -0.045127768 -0.0019434756 -0.02279912 -0.014226128
-0.00921986 0.05534344 0.07708823 -0.07036593 -0.093726955 -0.085115075 0.029593833 0.07318166
-0.06801536 -0.020373775 -0.055562288 -0.04474128 -0.028862318 -0.03477466 -0.051078055 0.015007476
-0.057515636 -0.020105254 0.056922447 0.029137375 0.041673336 -0.03409217 0.049186494 -0.08676339

conv_block.1.lin_r.weight f4 [128, 128]
00000000: 7503 93bc 2617 263d f518 a7bd 3366 f63c
00000010: 2038 183d e134 fdbd 663e 433d 83d7 c9bc
00000020: 1fa7 403c 9807 1fbd d034 6fbd 6149 0d3b
00000030: 4004 8abd fffe dc3c 6d91 aaba a163 a9bd
00000040: 2a37 47bd 97ac 7bbd d937 3e3c 91ca 7dbd
00000050: ad60 7abd 0f87 59bd 4018 483d 35b7 a53d
00000060: 82e8 503d d0b5 ba3d 4158 95bd e3c9 cabb
00000070: 3af6 613c 91f2 29bd 7063 1e3d ae13 793d
00000080: ba3b 49bd a596 b9bc 5a82 6b3d 08f1 08bd
00000090: 3117 ee3c 404f 88bd af96 64bd e99f 373b
000000a0: 140b 98bc 4c4b b43d 49a3 abbc 9e8a 7f3d
000000b0: 65a5 3ebd 414a b03d 1ae9 36bd ced4 203d
000000c0: 520c aa3d bb02 863c ab78 49bc 59bf 1dbd
000000d0: 5898 99bd ec31 40bd 8ce4 75bd da6d bbbd
000000e0: 0a6a fd3d 1622 833d 2f99 ac3d 1f63 03be
000000f0: 04d4 1cbd 6fd9 153e 43e0 47bd d191 a4bc
00000100: 322e 50bc ec93 163d 11d5 683d 3bb6 9dbd
00000110: f9d8 563d dd82 813d 9bb4 91bd 1289 0bbd
00000120: 9dc9 debc a1d0 a6bd 7aec f4b9 afce 8f3d
00000130: 6489 433b b0d0 06bc e288 febc 132c 8abd
00000140: 455f bb3b c1a3 fabc 0060 923d 851a 8abb
00000150: 0316 28bd 66d2 94bd 3424 8cbd dd9e 21bd
00000160: 2cc5 913c f841 27bd 0a78 64bd 29c9 773c
00000170: 6e5e c9bc 5140 243b aaed 78bd f166 10be
00000180: f204 7c3b ac48 92bd 927f 68bd 29da 02bd
00000190: da98 81bd bfcd dfbc 3b88 ab3d 95da a13c
000001a0: aff0 6abd 8764 51bd 2425 9ebd b56f 17bd
000001b0: 7e71 653d b462 7ebd f846 783c 82c2 4bbd
000001c0: 637e 8cbd 4701 143d 7ad9 bebd 8ecb a63c
000001d0: a78e abbc c35e 5cbd 405b a8bd 6b21 48bd
000001e0: 68be 8d3c de02 093d cea2 123d 2fb1 59bd
000001f0: df62 9f3d 8c24 cc3c 0b00 8e3d 0fa7 e53d
00000200: d4a6 b6bc bbeb b5bd efdc cabc f81b 39bc
00000210: a214 08bd 1802 b13d 9754 29bd 2ac4 0e3d
00000220: 0074 6cbd 2fb6 9e3d aca6 d1bd e2af 453c
00000230: 75b3 2dbd 54ec 22bd 6eaf a13d 32ea 0b3c
00000240: 654c 54bd cd7a 02bd df29 d9bc 1b99 89bd
00000250: f262 e4bc 70fd adbc 68b0 0d3b d693 873d
00000260: 5400 1c3d 6f8f aa3b 3fd2 6ebe c776 03be
00000270: 4c05 563d 277a b0bc 6cbd ee3a e6fe 90b9
00000280: 40e0 7c3d 41ea 68bd 8489 21bc 6741 11bd
00000290: 4dad 6abc 39b9 2bbd 9990 963d 7ee2 2b3d
000002a0: 5b2b b7bd 8909 f0bc 6ce6 6dbd 9c68 e53c
000002b0: 36f1 cfbb 4cf1 ddbc f306 17be f34e 85bd
000002c0: ccc1 b03d dfb0 e2bd f068 91bd e414 f63b
000002d0: 2301 91bd 775e 903d d653 85bc ddda 02bc
000002e0: 150d 73bc ec4d 4bbd 1844 28be e8cb 57bc
000002f0: 2032 42bd 9094 af3c 3184 483c 4f6e 093d
00000300: 6654 35bd f63c c03c 98b7 bbbd 13c1 24bd
00000310: eb35 3bbd a3db e13c 4f04 88bd 2d20 a63a
00000320: c810 d43c 7826 823c d7f4 05bd a1d2 9c3c
00000330: df70 07bd d6ab f83c d1b0 9fbd 5065 803d
00000340: 0a4f a83d 6de0 0d3d 08a6 643d e7fd 69bb
00000350: 6166 9b3c e5df 293c 5628 20bc dc6f 2c3d
00000360: 2d2b 703d 9250 a1bd 708a 963d 0f15 17bb
00000370: 465a 933c df6e 123d ff85 56bd 33f5 a33d
00000380: 2d51 4ebd 995a 6e3d fea3 73bd 57af 4cbb
00000390: 38a8 87bd cd97 08bd cd81 54bd 647e 7a3d
000003a0: f9d4 2fbe dd9d 43bd ea5e 633d bfd3 e7bd
000003b0: ceff 2c3d be8a 97bd 241b b8bc 4a86 17bd
000003c0: bbef 5e3d 08ae 693d f3e3 0abd ab8a 113b
000003d0: 621c a7bd f06a a2bd 95e2 983d e9ad 65bd
000003e0: f4c4 4fbd c43f 3b3d c7fb b6bc de49 733d
000003f0: 8692 663d 0e51 c43c dd21 67bd 74cf c5bd
-0.017945984 0.04054942 -0.08159057 0.03007803 0.0371629 -0.123636015 0.04766693 -0.024638897
0.011758595 -0.0388256 -0.058399975 0.002155863 -0.06739092 0.02697706 -0.0013013311 -0.08270956
-0.048636593 -0.06144389 0.011609995 -0.06196076 -0.061127353 -0.053107318 0.04885125 0.080915846
0.051002987 0.09116709 -0.07292224 -0.0061886176 0.013791615 -0.041491095 0.03866905 0.060809784
-0.049129225 -0.02265484 0.05749736 -0.03343299 0.029063793 -0.06655741 -0.055807766 0.0028018898
-0.01855997 0.08803424 -0.020951884 0.062388055 -0.04654445 0.08607913 -0.044655897 0.039265446
0.08303131 0.016358724 -0.012296836 -0.03851256 -0.074997604 -0.04692261 -0.060032412 -0.09151812
0.12373741 0.06402986 0.08427655 -0.1283078 -0.03828813 0.14633726 -0.048797857 -0.020089062
-0.012706326 0.036762163 0.05684382 -0.07700773 0.052453015 0.06323788 -0.07114526 -0.034066267
-0.027195746 -0.081452616 -0.00046715495 0.07021844 0.002983653 -0.008228466 -0.03107113 -0.06746688
0.005718144 -0.030595662 0.07147217 -0.004214587 -0.041036617 -0.07266693 -0.06842843 -0.039458144
0.017794214 -0.040834397 -0.05577854 0.015123644 -0.02458116 0.002506275 -0.06077353 -0.14101769
0.0038455096 -0.07142767 -0.056762286 -0.031946335 -0.06327982 -0.027319787 0.08375593 0.019757548
-0.05735844 -0.05112126 -0.07721928 -0.036971767 0.056016438 -0.06210585 0.015153639 -0.049746044
-0.06860044 0.03613403 -0.09318824 0.020360734 -0.020942045 -0.05380131 -0.082205296 -0.048859995
0.017302707 0.03345 0.035799794 -0.05314749 0.0778253 0.02491977 0.06933602 0.112135045
-0.022296347 -0.08882853 -0.024763552 -0.011298172 -0.033222802 0.086429775 -0.041340437 0.034855045
-0.057727814 0.077495925 -0.10236868 0.0120658595 -0.04240747 -0.03977616 0.07894789 0.008539723
-0.051830668 -0.031855393 -0.026509224 -0.06718656 -0.027879212 -0.021239012 0.002162004 0.06619994
0.03808625 0.005205087 -0.2332239 -0.12838279 0.052251145 -0.021542622 0.0018214411 -0.00027655734
0.0617373 -0.056864027 -0.009859446 -0.035462763 -0.014323545 -0.04192469 0.073517986 0.041964047
-0.08943816 -0.029301422 -0.058081076 0.028003983 -0.0063458933 -0.027092598 -0.14748745 -0.06509199
0.08630714 -0.11068892 -0.07100093 0.0075098146 -0.07080295 0.07049268 -0.016275328 -0.007986751
-0.014834662 -0.04963486 -0.16432226 -0.013171174 -0.047411084 0.021433145 0.012238548 0.033552464
-0.04426994 0.023466568 -0.09165877 -0.040223192 -0.045705717 0.027570551 -0.06641447 0.0012674384
0.025886908 0.015887484 -0.0327042 0.019143404 -0.033066627 0.030355375 -0.07797397 0.06269324
0.082182005 0.034637857 0.055822402 -0.0035704316 0.018969717 0.010368322 -0.009775242 0.042098865
0.058634926 -0.07876696 0.073506236 -0.0023053323 0.017987382 0.035750266 -0.052373882 0.080057524
-0.050370384 0.05819187 -0.059482567 -0.003123244 -0.06623882 -0.033347894 -0.0518816 0.06115569
-0.17171086 -0.047757972 0.05551044 -0.11319684 0.04223614 -0.0739951 -0.02247388 -0.036993302
0.054427844 0.057050735 -0.033908796 0.0022207897 -0.081597105 -0.07930553 0.07465092 -0.056074057
-0.05072494 0.04571511 -0.022336854 0.059396617 0.05629208 0.023964431 -0.05642878 -0.09658709

conv_block.2.lin_l.weight f4 [128, 128]
00000000: 2343 18bd dbf4 ea3c b3cc f0bc 373c bb3d
00000010: a838 8bbc a9bd 8abd f1c5 11bd d074 993d
00000020: cf31 0fbe fd32 983c ba03 eabc 86c6 283b
00000030: c30b ee3c 23c8 4d3d 9502 de3c 9a66 6ebd
00000040: 7a2a ca3c 8d5a aabd 6b80 cb3d 603c 0a3c
00000050: c53a 5f3d 9e8c 7dbd d98e ec3c 4903 f1bc
00000060: bff1 2dbd cd00 d63c 8f41 e33c e1f7 f63d
00000070: cbe4 c3bc 4e62 5a3c 87c1 c5bd bb23 5cbd
00000080: af01 db3d 88c9 003d 6f19 213d 000e 6a3c
00000090: d964 8ebd 5c1b 8b3c 359b 2d3d e7f1 a9bd
000000a0: e5fc 25bc e14f d0bd 6faa 2fbc 81c3 fdbc
000000b0: 6d79 b83d c52a 3eb9 8c97 7e3d cfa7 3cbd
000000c0: ba3d 64bc 7001 acbd 0f48 883d b972 9dbd
000000d0: 7530 11bd dd48 05be 96ca 3cbd 3d75 533d
000000e0: 2cd3 a0bd 19da 023d edda 543d 699d ae3d
000000f0: cc86 333d 26e3 f23c 5445 fabc 7fc3 8e3c
00000100: 8735 54bd 981b 00bd 445b 0d3e 4442 a33c
00000110: 3fed 5bbd 8b14 37bd 6116 aabd 216a d23c
00000120: 63fd d93c 58c6 273c fcd2 c6bc 4933 25bd
00000130: 97f8 7fbd f7b4 abbd 07e3 42bd 823d a6bd
00000140: ff18 893d 5c38 55bd 1510 3f3c cd38 ae3d
00000150: afb6 85bc 3c16 613c 3e39 86bd 0f7b b7bd
00000160: 7ba2 28bd d6e1 873d 064b 673b b49f efbc
00000170: 173b 803d a08c 013d c8b7 a83d a567 33bc
00000180: 5b45 4d3d d641 05bc 05d1 c6bd 58fa 34bd
00000190: 7ad1 743d b8b4 33bd 533b 6f3b abb3 02be
000001a0: 4074 67bd c0e5 92bd d240 c5bd 8309 cf3c
000001b0: 69f9 943d 326c a13d 2994 83bd 670b 2a3d
000001c0: c3e8 843d ec8b cf3b a42f bc3c 4a9f b7bd
000001d0: b4f6 18bb 0a3d 833c 2417 16bd 8dd9 a7bd
000001e0: 7695 a33c 7831 5b3d 7926 373c 2817 3a3d
000001f0: 1fed 95bd 2d81 02bd b6ff b5bd efb7 a8bd
00000200: c29d 2c3d 7b9c bd3c 56d6 aa3c ce0f 103d
00000210: 13fa 2c3d 4311 8bbc 7b3b 8d3d c1e7 8ebd
00000220: d835 40bd 8c15 003b 8600 2aba 2d5f 75bd
00000230: 3d41 90bd 8de6 f03c b6ee a6bd 8532 ea3c
00000240: 1c3f 14bd 0eb8 003d ddbc d9bd 0fa7 a2bd
00000250: 6aed 8bbd b040 203d 6440 8c3d 7340 8f3d
00000260: b04b 86bd fd1c 393d 170b 5abc ed7c 99bd
00000270: 9f8b 81bd e8be 97bd 4049 6a3d 892a 213d
00000280: 719f 503b ab48 913c a80c 033d 967e 90bd
00000290: 91b8 6d3d 1be3 32bd e378 513d d48f 2abd
000002a0: 84cb 6c3c fd27 3cbd 8940 12bd 2be9 36bd
000002b0: c74e 56bd 8074 43bd 813a 6f3c c1a1 233d
000002c0: f08b 97bc 64c6 cabd d33f 563d 36e1 eabc
000002d0: f778 eb3c 7685 aebd 93aa 91bd c6a8 a0bd
000002e0: b4b2 6c3d 9ba1 763d 68d8 49bd 4fc6 e6bd
000002f0: 9392 4abd aebe 463d 1959 9f3d 9f15 beba
00000300: 8e96 9bbd ebc1 253d e146 b23d 2a7e c9bd
00000310: 1449 66bd 2e6f 233c e78e 94bc f5c9 7cbd
00000320: b173 c43b 4d64 063d 6243 62bc 8b8f 81bd
00000330: 55df d3bc 771a a7bd 869b 21bc 37f2 983c
00000340: 4b83 82bd e7b3 49bd 5ac3 9ebd 90ef a8bc
00000350: 2d40 9c3a f56f 053e 26e9 30bd a5a4 823d
00000360: 3390 423d 3eb5 3c3d a32a a73c e084 943c
00000370: 304d aa3d d2b8 b63d 2700 eb3c 3ee9 35bc
00000380: e200 cd3b 93b9 2bbd aeda 1d3d 1ea6 8ebd
00000390: bc8a 2ebc b330 8cbc 96ab 833c 14be c03d
000003a0: c2cd 50bd c062 b53d 0672 35bd d1c7 48bd
000003b0: 08c0 863d 629f 393b 9112 24bd 23c1 25bd
000003c0: b698 acbc d5af f9bc 3d82 b73d e36c 0d3d
000003d0: 043b 813c f8c8 bdbd cbef 043d 4224 ef3a
000003e0: 2823 febc 682e e7b8 99e9 843d 978b 2d3d
000003f0: a7e2 82bc 53e0 dbbb 0e1b 9abd 3b76 97bc
-0.0371734 0.02868121 -0.029394483 0.091423444 -0.01699479 -0.06774456 -0.035589162 0.07492983
-0.13983844 0.018579 -0.02856623 0.0025753095 0.029058343 0.050239693 0.02710084 -0.058203317
0.024678458 -0.083180524 0.09936603 0.008437246 0.054499406 -0.06190168 0.028876709 -0.029420512
-0.042466875 0.026123429 0.027741222 0.12058998 -0.023912808 0.013329102 -0.09656053 -0.053745013
0.106936805 0.031442195 0.039330896 0.014285564 -0.06952829 0.01698082 0.042384345 -0.08298092
-0.010131096 -0.10171486 -0.010721787 -0.030977013 0.09007535 -0.00018135745 0.062156245 -0.046058472
-0.013930732 -0.08398712 0.06654369 -0.07687897 -0.035446603 -0.13016076 -0.04609164 0.05162548
-0.07852778 0.031946275 0.051966596 0.08526117 0.043829724 0.029649328 -0.030550636 0.017427204
-0.05180886 -0.031276315 0.13804346 0.019929059 -0.053693052 -0.044697326 -0.0830505 0.025685372
0.026610082 0.01024016 -0.024270527 -0.040332112 -0.062492933 -0.08384126 -0.04757979 -0.081172004
0.06694221 -0.0520557 0.011661549 0.08506928 -0.016322462 0.013738211 -0.06553887 -0.089590184
-0.04117058 0.06634872 0.003529252 -0.029250957 0.062612705 0.03162825 0.082381785 -0.010950004
0.05011497 -0.008133372 -0.09707836 -0.04418406 0.059770085 -0.04387352 0.0036503866 -0.1276385
-0.05650735 -0.071727276 -0.09631504 0.02527309 0.07274134 0.07881965 -0.06424744 0.04151478
0.06489708 0.0063338187 0.022971936 -0.08965929 -0.0023340406 0.016020317 -0.036643162 -0.081957914
0.01996873 0.053513974 0.011178606 0.04543224 -0.07320618 -0.031861473 -0.088866636 -0.082382075
0.042142637 0.023145905 0.020854156 0.035171323 0.042230677 -0.016976004 0.068961106 -0.06977797
-0.04692635 0.0019544093 -0.00064850633 -0.05990522 -0.07043693 0.02940681 -0.08150999 0.028588543
-0.036193 0.03142553 -0.10631726 -0.0794202 -0.068323925 0.03912419 0.06848219 0.069947146
-0.06557405 0.04519366 -0.013308308 -0.07494531 -0.06325459 -0.07409459 0.057198763 0.039347205
0.0031833316 0.017734846 0.03199449 -0.07055394 0.058037344 -0.043673616 0.051140677 -0.04164107
0.014452819 -0.045936573 -0.035706077 -0.04465596 -0.05232122 -0.047718525 0.014601351 0.039949182
-0.018499345 -0.09901121 0.05230696 -0.028671842 0.028744204 -0.085215494 -0.071126126 -0.07844691
0.057787612 0.060212713 -0.049278647 -0.11268293 -0.04945619 0.04852169 0.07780666 -0.0014502293
-0.075970754 0.040468138 0.08704925 -0.09838517 -0.056222036 0.009975238 -0.018134547 -0.06171604
0.005995237 0.032810498 -0.013810011 -0.06326207 -0.025863329 -0.08159345 -0.00986374 0.018670185
-0.063726984 -0.049243834 -0.07752104 -0.020622045 0.0011920981 0.1303099 -0.043191098 0.0637906
0.0475008 0.046071284 0.020406073 0.018129766 0.083155036 0.089219704 0.028686596 -0.011102973
0.0062562088 -0.041925024 0.038538627 -0.06965278 -0.010653194 -0.017113065 0.01607303 0.094112545
-0.050977476 0.08856726 -0.044298194 -0.049018685 0.06579596 0.002832376 -0.04005677 -0.040467393
-0.021068912 -0.030479351 0.08960388 0.03452767 0.015775211 -0.09266847 0.032455247 0.0018245059
-0.031022623 -0.00011023582 0.06489868 0.04236945 -0.015977217 -0.006710091 -0.075246915 -0.018488994

conv_block.2.lin_r.weight f4 [128, 128]
00000000: d209 a1bd 8df8 673d d49f 273d 91dc 82bd
00000010: e61c 42bd 3c02 c4bd 7b10 2ebd e4f3 6c3c
00000020: 2b05 27bd 52ff 6ebb 08e9 d13c db44 96bd
00000030: 2051 2ebc 504f 553d 5569 323c d61d 42bd
00000040: d325 453d 91b5 33bd edb8 66bd 995b 453d
00000050: f4bb af3a caf2 81bd c7dc 5bbd 84ed 043d
00000060: 753f be3c db3d af3d 2e20 e0bd 6ee1 00bc
00000070: af3a 00bc 366c 79bb ea72 443d fa59 233b
00000080: dffd c9bd 5769 4c3c 4075 e03c e38b c3bc
00000090: 1965 473d 9a96 7fbd 60cb 963c 1765 debc
000000a0: 30d4 81bd 093c 743d 3612 97bd 1d4e 8c3d
000000b0: be85 80bd 7b6d e43c c69e 813d edab 22bd
000000c0: 2507 50bb 11e3 5e3d b311 843d c15e 6fbb
000000d0: 23ef a6bd d646 45bd 7a2a c83c 4f50 093d
000000e0: 2e4a bbbd 5e1c 8c3d 600f cf3c f1d1 bd3d
000000f0: 72f9 55bc 5348 adbd 5d08 01bd f555 ba3c
00000100: 84d7 54bd 4cf5 7f3d da54 f73d 3a12 b0bd
00000110: da16 acbd 72f7 cbbd 6068 e8bd 29ac f4bc
00000120: cf4b 49bd 143a c9bc 6e23 bc3c 3945 97bd
00000130: 9daf b8bd b3fe 113d 4476 e1bc 5d5a 82bc
00000140: 6db0 0f3d 37ac cfbc 8249 fe3d 4c20 6e3d
00000150: 21b6 72bd 4797 bbbd 385f 3e3d 5431 85bc
00000160: f82c 00bd f324 8c3d 7e3a a3bb 40d4 08bd
00000170: 9140 20bb b4cd 6c3d 3a0f e53b d69b eb3c
00000180: fd0b 0b3d 35ac 15bd 8a88 623c e198 43bd
00000190: 89aa acbd b2d4 0cbd 4fe8 a53c a4b0 553d
000001a0: dd30 09bc d8c7 663d e196 02be 4258 90bd
000001b0: 1a72 203c 0f33 4b3d 13f4 4a3d 2eda 523d
000001c0: 3275 093c cb12 5ebd a0c8 f13b 9bfe 82bd
000001d0: e264 463d 1315 d1bd 8138 a0bd bcad a23c
000001e0: 77d6 50bd 6613 dcbc d5ce 55bd bf0a ecbc
000001f0: 3e5b e8bc 802d 59bc e561 883c 25ed 113c
00000200: 4854 a53d 30d9 9c3c 4593 883d d2ea 09bc
00000210: c7e5 8bbd e121 9ebc 0379 533d 4c07 263d
00000220: 283c 6e3c 081d c33a 1913 cdbd 0b19 d13d
00000230: 086c 093d 49fc e43c f1f4 b83d 0c2d c3ba
00000240: 1a66 89bd 084d 50bd 6580 733d 1e20 d5bb
00000250: 030c 69bd e3fb fa3c 6986 b6bd ce43 6e3d
00000260: b592 0e3d 54ad 70bd 7e27 bbbd 8d56 30bd
00000270: 3383 61bb 4507 313d 75c4 6fbc 9d2f c43c
00000280: c9f8 acbd 537c 8f3d 2561 a13e 8d06 9ebc
00000290: 0444 b6bd 4cbd 77bd 5e23 0d3d 1cb5 963d
000002a0: b760 4dbd 316d ab3d 8925 d2b9 d9cf 433d
000002b0: c4a2 7a3d 3a29 bf3c 2220 1e3d 2724 16bc
000002c0: 14c1 34bd e5f2 a43d ab57 93bd 63d6 513d
000002d0: d93c 6e3d 3245 923d 63b9 923d fba0 73bd
000002e0: 8750 373d 05ab d3bc 28e5 213d 6ccb 1cbd
000002f0: d67f fabd 6cda 803d af95 0d3d 7439 99bd
00000300: 43f9 f6bc 0664 d73b f445 47bd 4474 b9bd
00000310: ab43 d23a f183 bfbd aed5 febd c348 80bd
00000320: 9313 5f3c 837b 7dbd 8996 843b 05ee 13bd
00000330: e9a6 96bd 2fdf 6d3d 5608 ab3c a4e9 aa3d
00000340: aeae 123d f3d3 123d 7bd9 a7bd 0bc0 a2bd
00000350: 5d05 7c3d bad4 7c3d aa57 6c3d dbc5 7c3d
00000360: bd76 733d 0b33 17bd 60a6 1b3d 4a2d 0c3d
00000370: 9e44 023d b2b9 873d 9550 0a3d 0957 23bd
00000380: a049 1c3d 6a65 c73a 8325 b53c d878 b2bd
00000390: 9635 a83c 1ac3 56bd f846 633d b290 7bbd
000003a0: f648 483c 5eaf 2dbd 32a8 b4bc 9066 a33d
000003b0: edf4 07bd c6b7 923d 432d 893d 1a05 8b3d
000003c0: 7bab 443d 4c3b f33b e945 353d 772d 833d
000003d0: fa6e f2bd 6482 99bd 7faf fdbb 6a2e aebd
000003e0: d5fc 9ebd d6ac 53bd f31b 633d 56de 9a3d
000003f0: db82 40bd 2f5d 2b3e 838f 853d 2309 563d
-0.07863201 0.05663352 0.04092391 -0.06389726 -0.04739084 -0.09570739 -0.042496186 0.014462445
-0.040776413 -0.00364681 0.025623813 -0.07337352 -0.010639459 0.05207759 0.010889371 -0.047391735
0.048131775 -0.043874327 -0.056328703 0.048183057 0.0013407455 -0.063451365 -0.053677347 0.032453075
0.023223618 0.0855672 -0.10943638 -0.007866247 -0.007826491 -0.0038058884 0.047961153 0.0024925456
-0.09862875 0.012476287 0.02739966 -0.023870414 0.0486804 -0.062399484 0.018407524 -0.027147813
-0.063393 0.059627566 -0.0737652 0.068508364 -0.06275509 0.027884236 0.06329112 -0.039714742
-0.003174254 0.054415766 0.06448688 -0.0036524984 -0.081510805 -0.048163258 0.024434317 0.033523854
-0.09145008 0.06841348 0.025275886 0.09268559 -0.013059961 -0.084610604 -0.031502116 0.022746066
-0.051963344 0.062489793 0.12076731 -0.085972264 -0.08402796 -0.09959306 -0.11348033 -0.029867249
-0.049144562 -0.024563827 0.022966113 -0.0738625 -0.090178706 0.03564329 -0.027522214 -0.01591223
0.035080362 -0.025350673 0.12416364 0.05813627 -0.059255723 -0.09159713 0.046477526 -0.016258873
-0.031292886 0.06842985 -0.004981338 -0.033405542 -0.0024452547 0.05781336 0.0069903405 0.028760832
0.03394698 -0.036541183 0.013826499 -0.04775322 -0.084309645 -0.03438253 0.020252375 0.05217041
-0.008373466 0.05634293 -0.12752868 -0.07048084 0.009792829 0.04960924 0.049549174 0.051477604
0.008389758 -0.05421714 0.0073786527 -0.063962184 0.048436053 -0.10209098 -0.07823277 0.019858234
-0.05098578 -0.026864719 -0.052199204 -0.028813718 -0.02836382 -0.013255477 0.016648242 0.008906637
0.08072716 0.019146532 0.066687144 -0.008417802 -0.06830936 -0.019303264 0.051629078 0.040534303
0.01454071 0.0014885971 -0.10013408 0.10209855 0.033550292 0.02795233 0.09031094 -0.0014890744
-0.067089275 -0.050854713 0.05944862 -0.006504073 -0.05689622 0.030637687 -0.089123555 0.058170132
0.03480788 -0.05875905 -0.09138392 -0.04305129 -0.0034410476 0.043219823 -0.014634241 0.023948485
-0.084458895 0.07006135 0.31519428 -0.019290233 -0.08899692 -0.060483262 0.034457557 0.073587626
-0.050141063 0.08370436 -0.00040082287 0.04780564 0.06119038 0.023335088 0.038604863 -0.009163893
-0.044129446 0.08054141 -0.07194456 0.051229846 0.058163498 0.07142104 0.07164266 -0.059479695
0.04475453 -0.025838384 0.03952518 -0.038279936 -0.12231414 0.06291661 0.034566578 -0.074816614
-0.030148154 0.006573203 -0.048650697 -0.09055379 0.0016041895 -0.09351338 -0.124431 -0.06263878
0.013615507 -0.061885368 0.0040462655 -0.036115665 -0.07356054 0.058074173 0.020877998 0.08345345
0.03581112 0.03584666 -0.08195778 -0.079467855 0.061528552 0.06172631 0.05770079 0.061712127
0.05943941 -0.036913913 0.038000464 0.03422288 0.03180372 0.066272154 0.033768255 -0.039877925
0.03815615 0.0015212719 0.022112614 -0.08714455 0.020533364 -0.052432157 0.055487603 -0.06141729
0.0122244265 -0.04240357 -0.022052858 0.079785466 -0.033192564 0.07163958 0.06698086 0.067880824
0.0480151 0.00742284 0.044256125 0.06405156 -0.11837573 -0.07495573 -0.007741868 -0.085049465
-0.07763068 -0.0516785 0.055446576 0.075619385 -0.046999793 0.16734765 0.06521513 0.052254807
