models/hyperparameter_optimization/initial_test/augment/Set3/train_patience/input_train_patience_3/GNN.pth (torch, 994184 bytes, 18 tensors)

input_layer.weight f4 [128, 8]
00000000: da3c 773e c3eb 903e a3a1 a9bd b978 6a3e
00000010: dfa5 9ebd fec7 9f3c a642 30be 799e 543e
00000020: 174a aa3e 06cd 84be 0100 7a3e 2b10 a93d
00000030: 3f18 433e 04a6 8dba 5a43 2d3e 6777 4cbd
00000040: d7bd 953e 0d4d cf3c 9c03 29be 8ac4 853d
00000050: f2cd 26be 48d4 29bd 860b 13be 7b2a 703e
00000060: 2ae4 8ebe 50e7 26be 0e76 ccbd 13af 59be
00000070: 3a9d 06bb fdc9 b2be 558e c43e 2ac5 99be
00000080: 0069 863e 289d 1a3d 771c ebbd b010 3a3e
00000090: 2e53 cb3c 61a1 713e ce69 8f3d c55a e4bd
000000a0: 565d 603c da5a c4bd 8ebf c63d 5f25 913e
000000b0: 9679 0d3e fb45 1ebe 8e1a 803e 728e 813d
000000c0: fb1e 503d 16aa 5cbe 4c31 b3be a1e0 0bbe
000000d0: 91d8 8abe f8ae 683e 8c09 a53d 19f6 153e
000000e0: d5a2 093e 5789 c9bb 5074 6d3e e09d 80be
000000f0: 372b 57bb 1f1b 77be 4c30 8e3d 025c f9bd
00000100: d308 82bb f8da 96bd 546f 8c3e bd94 56be
00000110: 4ceb 57be a3ee 57be cbc0 cc3e b14c f13d
00000120: 49bf ad3e 1664 95be 7b8c b3be 7b9f 8dbe
00000130: 1a8a 73be 5821 c73c b279 b63d d369 963e
00000140: 49f7 3abe 58ce 76be 3871 373e 7056 12be
00000150: 03c1 043e f2d2 abbd 6a21 5b3e 6fa5 8cbe
00000160: e6b3 36be c067 ce3d 0403 743d 1f9c b8bd
00000170: fc8e 533e 2302 2b3e 3945 83be eb47 41be
00000180: 49d4 ba3e c553 f4bd 4059 00be 4127 afbe
00000190: 2a54 4fbe 3dc6 353d 8325 3fbd 3f66 83be
000001a0: 23bf b7bb 4a4d 77be 8293 99be 755c 47be
000001b0: 296e 9ebe 1886 66be 7b6d ea3e 94c2 883d
000001c0: 29fd 183e 7ad5 a8be 0bc7 6dbe 6b03 f1bd
000001d0: 2980 263c 6448 9fbe 22fe 1bbe bdbd 58be
000001e0: 12e2 a3bb 3bb7 06be b4b3 c8bc 0254 75be
000001f0: 6880 78be c936 53be 8dd9 f7bd 07e0 8ebe
00000200: 4bc1 713e 0cb4 8fbd e2b4 973e 4b07 1ebb
00000210: 6049 99be 420f 5b3e e339 c7bd 63c7 0abe
00000220: 4142 96be 59f6 b3be c7b2 c63d 962b 9ebd
00000230: 76b3 b33d 538e 94be 300d 5c3e bfe0 84be
00000240: c60e 7abd 812d 16ba c3f6 2e3e d9e3 1e3e
00000250: a3ba 7e3e c488 8fbe 6369 f83d e4b8 1bbe
00000260: 1db2 1ebd be7d 87be b818 a33e f6db 84be
00000270: 746c 1d3e 7468 053e b4e3 383e 1ebc 43be
00000280: 3fc5 b13e bac7 5f3c 1f55 8cba 2f86 9fbe
00000290: 2c93 b23d c740 59bd d4db 25be 667c 9b3e
000002a0: a4b2 683d b54e 48be eb3d 37be ba50 8abc
000002b0: 1c63 483e b806 b9bd f791 4ebe 83f4 f7bd
000002c0: 283c 87be 0ebb 7c3d ef74 863e 3d6b aabe
000002d0: 6595 263d 7e7a 483e 2a54 013d 4fee 00be
000002e0: 38ac 2f3e 4593 393e b3cd 803c c678 7ebd
000002f0: 91bc bfbd 2104 82bb 8dd2 7fbd 9bc6 d7bd
00000300: 644c 8d3e cd92 b63e 0d5d 0fbd 5f1e a2bd
00000310: ad5e 0abb fcee acbc fe52 71bc 2be9 ca3d
00000320: 7b69 a4be 1e9b 05be 09ed 973e 01fc 083e
00000330: 2e0e 90bc 7346 5abe 427f 5dbe b026 a2be
00000340: a205 ecbd 5920 5cbc 2e8c 0e3e df1e 143e
00000350: ce02 a0be 6ab7 59be fd8a 64bd e51b af3e
00000360: a91c 063d cd83 bbbd 0807 283e d3e4 09be
00000370: e254 6abe fd2a 6f3e a09e 24be 4727 91bd
00000380: 2d14 b4be d0f2 063e a4df 5b3e 0c36 02bb
00000390: b370 7cbe bba7 b2be 2505 93be 75fc 863e
000003a0: 6ee6 023e 9109 963e 0323 e13d d66b a73d
000003b0: b3e6 62bb 92aa 89be a317 9bbe f250 a9be
000003c0: 45be 183e d8bf 31be f1b8 91bd eb5a 50be
000003d0: a7f1 83bd c1d0 7ebe ce8f 6cbe 2d2f f03d
000003e0: 7331 d7bd f2d1 833e 554a e8bd 34ca 84be
000003f0: c782 7fbd 4f7f 2fbe 7e86 ddbd 6154 acbe
0.24144307 0.28304872 -0.08282783 0.22897615 -0.07746481 0.019504543 -0.17212924 0.20763578
0.3325965 -0.2593767 0.24414064 0.08255037 0.19052218 -0.0010806923 0.16920224 -0.04991856
0.292464 0.025305295 -0.16505283 0.065316275 -0.162895 -0.041462213 -0.14359865 0.23453705
-0.2790845 -0.16299176 -0.09983455 -0.21258192 -0.0020540492 -0.3491973 0.3838984 -0.30033237
0.26251984 0.037747532 -0.114800386 0.18170428 0.024819937 0.23596717 0.070026025 -0.111501254
0.013694128 -0.09587641 0.09704505 0.28348824 0.13815913 -0.15456383 0.2502026 0.063259974
0.050810795 -0.21549258 -0.34998548 -0.13659908 -0.27118352 0.22722995 0.080584615 0.1464466
0.13441022 -0.0061504054 0.23188901 -0.2512045 -0.0032832155 -0.2413144 0.06942806 -0.12175752
-0.003968337 -0.07365984 0.27428687 -0.20955177 -0.21085852 -0.21087126 0.3999084 0.11782206
0.33935001 -0.29177922 -0.35068116 -0.27660736 -0.2378315 0.024307892 0.0890993 0.29377612
-0.18258394 -0.24102151 0.17914283 -0.14290786 0.12964253 -0.08389844 0.21399465 -0.27469966
-0.17842063 0.100783825 0.05957319 -0.09014153 0.20660013 0.16700034 -0.2563875 -0.18875091
0.36490086 -0.1193004 -0.12534046 -0.34209636 -0.2024695 0.044378508 -0.046666633 -0.25663945
-0.005607502 -0.24150577 -0.29995352 -0.19468863 -0.3094342 -0.2251209 0.45786652 0.06677738
0.14940323 -0.3297537 -0.2322046 -0.1176823 0.010162392 -0.31109917 -0.15233663 -0.2116613
-0.005001315 -0.13155834 -0.024499752 -0.23957828 -0.24267733 -0.20626368 -0.121020414 -0.27905294
0.23608892 -0.07016763 0.2963019 -0.0024113234 -0.29938793 0.21392539 -0.09727838 -0.13552622
-0.29347423 -0.35148886 0.09702068 -0.07723157 0.08774464 -0.29014835 0.21489406 -0.25952718
-0.061049245 -0.00057288265 0.1708632 0.15516604 0.24875884 -0.2803403 0.12129476 -0.15207249
-0.03874408 -0.2646312 0.31854796 -0.25949067 0.15373403 0.13028127 0.18055612 -0.1911473
0.347208 0.013658458 -0.001070652 -0.3115706 0.08719477 -0.053040292 -0.16197139 0.30368346
0.05681099 -0.19561274 -0.17894714 -0.016884197 0.19569057 -0.090344846 -0.20172869 -0.12107184
-0.26413083 0.061701827 0.26261088 -0.3328494 0.040669817 0.19577977 0.031574406 -0.12590908
0.1715554 0.18122585 0.015723085 -0.062126897 -0.09362138 -0.0039677774 -0.062456656 -0.10535928
0.27597344 0.35658875 -0.03500085 -0.07915949 -0.002111356 -0.02111005 -0.01472926 0.099077545
-0.32111725 -0.13047454 0.2967303 0.13377382 -0.017584886 -0.21315937 -0.21630576 -0.3167014
-0.11524512 -0.013435447 0.13920662 0.14464901 -0.3125214 -0.21261373 -0.055796612 0.3420097
0.032742176 -0.091559984 0.16408932 -0.13466196 -0.22883943 0.23356242 -0.16076136 -0.0708757
-0.35171643 0.13178563 0.21472031 -0.001986864 -0.24652366 -0.34893593 -0.28714862 0.26364484
0.12783214 0.29304174 0.10993006 0.08174865 -0.003462237 -0.26887947 -0.3029147 -0.3306957
0.14916332 -0.17358339 -0.07115353 -0.20347182 -0.06442576 -0.24884321 -0.23101732 0.11727748
-0.105074786 0.25746113 -0.11342303 -0.2593552 -0.06238058 -0.17138408 -0.10816668 -0.33658126

conv_block.0.lin_l.weight f4 [128, 128]
00000000: 16c0 9b3c 92ad 34bd 3d98 aa3d dd27 a1bc
00000010: a8ff cbbb 6af3 2f3d 6d12 823d f281 863d
00000020: a235 edb8 cf6b 84bd aa5a 7fbd 5bcd e0bd
00000030: 1b52 e73d b9fa 1abd 6a24 6bbd 80d0 2abc
00000040: 5812 503d 33c3 1bbd b0d4 fdbc bcef 5fbd
00000050: ac09 953d 05a3 d53a 81af a33d b99f df3c
00000060: 3521 ba3d 87b2 fbbc 4e66 493d e598 34bd
00000070: 4074 af3d 6b8a aabc b83b 16bb 0ff6 01be
00000080: 0dd7 b2bd 9994 4cbd c582 0bbd 9147 8f3d
00000090: c188 3d3d 0b34 a5bc 3380 4f3d b156 81bd
000000a0: c0b8 d43b 77ce 09bd 49ec 0ab9 f87c 19bd
000000b0: 0f6a 9dbd 3910 08bd f855 383d 15a6 483d
000000c0: f122 48bd 63e3 b73c 3210 53bd d1e2 ad3c
000000d0: 595d b13c a6e4 b73d c1aa 0dbe 752f b33c
000000e0: 6e06 ad3d 8e3e cbbd 7140 7b3c e136 20bc
000000f0: 06ac bd3d 4066 a93c eafc a43c 07c7 0e3d
00000100: c1ce 97bd 3837 b3bd 48c7 063d 6531 b1bd
00000110: 586f 8ebd fb77 dcbd 6a6f 873d ba0b 2f3d
00000120: 87de 623d 1124 65bd 0b87 a7bd 9c84 debd
00000130: ea78 323d 811a 06be 56f1 99bd a967 bb3c
00000140: 3985 9b3c d935 373d 0e3d 05bd d340 24bb
00000150: e94e 02bd ee5b a33d 4508 953d 9a97 f73a
00000160: 2dda 673d 5995 9abd e1ed 99bd 3b11 8c3c
00000170: 0a9c 80bc 0244 4e3d 9d64 653d 13bc af3a
00000180: 9ef2 14bc b2a2 94bc ea62 763d b326 843c
00000190: 987e 33bd 199c 903d 0f6e a4bc 0d60 1d3d
000001a0: 6f12 14be e41d 623d 99f0 c2bc d8c7 cc3b
000001b0: 8dab 0bbd 4fd2 1f3d f736 6fbd 5b39 833c
000001c0: 1ba4 c53c d8cb e83d 2cac ce3d c392 93bd
000001d0: fa16 923d 5710 283d 7b7f dc3c 136c da3d
000001e0: 560d 0e3d 3927 c3bd 7ef7 f43c 88e4 4f3d
000001f0: 487f da3d 9584 2c3c 3e34 3a3d a1fd efbc
00000200: 41d6 633c 654f 0b3d b55b 8cbd 28f6 eabb
00000210: deda 9ebc 9731 4c3d f639 96bc 686c 75bd
00000220: f0fe 2e3d 3047 36bd 0f6a 8fbc 1fe9 14bd
00000230: 513c 013d ffa5 05bd ad5b bd3c 063c 5cbd
00000240: 0c3b 89bc dd2a 943d 2107 7fbd 716a cbbc
00000250: a74f 3ebc 34b2 4e3b 6085 40bd ae3b cb3c
00000260: a875 04bd 83c6 863b 4f24 943d d958 903d
00000270: 1a0d 11bd 4a96 69bd 0bfd 70bd c4ca c4bc
00000280: 1b3d 2ebb 1903 913c c535 24bd 8d5b 2e3d
00000290: 0e45 1fbc 5488 433c 0c0f 983d 3f8b fbbb
000002a0: d5ab e4ba af32 0abd 6737 5c3d 3706 b6bd
000002b0: 90ce 4abd e4e5 c33a c9d0 383d 808e ccbd
000002c0: e510 c5bc 1b03 323c 1912 883d 1d98 ef3c
000002d0: 76f7 8c3d 3620 b5bc 2ce3 c0bd 5e71 a9b8
000002e0: b4ef 5b3d 3215 07bc bc32 af3b 0a26 a63d
000002f0: 71db b3bd 561d fa3b d7cd 963c 9d0c 363c
00000300: 4292 00bd 95ed 42bd ab2e 2b3d 2d33 9e3c
00000310: 3a8e 973c 1fe7 5ebc 7d31 85bd 7be1 cd3c
00000320: ef7a 6ebd 071b 85bd a038 59bd 569a a7bd
00000330: aa63 a3bd 439b 68bc b6be babd 0581 683d
00000340: cb52 99bd c353 af3c d1f5 0b3d 7514 2dbd
00000350: 4a96 4b3c a6a6 9e3d 664f babd 8293 bcbb
00000360: a66e 5b3d 4f11 9d3d 5587 793c 6f44 833d
00000370: 08f4 61bd 4109 873d 6924 27ba 3b3b 93bd
00000380: 03b9 323d b87c 763d 2cf7 b1bd 1675 283d
00000390: 9c02 713c abeb 8e3d a368 bcbd f9c2 093d
000003a0: b933 a73d 0024 03bd 1e54 a33c 1714 b0bd
000003b0: 1bdf 3a3c 2ab9 92bd 25e4 bebd fdde e53c
000003c0: 5937 143d 8b6f 2a3d 6de8 733d 9d5d 0cbd
000003d0: 5e0a 9abd e17c 283d 085e 783d 5c99 97bd
000003e0: 1351 b8bd 30e1 82bd 09f8 7bbd 3732 453d
000003f0: e40c bfbd 7622 d23c 7a9e 143b 90df 91bd
0.019012492 -0.044110842 0.083298184 -0.019672329 -0.006225545 0.042956747 0.06351171 0.06567754
-0.000113110305 -0.06465875 -0.062342323 -0.109766684 0.11294957 -0.037836764 -0.057407774 -0.010425687
0.050798744 -0.038027953 -0.030985206 -0.054671988 0.072772354 0.0016299194 0.07992459 0.027297841
0.09088365 -0.030724777 0.04916983 -0.044091124 0.08567095 -0.020817956 -0.0022923779 -0.1269152
-0.08732424 -0.0499464 -0.03406026 0.06996072 0.046272997 -0.020166418 0.05065937 -0.06315363
0.0064917505 -0.033644166 -0.00013248729 -0.037472695 -0.07686245 -0.033218596 0.04500386 0.048986513
-0.048861448 0.022447294 -0.051529117 0.021226319 0.021650957 0.08979158 -0.13834669 0.021873215
0.08448492 -0.09924041 0.015335188 -0.009778709 0.092613265 0.02067864 0.02014013 0.034857776
-0.07412482 -0.087507665 0.032904893 -0.086519994 -0.06954831 -0.10765072 0.066130474 0.042735793
0.055388 -0.0559426 -0.08180054 -0.10865137 0.043572344 -0.13096048 -0.07516734 0.022876577
0.018984424 0.044729088 -0.03252893 -0.0025063052 -0.031813536 0.079765186 0.07276968 0.0018889785
0.056604553 -0.07548017 -0.07516075 0.01709806 -0.015699405 0.050357826 0.056004155 0.0013407491
-0.009091048 -0.018143985 0.060152926 0.016131734 -0.0438219 0.07061023 -0.020072011 0.03842168
-0.14460157 0.055204287 -0.023796367 0.006249409 -0.03409915 0.039018925 -0.058402028 0.01601856
0.024126103 0.11367005 0.10091433 -0.07205727 0.07133289 0.041031208 0.026916256 0.10665145
0.034680687 -0.095289655 0.02990317 0.050755054 0.10668808 0.010529657 0.04545998 -0.029295744
0.013906063 0.034011263 -0.06853429 -0.0071704574 -0.019391473 0.04985198 -0.018338185 -0.059917837
0.042723596 -0.044501483 -0.017506627 -0.036355134 0.031551663 -0.03262901 0.023115003 -0.05376818
-0.016751789 0.07234738 -0.062262658 -0.024831029 -0.01161567 0.0031539323 -0.047002196 0.02480873
-0.03233877 0.00411302 0.07233488 0.07048196 -0.035412885 -0.057028092 -0.05883507 -0.024022467
-0.0026586715 0.017701672 -0.04009034 0.04256778 -0.009721054 0.011934359 0.07424745 -0.0076765115
-0.001744623 -0.033739742 0.053763773 -0.08887904 -0.0495134 0.0014945832 0.045120988 -0.09988117
-0.024055908 0.010864998 0.06644077 0.029247338 0.06883137 -0.022110086 -0.094183296 -8.079664e-05
0.053695396 -0.008244799 0.005346624 0.08112724 -0.087820895 0.0076328916 0.018408699 0.011111406
-0.031389482 -0.047589857 0.041792553 0.019311512 0.018500436 -0.013604908 -0.0650358 0.025131932
-0.058222707 -0.06499296 -0.053032517 -0.08183734 -0.07977994 -0.0141971735 -0.091184065 0.056763668
-0.07486495 0.021402245 0.034169976 -0.042255837 0.012425968 0.077466294 -0.09097175 -0.005754889
0.05357232 0.07669317 0.01523002 0.06409537 -0.055164367 0.06593562 -0.000637597 -0.07189032
0.043633472 0.060177535 -0.086897224 0.041127287 0.014710095 0.06978544 -0.09199645 0.033633206
0.08164162 -0.032016754 0.019937571 -0.08597582 0.011405732 -0.071642235 -0.09320859 0.02806043
0.036185596 0.041610282 0.05954783 -0.034268964 -0.07521509 0.04113472 0.06063655 -0.07402298
-0.08999839 -0.06390607 -0.06151584 0.04814359 -0.093286306 0.025651198 0.0022677467 -0.07122719

conv_block.0.lin_r.weight f4 [128, 128]
00000000: 0e29 443d c2f2 d1bd 5f07 303d cef3 f43d
00000010: a620 c13d f114 7b3c 0be6 6f3d 39db 2abd
00000020: 825d 9fbd 3b75 92bd 5a6b 81bd 96fd efbd
00000030: 641c 603d 1e98 683c 55eb 41bd b338 5fbd
00000040: d973 633c 6dcc 95bd 1c6a 2dbd 6d1d 57bd
00000050: b0e5 c3bd cb36 21bd b7ac 9d3d 3c7e 503d
00000060: 6853 5abc da12 8bbc 95f4 883d 5b05 4dbd
00000070: 7f32 d0bd 5906 63bd 5927 11bd 19e0 853c
00000080: 67ba c5bd 9b7a 2fbd db6c 6fbc dba9 3ebd
00000090: f93e 29bd bbb1 debc c20c 91bd 9dc4 d73c
000000a0: 7b64 ae3c 471b 44bd 6a45 e7bc c00d cbbc
000000b0: 7b44 85bc 9ef8 75bd 6cda 823d bd8f a93a
000000c0: 31e4 fe3c f6d9 51bd 7a8d 3c3c 5227 eb3c
000000d0: 2dff d3bc 6191 79bc 83f7 8b3d a066 b4bd
000000e0: fd4e 88bd 54a9 823d a43f d5bc f606 583d
000000f0: 0096 94bd 3cd4 a1bd 3c43 c4bc 7cc7 09bd
00000100: 770d d53b f60b aebd a8b8 df3c 9e76 e93b
00000110: cc49 febc 911f c43c 0265 a33b 56c2 8abd
00000120: d1dd 9b3c 51b5 a63c 1d14 2a3c 1402 e6bd
00000130: 637d fe3c c9df cd3d 3001 843d f253 233c
00000140: f15c 563d 6f38 c4bd ae77 8dbc b768 15bd
00000150: b08e 7b3d f756 7c3a 67ea e5bc 7b17 d83c
00000160: 2419 1b3d eab5 11bd ff20 c53d e5c8 1c3d
00000170: 009e 923d 4ad0 dabc 9f6c 2a3d 5477 453c
00000180: 3382 843d 7da0 4e3d 11af 1b3c 2a8e 8f3d
00000190: c8d4 943b cc12 75bd bbf5 883c fd98 903c
000001a0: 930a c13d 5fcd 253d da0d 783d fb8a a03d
000001b0: 641d 063d 53f5 e4bd 6b92 9abd ef93 ee3c
000001c0: 13a2 923c f078 d2bb 2f73 8a3c 99e8 343c
000001d0: 7dfc 1bbd 0598 14bd 9d04 69bd daed 66bd
000001e0: 3178 fabc e710 32bd db89 dd3b 23e8 c2bd
000001f0: 3d17 453d 9b1b d0bb aaa4 debb abe6 b53c
00000200: e86d aabd 57d0 17bd 66b0 7b3d 07b1 98bd
00000210: 4b17 5e3d 33d8 75bd 11cb abbd fc76 d73c
00000220: 01d6 883c 5655 433d 613a ff3c a6ff 343d
00000230: b8a1 b03c e134 45bb ea80 613d 3236 97bd
00000240: b660 c5bd 8c38 27bd 53c8 94bd 321f 7f3d
00000250: f13f fc3c 16a0 a03d e64f 5bbd 6499 8d3d
00000260: 56ae afbd 4fec 7cbd 1188 9d3d 2680 25bc
00000270: 89e2 f63b 08d7 3bbd 1346 903c 5004 ccbc
00000280: 99dc 793d 1e17 203d 4d03 61bc f402 0cbd
00000290: 45aa 8bbd f224 e53c dba4 223c 5f59 9bbd
000002a0: 451b 02bd 7204 c93a 1a64 733d 16f2 39bd
000002b0: 770f c9bb 24d7 76bd eecd 963d 0449 40bd
000002c0: 7625 febc e1d7 523d cd00 763d 5589 1e3d
000002d0: 18fd a23d 2f2d 94bd eb05 3ebd 60ea a23d
000002e0: 7b03 963d 4733 9c3d 4764 9dbd 0763 ca3c
000002f0: 4bae 983d c391 153d b68e 623b 5c29 833d
00000300: 6a05 8d3d 75e9 413d 8efe cd3c 2c12 afbd
00000310: d6a2 c3bd cc3b 9d3c 1082 a7bd 4fda 8c3b
00000320: 4756 1bbd 3e36 b5bb c1fe 29bd be85 463d
00000330: fdc0 8a3d f2fe afbd ebe2 9d3d 74cb 9dbd
00000340: 57d9 87bd db57 e33c eed2 c3bc cd68 a4bd
00000350: f37a 67bd 3fdf 9b3d 73d4 8cbd 053d 27bd
00000360: f677 7fbd a66e df3c 7c0b 423d 7e69 11bd
00000370: d185 94bb bdfe f3ba 7108 94bd 1cb1 7b3c
00000380: dcf0 9c3c 9e64 763d c3c2 ad3d 5bb0 6dbd
00000390: 2fd0 febc 484e 10bd 1e61 8abd 1723 1f3d
000003a0: eff2 093d 6ecf d2bc 6d49 4f3d 017b 6dbc
000003b0: 921f 193d 38d1 083d cfe6 bbbd 816d 28bc
000003c0: 06b6 1c3d 2559 01bd b686 bfbc de71 143d
000003d0: e459 8bba d38a 5bbd cf70 703d 6c4a 1a3d
000003e0: b956 963c fb0d 8dbd d711 8fbd 3808 a6bc
000003f0: 40bc 9f3b 77f7 793d 3ae8 663c 4c17 d6bb
0.047890715 -0.102513805 0.04297578 0.119605646 0.09430055 0.015324817 0.058568995 -0.041712973
-0.07781507 -0.07151266 -0.06319304 -0.117182896 0.054714575 0.014196424 -0.04734357 -0.054497432
0.013882601 -0.07314382 -0.042337522 -0.052518297 -0.09565294 -0.039358895 0.07698958 0.050901636
-0.01332555 -0.016976763 0.06687275 -0.050053935 -0.10165881 -0.055425975 -0.035437915 0.01634221
-0.09654694 -0.042841535 -0.0146133555 -0.046548706 -0.04131982 -0.027184358 -0.070825115 0.02633887
0.021288147 -0.047877576 -0.028231341 -0.02478683 -0.016268006 -0.060051553 0.06389317 0.0012936514
0.03111467 -0.051233254 0.01150834 0.028705273 -0.025878513 -0.015232415 0.068343185 -0.08808637
-0.06655691 0.06379953 -0.026031323 0.052741013 -0.07255173 -0.079018086 -0.023957841 -0.03363751
0.0065018493 -0.08498375 0.02730973 0.007124736 -0.031041048 0.023940833 0.0049864063 -0.06775348
0.019026669 0.02035013 0.010380772 -0.11230865 0.031065648 0.10052449 0.06445539 0.009968745
0.05233473 -0.09581076 -0.017268982 -0.036476817 0.061415374 0.0009625996 -0.028065873 0.026378384
0.037865773 -0.035573877 0.09625434 0.038277525 0.07159042 -0.026710648 0.041607495 0.012052376
0.06470146 0.050446022 0.009502188 0.070095375 0.004541967 -0.05983238 0.016718736 0.017651075
0.09425845 0.04047906 0.060560085 0.078390084 0.032742873 -0.111796044 -0.07547458 0.029123275
0.017899549 -0.0064231083 0.016900627 0.011041784 -0.03808259 -0.03627779 -0.056889165 -0.056379177
-0.03057489 -0.04347315 0.0067608184 -0.09516933 0.048117865 -0.006350947 -0.006794532 0.022204718
-0.08321744 -0.037063923 0.061447524 -0.0745564 0.054221433 -0.060020637 -0.08388341 0.026301853
0.016703608 0.047688805 0.031155767 0.044189118 0.021561489 -0.0030091333 0.055054583 -0.07383384
-0.09637587 -0.04082541 -0.07264771 0.06228561 0.030792208 0.07843034 -0.053542994 0.069140226
-0.08578174 -0.0617488 0.07691968 -0.010101354 0.0075343293 -0.045859367 0.017611539 -0.0249044
0.061001394 0.039084546 -0.013733697 -0.034182504 -0.06819586 0.027971718 0.009927 -0.075854056
-0.031764288 0.0015336408 0.059421636 -0.045396887 -0.0061358768 -0.060263768 0.07363497 -0.046944633
-0.031023722 0.05147541 0.060059357 0.03870519 0.0795843 -0.072351806 -0.046392363 0.0795486
0.073248826 0.07626968 -0.07685142 0.024705423 0.07455119 0.036515962 0.0034569926 0.06404373
0.06885798 0.047341783 0.025145795 -0.08548388 -0.09552543 0.019193552 -0.08179104 0.0042984853
-0.037924077 -0.005530148 -0.041502718 0.04846739 0.06775091 -0.08593549 0.07709297 -0.07704821
-0.06633251 0.027751854 -0.02390429 -0.08027802 -0.056513738 0.0761094 -0.06876459 -0.040829677
-0.062370263 0.027274441 0.047374234 -0.035500996 -0.0045325537 -0.0018615347 -0.072281726 0.01536205
0.01915782 0.06015455 0.084844135 -0.058029514 -0.031105129 -0.035230905 -0.06756805 0.038851824
0.033678945 -0.025733676 0.050607134 -0.014494658 0.037383623 0.03340265 -0.091748826 -0.010280014
0.03825953 -0.031579155 -0.023379665 0.036241405 -0.0010631648 -0.05359919 0.058701333 0.03766863
0.0183519 -0.06887432 -0.069858246 -0.02026759 0.004874736 0.061027016 0.014093453 -0.006533539

conv_block.1.lin_l.weight f4 [128, 128]
00000000: 3d14 98bc 4c67 b73d 3e4e 2abd 533b 91bd
00000010: a69d 7e3d 880c 8f3d fa11 4c3b bd0c 9c3c
00000020: 20ac 2a3d 4b99 c43d 0b04 52bd 068e 4dbe
00000030: 3f1e d93c c696 2d3d 7785 253d f3b5 fa3c
00000040: bd2e 8bbb d769 eebb ca73 4ebd 1c5e 663d
00000050: 3414 9cbd 5b1c 8f3d 1936 f4bd 328a 4cbb
00000060: c632 8d3d 1ba0 6dbb bfb9 91bd 432f 3cbd
00000070: 4b81 633d 15f0 6e3d cf5d 8cbd 2501 b6bd
00000080: dbea 8abd b4c2 143d bd5b a93c 7997 3e3d
00000090: e305 d4bd 5905 6e3d 42a8 fe3c 29d7 503d
000000a0: bf57 19bd 53b3 9cba 8b07 273d ce3c 0dbe
000000b0: 9e6b 7fbc d902 d13c 3a0d b0bb d793 7fbd
000000c0: 6969 bb3c e2c7 7bbd 097b 923d 4bc2 31bd
000000d0: 7ec5 84bc ffab d13c 1ec5 b43d baa3 34be
000000e0: 720b 013d 20d0 df3c dfe8 9a3d 6cb9 0ebd
000000f0: b048 f4bc d784 a23c 209b 043e eae7 59bc
00000100: 23c0 94bd 9105 343c 242b 0e3d a38c 7d3d
00000110: 48a0 72bb 70b9 abbd 3ded babd 68dc 6d3d
00000120: 5b77 93bd 90f7 14bd 87a5 e5bd 176b f8bd
00000130: 2852 9f3d 8cf4 8dbc 9336 acbb 32c9 dbba
00000140: 55c4 0d3d 7681 02be 2d5b 82bd d7c4 b0bd
00000150: 5789 913d 8220 7cbd f612 06be 057f 833d
00000160: 4287 383d 75c1 cebc 5977 2ebc 661b 813d
00000170: 9ee6 f6bc 449f cf3d 00ee f9bb b588 69bd
00000180: 171d 31bd e6db cbbd 266c c2bd def4 d2bd
00000190: e42e bcbc a712 66bb b5d1 243d 8a7d b8bd
000001a0: 4502 97bd 071c 9b3d 62ad 663d c5e7 e93c
000001b0: f916 d6bc 60bc f4bc ada2 67bb 2ca0 263c
000001c0: a8c7 fbbd 48c7 3c3d 8418 203d 09d5 2bbe
000001d0: e18f 1a3d 361d 1abe 46b8 07bd ce1a 083d
000001e0: 7b8e acbb 5d18 d13c bfd2 81bd 2f00 92bc
000001f0: 7b8e 69bd e3fd ecbd f207 973d 9d33 4c3d
00000200: 2837 88bd a7b3 b5bd e7dd f83b 8d69 ed3c
00000210: 5f72 97bd 1273 0bbe 00ad 323d 19f7 7b3d
00000220: cadd 433d 88f5 543b b9ce e83c d990 20bd
00000230: 8a3c 58bd edd6 a63d cb23 2fbc e169 acbd
00000240: 9eea b6bd bd56 673d 1950 a83d d793 74b9
00000250: a100 383d eaec 953d 9907 973c 2f1a a63c
00000260: ee04 aabd 9713 35bd 3561 043d bc5c 1abd
00000270: a6e4 2bbd 0ff4 0f3d 479a 503d 6156 60bd
00000280: 30b7 c23c 5a89 943d ba4c 4ebd 994d 323d
00000290: 6f7e 033d 33dd 503d 127d 45bc d697 a1bd
000002a0: b773 f33c 68dc 8abd dffd 0f3d 40d4 49bd
000002b0: f602 4ebd 8635 f03d e391 9a3d 358d e43b
000002c0: 1ad1 65bc 21cb 92bd 7d7d 72bd f11d bdba
000002d0: 7674 9cbb 954e 75bd 7d7c 07bd 4b0f b6bd
000002e0: 0e5a acbd 55d7 713d 707a b13c 3187 ad3c
000002f0: 4fc6 93bd 2134 a9bc 23c2 073e 897a be3c
00000300: a7b2 413c dbad 4ebc 15a1 ba3b 5fe9 8b3d
00000310: ff70 183c 8330 653d f3af 503d e7e0 24ba
00000320: 0dee 9e3d 652f 3abd bab5 333d d0c3 54bd
00000330: 7925 42bb 0c30 a1bd 6edc 8b3c eac7 d0bb
00000340: 9e1c 82bd ad57 383d 02f4 4fbd f322 86bd
00000350: c869 493d 1c59 d7bd 6ba4 b33d 1f77 b1bb
00000360: 8880 9abd fd76 f2bc efcd 513d 65f3 663d
00000370: cdd8 a53d e080 6c3d 6cc4 ca3d 1fea 973d
00000380: 9639 30bd 3e73 87bd 7b72 283d a649 c13d
00000390: 8b6e a93d bfa2 f6bc c413 a43d 3ad9 453d
000003a0: 6c57 e53c 2827 c33c be54 40bd 7bd3 0b3d
000003b0: 20b7 4cbd efdf f23a 5d88 0a3c d5c8 aa3d
000003c0: 0efc 8abb ef1a b73d b3f2 763d ca33 6bbd
000003d0: 5f86 58bd 346f 79bd 8189 113c 0fdb 73bc
000003e0: 20e6 6dbd a633 82bd 968f 9f3d 9475 953d
000003f0: 4f34 7a3c 3ca2 573d 618b 033d a8e5 92bd
-0.018564338 0.08955249 -0.041578524 -0.07091393 0.062162064 0.06984812 0.0031138645 0.019049043
0.041668057 0.09599551 -0.051273387 -0.20073709 0.02650368 0.042380117 0.040410485 0.030604338
-0.004247515 -0.0072758007 -0.050403394 0.056242093 -0.07621041 0.0698783 -0.11924381 -0.00312103
0.0689445 -0.003625876 -0.071155064 -0.04594351 0.055543225 0.05833443 -0.0685383 -0.08886937
-0.067830764 0.036318496 0.020673627 0.046531174 -0.10352685 0.05811057 0.031086091 0.050986443
-0.037437197 -0.0011955298 0.040778678 -0.13792726 -0.015589623 0.025514053 -0.0053726705 -0.06239685
0.022877412 -0.06146992 0.07152373 -0.043398183 -0.016207453 0.02559471 0.088266596 -0.17640582
0.031505056 0.027320921 0.07563948 -0.0348448 -0.029819816 0.019838734 0.129498 -0.0132999215
-0.0726321 0.010987655 0.03470911 0.0619017 -0.0037021805 -0.08384979 -0.09127281 0.058071524
-0.072004996 -0.036368906 -0.112132125 -0.12129801 0.07779342 -0.017328523 -0.005255529 -0.0016768335
0.034611065 -0.12744698 -0.06365047 -0.08631294 0.071062736 -0.06155444 -0.1309317 0.064207114
0.045050867 -0.025238732 -0.010648572 0.06304054 -0.030139264 0.101377994 -0.0076272488 -0.05701514
-0.043240633 -0.09954052 -0.09493284 -0.10300611 -0.022971578 -0.0035106333 0.040239055 -0.0900832
-0.0737348 0.07573705 0.056317694 0.0285529 -0.026134001 -0.02987498 -0.0035344765 0.010170024
-0.12293941 0.046088487 0.03908588 -0.16780485 0.03773487 -0.15050206 -0.03313472 0.033228688
-0.0052660084 0.025524313 -0.06339025 -0.017822353 -0.057020646 -0.115718625 0.07374562 0.04985391
-0.06651145 -0.088721566 0.007594812 0.028980995 -0.073948614 -0.13618115 0.043622017 0.061514948
0.047818936 0.003249498 0.028418886 -0.039200637 -0.05279211 0.081464626 -0.010689686 -0.08418632
-0.089314684 0.056479204 0.082184024 -0.00023324728 0.044922475 0.073205784 0.01843624 0.020276157
-0.083017215 -0.044208135 0.032319266 -0.037686095 -0.041966103 0.03514486 0.05092838 -0.054769877
0.023768991 0.0725276 -0.05036614 0.043531034 0.032103 0.050992202 -0.012053745 -0.078902885
0.029718263 -0.067803204 0.03515422 -0.049274683 -0.050295793 0.11728959 0.07547357 0.006974841
-0.0140269045 -0.0716765 -0.059201706 -0.0014428479 -0.0047746254 -0.059889395 -0.033077706 -0.08889636
-0.08415614 0.059043247 0.021664828 0.021182628 -0.07215559 -0.02065474 0.13257651 0.023251789
0.011822379 -0.012614693 0.005695472 0.068316214 0.009304284 0.055954468 0.05094905 -0.00062896166
0.07760248 -0.045455355 0.04387448 -0.051944554 -0.0029624386 -0.07870492 0.017072883 -0.006371488
-0.063531145 0.04500549 -0.050769813 -0.06549635 0.049173146 -0.10515043 0.087715946 -0.0054158117
-0.07544047 -0.029597754 0.051221784 0.056384463 0.08097992 0.057740092 0.09900746 0.07417702
-0.04302367 -0.066137776 0.041124802 0.094378754 0.082730375 -0.0301069 0.080115825 0.048302867
0.027995788 0.023822382 -0.046955816 0.03413723 -0.04997933 0.0018529872 0.008455363 0.08339087
-0.004241473 0.08940684 0.06029005 -0.057422437 -0.05286252 -0.060897067 0.008882881 -0.014883771
-0.058080792 -0.063575074 0.07791059 0.07297817 0.01527126 0.052644953 0.032115344 -0.0717271

conv_block.1.lin_r.weight f4 [128, 128]
00000000: 67b8 97bd 8b06 443d 967c a6bd fbd0 2d3d
00000010: 2644 cebd 0e64 2c3d 3e2f 493b b373 7f3d
00000020: e644 a03c 9889 773d 294f e9bc 4a4c 363d
00000030: c765 93bd 31d2 80bd b2b0 a0bd 46d7 773d
00000040: cf73 b0bd 8af3 3bbc ade6 e3bb e268 7abd
00000050: 8f78 47bc e9bf 9a3d e406 333c 43a4 aabc
00000060: 3818 513d 3c09 d23b 9115 b5bc 7071 4c3d
00000070: afd8 7d3c 84b9 993b 5b87 393d 82ae 043d
00000080: 6d48 883d 47b2 c4bc 0dc8 f5bd 5509 afbc
00000090: bcf0 b0bb fa97 403d c2d8 7cbc c20f 0b3d
000000a0: 44e1 2bbc a49d 08bc e2f4 8b3c f7bb a1bd
000000b0: b293 cabc 9d67 31bc 6fcd 3a3d 7c48 db3c
000000c0: 6e18 afbd 7c8d 49bd b292 cabd 254c 3c3a
000000d0: ba7d 9c3d 7677 e53c 9d06 90bd 67a4 4ebd
000000e0: 90d0 dcbc 4bf7 a03c 0b84 e1bc 8614 eb3c
000000f0: 013e 1a3d 044a 673c 089b 793d 5e6c e5bc
00000100: a37b 0abc 6e33 81bd 692c 0c3d e22c 30bd
00000110: 3445 1e3c 479b 7dbd f2a9 e63c aaf7 3bbc
00000120: 7fd6 c53c 46dc 88bd a376 383d ed88 f4bc
00000130: 4f60 dd3b 173b 8fbd 97a4 da3c c456 cabd
00000140: 7d37 7bbd 35a3 2fbc 16f2 d7bd a53a 5bbd
00000150: 0e96 453c 5a63 9abd 7cb7 bcbd 9e0e 283d
00000160: c6c1 b1bd 248c a33d 2613 fabb c028 d2bc
00000170: 0505 53bb 760d 0dbd b1f6 2e3d 7509 9b3c
00000180: 7adc b33d 9beb 81bd f172 e4bd 154c 6cbc
00000190: ca82 b2bd c19f eebd 6f0d 94bd 39cc 14bd
000001a0: d090 053d 5e37 cfbd 8d3d acbd 5aca 10bc
000001b0: eb32 cabd a792 bc3d c75f 7d3d e0b1 8f3d
000001c0: 40fe 9a3d e5ba a4bc bb1d 92bd 1d96 8bbd
000001d0: b1d1 9cbd f43c 863c ba97 1abd 307e 7fbd
000001e0: c750 92bd 6f76 8dbd 5c17 af3c 8228 1c3d
000001f0: d1f6 90bd b49e e33b 69fd 073d acfa 8a3d
00000200: 0c0f a7bc 74f1 b8bd 87ad 9a3d 2e83 24bd
00000210: 1964 a7bc ad05 afbd c10b f6bd 8672 b33d
00000220: 47ad debc 620d 8e3d f1ae eebd 7597 dc3d
00000230: f4a3 c1bd 1257 8f3d 6609 923d 42dd 40bc
00000240: b363 9c3b 874b 6ebd 2199 78bd a838 843d
00000250: 38a2 5f3d 54be 413c 28a9 753d 11bf e53c
00000260: 0d6a 01bd 35e9 da3c b06a 92bd a6fd 7dbd
00000270: 5027 c3bc 1943 c1bc 3052 58bd d298 8e3d
00000280: f5a6 32bd 7bb2 8c3d 3abc 373d 5dde b3bd
00000290: 560c 4f3d 9198 16be 907f 9cbd e380 ca3d
000002a0: b130 c93c 0d37 a6bd feaa 06bd a914 d8bb
000002b0: a483 3c3d 19a7 f4bd 5692 10bd ea54 093d
000002c0: 1a84 79bc 5ed3 4f3d e213 1fbe f4a1 99bc
000002d0: 8d47 85bd b9cb 893c cbcc f8b8 bfd7 b23c
000002e0: 6bae f2bd 114d 76bd 94b6 a13d 7b4c 9dbd
000002f0: aba4 263d a6c3 baba 8fc4 aabd 8d72 5cbd
00000300: 51de 74bd 56bc 04bc 426f 0f3c 3233 87bd
00000310: 9ef4 403d 3288 4eba 7554 1b3d de79 2e3d
00000320: c00b a93c 08fc 7ebb 68a9 57bc 405c 573d
00000330: bc77 3d3d 5afd 243d 40c7 9ebd 470f 953d
00000340: aa16 9abc d548 bb3c e94c 2d3d f1eb c4bd
00000350: 71c5 3d3d 573a 783d b3e7 b4bc 3407 28bc
00000360: 46fe eabd d1d9 1abd 78c4 ae3d 0322 9d3d
00000370: fc2f fbbc 03ba 9e3c 5ce1 e3bc 1c59 d3bb
00000380: ae7b 583d 673b 51bd f782 9b3b 2f19 cf3c
00000390: 4ae3 c4bd 0a0f f3bc cef2 8d3d ea66 9f3c
000003a0: b5cc da3c 4e04 1fbd 8822 ac3d 0039 313d
000003b0: ebbe c23b 8a8b a5bd d277 003d f9f9 17bd
000003c0: 571f 3abb 87c0 3cbd 6719 a53d 395c febd
000003d0: d21a af3c c44f 8dbd 853b cabd 026f e6bd
000003e0: 3ad4 8d3d a441 7dbd 8b95 9b3c 0694 0bbc
000003f0: 2b3f b03c 59ab 17be b55d 7fbd a615 00be
-0.07408219 0.047857802 -0.08129232 0.042435627 -0.10071592 0.042087607 0.0030698325 0.0623662
0.019564103 0.060433954 -0.02848013 0.04450635 -0.07197147 -0.06290091 -0.07846202 0.060508035
-0.08615839 -0.011471638 -0.006954989 -0.06113518 -0.0121747395 0.07556135 0.010926936 -0.02083028
0.051048487 0.006409792 -0.02210501 0.04991287 0.015493556 0.0046913046 0.0452951 0.032392986
0.06654439 -0.02401079 -0.12001047 -0.021366755 -0.0053997915 0.047019936 -0.015432538 0.033950575
-0.010490719 -0.008338366 0.017084543 -0.078971796 -0.02472863 -0.010827926 0.045606073 0.026767962
-0.085495815 -0.049207196 -0.09891261 0.0007182977 0.07641168 0.028011065 -0.070325114 -0.050449755
-0.02695492 0.019649168 -0.027528783 0.02869631 0.037656788 0.014116768 0.060938865 -0.028005775
-0.008452329 -0.063086376 0.03422204 -0.043011554 0.009660054 -0.061915662 0.028157208 -0.011472622
0.024150131 -0.06682639 0.045035016 -0.029850448 0.0067558656 -0.06993692 0.02668981 -0.098798305
-0.061332215 -0.010720064 -0.10544221 -0.053522725 0.012059702 -0.07538481 -0.09214684 0.041029565
-0.086795375 0.07985714 -0.007631677 -0.025654197 -0.0032199037 -0.034436665 0.042715732 0.018925408
0.08782287 -0.06343766 -0.11154736 -0.014422436 -0.08716352 -0.116515644 -0.07229125 -0.036327574
0.032608807 -0.10117982 -0.084101774 -0.008837307 -0.09872993 0.09207659 0.06185892 0.07016349
0.075680256 -0.02010865 -0.07134577 -0.06815741 -0.07657183 0.016386487 -0.037742354 -0.0623762
-0.07144313 -0.06907355 0.021373443 0.03812457 -0.070783265 0.006946409 0.033200655 0.06786093
-0.020392917 -0.090304285 0.07552629 -0.040164165 -0.020433472 -0.085460044 -0.12013961 0.08762078
-0.027182234 0.06936146 -0.11654461 0.10771076 -0.094551 0.06999029 0.07130699 -0.011771502
0.0047726273 -0.058177497 -0.06069291 0.06456119 0.054598063 0.011825163 0.059975773 0.02804521
-0.03159528 0.02672253 -0.07149255 -0.062009476 -0.023822457 -0.023591565 -0.052812755 0.06962742
-0.043616254 0.0686998 0.04485724 -0.08782647 0.050548874 -0.14706637 -0.07641518 0.098878644
0.02455935 -0.08115969 -0.032877915 -0.0065942598 0.04602398 -0.11945934 -0.035295807 0.033528246
-0.015229249 0.050738685 -0.15534928 -0.018753983 -0.06507788 0.016820775 -0.00011863707 0.021831391
-0.11849674 -0.06013209 0.07896152 -0.07680603 0.040684383 -0.0014248982 -0.08338272 -0.05382018
-0.05978233 -0.008101543 0.008754553 -0.066015616 0.047108285 -0.0007878571 0.03792234 0.04259669
0.020635486 -0.0038907547 -0.013162948 0.05257821 0.046256766 0.040280677 -0.07752848 0.072783045
-0.018809635 0.022861877 0.042309675 -0.09615315 0.046330873 0.060602512 -0.022083139 -0.010255624
-0.1147428 -0.037805382 0.08533567 0.07672503 -0.03066253 0.019375807 -0.02781742 -0.0064498316
0.052852325 -0.05108204 0.004745837 0.025280563 -0.096136644 -0.029670257 0.06931077 0.019458253
0.02670894 -0.038822465 0.08405024 0.04326725 0.0059431694 -0.080832556 0.03136427 -0.037103627
-0.0028400028 -0.046082046 0.08061486 -0.12419934 0.021375094 -0.0689998 -0.09874634 -0.11251642
0.06925245 -0.061830178 0.018992206 -0.008519178 0.021514496 -0.14811458 -0.062345225 -0.12508258

conv_block.2.lin_l.weight f4 [128, 128]
00000000: 9df1 933d 9174 a0bb f896 21bc 3553 ecbd
00000010: 3e3e da3d d936 873d be0f b7bd a54b 0cbd
00000020: 0c7f 5bbd fbed a73d e521 25ba 8487 243c
00000030: 2423 f4bc 0a3d 893b 8c9e 0dbd f1a4 6a3d
00000040: a5bc afbd 5db1 b7bd 44af 233d 0513 853d
00000050: dd57 6fbd 5526 783d 6b36 bdbd aa58 72bc
00000060: 10c9 4fbd 4d81 863a 4a3b 78bd 9aad c4bd
00000070: cd5d 87bd 9577 16bc 79f1 a6bd 3c60 65bc
00000080: 8e3e 5dbd 019e 063d 70a6 00bd 1aa0 d8bd
00000090: 1751 45bd 046a 573d b5d4 65bd 3477 7abd
000000a0: 592d 8dbd fdff cbbc 66fd 733c 0f15 bbbd
000000b0: a2a9 5fbd 2e8a 253d 816a 44bd 9545 b63b
000000c0: 222c babc b706 563d 1e6a 8bbd f5b0 5bbd
000000d0: 3947 8dbd a2d7 6e3d 1417 aa3c d128 f1bc
000000e0: f948 2cbd 972c 9e3c 0052 8ebb 6265 0abd
000000f0: b629 18bd 8392 bdbc 9e9e 92bd b766 b93c
00000100: 0ca4 bf3b 2d8a 0b3d cd53 5a3d 9536 8c3d
00000110: 0a36 65bc cbf3 d63c f1bc 5abd 9cb8 91bd
00000120: f2b2 8e3d 89f2 b13d 7356 433d 2e8a 72bd
00000130: ff2e 093d f1c7 97bd 72f4 efbd 54cc 0dbd
00000140: 83c9 8e3d fd12 8f3d 372d 273d 2ef6 83bd
00000150: 18fc cdbd 6f97 de3d 55d5 443d e3a6 883d
00000160: bd80 6e3d 019f 7c3d b0fa 85bc 91ad eebc
00000170: 210f a1bd d775 84bd 4cae a3bd d569 7cbc
00000180: 5592 69bd da8b d2bd 07cd 78bd e370 9e3d
00000190: fdbc 5e3d 412b b9bc 91b7 c63d 2559 02be
000001a0: bbb2 923d 8448 163c 6d3b 54bd 8236 ab3d
000001b0: 51aa a0bd 3018 033d ed2c 65bc ecc7 40bd
000001c0: dd31 ad3d eefa a7bd eb35 813c 19c3 173d
000001d0: 7f20 213d 67cc 54bc 66b2 60bc 62ba 91bd
000001e0: f83d 80bc d691 ddbd 26ac be3d 67ad 4e3b
000001f0: ed8c 14bd b2c0 67bc 821c 60bd b1e2 1e3c
00000200: 570d 213d 47dc 333e f963 3bbd c434 ab3d
00000210: af39 963d a430 acbc f583 bfbc d2d0 093d
00000220: 6824 223d 8b7a babd 583b 03be 5d47 01bd
00000230: e170 013d 0595 66bd 67d3 a03d 64e7 8d3d
00000240: c1a9 d93c 1fa7 0cbc fb5d d93c be12 32be
00000250: c67a 52bc f80e 96bd fe00 f2bc 1321 ab3c
00000260: 4c0d bbbc 8faa 9fbc be06 5e3d cb12 893d
00000270: e0ab fc3c fdf9 aebd c331 a0bc a8a9 383d
00000280: 60d0 9bbd f315 3fbd 5b67 95bd 9fb7 83bb
00000290: 2d76 a2bd 090d 96bd beeb 9fbc ad53 583c
000002a0: f57c 883d 04bb 88bd 5143 933b b769 b5bd
000002b0: 9395 1ebd 39ba 21be 3717 a2bd 46c2 963d
000002c0: ba79 aabd 6d6c aebb ef16 8fbd 2fdd 0d3e
000002d0: b00b 683d 4223 07bd e5d2 59bd 2d8f 04bc
000002e0: 5d0e c63d f9ac ff3c bd15 44be 124f 463d
000002f0: 7440 70bc d11e a9bd 21fa f6bb 5f25 98bc
00000300: 44e8 073c c67c 60bd 1d45 b0bd 822e a3bd
00000310: 4f06 a1bc 3381 05be 2e57 b43d cc94 f5bc
00000320: 07d6 793d 018b 89bc 2316 613d 4981 3a3d
00000330: 7d72 da3d 3973 0b3d 1334 3d3d b373 63bd
00000340: eca9 643d 4f88 0138 71f4 353e 5613 1abe
00000350: 4c77 953e 333a c8bd 5557 743c ab8f 843d
00000360: 7f88 e9bd ada0 01bd afb6 9d3c 4a8a 733c
00000370: 7e79 64bb 7f6f c53c 5e44 473e 3fe6 b03d
00000380: e140 b83c 8889 143e 9967 fbba 36c7 32bd
00000390: 29fc e03d 56b4 64bd f61f 7dbd a129 83bd
000003a0: 3264 9a3c 0cd8 ae3d d439 c3bd de3f b33d
000003b0: b6ea c0bd e37b 313d 4d24 54be 197b a9bd
000003c0: a01b ffbd 8ba7 63bc 3e3d 0abe b914 b13d
000003d0: e05f 19be 5ccd 3fbd 1917 cf3c 1116 9f3d
000003e0: 976e 85bd a9ea abbc 400d 5f3e 0462 a6bd
000003f0: 2f71 4b3e edea 383c 9fa1 99bd 38a1 f23d
0.072238185 -0.0048967083 -0.009862654 -0.11539308 0.10656403 0.06602258 -0.089385495 -0.034251828
-0.05358796 0.08199688 -0.0006299301 0.010042075 -0.029801913 0.0041881846 -0.03457503 0.057286207
-0.08580903 -0.08969376 0.03996207 0.06497768 -0.058433402 0.06058343 -0.09238895 -0.014791647
-0.050728858 0.0010261923 -0.060603417 -0.09603424 -0.06609688 -0.009183784 -0.08151526 -0.013999995
-0.054014735 0.032865528 -0.031408727 -0.10577412 -0.048173036 0.05259134 -0.056111056 -0.061148837
-0.06893415 -0.024902338 0.014891958 -0.09134876 -0.054605134 0.04041498 -0.047953133 0.005562494
-0.022726122 0.052252498 -0.068073496 -0.053635556 -0.0689835 0.058311112 0.020762958 -0.029438408
-0.04206178 0.019308371 -0.0043432713 -0.033788092 -0.037149154 -0.023141151 -0.0715916 0.022631986
0.0058484133 0.03406732 0.053302575 0.06846348 -0.013989935 0.026239296 -0.053402845 -0.071152896
0.06967725 0.08688838 0.047689866 -0.05921381 0.033492085 -0.07411183 -0.11716546 -0.03461869
0.06972029 0.069860436 0.040814605 -0.064434394 -0.10057849 0.108687274 0.04805501 0.06672456
0.058228243 0.061675075 -0.016354889 -0.029135497 -0.07864214 -0.06467789 -0.07992229 -0.015406092
-0.05702432 -0.10280581 -0.060742404 0.07736375 0.054379452 -0.022603633 0.09702981 -0.12729318
0.071629964 0.0091725625 -0.051814485 0.08360006 -0.07844985 0.03200549 -0.013987762 -0.04706566
0.08456776 -0.08202158 0.01577278 0.037051294 0.03933763 -0.012988186 -0.0137144085 -0.07115628
-0.015654549 -0.108188316 0.093101785 0.0031536461 -0.03626721 -0.014145063 -0.054714687 0.009697602
0.039319362 0.17564498 -0.04574964 0.083596736 0.07335221 -0.021019287 -0.023378352 0.033646412
0.0395855 -0.091054045 -0.12815607 -0.031562198 0.03160179 -0.05629446 0.07852822 0.069289
0.026570203 -0.008584767 0.026534071 -0.17389962 -0.012846654 -0.07327074 -0.029541489 0.020889794
-0.022833489 -0.019490508 0.05420565 0.066930376 0.030843675 -0.08543775 -0.019554978 0.04508367
-0.07608104 -0.04665179 -0.07295104 -0.004019692 -0.079326965 -0.07326705 -0.01952159 0.013203544
0.06664459 -0.066762954 0.0044941087 -0.08858054 -0.038716864 -0.15793695 -0.07914584 0.073612735
-0.08323999 -0.005322984 -0.06986796 0.13853906 0.05665177 -0.03299261 -0.05317964 -0.008090776
0.09670708 0.03121041 -0.19148917 0.04841525 -0.014663804 -0.08257831 -0.007537142 -0.018572507
0.0082951225 -0.054806493 -0.08606932 -0.07967855 -0.019656328 -0.13037567 0.08805691 -0.029978178
0.060995128 -0.016789915 0.05495275 0.045533452 0.10666368 0.03404543 0.04619224 -0.05553026
0.055826113 3.0882944e-05 0.17769028 -0.15046439 0.2919258 -0.097767256 0.0149134 0.06472715
-0.11402988 -0.031647373 0.01925215 0.014864514 -0.0034862454 0.024101017 0.19459674 0.08637666
0.022491874 0.14505589 -0.0019180655 -0.043647014 0.10985596 -0.055836044 -0.06179806 -0.064044245
0.018846605 0.085373014 -0.09532514 0.08752416 -0.094197676 0.04333104 -0.20716973 -0.08275432
-0.12456441 -0.013894926 -0.13499925 0.08646531 -0.1497798 -0.046826705 0.025279569 0.07767881
-0.06515234 -0.020985918 0.21782398 -0.08124164 0.19867395 0.011286479 -0.0750153 0.11847156

conv_block.2.lin_r.weight f4 [128, 128]
00000000: a73d 073d 5917 c53d b0b3 66bd df07 4dbc
00000010: c22a 3cbd d279 54bd fdba 75bd bbe0 853c
00000020: fab6 8dbc c635 82bd 74d6 513d 4695 893d
00000030: 077a 8f3b 46f6 5dbc 17d5 923d 9336 e63d
00000040: 1781 b23c 6077 afbc 73ef e33b c157 113d
00000050: 2dcb acbc 7009 ddbd 4a1a 58bd 841a bb3d
00000060: e492 92bd d8cb c1bd 0bff 1ebd c7e3 2c3a
00000070: c8b0 2f3d 356e 80bd 97f7 9e3b 332e fcbd
00000080: cfea 82bc 88e3 7ebd d578 b23d 90e6 d53d
00000090: 4ca5 06bd cd7d 06bd 8735 843d 593c 0dbd
000000a0: 9b96 a4bd 6947 a4bd c259 8a3d fe48 3fbd
000000b0: 7506 87bd d171 babd b8d4 6d3d 8906 b4bc
000000c0: c885 c3bb b448 7e3d cb6c 45bd c3d8 ce3d
000000d0: 326f 6c3d 7355 f2bc 5dfb 19bd 1f46 4b3d
000000e0: c5db 813c 9fa5 e83b 486c 26bd 1b13 2abd
000000f0: 2fc0 cebd ead1 75bd bf29 973c 513a b3bc
00000100: 3b95 e5bd 559f 72bd 10a3 2c3d bfea 60bd
00000110: c0dd 12be 4f53 d4bd 883f 02be 4458 683d
00000120: 5674 46bd 6c2d c2bd 4e93 873c 3010 63bd
00000130: ea34 b5bb 6cc6 8b3d 4281 9bbd 6a0e 6dbc
00000140: a35a abbd 0589 9cbd 3c37 72bd 978f d6bd
00000150: d270 8f3d c2dc f33b 6175 1abd 8af4 0fbd
00000160: 4482 00be d8bc ff3c cdf6 a53d a168 5bbd
00000170: 25e4 843d 31a0 f5bd 714a 133d 67b8 06bd
00000180: a9e8 cbbc d664 9b3d 0c9a 903c d99c 613c
00000190: 67f1 183d 2941 e23c 5474 9ebc b421 e5bc
000001a0: 2847 663d 5c81 043d 9beb a3bd c9ad f53d
000001b0: cf53 56bd 2e4c 983c 3a77 eabd 4fa5 733d
000001c0: cc57 ecbb d92d d6bc 084d c8bd 50a7 de3d
000001d0: ec9e 58be 7db9 183c 910d 093d c11a 1c3d
000001e0: 3a20 5ebb 5bca 5d3d 90f7 453d 4002 083d
000001f0: ec8b 9d3c 75dc 853c ab34 e93d d539 dc3d
00000200: 2d58 833c e670 a9bd 1ef6 4a3d 4b73 973d
00000210: 8985 52be 4979 abbd bf38 bb39 6e0f 94bc
00000220: 1086 52bc ba4e 8d3b bb93 90bd c0c5 0c3e
00000230: 4099 183d c0ee 9ebd d6da 81bd 2340 15be
00000240: 1b52 04bd 5b9b 30bd 4593 8fbd 97e4 263e
00000250: 599c ae3c 0c9f 0abe 15aa 8dbd 19da 91bc
00000260: 4b4c 47bd 7d44 a53d 28ad eb3d ca58 8bbb
00000270: 72f9 9c3d 9ab1 c73d f444 e4bc 476a 85bd
00000280: 6406 313d 4cb2 13bb f8b8 0c3b a063 90bd
00000290: 303c 75bc f6c9 22bd f564 9cbd 1b11 663d
000002a0: cc69 12be ae3e 19bd 2e4d e1bc 6940 b43b
000002b0: 7ee6 c0bd b16d 0ebb 93a3 983d 0d78 b9bd
000002c0: 0126 a3bd 7373 503c 1c00 593c 426f 27be
000002d0: f199 cf3c 84d0 7f3d 142e 623d dfa5 b5bd
000002e0: fa1e 8a3d d6f1 983c bf38 903d 0f45 14be
000002f0: d307 9e3d 17b1 e03d 30fc 13be 8806 babc
00000300: 787d 033e 8d41 b53c 4d22 a63c 2908 dbbc
00000310: aed9 8a3d f226 0f3c f596 bf3c 3c71 f13d
00000320: f265 283e e6cb 173e 5908 003d 0bde 39bc
00000330: d7c5 8bbd 2522 a7bb 4a2f a03b 4369 133e
00000340: cb93 8b3d 2d95 9cbc afe3 003e ebce abbd
00000350: bfbc 643d c8bd 063e 52fb a7bd 12d1 65bd
00000360: 6f67 07be 6cbe 9a3d 5829 0c3d b4de 833d
00000370: 3851 463c 7886 d8bc ba69 0fbe e4f0 45ba
00000380: dab8 f23a 91bd 963e 1fb3 16bd b380 84bd
00000390: 9663 9a3d ff38 853d d7fe ccbd 66ce 193e
000003a0: 93aa 873d 20d3 a63b 2419 c73c 8997 263c
000003b0: 47f0 15bd 749b cfbc 2eac 813e 9562 953d
000003c0: 97b0 dfbc 2fc6 9f3d 4252 bc3d ed7e 6fbb
000003d0: 7b3c b03d ebad 123c 67f2 25be d1d4 68bc
000003e0: b909 27be 9104 63bc 73db 5cbc 1639 26bd
000003f0: 1c45 793d bf0d 12bd f8fe d0bd 4ec2 a23c
0.03301778 0.09623594 -0.056323707 -0.012514084 -0.045939215 -0.05187399 -0.05999278 0.016342511
-0.017299164 -0.06357913 0.05122991 0.06717925 0.0043785605 -0.013547486 0.0716955 0.11240878
0.02179007 -0.021419227 0.006956035 0.03548408 -0.021092976 -0.10792816 -0.052759446 0.09135917
-0.071569234 -0.09462708 -0.038817447 0.0006595221 0.0428932 -0.0627102 0.0048512924 -0.12313499
-0.015981106 -0.06222871 0.08714453 0.10444367 -0.032872483 -0.032834817 0.06455522 -0.03448138
-0.08036538 -0.08021433 0.06755401 -0.04670047 -0.065930285 -0.0910374 0.058064193 -0.021975772
-0.0059668757 0.062081054 -0.048199456 0.10099938 0.05772323 -0.029581761 -0.037593234 0.04962742
0.015851865 0.0070998217 -0.04063061 -0.041522127 -0.1009525 -0.060014643 0.018452523 -0.021878393
-0.11210104 -0.059233982 0.042147696 -0.05491137 -0.14342403 -0.10367452 -0.12719548 0.0567248
-0.04845079 -0.0948132 0.016549733 -0.05543536 -0.0055299895 0.06824955 -0.07593013 -0.014468769
-0.08366897 -0.07643322 -0.059134707 -0.10476606 0.07003941 0.007442088 -0.037709597 -0.03514532
-0.12549692 0.031217977 0.08103714 -0.05356658 0.064888276 -0.11993445 0.035959665 -0.032890704
-0.024891214 0.07587592 0.01765158 0.013770306 0.037339594 0.027618961 -0.019342579 -0.027970172
0.056220204 0.03234993 -0.080039226 0.119960375 -0.05232602 0.018591013 -0.11448522 0.059483822
-0.0072126146 -0.026144909 -0.097803175 0.10871756 -0.21154374 0.009321568 0.033460204 0.038111452
-0.003389372 0.05414806 0.048331797 0.03320527 0.019231759 0.016340474 0.11386999 0.10753218
0.016033256 -0.08273487 0.049551122 0.07395037 -0.20558752 -0.08372743 0.000357097 -0.018073764
-0.012849346 0.0043123635 -0.07059427 0.1374731 0.037255526 -0.07760382 -0.06340568 -0.14575247
-0.032304864 -0.04311691 -0.07010511 0.16298138 0.021314787 -0.13537234 -0.06917206 -0.017804192
-0.048656743 0.08069704 0.11507636 -0.004252528 0.076647654 0.09750672 -0.02786491 -0.065144114
0.043218985 -0.0022536693 0.0021472555 -0.07050252 -0.014967963 -0.039743386 -0.076364435 0.056168657
-0.14298171 -0.03741329 -0.027502622 0.0055008424 -0.09418963 -0.0021732862 0.07453074 -0.09056101
-0.07966233 0.012722838 0.013244655 -0.16351035 0.02534196 0.062454715 0.055219725 -0.08869528
0.067441896 0.018670004 0.070420735 -0.14479469 0.07716336 0.10971277 -0.1445167 -0.022708192
0.12840831 0.022125984 0.020280028 -0.02673729 0.067798 0.008737313 0.023387412 0.11789176
0.16445139 0.14823875 0.03125796 -0.011344443 -0.06824844 -0.005100506 0.00488845 0.14395623
0.06815299 -0.019114101 0.12586854 -0.08389076 0.055844065 0.13158333 -0.082022324 -0.056107588
-0.1322305 0.07555851 0.034219116 0.064389616 0.012104325 -0.026431307 -0.14005175 -0.0007550849
0.0018518225 0.29441503 -0.036791917 -0.0646986 0.07538526 0.06505012 -0.10009544 0.15020141
0.06624331 0.005091086 0.02430398 0.010167965 -0.0366061 -0.02534268 0.25326675 0.07294194
-0.027305884 0.078014724 0.09195377 -0.003654416 0.08605286 0.008952598 -0.1620575 -0.014210896
-0.16312303 -0.013856069 -0.013480055 -0.040581785 0.060856923 -0.03565764 -0.102048814 0.019868042
