models/hyperparameter_optimization/Set2/train_factor/input_train_factor_0_6/GNN.pth (torch, 994184 bytes, 18 tensors)

input_layer.weight f4 [128, 8]
0.2460904 0.3064666 -0.08282783 0.26188698 -0.07746481 -0.0022341555 -0.17212924 0.20763578
0.37768617 -0.2593767 0.24692103 0.08458297 0.23364739 -0.0029163996 0.25512263 -0.04991856
0.29822797 0.04205317 -0.16505283 0.112727605 -0.162895 -0.041462213 -0.14359865 0.23453705
-0.2790845 -0.16299176 -0.09983455 -0.21258192 -0.0022574882 -0.3491973 0.38380927 -0.30033237
0.2974168 0.030450726 -0.114800386 0.19887348 -0.00016941786 0.23376559 0.083872005 -0.111501254
0.08260634 -0.09587641 0.10641949 0.29697797 0.18422745 -0.15456383 0.2166161 0.063259974
0.15051866 -0.21549258 -0.34998548 -0.13659908 -0.27118352 0.25149444 0.08604909 0.1464466
0.14148179 -0.0061504054 0.23109546 -0.2512045 0.0020978865 -0.2413144 0.078258865 -0.12175752
0.052160896 -0.07365984 0.28787234 -0.20955177 -0.21085852 -0.21087126 0.39574677 0.11782206
0.358601 -0.29177922 -0.35068116 -0.27660736 -0.2378315 0.01009264 0.11046191 0.29377612
-0.18258394 -0.24102151 0.1328243 -0.14290786 0.22435842 -0.08389844 0.21959427 -0.27469966
-0.17842063 0.11635097 0.03825182 -0.09014153 0.22466414 0.22478932 -0.2563875 -0.18875091
0.37238002 -0.1193004 -0.12534046 -0.34209636 -0.2024695 0.06350996 -0.046666633 -0.25663945
-0.0056074997 -0.24150577 -0.29995352 -0.19468863 -0.3094342 -0.2251209 0.43700215 0.06677738
0.16152911 -0.3297537 -0.2322046 -0.1176823 0.01922109 -0.31109917 -0.15233663 -0.2116613
-0.005001315 -0.13155834 -0.024499752 -0.23957828 -0.24267733 -0.20626368 -0.121020414 -0.27905294
0.23791689 -0.07016763 0.29597804 -0.0026559196 -0.29938793 0.23635367 -0.09727838 -0.13552622
-0.29347423 -0.35148886 0.09836336 -0.07723157 0.09064228 -0.29014835 0.29488987 -0.25952718
-0.061049245 -0.00091946335 0.142893 0.22267707 0.29248196 -0.2803403 0.12405452 -0.15207249
-0.03874408 -0.2646312 0.33762404 -0.25949067 0.14547624 0.16570622 0.16863362 -0.1911473
0.34104905 0.0555419 -0.0030195299 -0.3115706 0.09214264 -0.053040292 -0.16197139 0.30368346
0.05057658 -0.19561274 -0.17894714 -0.016884197 0.24092206 -0.090344846 -0.20172869 -0.12107184
-0.26413083 0.032270838 0.29397997 -0.3328494 -0.0014754041 0.21785635 0.07988372 -0.12590908
0.17992023 0.205939 0.02205114 -0.062126897 -0.09362138 -0.0010999056 -0.062456656 -0.10535928
0.30209935 0.35305136 -0.03500085 -0.07915949 -0.002111357 -0.02111005 -0.011427187 0.099077545
-0.32111725 -0.13047454 0.323562 0.08529983 -0.017584886 -0.21315937 -0.21630576 -0.3167014
-0.11524512 0.0032502594 0.17142135 0.18116954 -0.3125214 -0.21261373 -0.055796612 0.3420097
0.020306109 -0.091559984 0.1907492 -0.13466196 -0.22883943 0.28711066 -0.16076136 -0.0708757
-0.35171643 0.20147242 0.22284923 0.03047444 -0.24652366 -0.34893593 -0.28714862 0.26364484
0.14909849 0.283924 0.083147265 0.08027829 -0.003462237 -0.26887947 -0.3029147 -0.3306957
0.16652726 -0.17358339 -0.07115353 -0.20347182 -0.06442576 -0.24884321 -0.23101732 0.11727748
-0.105074786 0.27299088 -0.11342303 -0.2593552 -0.06238058 -0.17138408 -0.10816668 -0.33658126
00000000: 1fff 7b3e 31e9 9c3e a3a1 a9bd 0d16 863e
00000010: dfa5 9ebd e96a 12bb a642 30be 799e 543e
00000020: 1560 c13e 06cd 84be ded8 7c3e d639 ad3d
00000030: 4341 6f3e 1121 3fbb 6f9f 823e 6777 4cbd
00000040: 56b1 983e f23f 2c3d 9c03 29be bbdd e63d
00000050: f2cd 26be 48d4 29bd 860b 13be 7b2a 703e
00000060: 2ae4 8ebe 50e7 26be 0e76 ccbd 13af 59be
00000070: 5ef2 13bb fdc9 b2be a682 c43e 2ac5 99be
00000080: 0447 983e cd73 f93c 771c ebbd 7da5 4b3e
00000090: c3a5 31b9 3f60 6f3e 16c5 ab3d c55a e4bd
000000a0: 832d a93d da5a c4bd 76f2 d93d 7f0d 983e
000000b0: 1fa6 3c3e fb45 1ebe 9cd0 5d3e 728e 813d
000000c0: 9021 1a3e 16aa 5cbe 4c31 b3be a1e0 0bbe
000000d0: 91d8 8abe e1c3 803e 813a b03d 19f6 153e
000000e0: 9ae0 103e 5789 c9bb 4aa4 6c3e e09d 80be
000000f0: b27c 093b 1f1b 77be 2f46 a03d 025c f9bd
00000100: aaa6 553d f8da 96bd 0164 933e bd94 56be
00000110: 4ceb 57be a3ee 57be 529f ca3e b14c f13d
00000120: 8d9a b73e 1664 95be 7b8c b3be 7b9f 8dbe
00000130: 1a8a 73be 9a5b 253c db39 e23d d369 963e
00000140: 49f7 3abe 58ce 76be 1803 083e 7056 12be
00000150: 37be 653e f2d2 abbd 52dd 603e 6fa5 8cbe
00000160: e6b3 36be 6b49 ee3d f1ad 1c3d 1f9c b8bd
00000170: 5b0e 663e 2c2f 663e 3945 83be eb47 41be
00000180: 98a8 be3e c553 f4bd 4059 00be 4127 afbe
00000190: 2a54 4fbe 8311 823d 8325 3fbd 3f66 83be
000001a0: 1ebf b7bb 4a4d 77be 8293 99be 755c 47be
000001b0: 296e 9ebe 1886 66be bfbe df3e 94c2 883d
000001c0: e367 253e 7ad5 a8be 0bc7 6dbe 6b03 f1bd
000001d0: 8c75 9d3c 6448 9fbe 22fe 1bbe bdbd 58be
000001e0: 12e2 a3bb 3bb7 06be b4b3 c8bc 0254 75be
000001f0: 6880 78be c936 53be 8dd9 f7bd 07e0 8ebe
00000200: 7ca0 733e 0cb4 8fbd 6f8a 973e f00e 2ebb
00000210: 6049 99be b206 723e e339 c7bd 63c7 0abe
00000220: 4142 96be 59f6 b3be bb72 c93d 962b 9ebd
00000230: a9a2 b93d 538e 94be cefb 963e bfe0 84be
00000240: c60e 7abd 2408 71ba 8b52 123e 7505 643e
00000250: 32c0 953e c488 8fbe 4c10 fe3d e4b8 1bbe
00000260: 1db2 1ebd be7d 87be 0fdd ac3e f6db 84be
00000270: b9f7 143e e4ae 293e 4bae 2c3e 1ebc 43be
00000280: fb9d ae3e e77f 633d 4ee3 45bb 2f86 9fbe
00000290: 48b5 bc3d c740 59bd d4db 25be 667c 9b3e
000002a0: 6329 4f3d b54e 48be eb3d 37be ba50 8abc
000002b0: 46b4 763e b806 b9bd f791 4ebe 83f4 f7bd
000002c0: 283c 87be 6d2e 043d 8b84 963e 3d6b aabe
000002d0: 5962 c1ba bc15 5f3e 139a a33d 4fee 00be
000002e0: 023d 383e ace1 523e 98a4 b43c c678 7ebd
000002f0: 91bc bfbd b52a 90ba 8dd2 7fbd 9bc6 d7bd
00000300: c4ac 9a3e 26c3 b43e 0d5d 0fbd 5f1e a2bd
00000310: b15e 0abb fcee acbc 1939 3bbc 2be9 ca3d
00000320: 7b69 a4be 1e9b 05be eba9 a53e adb1 ae3d
00000330: 2e0e 90bc 7346 5abe 427f 5dbe b026 a2be
00000340: a205 ecbd 4e02 553b 1489 2f3e 8284 393e
00000350: ce02 a0be 6ab7 59be fd8a 64bd e51b af3e
00000360: ff58 a63c cd83 bbbd c253 433e d3e4 09be
00000370: e254 6abe 2b00 933e a09e 24be 4727 91bd
00000380: 2d14 b4be c94e 4e3e 9732 643e 88a5 f93c
00000390: b370 7cbe bba7 b2be 2505 93be 75fc 863e
000003a0: 46ad 183e 7d5e 913e 1d49 aa3d f268 a43d
000003b0: b3e6 62bb 92aa 89be a317 9bbe f250 a9be
000003c0: 1f86 2a3e d8bf 31be f1b8 91bd eb5a 50be
000003d0: a7f1 83bd c1d0 7ebe ce8f 6cbe 2d2f f03d
000003e0: 7331 d7bd 76c5 8b3e 554a e8bd 34ca 84be
000003f0: c782 7fbd 4f7f 2fbe 7e86 ddbd 6154 acbe

conv_block.0.lin_l.weight f4 [128, 128]
0.033686075 -0.03913897 0.121312894 -0.0050288183 0.015713874 0.017444119 0.08277904 0.079927646
0.0035330174 -0.038935103 -0.10284019 -0.123047374 0.14173311 -0.025533047 -0.04584896 -0.010425686
0.07681729 -0.05439082 -0.07267247 -0.049493715 0.08630606 -0.045213595 0.10377266 0.032396007
0.10786476 -0.035539746 0.039483283 -0.020797124 0.06704289 -0.0112378085 0.037099034 -0.17331457
-0.09156189 -0.049484614 -0.032277185 0.06996072 0.084873565 -0.16312869 0.037998527 -0.05479434
-0.002665337 -0.05019916 -0.049013354 -0.030692803 -0.088062234 -0.056620628 0.038296975 0.024111804
-0.14600264 0.03504724 -0.11269164 -0.008752876 -0.02630206 0.11095601 -0.22284086 -0.05263593
0.11295013 -0.17014305 0.015198672 0.034841184 0.1333005 0.026853234 0.024539467 0.0628767
-0.120548226 -0.1667002 0.04473595 -0.12576762 -0.06896125 -0.13359532 0.08240168 0.04128825
-0.021634186 -0.0713472 -0.06943241 -0.15762477 0.054312207 -0.147418 -0.07412723 0.03569551
0.01556603 0.022881428 -0.03708349 -0.026233403 0.0047990284 0.10118762 0.08216114 -0.012856592
0.07919213 -0.06466905 -0.10209925 0.025477687 -0.035477277 0.069741234 0.07820087 0.0054928404
-0.057890013 -0.0139767025 0.07729669 0.046201553 -0.112735584 0.09370481 -0.019806474 0.01440461
-0.15571785 0.095146686 -0.03253977 0.010515937 -0.08359219 0.011233279 -0.053359587 0.011815348
0.0055015343 0.12569961 0.12449183 -0.13684063 0.074488886 -0.020279596 0.03123503 0.13005054
0.041411687 -0.09385035 -0.015187026 -0.014415443 0.104303084 0.058307067 0.03365214 -0.06204121
0.0139060635 0.034011267 -0.06853429 -0.0071704607 -0.01939147 0.04985198 -0.01833818 -0.059917837
0.042723604 -0.044501483 -0.017506631 -0.03635513 0.031551663 -0.032629013 0.023115007 -0.05376818
-0.016751785 0.07234738 -0.062262658 -0.02483103 -0.011615669 0.0031539348 -0.047002196 0.02480874
-0.03233877 0.00411302 0.07233488 0.07048196 -0.035412885 -0.05702809 -0.05883507 -0.024022467
-0.0026586684 0.017701676 -0.040090334 0.04256778 -0.009721054 0.011934356 0.07424745 -0.0076765115
-0.0017446236 -0.033739742 0.053763773 -0.08887904 -0.049513396 0.0014945803 0.045120988 -0.09988118
-0.024055906 0.010865001 0.06644077 0.029247338 0.06883137 -0.022110082 -0.094183296 -8.079971e-05
0.053695396 -0.0082448 0.005346625 0.08112724 -0.087820895 0.0076328926 0.018408699 0.011111407
-0.031389482 -0.047589857 0.04179256 0.019311514 0.018500436 -0.01360491 -0.0650358 0.02513193
-0.058222707 -0.06499296 -0.05303254 -0.08183734 -0.07977994 -0.014197172 -0.091184065 0.056763675
-0.07486495 0.021402244 0.03416998 -0.042255834 0.012425973 0.077466294 -0.090971746 -0.0057548867
0.05357232 0.07669317 0.015230017 0.06409535 -0.055164367 0.06593562 -0.0006375971 -0.07189032
0.04363347 0.060177535 -0.086897224 0.041127287 0.014710095 0.06978544 -0.09199645 0.033633206
0.08164162 -0.03201675 0.019937573 -0.08597582 0.011405733 -0.071642235 -0.09320859 0.028060427
0.03618559 0.04161029 0.05954783 -0.034268964 -0.07521509 0.04113472 0.06063655 -0.07402298
-0.08999839 -0.06390607 -0.06151584 0.04814359 -0.093286306 0.025651202 0.0022677435 -0.07122719
00000000: 69fa 093d 2f50 20bd e572 f83d c9c8 a4bb
00000010: 62ba 803c f8e6 8e3c 0f88 a93d 1bb1 a33d
00000020: 328a 673b 6a7a 1fbd e19d d2bd 4300 fcbd
00000030: 7c22 113e ae2a d1bc 1ecc 3bbd 7fd0 2abc
00000040: 6252 9d3d e9c8 5ebd 4ed5 94bd ecb9 4abd
00000050: 3bc1 b03d e431 39bd c386 d43d adb1 043d
00000060: 33e8 dc3d 2092 11bd 39b9 213d bb5e aabc
00000070: c84d 893d c91e 38bc 28f5 173d 6079 31be
00000080: cd84 bbbd 61b0 4abd 1535 04bd 9147 8f3d
00000090: 31d2 ad3d 350b 27be 58a4 1b3d 0870 60bd
000000a0: efac 2ebb a29d 4dbd 3ac2 48bd 796f fbbc
000000b0: f959 b4bd 08eb 67bd 4add 1c3d 1e86 c53c
000000c0: b781 15be b28d 0f3d e0ca e6bd 3968 0fbc
000000d0: 6b77 d7bc e83c e33d 6530 64be c698 57bd
000000e0: 6652 e73d fb39 2ebe da03 793c a1b5 0e3d
000000f0: ed7f 083e 50fb db3c fe06 c93c 80c5 803d
00000100: fde1 f6bd 75b3 2abe 0b3d 373d 3ac9 00be
00000110: 8e3b 8dbd 36cd 08be 36c2 a83d de1d 293d
00000120: 2d3a b1bc 7b1e 92bd 9432 8ebd 6368 21be
00000130: 7a76 5e3d bff4 16be 04d0 97bd 7535 123d
00000140: a908 7f3c d571 bb3c dce4 17bd 6fe7 d6bc
00000150: 2b41 9d3b 743b cf3d 1a44 a83d 75a4 52bc
00000160: 7c2f a23d 3571 84bd 6919 d1bd 95b6 d03c
00000170: 9f50 11bd 7ed4 8e3d c727 a03d 49fd b33b
00000180: 141e 6dbd 8afe 64bc ba4d 9e3d d73d 3d3d
00000190: eae1 e6bd 4fe8 bf3d 3041 a2bc 5001 6c3c
000001a0: 8074 1fbe 44dc c23d 6c48 05bd 094b 2c3c
000001b0: 6232 abbd c90b 383c 958f 5abd 2995 413c
000001c0: 3746 b43b 66b7 003e 93f5 fe3d f31f 0cbe
000001d0: a18d 983d 6521 a6bc 9be0 ff3c f82b 053e
000001e0: 4d9f 293d 9d34 c0bd 01d3 78bc c02e 6cbc
000001f0: db9c d53d 64d3 6e3d d4d6 093d ec1e 7ebd
00000200: 42d6 633c 664f 0b3d b55b 8cbd 2ff6 eabb
00000210: dcda 9ebc 9731 4c3d f339 96bc 686c 75bd
00000220: f2fe 2e3d 3047 36bd 116a 8fbc 1ee9 14bd
00000230: 513c 013d 00a6 05bd af5b bd3c 063c 5cbd
00000240: 0a3b 89bc dd2a 943d 2107 7fbd 726a cbbc
00000250: a64f 3ebc 3fb2 4e3b 6085 40bd b33b cb3c
00000260: a875 04bd 83c6 863b 4f24 943d d958 903d
00000270: 1a0d 11bd 4996 69bd 0bfd 70bd c4ca c4bc
00000280: 0e3d 2ebb 1b03 913c c335 24bd 8d5b 2e3d
00000290: 0e45 1fbc 5188 433c 0c0f 983d 3f8b fbbb
000002a0: dbab e4ba af32 0abd 6737 5c3d 3706 b6bd
000002b0: 8fce 4abd cbe5 c33a c9d0 383d 818e ccbd
000002c0: e410 c5bc 1e03 323c 1912 883d 1d98 ef3c
000002d0: 76f7 8c3d 3420 b5bc 2ce3 c0bd 0473 a9b8
000002e0: b4ef 5b3d 3315 07bc be32 af3b 0a26 a63d
000002f0: 71db b3bd 581d fa3b d7cd 963c 9e0c 363c
00000300: 4292 00bd 95ed 42bd ad2e 2b3d 2e33 9e3c
00000310: 3a8e 973c 21e7 5ebc 7d31 85bd 7ae1 cd3c
00000320: ef7a 6ebd 071b 85bd a638 59bd 569a a7bd
00000330: aa63 a3bd 419b 68bc b6be babd 0781 683d
00000340: cb52 99bd c253 af3c d2f5 0b3d 7414 2dbd
00000350: 4f96 4b3c a6a6 9e3d 654f babd 7d93 bcbb
00000360: a66e 5b3d 4f11 9d3d 5287 793c 6c44 833d
00000370: 08f4 61bd 4109 873d 6b24 27ba 3b3b 93bd
00000380: 02b9 323d b87c 763d 2cf7 b1bd 1675 283d
00000390: 9c02 713c abeb 8e3d a368 bcbd f9c2 093d
000003a0: b933 a73d ff23 03bd 1f54 a33c 1714 b0bd
000003b0: 1ddf 3a3c 2ab9 92bd 25e4 bebd fbde e53c
000003c0: 5737 143d 8d6f 2a3d 6de8 733d 9d5d 0cbd
000003d0: 5e0a 9abd e17c 283d 085e 783d 5c99 97bd
000003e0: 1351 b8bd 30e1 82bd 09f8 7bbd 3732 453d
000003f0: e40c bfbd 7822 d23c 6c9e 143b 90df 91bd

conv_block.0.lin_r.weight f4 [128, 128]
0.020135537 -0.08975225 0.014975023 0.0148973875 0.0779212 -0.017426077 0.055812776 -0.04019342
-0.13981006 -0.06993409 -0.046562992 -0.086923055 0.05875677 -0.07249288 -0.037453365 -0.054497432
0.014276119 -0.0707106 -0.044866823 -0.02172742 -0.07501304 -0.012971914 0.07361005 0.065942295
0.005821541 -0.188854 -0.024028996 -0.054532442 -0.09208502 -0.053879753 -0.049877238 0.03359102
-0.08626635 -0.0272023 -0.0033968135 -0.046548706 -0.033071995 0.04406782 -0.09778621 0.040245984
-0.14863093 -0.22458856 -0.012615347 -0.046281077 0.0009944682 -0.026779411 -0.10358735 0.020723535
0.0513764 -0.046464294 0.011987475 0.059979755 -0.009915661 -0.00641188 0.023481429 -0.08991123
-0.06282715 0.0755808 0.0061697112 -0.03586001 -0.12462476 -0.06889539 -0.005432364 -0.020081947
0.031868868 -0.0754079 0.018330002 -0.16363764 -0.037976272 0.046007026 0.023518095 -0.095530726
0.038860224 0.012461092 -0.10560552 -0.09563998 0.03408911 -0.06925865 0.029871775 0.027654363
-0.12045877 -0.069455676 -0.09048666 -0.010906951 0.013605985 -0.008219744 -0.059838235 0.02847316
0.0030894885 -0.07621158 0.042931963 0.022032868 0.055301316 -0.033822842 0.037257254 0.0006275653
0.056885846 0.044748507 -0.0032439837 0.059899956 -0.064817116 -0.051208507 0.012808017 0.02797072
-0.10844921 0.052250024 0.07155658 -0.0016812611 0.032784358 -0.09238399 -0.08131899 -0.014092107
0.0503628 0.011677316 0.02009555 0.037539598 -0.045956396 -0.020043775 -0.06575154 -0.049961805
-0.039834894 -0.09022964 -0.034658205 -0.079003625 0.050057914 -0.09685313 -0.103580214 -0.05276944
-0.08321744 -0.037063926 0.061447524 -0.0745564 0.05422143 -0.060020637 -0.08388341 0.026301853
0.01670361 0.0476888 0.031155767 0.044189118 0.021561489 -0.0030091319 0.055054583 -0.07383384
-0.09637587 -0.04082541 -0.072647706 0.06228561 0.030792208 0.07843034 -0.05354298 0.069140226
-0.08578174 -0.0617488 0.07691968 -0.010101354 0.007534334 -0.045859363 0.017611539 -0.024904398
0.061001394 0.039084546 -0.0137336925 -0.034182504 -0.06819586 0.027971718 0.009927003 -0.075854056
-0.031764288 0.0015336411 0.059421636 -0.045396887 -0.0061358735 -0.060263768 0.07363497 -0.046944633
-0.031023722 0.051475413 0.060059357 0.03870519 0.0795843 -0.072351806 -0.046392363 0.0795486
0.07324883 0.07626968 -0.07685142 0.024705421 0.074551195 0.036515966 0.0034569926 0.06404373
0.06885798 0.047341783 0.025145795 -0.08548388 -0.09552543 0.019193552 -0.08179104 0.0042984863
-0.037924077 -0.005530145 -0.041502718 0.04846739 0.06775092 -0.08593549 0.07709297 -0.077048205
-0.06633251 0.027751854 -0.02390429 -0.08027802 -0.056513727 0.07610941 -0.06876459 -0.040829677
-0.062370263 0.027274441 0.047374234 -0.035500996 -0.0045325547 -0.001861534 -0.072281726 0.015362051
0.019157825 0.06015455 0.084844135 -0.058029514 -0.031105129 -0.035230905 -0.06756804 0.038851824
0.03367894 -0.025733674 0.05060714 -0.014494657 0.037383623 0.03340265 -0.091748826 -0.010280011
0.03825953 -0.03157915 -0.023379661 0.036241412 -0.0010631648 -0.05359919 0.05870134 0.037668634
0.0183519 -0.068874314 -0.069858246 -0.02026759 0.004874736 0.061027016 0.014093454 -0.006533536
00000000: 48f3 a43c 07d0 b7bd cd59 753c 2c14 743c
00000010: 2695 9f3d 22c1 8ebc f09b 643d dba1 24bd
00000020: 5e2a 0fbe 9b39 8fbd d6b8 3ebd b704 b2bd
00000030: f0aa 703d 2677 94bd b368 19bd b338 5fbd
00000040: 62e6 693c b8d0 90bd 46c6 37bd b4fd b1bc
00000050: 70a0 99bd 2788 54bc dec0 963d c10c 873d
00000060: a0c2 be3b f162 41be 75d8 c4bc 695d 5fbd
00000070: 1297 bcbd 04b1 5cbd 134c 4cbd bd96 093d
00000080: 69ac b0bd 5cd7 debc 139d 5ebb dba9 3ebd
00000090: 8076 07bd 7580 343d 2344 c8bd f9d8 243d
000000a0: b532 18be 8bfa 65be 9ab0 4ebc 3a91 3dbd
000000b0: d158 823a 7f60 dbbc 9b25 d4bd 67c4 a93c
000000c0: 0f70 523d 5851 3ebd 1d67 443c 55ad 753d
000000d0: 4c75 22bc bf1a d2bb 205c c03c 6123 b8bd
000000e0: 85ab 80bd 1bca 9a3d 4a2b ca3b f2e1 12bd
000000f0: 443b ffbd 0719 8dbd f901 b2bb e582 a4bc
00000100: ee88 023d 756f 9abd cd28 963c a090 27be
00000110: 028d 1bbd dd71 3c3d 05a9 c03c 9da5 c3bd
00000120: e62b 1f3d 9c29 4c3c b547 d8bd e5de c3bd
00000130: 06a1 0b3d 7bd7 8dbd a7b5 f43c 678b e23c
00000140: 16b3 f6bd c73e 8ebd 1251 b9bd 11b3 32bc
00000150: a3eb 5e3c 1bac 06bc f018 75bd 8b40 e93c
00000160: 0479 4a3b d114 9cbd 6dd9 2f3d 467e b43c
00000170: a283 623d d289 0abd 109b 183d 3283 243a
00000180: 2201 693d 364a 373d 0499 54bb a859 753d
00000190: d6be 84bd 03c0 51bd b8d8 513c da22 e53c
000001a0: 9f1a debd 1f04 563d 428c 923d c35d dcba
000001b0: e448 063d d133 bdbd 928a a6bd 95e2 66bc
000001c0: 3949 4e3d 3752 3f3c 6c9f a43c 1fc3 193d
000001d0: c63c 3cbd d832 a4bc bea8 86bd c0a4 4cbd
000001e0: ea29 23bd 51ca b8bd c3f5 0dbd a7cc a1bd
000001f0: 8709 4d3d ef5a c6bd dd21 d4bd c524 58bd
00000200: e86d aabd 58d0 17bd 66b0 7b3d 07b1 98bd
00000210: 4a17 5e3d 33d8 75bd 11cb abbd fc76 d73c
00000220: 02d6 883c 5555 433d 613a ff3c a6ff 343d
00000230: b8a1 b03c db34 45bb ea80 613d 3236 97bd
00000240: b660 c5bd 8c38 27bd 52c8 94bd 321f 7f3d
00000250: f13f fc3c 16a0 a03d e24f 5bbd 6499 8d3d
00000260: 56ae afbd 4fec 7cbd 1188 9d3d 2680 25bc
00000270: 93e2 f63b 07d7 3bbd 1346 903c 4f04 ccbc
00000280: 99dc 793d 1e17 203d 4803 61bc f402 0cbd
00000290: 45aa 8bbd f224 e53c dea4 223c 5f59 9bbd
000002a0: 451b 02bd 7504 c93a 1a64 733d 16f2 39bd
000002b0: 700f c9bb 24d7 76bd eecd 963d 0449 40bd
000002c0: 7625 febc e2d7 523d cd00 763d 5589 1e3d
000002d0: 18fd a23d 2f2d 94bd eb05 3ebd 60ea a23d
000002e0: 7c03 963d 4733 9c3d 4764 9dbd 0663 ca3c
000002f0: 4cae 983d c491 153d b68e 623b 5c29 833d
00000300: 6a05 8d3d 75e9 413d 8efe cd3c 2c12 afbd
00000310: d6a2 c3bd cc3b 9d3c 1082 a7bd 51da 8c3b
00000320: 4756 1bbd 3836 b5bb c1fe 29bd be85 463d
00000330: ffc0 8a3d f2fe afbd ebe2 9d3d 73cb 9dbd
00000340: 57d9 87bd db57 e33c eed2 c3bc cd68 a4bd
00000350: f07a 67bd 40df 9b3d 73d4 8cbd 053d 27bd
00000360: f677 7fbd a66e df3c 7c0b 423d 7e69 11bd
00000370: d385 94bb b7fe f3ba 7108 94bd 1db1 7b3c
00000380: dff0 9c3c 9e64 763d c3c2 ad3d 5bb0 6dbd
00000390: 2fd0 febc 484e 10bd 1d61 8abd 1723 1f3d
000003a0: eef2 093d 6dcf d2bc 6f49 4f3d ff7a 6dbc
000003b0: 921f 193d 38d1 083d cfe6 bbbd 7e6d 28bc
000003c0: 06b6 1c3d 2459 01bd b486 bfbc e071 143d
000003d0: e459 8bba d38a 5bbd d170 703d 6d4a 1a3d
000003e0: b956 963c fa0d 8dbd d711 8fbd 3808 a6bc
000003f0: 40bc 9f3b 77f7 793d 3be8 663c 4617 d6bb

conv_block.1.lin_l.weight f4 [128, 128]
0.026757041 0.0895525 -0.029071277 -0.04868497 0.015565288 0.07292611 0.054974273 0.019614687
-0.0081456695 0.1024624 -0.037331283 -0.21211277 0.019668495 0.04290967 0.040410485 0.057832632
-0.13179511 -0.0072758007 -0.02213034 0.06198461 -0.08388351 0.0698783 -0.10860435 -0.0031187583
0.06669591 -0.044068336 -0.07116761 -0.06154155 0.06818114 0.071275026 -0.068506315 -0.089111656
-0.15720572 0.046040233 0.016527437 0.046531174 -0.12162472 0.05744555 0.031086097 0.048281346
-0.01857056 -0.00440087 0.036478925 -0.10297031 0.022250239 -0.04742898 -0.005347173 -0.12781619
0.005255756 0.016145224 0.084735565 -0.043398183 0.013610008 0.06045971 0.08826224 -0.27949786
0.027740797 0.026918111 0.117797434 -0.06917202 -0.029819813 0.04749181 0.104127236 0.02883583
-0.0726321 0.014293061 0.03470911 0.060161676 -0.0070060836 -0.08569588 -0.0912728 0.055467006
-0.07959354 -0.036368906 -0.11278772 -0.10686571 0.07779342 -0.01678353 0.008054528 -0.026912244
0.086288564 -0.06953901 -0.009365218 -0.1984932 0.071062736 -0.18866798 -0.055437893 0.064207114
0.051489525 -0.04794597 -0.003156038 0.06304054 0.057947196 0.10886606 -0.0069323843 -0.058420435
-0.053160995 -0.09494482 -0.15628022 -0.12016652 -0.028284771 -0.034474764 0.040239055 -0.08736392
-0.0737348 0.07813409 0.056317706 0.0440914 -0.030808408 -0.05499682 -0.009880579 0.010170029
-0.13494119 0.0076645454 0.039209444 0.012608218 0.061896104 -0.073082365 -0.055017214 -0.034489077
-0.045284774 0.016615933 -0.12154389 -0.029245734 -0.04521922 -0.050847195 0.07702706 0.07452118
-0.042757608 -0.08872156 0.015226304 0.031593468 -0.068107955 -0.12717824 0.07024248 0.061994407
0.061823595 0.021242218 0.021877099 -0.044018377 -0.061691076 0.08809315 -0.010689685 -0.089204445
-0.23479046 0.056479204 0.06084635 -0.0031714821 0.03744282 0.0732058 0.012909417 0.020276157
-0.0821848 -0.016381593 0.032319266 -0.044753417 -0.042664174 0.05487224 0.049316287 -0.054826904
0.03619461 0.04880618 -0.049519155 0.043531034 0.036420956 0.076754645 -0.012053745 -0.07907628
0.01610422 -0.065311134 0.040608253 -0.044811428 -0.12216039 0.08703995 0.07547357 -0.0521363
-0.027581265 -0.12363957 -0.0226988 -0.0014428477 -0.014095197 -0.057623588 -0.03484065 -0.10312039
-0.07259635 0.06035996 0.016222013 0.055968802 -0.07156883 -0.02045843 0.13376041 0.04322309
0.011822379 -0.004399635 0.005695472 0.064926974 -0.007008017 0.0546999 0.05094905 -0.019166352
0.07840615 -0.045455355 0.0320104 -0.060924236 -0.0029624386 -0.07855744 0.025857951 0.019034667
-0.08381025 0.03358583 -0.035648778 -0.09176815 0.049173146 -0.12866513 0.029464528 -0.005415812
-0.074592896 -0.036865678 0.045634884 0.056384463 0.045871362 0.06992873 0.08864168 0.07417702
-0.074588716 -0.06868036 0.049870722 0.099314116 0.11945061 -0.04131216 0.080115825 0.073478386
0.027995784 -0.02149773 -0.046955816 0.059196208 -0.07810143 -0.023885658 0.019363066 0.0834047
0.021222021 0.090900965 0.05621317 -0.07777088 -0.058460176 -0.09479808 0.061280057 -0.05700918
-0.1018464 -0.06758385 0.10792509 0.05369335 0.017799841 0.038979568 0.032115348 0.017539619
00000000: 9531 db3c 4d67 b73d e326 eebc e469 47bd
00000010: 8d05 7f3c 495a 953d b42c 613d fbae a03c
00000020: 6a75 05bc cfd7 d13d b0e8 18bd 1734 59be
00000030: d31f a13c 0dc2 2f3d 7785 253d e9e1 6c3d
00000040: 4cf5 06be d769 eebb b04a b5bc 93e3 7d3d
00000050: 1ecb abbd 5b1c 8f3d f56b debd 1564 4cbb
00000060: de97 883d 0081 34bd 53c0 91bd fe12 7cbd
00000070: 8ea2 8b3d a4f8 913d 0a4d 8cbd 2c80 b6bd
00000080: 89fa 20be af94 3c3d 8c64 873c 7997 3e3d
00000090: 6216 f9bd 064c 6b3d 45a8 fe3c a9c2 453d
000000a0: 4921 98bc 2c35 90bb ed6a 153d 19e2 d2bd
000000b0: 2246 b63c e444 42bd 5737 afbb 3fe2 02be
000000c0: 7a38 ac3b fd42 843c d789 ad3d 4bc2 31bd
000000d0: 83fc 5e3c 9aa4 773d d5c2 b43d 581a 8fbe
000000e0: ab40 e33c 5f83 dc3c c83f f13d 0faa 8dbd
000000f0: ae48 f4bc c686 423d a940 d53d 1e39 ec3c
00000100: 23c0 94bd 712d 6a3c 242b 0e3d 176c 763d
00000110: 4a93 e5bb 5281 afbd 3ced babd 5f31 633d
00000120: f001 a3bd 90f7 14bd 40fd e6bd 69dc dabd
00000130: 2852 9f3d 9d7d 89bc 24f7 033c 1177 dcbc
00000140: 0fb8 b03d 786a 8ebd 9270 19bc cd41 4bbe
00000150: 5789 913d 2e32 41be d812 63bd 057f 833d
00000160: aee6 523d fe62 44bd 88d5 4ebb 661b 813d
00000170: 0a5a 6d3d 2bf5 de3d 0e29 e3bb 444a 6fbd
00000180: 58bf 59bd 6e72 c2bd ec07 20be dd19 f6bd
00000190: 77b5 e7bc 6935 0dbd b5d1 243d dbeb b2bd
000001a0: 4502 97bd c404 a03d 65ad 663d 2f99 343d
000001b0: ea61 fcbc 5844 61bd 27e2 21bc 31a0 263c
000001c0: 062e 0abe de26 fb3b 159a 203d b392 4e3c
000001d0: c586 7d3d 35ac 95bd bb59 61bd 6b44 0dbd
000001e0: 877c 39bd 231e 883c 01ec f8bd c094 efbc
000001f0: ca37 39bd 2645 50bd 5dc0 9d3d 8f9e 983d
00000200: 9a22 2fbd a6b3 b5bd bf77 793c 2768 013d
00000210: 2f7c 8bbd 033b 02be 4adb 8f3d d9ed 7d3d
00000220: bd3a 7d3d 2904 ae3c 9a37 b33c 9d4c 34bd
00000230: c8af 7cbd 2e6a b43d ca23 2fbc d2b0 b6bd
00000240: e96c 70be bd56 673d 063a 793d a4d8 4fbb
00000250: a45d 193d ecec 953d 0582 533c 2f1a a63c
00000260: 8150 a8bd b132 86bc 3561 043d 5c4f 37bd
00000270: a1c0 2ebd b7c1 603d e0ff 493d 2d92 60bd
00000280: cd40 143d fde8 473d 99d4 4abd 994d 323d
00000290: 242e 153d 8a31 9d3d 127d 45bc bff2 a1bd
000002a0: ffec 833c d8c1 85bd d754 263d 308c 37bd
000002b0: 3a2f fabd 0042 b23d e391 9a3d df8c 55bd
000002c0: 1bf2 e1bc be36 fdbd d5f2 b9bc ef1d bdba
000002d0: 8bef 66bc b606 6cbd 12b5 0ebd c830 d3bd
000002e0: 65ad 94bd 013c 773d 07e4 843c 8b3f 653d
000002f0: ae92 92bd 7098 a7bc 7df8 083e b20a 313d
00000300: a7b2 413c d02a 90bb 15a1 ba3b 6ff8 843d
00000310: 82a3 e5bb 010d 603d f3af 503d c102 9dbc
00000320: 6793 a03d 652f 3abd 561d 033d b18b 79bd
00000330: 7925 42bb b9e2 a0bd 0ed4 d33c 97ee 9b3c
00000340: b5a4 abbd 4c91 093d 7404 12bd f1f0 bbbd
00000350: c869 493d cbc0 03be 985f f13c 2077 b1bb
00000360: 29c4 98bd 7700 17bd a5eb 3a3d 65f3 663d
00000370: 9ce3 3b3d cb36 8f3d c589 b53d 1fea 973d
00000380: f8c1 98bd 4aa8 8cbd 3e45 4c3d 3365 cb3d
00000390: 85a2 f43d f136 29bd c413 a43d d67b 963d
000003a0: 6a57 e53c 021c b0bc be54 40bd b977 723d
000003b0: a4f3 9fbd dbab c3bc 4b9f 9e3c 15d0 aa3d
000003c0: ced9 ad3c 492a ba3d c83f 663d 5746 9fbd
000003d0: f073 6fbd 7f25 c2bd cc00 7b3d 7582 69bd
000003e0: d894 d0bd 6769 8abd d407 dd3d 8fed 5b3d
000003f0: f9d0 913c 0aa9 1f3d 628b 033d 3faf 8f3c

conv_block.1.lin_r.weight f4 [128, 128]
-0.14094202 0.047857802 -0.039487917 0.056576576 -0.068392664 0.034251437 -0.03360276 0.082588345
0.054798275 0.03265649 -0.0068518408 0.09534772 -0.1139143 -0.05351056 -0.07846203 0.03197741
-0.08615777 -0.011471638 0.047527432 -0.05736795 -0.012174745 0.07556137 0.02077713 -0.020830275
0.05038127 0.031916983 -0.022105012 0.10580597 0.009317677 -0.0006965838 0.0452951 0.04183862
0.060621224 -0.049653254 -0.09108522 -0.021366755 0.025058918 0.04103601 -0.0154325375 0.028067537
-0.019370519 -0.013033244 0.007164263 -0.0809727 -0.03964666 0.0021401693 0.045606073 -0.023533808
-0.08409956 -0.016163882 -0.10462531 0.00071829883 0.015010878 0.014873674 -0.08267312 -0.0676244
-0.019997863 0.038989987 -0.04213639 0.041219957 0.03766376 0.014122625 0.06430823 -0.03658833
-0.008452326 -0.06509584 0.03422204 -0.03182307 -0.0024727725 -0.060676694 0.028157208 0.0064256764
0.028864674 -0.06682639 0.09612964 -0.014655929 0.0067558656 -0.07043865 0.0006934718 -0.12604378
-0.065599844 -0.006217599 -0.09555125 -0.035403624 0.012059703 -0.049292084 -0.08173985 0.04102957
-0.08961365 0.082761504 -0.0034106749 -0.025654197 -0.0065003033 -0.040213015 0.005448415 0.018925408
0.08639189 -0.047619075 -0.16467977 0.002589186 -0.09996383 -0.10040627 -0.07229125 -0.036151875
0.032608807 -0.11357393 -0.08410177 -0.07593677 -0.075163305 0.08618733 0.04502674 0.07016349
0.058722515 0.026965525 -0.06614355 -0.064087704 -0.07474555 0.024858322 0.0066226977 -0.14026302
-0.06905471 -0.06671586 0.064135075 0.041080665 -0.07089768 0.0046479893 0.033200655 -0.03649491
-0.08195532 -0.090304285 0.070070386 -0.050436266 -0.056338184 -0.081851855 -0.09016511 0.090186544
-0.015492763 0.05965939 -0.13407502 0.106230296 -0.07662398 0.07386328 0.07130699 -0.0013347818
0.014968113 -0.058177497 -0.049923524 0.07288991 0.077852756 0.011825162 0.053581532 0.028143749
-0.03362783 0.008410063 -0.07149255 -0.06139847 -0.027330143 -0.008862854 -0.052812755 0.06925878
-0.035900317 0.042374045 0.031791102 -0.08782647 0.024090087 -0.09700717 -0.07641518 0.086195394
0.02529794 -0.07242813 -0.021817325 -0.02073071 0.05113552 -0.1351654 -0.035310283 0.0587773
-0.036096733 0.049436286 -0.16098781 -0.01875398 -0.11016634 0.022602927 0.0001262776 0.020309871
-0.08621103 -0.036974825 0.067777276 -0.12088647 0.040684383 0.004876737 -0.14498638 -0.06620514
-0.05978233 -0.021359824 0.008754553 -0.06711904 0.04265271 -0.0057836077 0.03792235 0.034545705
0.054772824 -0.0038907547 -0.0062494827 0.08219767 0.046256766 0.035473004 -0.09704315 0.03514911
-0.02010863 0.010333235 0.027185595 -0.054751787 0.046330873 0.061728466 -0.030635102 -0.010255623
-0.13116169 -0.024769913 0.08975269 0.07672503 -0.015171437 0.0014121921 -0.05531228 -0.0029845643
0.06499568 -0.058844104 0.053815413 0.09657783 -0.07044204 0.024254872 0.06931077 0.024200246
0.02670894 -0.02269052 0.08405024 0.037340764 -0.0020258054 -0.083683796 -0.0048297187 -0.037103627
0.037857022 -0.082693316 0.07840094 -0.111183 0.017410753 -0.03566511 -0.12706938 -0.09198927
0.09881778 -0.064758025 0.020643976 -0.008444686 0.020631908 -0.107285745 -0.06470664 -0.13572027
00000000: 1b53 10be 8b06 443d 15be 21bd d7bc 673d
00000010: 7411 8cbd 3c4b 0c3d 0ca3 09bd 1424 a93d
00000020: 2874 603d d0c2 053d 6885 e0bb aa45 c33d
00000030: e74b e9bd e42d 5bbd b3b0 a0bd bffa 023d
00000040: 7c73 b0bd 8af3 3bbc 20ac 423d a8fa 6abd
00000050: 9578 47bc ebbf 9a3d cd34 aa3c 41a4 aabc
00000060: 975c 4e3d 62bb 023d 9215 b5bc cdb0 d83d
00000070: 2ba9 183c f39a 36ba 5b87 393d f95e 2b3d
00000080: f64d 783d 3661 4bbd e38a babd 5509 afbc
00000090: 5c48 cd3c 6015 283d c1d8 7cbc e4ed e53c
000000a0: ecae 9ebc 6389 55bc 32c2 ea3b 04d5 a5bd
000000b0: 8964 22bd 1542 0c3b 6fcd 3a3d f9c9 c0bc
000000c0: 643c acbd 1e6a 84bc cb45 d6bd 384c 3c3a
000000d0: 30f0 753c b6b0 733c 8650 a9bd a97e 8abd
000000e0: 8fd2 a3bc f7b3 1f3d 3597 2cbd 42d6 283d
000000f0: 5145 1a3d 9562 673c 09b4 833d a5dd 15bd
00000100: a07b 0abc f850 85bd 692c 0c3d e858 02bd
00000110: 3d0e 22bb 2088 78bd f2a9 e63c 7b8e d23b
00000120: 9c75 ec3c 46dc 88bd 9edf c43d 6c1f 70bc
00000130: 4f60 dd3b 2442 90bd 1bca 353a 9f11 01be
00000140: 3659 86bd 00bd cbbb 60b0 c3bd 6403 11bd
00000150: 0f96 453c 7fe6 49bd 3967 a7bd 9f0e 283d
00000160: 5d87 b7bd dd7e a93d a185 5fbb c028 d2bc
00000170: 7f00 d5bb 67b6 24bd 9e88 b23b 7509 9b3c
00000180: 3bee b03d 380c 43bd d0a1 28be 55af 293b
00000190: d6b9 ccbd cda1 cdbd 6f0d 94bd fd13 14bd
000001a0: d090 053d 7399 e8bd 8c3d acbd bd84 9bbd
000001b0: 38ef 99bd fc82 b03d f56d 383d e0b1 8f3d
000001c0: 0587 703d cee6 dc3c 4576 87bd 6a40 83bd
000001d0: 3214 99bd aea3 cb3c 3703 d93b 1ca1 0fbe
000001e0: 8e6c 8dbd 53a2 88bd 4059 833d 3344 283d
000001f0: ce32 91bd 294e 983b 69fd 073d b07b 15bd
00000200: 31d8 a7bd 74f1 b8bd 1081 8f3d 4296 4ebd
00000210: dec2 66bd f2a1 a7bd 7ca8 b8bd b9b3 b83d
00000220: 5cd5 7dbc 685d 743d f64a 09be 458f d93d
00000230: 09ed 9cbd a245 973d 6609 923d d8f3 aeba
00000240: d13c 753c 874b 6ebd 9c7c 4cbd 4e47 953d
00000250: 4471 9f3d 53be 413c 4f78 5b3d b88d e63c
00000260: 56bd 09bd 5cca 093c b06a 92bd f67c 7bbd
00000270: 77e3 dfbc 8135 11bc 3052 58bd 8cd7 8d3d
00000280: 360c 13bd 6890 2d3d 6337 023d 5dde b3bd
00000290: 9358 c53c b2ab c6bd 907f 9cbd 3687 b03d
000002a0: a03d cf3c 3355 94bd 3fba b2bc 73d3 a9bc
000002b0: 7b73 513d cc68 0abe 84a1 10bd 77c0 703d
000002c0: 2bda 13bd b47d 4a3d fdd9 24be f2a1 99bc
000002d0: e49e e1bd c629 b93c 6369 0439 e360 a63c
000002e0: 698f b0bd ea72 17bd d0ce 8a3d 5393 f7bd
000002f0: aba4 263d 09cd 9f3b 4f77 14be 8f96 87bd
00000300: 51de 74bd ccfa aebc 426f 0f3c b575 89bd
00000310: 9cb4 2e3d 6b84 bdbb 7754 1b3d cc7f 0d3d
00000320: 7859 603d 08fc 7ebb 76c8 ccbb 4157 a83d
00000330: bc77 3d3d 244c 113d 8fbe c6bd 83f8 0f3d
00000340: dbba a4bc bb4c 293c 53b4 de3c 6943 60bd
00000350: 71c5 3d3d fdd6 7c3d 77f6 fabc 3307 28bc
00000360: 404f 06be 46ea cabc 42d0 b73d 0322 9d3d
00000370: 9e91 78bc 4e19 b93a 218f 62bd ae98 43bb
00000380: 741c 853d 8406 71bd 8d6d 5c3d 99ca c53d
00000390: eb43 90bd 27b2 c63c cef2 8d3d 983f c63c
000003a0: b5cc da3c 78e1 b9bc 8822 ac3d a1f2 183d
000003b0: 60c3 04bb 6962 abbd 9e42 9ebb f9f9 17bd
000003c0: f70f 1b3d 1d5b a9bd ac90 a03d eab3 e3bd
000003d0: ffa0 8e3c 9415 12bd 7a1e 02be df64 bcbd
000003e0: fa60 ca3d db9f 84bd 8e1d a93c 955b 0abc
000003f0: 3f04 a93c a1b8 dbbd ea84 84bd 41fa 0abe

conv_block.2.lin_l.weight f4 [128, 128]
0.07913746 -0.01625678 -0.016911998 -0.077679425 0.022957997 0.034103572 -0.09346017 -0.022286585
-0.05728831 0.074463435 -0.07427334 0.07725062 -0.0065702666 -0.021116005 -0.033730008 0.07236287
-0.068904206 -0.09699134 0.050005745 0.091915086 -0.021568546 -0.022409558 -0.10172868 -0.014690323
-0.087480634 0.02701398 -0.03614042 -0.071833804 -0.056005135 -9.5946045e-05 -0.070325956 -0.03631505
-0.06596543 0.07698904 -0.051339034 -0.07669699 -0.041186266 0.035699148 -0.00065267464 -0.08795876
-0.050752357 0.012438343 0.025248062 -0.08370411 -0.013750683 0.10310234 -0.019209478 0.0052314945
-0.051344454 -0.025011076 -0.0516502 -0.04755908 -0.05928029 0.07133492 -0.023017697 -0.0045726197
-0.118092604 0.041802436 0.014415374 -0.029325591 -0.06905317 0.00045357464 -0.07125394 0.015976094
-0.018404676 0.053985078 0.0413462 -0.12111657 0.009544208 0.047152735 -0.043527424 -0.050357282
0.067191444 0.09230555 0.13692072 -0.07197108 0.044706598 -0.07411828 -0.10560837 -0.013088784
0.040231086 0.0739914 0.04759234 -0.08126814 -0.07323881 0.08575193 0.04902296 0.06676727
0.10138652 0.10568559 -0.023047084 -0.054492272 -0.092632756 -0.046786085 -0.09088999 0.031589143
-0.07719511 -0.052879907 -0.065581895 0.06248157 0.07058392 -0.019504739 -0.0075808456 0.03098314
0.08101242 -0.011522005 -0.033208996 0.065155 -0.07025259 0.017989375 0.05349065 -0.031017497
0.084235616 -0.05663223 0.028039027 0.042665336 0.06084599 -0.027816348 -0.0041684555 -0.07272086
0.02394328 -0.10265098 0.086405575 -0.0017287611 0.081493504 0.014398434 0.07365391 0.047629047
0.04783242 0.19484173 -0.038365122 0.033031493 -0.011356907 -0.00078060693 -0.033026192 0.12343134
0.07238968 -0.12874287 -0.07082804 -0.10386148 0.11146512 -0.08183525 0.19524199 0.059532624
-0.002718233 -0.029543802 -0.008672243 -0.0783242 -0.030324368 -0.05536391 -0.0058515933 0.026953666
-0.013564187 -0.041187923 0.29116473 0.11895722 0.05194128 -0.17002566 -0.04612967 0.05270357
-0.073731095 -0.09103099 -0.057341207 0.04215907 -0.06654201 -0.086693324 -0.12498355 -0.058202025
0.073431306 -0.10122878 -0.058304656 -0.005584055 -0.053033482 -0.18066868 0.022802467 0.065146595
-0.104463354 -0.07757828 -0.010717123 0.18995588 0.019258086 -0.039912075 -0.018912068 -0.05138279
0.07895566 0.070071794 -0.02063381 0.09097314 0.0034947488 -0.13126132 0.05208851 -0.022346789
-0.015129794 0.019953344 -0.052446805 -0.12462106 0.02054167 -0.056528926 0.08055066 -0.018670674
0.08476591 -0.022713434 -0.06301514 0.09402518 0.1256401 -0.010100067 0.025851801 0.021128438
0.061912246 0.050602827 0.10346805 -0.17042617 0.14191265 -0.062379528 0.006465243 0.049827814
-0.1131217 -0.06571104 -0.18853348 0.08676866 -0.016753798 0.08037029 0.067256585 0.080658086
0.07432777 0.11155074 -0.009339741 -0.028267492 0.09503004 -0.016150111 -0.08416357 -0.011884762
0.015121438 -0.09751037 -0.031996876 0.13069268 -0.07907356 0.030413704 -0.23863511 -0.04916043
-0.046642702 -0.0067671007 -0.11602718 0.09954934 -0.14271478 0.036113437 0.064889856 0.06040476
-0.04486028 -0.027293745 -0.028889941 -0.16144606 -0.03573103 0.12814926 -0.06710559 0.13821526
00000000: d212 a23d f02c 85bc 088b 8abc 6416 9fbd
00000010: 6912 bc3c 30b0 0b3d 0c68 bfbd 5b92 b6bc
00000020: 26a7 6abd 4980 983d 9f1c 98bd 9335 9e3d
00000030: 644b d7bb 79fb acbc 7a28 0abd fc32 943d
00000040: a61d 8dbd 65a3 c6bd d3d2 4c3d fa3d bc3d
00000050: 85b0 b0bc 4094 b7bc 2057 d0bd aeaf 70bc
00000060: 0c29 b3bd 6c4c dd3c fa07 14bd 9a1d 93bd
00000070: a465 65bd a436 c9b8 0e07 90bd 17bf 14bd
00000080: e218 87bd 6eac 9d3d e148 52bd 5013 9dbd
00000090: eeb2 28bd 4539 123d 4118 2bba b923 b4bd
000000a0: b4e1 4fbd 31ca 4b3c 06d5 ce3c 0f6d abbd
000000b0: 8b4a 61bc 5227 d33d 325d 9dbc f56c ab3b
000000c0: 904e 52bd 07e4 ccbc 298f 53bd 4fcd 42bd
000000d0: e4cf 72bd 0b18 923d 9c8f bcbc ead5 95bb
000000e0: 89da f1bd 0839 2b3d 762e 6c3c 393c f0bc
000000f0: c06b 8dbd c2cd ed39 96ed 91bd 4ce0 823c
00000100: 67c5 96bc 751f 5d3d a25a 293d f70b f8bd
00000110: 4f5f 1c3c 3a23 413d d049 32bd 7043 4ebd
00000120: ab9b 893d b10a bd3d f234 0c3e 9365 93bd
00000130: 441e 373d 53cb 97bd 3349 d8bd 5772 56bc
00000140: 5ac9 243d ce88 973d 2ff0 423d e96f a6bd
00000150: 3bfe 95bd b59e af3d 4dcc 483d 47bd 883d
00000160: bca3 cf3d b071 d83d 3dcd bcbc 4a33 5fbd
00000170: 3eb6 bdbd c4a2 3fbd 8824 babd 9e63 013d
00000180: 7818 9ebd 9a98 58bd cd4f 86bd adec 7f3d
00000190: 4d8e 903d 67c8 9fbc be68 f8bb 5bd0 fd3c
000001a0: d7e9 a53d cbc6 3cbc 2806 08bd fc6f 853d
000001b0: 97e0 8fbd 745e 933c 0319 5b3d 6818 febc
000001c0: b983 ac3d 32f7 67bd 1ab2 e53c d9c1 2e3d
000001d0: a539 793d 1cdf e3bc 8a97 88bb adee 94bd
000001e0: b324 c43c ad3a d2bd 68f5 b03d 9997 e2ba
000001f0: 11e6 a63d 69e7 6b3c dcd7 963d ad16 433d
00000200: edeb 433d 9784 473e bf24 1dbd 084c 073d
00000210: 5212 3abc a5a1 4cba 7946 07bd 92c9 fc3d
00000220: 0a41 943d 2cd5 03be 4b0e 91bd 54b5 d4bd
00000230: d347 e43d 3d99 a7bd 84ed 473e 7bd8 733d
00000240: 6224 32bb d805 f2bc 0616 0ebc 7068 a0bd
00000250: cf6a f8bc 44c5 62bd b9be bfbb efcd dc3c
00000260: 533c 5ebc abb4 28bd 8b13 953e d89f f33d
00000270: 61c0 543d 351b 2ebe 77f2 3cbd b3df 573d
00000280: 5400 97bd 756e babd 9dde 6abd fdae 2c3d
00000290: 2d47 88bd 458c b1bd 60f7 ffbd 3f65 6ebd
000002a0: 2763 963d 0951 cfbd ddd0 6ebd 73fa b6bb
000002b0: a339 59bd 3601 39be 3dcc ba3c 946b 853d
000002c0: e2f0 d5bd 5ce1 9ebd df96 2fbc cb83 423e
000002d0: 22c3 9d3c d87a 23bd 7bed 9abc c376 52bd
000002e0: 81b3 a13d cd81 8f3d 3c08 a9bc 2050 ba3d
000002f0: 2808 653b 5e69 06be c35a 553d 9d10 b7bc
00000300: f5e2 77bc 3275 a33c 76d2 56bd 5439 ffbd
00000310: 0147 a83c e08a 67bd bff7 a43d 3ef3 98bc
00000320: c099 ad3d 8611 babc 150e 81bd 4690 c03d
00000330: cca7 003e c07a 25bc 28c7 d33c 8c15 ad3c
00000340: b297 7d3d e944 4f3d 0fe7 d33d 3384 2ebe
00000350: 8d51 113e ad81 7fbd 64da d33b 4018 4c3d
00000360: 5aac e7bd 8293 86bd ec0e 41be c4b3 b13d
00000370: 433f 89bc 2e99 a43d d2bd 893d 1130 a53d
00000380: 2839 983d b774 e43d b705 19bc 3a91 e7bc
00000390: 1c9f c23d 3d4d 84bc f35d acbd 4eb8 42bc
000003a0: e8bf 773c 84b3 c7bd 280f 03bd 4dd4 053e
000003b0: 52f1 a1bd 2926 f93c c35c 74be 725c 49bd
000003c0: 6b0c 3fbd 8ebe ddbb a89f edbd 86e0 cb3d
000003d0: d323 12be afeb 133d f9e4 843d fb6a 773d
000003e0: 6abf 37bd 2297 dfbc 99aa ecbc 1e52 25be
000003f0: b35a 12bd 8f39 033e a86e 89bd 4d88 0d3e

conv_block.2.lin_r.weight f4 [128, 128]
-0.0046740696 0.058531675 -0.03721524 -0.028725386 0.019003188 -0.05028112 -0.063428044 0.0135870585
-0.0019943132 -0.06913897 0.017149445 0.14610513 0.019123394 -0.01308668 0.13368842 0.009033456
0.017225094 -0.008516849 0.024899578 0.06115504 -0.011027817 -0.06674552 -0.06674929 0.09135917
-0.082622804 -0.08827611 0.026599051 0.00964822 0.0789664 -0.022792479 0.031749368 -0.027623782
-0.015866252 -0.07213339 0.057459034 -0.011059364 -0.0629122 -0.04033953 -0.0042016623 -0.04241231
-0.087368466 -0.07485681 0.082573116 -0.06986432 -0.05322977 -0.13724652 0.08235782 -0.04166074
-0.008236437 0.063746266 -0.01611534 0.049814466 0.055690475 0.024776619 -0.040887132 0.07991268
-0.0011588096 0.003929194 -0.022910288 -0.015362708 -0.06941485 -0.033058565 0.032984287 -0.013385092
-0.07181003 -0.0357936 0.05552655 -0.037949074 -0.124784335 -0.07759699 -0.05934687 0.043500725
-0.039347403 -0.109956555 0.08124165 -0.02386008 0.0035595032 0.06824955 -0.08611777 -0.016410496
-0.06418956 -0.07572744 -0.06239391 -0.10107748 0.054501086 0.029701006 -0.03469385 -0.034194652
-0.05825917 -0.074127905 0.0769332 -0.054275975 0.06492523 -0.096239135 0.05674812 -0.052543066
-0.05417932 0.080557674 0.018001104 0.037167687 0.06885045 0.030566743 0.020715374 -0.0031920315
0.054862473 0.04371781 -0.1279686 0.03881845 -0.032926578 0.026759118 -0.11453758 0.059209477
0.1182717 0.007472448 -0.08436315 0.0012141493 -0.08299306 -0.010646214 0.0250358 0.061264522
0.049170308 0.050668333 0.023558624 0.025941107 0.062925346 0.047846768 0.0018415771 0.030291012
0.00895081 -0.06339299 0.053910773 0.025717344 -0.2315287 -0.09947923 -0.008913474 0.013369522
-0.032866664 -0.062430143 -0.07302946 -0.0852541 -0.12168255 -0.07184605 -0.043668937 0.02006887
-0.025418272 -0.045098133 -0.092080444 -0.060938362 0.05061576 -0.1849501 -0.17307864 -0.017804192
-0.049951397 0.10959787 0.06712295 -0.1405582 0.075806096 0.13120896 -0.031485178 -0.067167655
0.030971926 0.16562892 0.0021472555 -0.05410467 -0.119614564 -0.057970844 -0.020818673 -0.05291689
-0.17421123 -0.011531832 -0.07596179 0.060647108 -0.14865388 0.01967128 0.13123152 -0.1304425
-0.05735988 0.07094741 0.011135137 -0.16892347 0.067387015 0.07095117 0.018802721 -0.054671496
0.005462857 0.04702761 0.17480165 -0.120556414 0.0966958 0.13570312 -0.16869104 -0.10865828
0.11614129 0.08916177 0.03793381 -0.08539375 0.07591628 -0.07017719 0.007902931 0.04805035
-0.03672039 0.15639861 0.017352542 -0.054999184 -0.17275769 -0.0062568053 -0.005862708 -0.04418993
0.05602475 -0.0566933 0.14542311 -0.15861353 0.052585535 0.09622015 -0.03708789 -0.09732955
-0.08346153 0.13366276 -0.034933154 0.08525598 -0.016734336 -0.049620792 -0.091385335 0.024892682
-0.0033620677 0.11598298 -0.06632047 -0.02694302 0.05940256 0.07527675 -0.041792896 0.014589761
0.102311425 -0.071594775 0.14298242 -0.03398848 -0.07230445 -0.060147967 0.15786232 0.07419675
0.035623845 0.098133646 0.081680246 -0.024745904 0.11009926 0.022779178 -0.17200363 -0.0824106
-0.17121239 -0.023151344 0.072048485 -0.15063046 0.108280346 0.0032817028 -0.022207718 -0.091720454
00000000: f028 99bb e9be 6f3d 026f 18bd 8051 ebbc
00000010: 93ac 9b3c 93f3 4dbd 90e6 81bd 419c 5e3c
00000020: 06b3 02bb bb98 8dbd fe7c 8c3c 959c 153e
00000030: aaa8 9c3c 8469 56bc 9ee5 083e 1001 143c
00000040: a41b 8d3c 418a 0bbc 33fa cb3c b57d 7a3d
00000050: 04ae 34bc e0b1 88bd dab3 88bd 841a bb3d
00000060: 2536 a9bd 1bca b4bd 41e6 d93c 9113 1e3c
00000070: 23b9 a13d 4bb7 babc a00b 023d 454b e2bc
00000080: f1f9 81bc acba 93bd 2a5a 6b3d 5632 35bc
00000090: 1dd8 80bd 103b 25bd 19ae 89bb 88b8 2dbd
000000a0: 3dee b2bd 874e 99bd 181c a93d 0615 8fbd
000000b0: 7607 5abd 5a8a 0cbe 37ab a83d 74a4 2abd
000000c0: 1ff2 06bc 678d 823d 5104 84bc 410a 4c3d
000000d0: b21b 643d 56f8 ca3c 4479 27bd 42a9 a33d
000000e0: 33e3 97ba 78c0 803b 5bae bbbc deb3 7bbc
000000f0: 5f29 8ebd 6b68 07bd 881a 073d 254d 5bbc
00000100: 2311 93bd 4f9c 12bd cf6f 633d 7d70 1bbd
00000110: ee8e ffbd 2ceb 9ebd b415 73bd d12d 323d
00000120: be2a 21bd e730 e1bd 0662 a63d 3776 c3bc
00000130: 8e46 693b 6cc6 8b3d 835e b0bd 4e6f 86bc
00000140: d175 83bd fd16 9bbd c290 7fbd b601 cfbd
00000150: 883c 5f3d 864f f33c 231b 0ebd b10f 0cbd
00000160: 2ba1 6ebd 5fd0 97bd 278f 9d3d 7c50 5ebd
00000170: 85f7 843d 0619 c5bd b770 683d 6637 57bd
00000180: 22eb 5dbd 6cfb a43d 0d77 933c 253d 183d
00000190: 7701 8d3d 1b67 fa3c 4ab3 a93c 6731 51bb
000001a0: 79b7 603d 7211 333d 330a 03be 1800 1f3d
000001b0: 05de 06bd f035 db3c ae92 eabd a385 723d
000001c0: 6f38 f23d 70db f43b 96c6 acbd 1724 9f3a
000001d0: 44f8 a9bd 756d 2ebc e117 cd3c 82f0 7a3d
000001e0: ce66 493d 9989 4f3d 04fe c03c 7282 d43c
000001f0: 01df 803d f9fa 433d 1361 f13a db24 f83c
00000200: 6ba6 123c 2fd4 81bd 8bd1 5c3d 2ead d23c
00000210: dc15 6dbe c4bb cbbd d209 12bc d70b 5b3c
00000220: 329f 06bd c0b6 7fbd 7890 95bd b499 aebd
00000230: b334 f9bd 0624 93bd 33de 32bd 7967 a43c
00000240: fb39 d0bc d2b8 38bd ac94 bcbd 819a 79bd
00000250: 7952 4f3d 8f63 3dbe 873b 31be 19da 91bc
00000260: d699 4cbd d974 e03d c277 893d 7dee 0fbe
00000270: 3a40 9b3d a45b 063e 9af6 00bd 328f 89bd
00000280: d6b8 fd3c a19a 293e f8b8 0c3b dc9c 5dbd
00000290: 7bf8 f4bd d672 6dbd ec8b aabc 61bf 58bd
000002a0: 6e64 32be 02f0 3cbc db91 9bbd 1a69 783d
000002b0: b938 18be aa25 a13c 8e61 063e b892 05be
000002c0: 32f2 6abd e04c 913d 2670 363c 46fa 2cbe
000002d0: 3402 8a3d d94e 913d 2a08 9a3c 38ef 5fbd
000002e0: c401 b33b 06a0 403d 34ff 323e 48e6 f6bd
000002f0: 7308 c63d c2f5 0a3e 58bd 2cbe 3b88 debd
00000300: 7cdb ed3d 729a b63d 7c60 1b3d ebe2 aebd
00000310: ff79 9b3d 0fb9 8fbd 4c7b 013c 72d0 443d
00000320: 1f68 16bd f526 203e eb26 8e3c d346 61bd
00000330: 64e7 30be e305 cdbb f61b c0bb 8000 35bd
00000340: 357a 653d 3c37 68bd cce9 143e 966b 22be
00000350: ee63 573d 120f c53d 79e9 17bd b754 c7bd
00000360: e1ed aabd e4de 083e 1116 0fbd b09a ae3d
00000370: 7216 89bc 2c3f 4bbd 3c28 bbbd bdeb cb3c
00000380: 2356 5cbb 7c88 ed3d 07d3 87bd 9cb7 dcbc
00000390: 1950 733d b22a 9a3d 072f 2bbd e509 6f3c
000003a0: a788 d13d 48a0 92bd fc69 123e 8137 0bbd
000003b0: 5b14 94bd b75d 76bd a9a6 213e 77f4 973d
000003c0: 4fea 113d 4bfa c83d f947 a73d ecb7 cabc
000003d0: b97b e13d 669b ba3c b821 30be e3c6 a8bd
000003e0: 4d52 2fbe e3a7 bdbc 288e 933d df3e 1abe
000003f0: 16c2 dd3d d611 573b f6ec b5bc efd7 bbbd
