models/hyperparameter_optimization/initial_test/initial/Set3/train_lr0/input_train_lr0_1e-06/GNN.pth (torch, 994184 bytes, 18 tensors)

input_layer.weight f4 [128, 8]
000000 3d eb 8a 3e 59 ce 97 3e a3 a1 a9 bd c2 69 a5 3e
       0.27132598 0.29649618 -0.08282783 0.3230725
000010 df a5 9e bd dc 4c 91 3d a6 42 30 be 79 9e 54 3e
       -0.07746481 0.07094738 -0.17212924 0.20763578
000020 3b 25 9e 3e 06 cd 84 be 2c 57 9d 3e 84 b4 82 3d
       0.3088778 -0.2593767 0.3073057 0.06382087
000030 f0 f4 85 3e 89 36 42 3d 12 0b 2f 3e 67 77 4c bd
       0.26163435 0.04741529 0.17094067 -0.04991856
000040 74 d9 8c 3e c1 fb 56 3d 9c 03 29 be dc 8e b1 3d
       0.27509654 0.052486185 -0.16505283 0.086698264
000050 f2 cd 26 be 48 d4 29 bd 86 0b 13 be 7b 2a 70 3e
       -0.162895 -0.041462213 -0.14359865 0.23453705
000060 2a e4 8e be 50 e7 26 be 0e 76 cc bd 13 af 59 be
       -0.2790845 -0.16299176 -0.09983455 -0.21258192
000070 a2 65 08 3d fd c9 b2 be 78 89 a3 3e 2a c5 99 be
       0.03330005 -0.3491973 0.31940818 -0.30033237
000080 9d 82 8b 3e de 74 6a 3d 77 1c eb bd 09 49 63 3e
       0.27248088 0.05724036 -0.114800386 0.2219583
000090 43 5d 61 3d 46 fd 91 3e 7e 5a 24 3d c5 5a e4 bd
       0.055020582 0.28513545 0.040125363 -0.111501254
0000a0 11 18 be 3d da 5a c4 bd 9b 8f 18 3e 85 fd a2 3e
       0.09281934 -0.09587641 0.14898531 0.31834045
0000b0 ff 3a 51 3e fb 45 1e be c4 9b 51 3e 72 8e 81 3d
       0.20432661 -0.15456383 0.20469576 0.063259974
0000c0 ef 47 35 3e 16 aa 5c be 4c 31 b3 be a1 e0 0b be
       0.17703222 -0.21549258 -0.34998548 -0.13659908
0000d0 91 d8 8a be 98 8e 94 3e 90 4d cd 3d 19 f6 15 3e
       -0.27118352 0.2901504 0.100245595 0.1464466
0000e0 78 d9 e8 3d 57 89 c9 bb 92 92 8d 3e e0 9d 80 be
       0.11369604 -0.0061504054 0.27650887 -0.2512045
0000f0 ef 79 b3 3c 1f 1b 77 be 3b dd dc 3d 02 5c f9 bd
       0.021908728 -0.2413144 0.10784384 -0.12175752
000100 98 c7 de 3d f8 da 96 bd 3c 39 96 3e bd 94 56 be
       0.10877913 -0.07365984 0.2934054 -0.20955177
000110 4c eb 57 be a3 ee 57 be c9 22 a3 3e b1 4c f1 3d
       -0.21085852 -0.21087126 0.31862476 0.11782206
000120 61 8c af 3e 16 64 95 be 7b 8c b3 be 7b 9f 8d be
       0.34286788 -0.29177922 -0.35068116 -0.27660736
000130 1a 8a 73 be 15 e8 11 3e eb 9a 00 3e d3 69 96 3e
       -0.2378315 0.14248689 0.12559097 0.29377612
000140 49 f7 3a be 58 ce 76 be 7b 75 40 3e 70 56 12 be
       -0.18258394 -0.24102151 0.18794815 -0.14290786
000150 55 d6 5b 3e f2 d2 ab bd 36 68 4f 3e 6f a5 8c be
       0.2146848 -0.08389844 0.20254597 -0.27469966
000160 e6 b3 36 be 0d 45 e3 3d 74 d0 97 3d 1f 9c b8 bd
       -0.17842063 0.11097155 0.07412806 -0.09014153
000170 ce 80 57 3e 5a 78 76 3e 39 45 83 be eb 47 41 be
       0.21045229 0.24069348 -0.2563875 -0.18875091
000180 cb 63 a5 3e c5 53 f4 bd 40 59 00 be 41 27 af be
       0.32302698 -0.1193004 -0.12534046 -0.34209636
000190 2a 54 4f be 03 36 b5 3d 83 25 3f bd 3f 66 83 be
       -0.2024695 0.088481925 -0.046666633 -0.25663945
0001a0 1f 79 d9 3b 4a 4d 77 be 82 93 99 be 75 5c 47 be
       0.006636753 -0.24150577 -0.29995352 -0.19468863
0001b0 29 6e 9e be 18 86 66 be d5 74 b4 3e 94 c2 88 3d
       -0.3094342 -0.2251209 0.35245386 0.06677738
0001c0 d1 36 e1 3d 7a d5 a8 be 0b c7 6d be 6b 03 f1 bd
       0.109967835 -0.3297537 -0.2322046 -0.1176823
0001d0 40 26 61 3d 64 48 9f be 22 fe 1b be bd bd 58 be
       0.05496812 -0.31109917 -0.15233663 -0.2116613
0001e0 ea 20 2e b6 3b b7 06 be b4 b3 c8 bc 02 54 75 be
       -2.594718e-06 -0.13155834 -0.024499752 -0.23957828
0001f0 68 80 78 be c9 36 53 be 8d d9 f7 bd 07 e0 8e be
       -0.24267733 -0.20626368 -0.121020414 -0.27905294
000200 d4 c0 96 3e 0c b4 8f bd cb a0 9b 3e c3 9e df 3d
       0.2944399 -0.07016763 0.30396113 0.10918953
000210 60 49 99 be cd 1f 7b 3e e3 39 c7 bd 63 c7 0a be
       -0.29938793 0.2452385 -0.09727838 -0.13552622
000220 41 42 96 be 59 f6 b3 be 65 ad ce 3d 96 2b 9e bd
       -0.29347423 -0.35148886 0.10091666 -0.07723157
000230 4b 5e 0c 3e 53 8e 94 be 93 e6 85 3e bf e0 84 be
       0.13707845 -0.29014835 0.26152477 -0.25952718
000240 c6 0e 7a bd e2 a6 9b 3d 7a 73 3a 3e 09 fe 90 3e
       -0.061049245 0.0760019 0.18208113 0.28318813
000250 83 13 a5 3e c4 88 8f be 88 2c b6 3d e4 b8 1b be
       0.3224145 -0.2803403 0.088952124 -0.15207249
000260 1d b2 1e bd be 7d 87 be a9 be a4 3e f6 db 84 be
       -0.03874408 -0.2646312 0.32176712 -0.25949067
000270 8e 19 42 3e b2 0b fe 3d 74 50 f1 3d 1e bc 43 be
       0.18955061 0.124045745 0.11782923 -0.1911473
000280 88 6d a5 3e 26 cf 9e 3d 81 44 3b 3d 2f 86 9f be
       0.32310128 0.07754354 0.045719627 -0.3115706
000290 37 10 18 3e c7 40 59 bd d4 db 25 be 66 7c 9b 3e
       0.14849935 -0.053040292 -0.16197139 0.30368346
0002a0 43 e2 9d 3d b5 4e 48 be eb 3d 37 be ba 50 8a bc
       0.077091716 -0.19561274 -0.17894714 -0.016884197
0002b0 f4 29 4a 3e b8 06 b9 bd f7 91 4e be 83 f4 f7 bd
       0.19742566 -0.090344846 -0.20172869 -0.12107184
0002c0 28 3c 87 be 1b 43 fe 3d 66 5f 8c 3e 3d 6b aa be
       -0.26413083 0.12415143 0.27416533 -0.3328494
0002d0 a9 d6 a7 3d b6 5f 3b 3e 55 e6 7e 3d 4f ee 00 be
       0.0819524 0.1829823 0.06223138 -0.12590908
0002e0 c6 05 3b 3e 2e da 3e 3e cc 86 07 3e c6 78 7e bd
       0.18263921 0.18637916 0.13235015 -0.062126897
0002f0 91 bc bf bd 06 2e 1b 3d 8d d2 7f bd 9b c6 d7 bd
       -0.09362138 0.03788569 -0.062456656 -0.10535928
000300 5b 49 69 3e 9b d2 9a 3e 0d 5d 0f bd 5f 1e a2 bd
       0.22781889 0.30238804 -0.03500085 -0.07915949
000310 f4 ea 9f 3b fc ee ac bc 8c c7 ad 3d 2b e9 ca 3d
       0.0048803035 -0.02111005 0.08485326 0.099077545
000320 7b 69 a4 be 1e 9b 05 be 5a 78 98 3e 83 d5 0c 3e
       -0.32111725 -0.13047454 0.2977932 0.13753323
000330 2e 0e 90 bc 73 46 5a be 42 7f 5d be b0 26 a2 be
       -0.017584886 -0.21315937 -0.21630576 -0.3167014
000340 a2 05 ec bd 19 6d f6 3d f4 68 67 3e d5 45 2a 3e
       -0.11524512 0.120325275 0.2259863 0.16628201
000350 ce 02 a0 be 6a b7 59 be fd 8a 64 bd e5 1b af 3e
       -0.3125214 -0.21261373 -0.055796612 0.3420097
000360 a0 88 4a 3d cd 83 bb bd a6 49 15 3e d3 e4 09 be
       0.049446702 -0.091559984 0.14578876 -0.13466196
000370 e2 54 6a be 73 1c 84 3e a0 9e 24 be 47 27 91 bd
       -0.22883943 0.25802955 -0.16076136 -0.0708757
000380 2d 14 b4 be 01 2a 73 3e f7 00 89 3e b5 e8 00 3e
       -0.35171643 0.23746492 0.2675855 0.1258877
000390 b3 70 7c be bb a7 b2 be 25 05 93 be 75 fc 86 3e
       -0.24652366 -0.34893593 -0.28714862 0.26364484
0003a0 fb 92 2b 3e b1 0f 99 3e ee db 3d 3e 74 29 b1 3d
       0.16755287 0.29894784 0.18540928 0.08650485
0003b0 b3 e6 62 bb 92 aa 89 be a3 17 9b be f2 50 a9 be
       -0.003462237 -0.26887947 -0.3029147 -0.3306957
0003c0 b9 3f 12 3e d8 bf 31 be f1 b8 91 bd eb 5a 50 be
       0.14282121 -0.17358339 -0.07115353 -0.20347182
0003d0 a7 f1 83 bd c1 d0 7e be ce 8f 6c be 2d 2f f0 3d
       -0.06442576 -0.24884321 -0.23101732 0.11727748
0003e0 73 31 d7 bd 69 e8 5d 3e 55 4a e8 bd 34 ca 84 be
       -0.105074786 0.21670689 -0.11342303 -0.2593552
0003f0 c7 82 7f bd 4f 7f 2f be 7e 86 dd bd 61 54 ac be
       -0.06238058 -0.17138408 -0.10816668 -0.33658126

conv_block.0.lin_l.weight f4 [128, 128]
000000 9f 0b a1 3c d1 b9 24 bd a8 70 10 3d f7 06 b7 3b
       0.019658862 -0.04021627 0.035263687 0.005585547
000010 7c ae e5 bb a9 f8 7b 3d 44 c0 6b 3d 5f 36 02 3c
       -0.0070093255 0.061516438 0.057556406 0.007947533
000020 e0 f4 8c bd c5 c7 a9 bd 7c 39 53 bd 4b 6a ae bd
       -0.06882644 -0.08290056 -0.051568493 -0.085163675
000030 bc 88 aa 3d 86 4c ae 3b 09 9b 92 bd 2a 39 77 bc
       0.08326861 0.005319181 -0.07158477 -0.015089313
000040 59 82 dd 3c 39 a9 bf bc 6e cc 84 bc 82 ef 45 bd
       0.027039694 -0.023396121 -0.01621076 -0.048324116
000050 5f 05 9c 3d b4 df 9a 3c 01 2b 9c 3d 9f 04 73 39
       0.07618212 0.018905498 0.0762539 0.00023176007
000060 04 72 59 3d 04 39 98 bd 90 ea 0e 3d 8a 40 67 bd
       0.05308725 -0.0743275 0.034891665 -0.056458034
000070 00 9c 8e 3d ee ff 7b bd 31 5b 7f bd 3a fd 80 bd
       0.069633484 -0.06152337 -0.062342826 -0.06298299
000080 d3 3b 9a bd c3 3d a4 bd 60 be 8a bd 91 47 8f 3d
       -0.07530942 -0.080195926 -0.067745924 0.06996072
000090 2a c1 3f bc e3 1d 1a 3c 52 c3 ae 3d 9c 30 44 bd
       -0.011703769 0.00940654 0.08533348 -0.04789792
0000a0 a8 41 e6 bc 3a b5 8c bd c2 57 82 3d 5f 96 a1 bd
       -0.02810748 -0.06870504 0.06364395 -0.07890009
0000b0 b3 b4 74 bd 3c 0b 6c bc 27 e6 36 3c 3d 0b 77 3d
       -0.05974264 -0.014406975 0.011163271 0.060313452
0000c0 d2 b9 c1 bc 5e 47 23 bc c8 fd 06 3d 72 63 2b 3d
       -0.023648176 -0.009965746 0.03295687 0.041842885
0000d0 65 83 af 3d 47 78 8d 3d 14 bf 8d bd 9e f6 3c 3d
       0.085699834 0.06907707 -0.06921211 0.04613363
0000e0 49 43 69 3d 24 ba b0 bd aa e1 32 3d 74 d1 5a bd
       0.056948934 -0.086292535 0.04367224 -0.053422406
0000f0 0c a5 3b 3d dc fb c2 3c ea 9c 0d bc 17 f9 6c bc
       0.045811698 0.023801737 -0.008643368 -0.0144636845
000100 0c b9 62 bd 45 75 81 bd 5b bb c7 3c 11 2d c9 3b
       -0.055352256 -0.063211955 0.02438133 0.0061394055
000110 c5 66 6d bd 0c 4b 95 bd a4 cf c8 3c 18 8c 33 3d
       -0.057959337 -0.07289705 0.024513073 0.043834776
000120 87 65 9e 3d 7d 5f 54 bd eb f2 24 bd 94 3e 39 bd
       0.077342086 -0.051848877 -0.040270727 -0.045225695
000130 e3 63 09 3d 58 64 b5 bd ad 82 a5 bd 38 0e 87 bc
       0.033542525 -0.0885703 -0.08081565 -0.016486272
000140 6e 9d 22 bd a4 ee 59 3d 0b 3e 10 bd ff ef e1 3b
       -0.039700918 0.0532061 -0.03521542 0.006895065
000150 90 a1 77 bd 62 3d 94 3d 21 8e 88 3d 37 75 b5 3c
       -0.060456812 0.0723827 0.06667734 0.022150619
000160 05 67 0a 3d 03 ec a5 bd a9 03 81 bd 2a e9 4c bb
       0.033789653 -0.08101656 -0.06299526 -0.0031266906
000170 e4 a4 45 bb d3 93 02 3d 1c bd f5 3c d3 aa 90 bb
       -0.0030158097 0.031879257 0.029997401 -0.004414895
000180 f1 eb 16 3d fb 92 84 bc 10 75 44 3d a9 f6 85 bd
       0.036846105 -0.016183367 0.047963202 -0.06541187
000190 87 e4 48 3d 26 f2 9e 3d a2 7d 20 ba ff f0 46 3d
       0.049046066 0.0776103 -0.00061222364 0.048569676
0001a0 fa f1 7b bd 02 a7 0b 39 b5 75 d6 bc 07 85 23 ba
       -0.061510064 0.00013318288 -0.026179174 -0.0006237779
0001b0 83 b0 01 bd 60 69 82 3d 92 17 17 bd 3c c1 eb 3c
       -0.031662475 0.06367755 -0.036887713 0.028778665
0001c0 09 40 46 3d 60 f8 a0 3d 95 0a 8e 3d 15 05 55 bd
       0.048400912 0.07859874 0.06935612 -0.0520068
0001d0 eb 9d 59 bc b7 b0 75 3d 13 3f c4 3c 70 d8 3e 3d
       -0.0132822795 0.05998298 0.023955857 0.04659313
0001e0 b5 8e f0 3c ca 73 aa bd 6e 50 29 3d 45 b1 91 3d
       0.029364923 -0.08322866 0.04133647 0.071138896
0001f0 2d 07 2e 3d b1 0f 15 bd 2e d9 9a bc 57 8e 0e bd
       0.042487312 -0.036391918 -0.018902387 -0.034803715
000200 8b ee b7 3c 3e 9c 2a 3d 22 c8 7b bd df 5a 93 3b
       0.022452613 0.04165291 -0.06147016 0.0044969167
000210 42 f1 50 bc 14 1b 77 3d a7 99 49 bc cf 5b 55 bd
       -0.012752833 0.060328558 -0.0123047 -0.05208951
000220 49 b3 52 3d d4 09 1e bd ec af f3 bb 9b 22 ce bc
       0.05144051 -0.03858359 -0.007436743 -0.025162986
000230 8f 30 19 3d dc 86 91 bc 6c b6 f6 3c e2 70 72 bd
       0.037399825 -0.017764501 0.030116282 -0.059189685
000240 05 87 2c bc 73 e8 a9 3d 24 73 52 bd ce c4 5c bc
       -0.010530238 0.08296289 -0.051379338 -0.013474656
000250 dc ec 86 bb c8 15 43 3c d7 8c 12 bd fd 1f 08 3d
       -0.0041175913 0.0119070485 -0.035778847 0.03323363
000260 55 ac bc bc 0d 15 33 3c 8c 39 aa 3d 45 08 a0 3d
       -0.023031393 0.010930312 0.083117574 0.07814077
000270 4d 0a c6 bc 2d 9f 41 bd 1f 6f 57 bd 12 4d 4f bc
       -0.024174834 -0.047270942 -0.052596208 -0.012652652
000280 b1 89 ca 3b 14 ae e7 3c 5b 2d fe bc 8d 5b 2e 3d
       0.006180965 0.02828125 -0.031027487 0.04256778
000290 30 30 51 bb 74 fa ab 3c 6a d2 af 3d da 4a 63 3b
       -0.003191959 0.020993449 0.08585055 0.0034682066
0002a0 c2 d7 8d 3b 0a 89 c1 bc 5c 63 85 3d d4 2c 9d bd
       0.004328699 -0.023624916 0.06513092 -0.07674566
0002b0 b6 99 26 bd ba a5 4a 3c 28 ae 54 3d ac 05 b0 bd
       -0.040673934 0.012368614 0.0519239 -0.08594832
0002c0 93 9d 48 bc 19 74 9b 3c 09 55 9f 3d 9a ec 25 3d
       -0.0122446 0.018976258 0.07779891 0.040508844
0002d0 5e 43 a4 3d 54 f7 7a bc b8 fc aa bd f2 05 3a 3c
       0.08020662 -0.015317757 -0.083489835 0.011353957
0002e0 92 e0 74 3d 48 18 2a 3b d5 39 77 3c 5b b0 b3 3d
       0.05978448 0.0025954414 0.015089472 0.087738715
0002f0 24 55 a5 bd 1b 54 89 3c 97 ea ea 3c 5e 4c 9b 3c
       -0.0807288 0.016763737 0.028676314 0.018957313
000300 5b 45 ad bc bc f2 12 bd 63 69 50 3d 5b 1c ca 3c
       -0.021151235 -0.03587602 0.050881755 0.024671724
000310 86 05 d9 3c c5 34 18 bb d0 bc 64 bd cf 54 1b 3d
       0.026491892 -0.0023224812 -0.055844128 0.037922677
000320 39 b0 3d bd 09 c8 62 bd ad f4 24 bd c9 52 90 bd
       -0.046310637 -0.05536655 -0.040272404 -0.0704704
000330 05 06 92 bd 32 f5 e5 bb fe ec af bd 39 4f 88 3d
       -0.071300544 -0.007017755 -0.085901245 0.066557355
000340 09 bf 87 bd 5b a2 01 3d 0d 25 1a 3d 88 82 09 bd
       -0.06628234 0.031648975 0.03763299 -0.03357175
000350 8f f7 a6 3c 67 6d ab 3d e8 de a8 bd 07 b7 79 3b
       0.020381717 0.08370476 -0.08245641 0.0038103478
000360 2e fe 76 3d 52 3d ad 3d d9 3e cf 3c 3d aa 9e 3d
       0.060301 0.084589615 0.025298523 0.07747314
000370 7a 74 3e bd 3a a9 a3 3d 83 2c 4d 3c 1e 6d 6a bd
       -0.0464978 0.07991262 0.012522819 -0.05723297
000380 ea bc 60 3d 57 e0 94 3d 46 43 97 bd 5d 61 43 3d
       0.054867662 0.07269352 -0.07385878 0.047700275
000390 dd cc d0 3c 66 65 9c 3d 44 12 aa bd 32 45 37 3d
       0.025488311 0.07636528 -0.08304265 0.044743724
0003a0 d3 f8 b2 3d 4e 57 d1 bc f0 65 ed 3c 0d a0 9c bd
       0.08738866 -0.025554325 0.028979272 -0.07647715
0003b0 ec 83 ba 3c a8 82 7b bd ed f2 aa bd 0e a7 25 3d
       0.022767983 -0.0614039 -0.08347116 0.04044252
0003c0 7e 18 42 3d 15 36 51 3d 20 57 89 3d b9 0c ba bc
       0.04738664 0.051076967 0.06706071 -0.022711145
0003d0 cb 78 86 bd c8 4c 57 3d 42 62 92 3d 93 bf 85 bd
       -0.06566008 0.05256346 0.071476474 -0.065306805
0003e0 06 1f 9a bd f7 5c 57 bd c9 d5 4d bd 35 9b 6c 3d
       -0.075254485 -0.052578893 -0.05025271 0.057765204
0003f0 48 56 a8 bd e7 af 04 3d 79 54 5e 3c 7b b9 78 bd
       -0.08219582 0.032394316 0.013569945 -0.060723763

conv_block.0.lin_r.weight f4 [128, 128]
000000 24 d0 07 3d 1e 30 a6 bd 70 35 36 3c 58 8c a9 3d
       0.033157483 -0.081146464 0.011121139 0.082787216
000010 ce c8 b2 3d 47 82 d1 3b 42 da 7f 3d 4a 7f 30 bd
       0.08729707 0.006393704 0.062464006 -0.043090142
000020 9f 4b a7 bd 24 dd 88 bd 26 9f 12 bd 51 e6 a7 bd
       -0.081687205 -0.06682804 -0.035796307 -0.08198226
000030 0d 97 5f 3d 44 89 8b 3b 87 f2 24 bd b3 38 5f bd
       0.054587413 0.0042583067 -0.040270355 -0.054497432
000040 d1 a1 84 3c 1f 98 35 bd 02 66 10 bd 7b 4a 34 bc
       0.016190441 -0.044334527 -0.035253532 -0.011004086
000050 52 42 9d bd a0 82 7a bc bf 4d b2 3d b8 b4 8c 3d
       -0.07678665 -0.0152899325 0.08706235 0.06870407
000060 51 4b 1c 3c 2f 53 89 bd 8c 67 c1 3c 48 ab 4b bd
       0.009539441 -0.06705319 0.023608945 -0.049723893
000070 bb 89 9c bd d7 4e 2e bd 63 c5 85 bd 45 65 39 3d
       -0.076434575 -0.042555656 -0.06531789 0.045262594
000080 7d c0 97 bd 40 8b 57 bc f5 52 2e 3c db a9 3e bd
       -0.07409761 -0.013155758 0.010639896 -0.046548706
000090 e4 e3 28 bd 79 c8 1b 3d d1 e3 8b bd 34 4c 46 3d
       -0.04123296 0.038032982 -0.06830562 0.048412517
0000a0 84 37 cf bc e9 d6 90 bd ed b5 b4 ba 22 27 8b bc
       -0.025295027 -0.07072241 -0.0013787128 -0.016986433
0000b0 c9 98 3f 3b ed 55 cf bc 86 9e 64 3c af 0f 01 3d
       0.0029235354 -0.025309527 0.013953811 0.031509098
0000c0 08 ab 70 3d 3b df 2d bd e0 04 e7 3c a0 34 90 3d
       0.058756858 -0.042449217 0.028200567 0.070412874
0000d0 be 34 b9 39 fe 1c aa bb 41 65 53 3d fe 0a a4 bd
       0.00035325246 -0.0051914444 0.051610235 -0.08009909
0000e0 92 ff 7e bd ec 30 b1 3d 70 d9 5f 3c 58 91 15 bb
       -0.06225545 0.08651909 0.013662681 -0.0022822227
0000f0 4d 31 b2 bd 6f 2b 81 bd 62 b9 a1 3b 1d 18 9d bc
       -0.0870081 -0.063071124 0.0049354294 -0.019176537
000100 62 92 1c 3d 59 96 88 bd b7 29 0d 3d 20 e9 43 bd
       0.03822554 -0.066693015 0.03446361 -0.047829747
000110 c9 a2 02 bd d9 a3 85 3d 8a d4 02 3d b6 c4 6e bd
       -0.031893525 0.06525392 0.031940974 -0.058293067
000120 1a 90 31 3d 73 db d9 3c ea 4d d0 bc 51 ef ae bd
       0.043350317 0.0265939 -0.025427777 -0.0854174
000130 8d 5a 2f 3d 9b 2a 4a 3d f8 ac 40 3d c1 58 11 3d
       0.042810965 0.049357038 0.047039956 0.035485033
000140 19 b5 23 3c eb fc 8f bd 5a 69 78 bd 6b eb 56 bc
       0.0099919075 -0.07030662 -0.060647346 -0.013117651
000150 5c ee e3 3c 21 c7 8f bb 63 a9 32 bd f4 7c 19 3d
       0.02782362 -0.0043877517 -0.04361857 0.03747268
000160 72 41 87 3c 73 a2 81 bd 95 fe 8f 3d 4c b2 40 3d
       0.016510699 -0.06329813 0.070309795 0.047045037
000170 e5 ef 90 3d 7e 2d c8 bc 67 54 2f 3d 1b 95 85 3c
       0.07077006 -0.024435755 0.0428051 0.01630645
000180 9b 58 96 3d 76 6e 85 3d b6 11 90 3b 44 ba 42 3d
       0.07341119 0.065152094 0.0043966426 0.047540918
000190 25 27 bb bc b2 e5 1f bd f0 62 c7 3c d4 34 42 3d
       -0.022845814 -0.039037414 0.02433917 0.047413662
0001a0 4a b8 50 3d 7e d5 3d 3d bb 0b a6 3d 17 e9 58 3d
       0.050957 0.04634618 0.08107706 0.052956667
0001b0 98 a1 3e 3d 11 76 9a bd 11 16 86 bd ce 4f f1 3c
       0.046540827 -0.07542051 -0.065471776 0.029457
0001c0 9c 1c 7e 3d 2d 47 9a 3c c0 d3 b3 3c c4 72 17 3d
       0.062039003 0.018832767 0.021951556 0.036974683
0001d0 c6 3c 3c bd 86 ed 03 bc 3b 8b 5e bd 8b fc 1e bd
       -0.045956396 -0.0080522355 -0.054332 -0.038815062
0001e0 07 0e de bc a1 be 2f bd 79 da c6 bb cb ea a3 bd
       -0.027106298 -0.042906407 -0.0060685244 -0.080037676
0001f0 a6 0a 6a 3d da 4d 93 bd b6 20 08 bd 14 b7 5d bc
       0.05713906 -0.071925834 -0.03323432 -0.013532419
000200 12 bd 95 bd ce a7 de bc 82 16 97 3d 09 fc 9c bd
       -0.07311453 -0.027179625 0.0737734 -0.076652594
000210 1a 78 87 3d 1b 05 4e bd 65 6c 95 bd 74 29 16 3d
       0.066147044 -0.050297838 -0.07296065 0.036660627
000220 a3 8d d9 3c 41 3e 70 3d 2c da 25 3d be 50 58 3d
       0.026556795 0.05865312 0.040491268 0.052811377
000230 62 68 05 3d 30 89 98 bb 4f 56 85 3d 52 ed 8a bd
       0.03257025 -0.004655026 0.06510603 -0.067835465
000240 bf d4 ae bd 83 ef 15 bd a3 49 80 bd 05 03 93 3d
       -0.08536672 -0.03660537 -0.06264045 0.0717831
000250 a6 1e 2e 3d 62 68 b4 3d 2b 1b 3f bd aa 91 a2 3d
       0.042509697 0.08808972 -0.04665677 0.079379395
000260 e2 15 9c bd 4f ec 7c bd e3 af ab 3d b1 c8 6b 3a
       -0.07621361 -0.0617488 0.08383157 0.0008994444
000270 d9 0f 6e 3c 34 f9 15 bd ae 6e ea 3c fe 18 93 bc
       0.014530146 -0.03661461 0.02861723 -0.017956253
000280 0d f8 90 3d 40 bc 42 3d 6a ea 8c bb f4 02 0c bd
       0.07078562 0.04754281 -0.0043004053 -0.034182504
000290 73 7b 6a bd e9 4a 16 3d 4e 1a 85 3c 86 c6 89 bd
       -0.057246637 0.036692534 0.016247895 -0.067273185
0002a0 45 1b 02 bd eb 91 c0 ba 94 9d 87 3d 87 41 46 bd
       -0.031764288 -0.0014691924 0.066218525 -0.048402335
0002b0 82 58 81 3b fb 6a 50 bd 27 7c 9f 3d 26 be 1d bd
       0.0039473185 -0.050883275 0.07787352 -0.038511418
0002c0 00 ca c2 bc 28 ff 7c 3d 88 19 89 3d 4e bc 3f 3d
       -0.023777962 0.061766773 0.06694323 0.04681044
0002d0 e9 6b b1 3d 9b b0 75 bd 6b 1d 22 bd 71 48 b3 3d
       0.0866316 -0.059982877 -0.039578836 0.087540515
0002e0 30 79 ac 3d d6 c9 a9 3d ec 78 89 bd 60 4b 12 3d
       0.08421552 0.0829045 -0.06712517 0.035716414
0002f0 22 d4 ae 3d 0e 36 3e 3d 2c ce 47 3c 74 2d 99 3d
       0.08536555 0.04643827 0.012195151 0.074793726
000300 01 f4 a0 3d 6a 4f 60 3d d7 92 09 3d f7 3e 9f bd
       0.0785904 0.054763235 0.033587303 -0.077756815
000310 81 59 ad bd 97 d6 d4 3c 74 a6 93 bd 7f 48 ac 3a
       -0.08464337 0.02598123 -0.07209483 0.0013144164
000320 98 8e f7 bc 14 d2 4f 3b b5 08 29 bd 0d af 62 3d
       -0.030219361 0.003171091 -0.04126807 0.055342723
000330 4b 5b 9e 3d 3f 6f 99 bd eb e2 9d 3d 15 63 8b bd
       0.077322565 -0.07491922 0.07709297 -0.06806008
000340 4e 56 64 bd 53 32 17 3d ee d2 c3 bc a9 b2 8d bd
       -0.05574637 0.036913227 -0.02390429 -0.06918842
000350 d2 25 3b bd ed bc b5 3d f8 3c 75 bd 02 c1 fd bc
       -0.045690365 0.08873925 -0.059872597 -0.030975822
000360 f7 5a 52 bd a0 6a 18 3d 7c 9a 5c 3d 8a 9c 1d bd
       -0.051356282 0.03721106 0.053858265 -0.038479365
000370 fd d1 a1 3b 68 9b 9f bb a3 c5 81 bd ac ff 4a 3c
       0.0049383626 -0.004870821 -0.06336524 0.0123900585
000380 f0 1e d5 3c 78 d9 88 3d c3 c2 ad 3d d2 9d 40 bd
       0.026015729 0.06682104 0.084844135 -0.04702551
000390 f0 12 c8 bc d1 04 cd bc e1 05 6e bd 98 14 42 3d
       -0.024423093 -0.02502671 -0.058111075 0.04738292
0003a0 7e a1 fb 3c 4b 6a 72 bc 8d b6 74 3d a3 50 a0 bb
       0.030716654 -0.01479585 0.059744406 -0.004892425
0003b0 72 83 35 3d 9c ef 37 3d ba c8 a8 bd 7a 37 a1 bb
       0.04431481 0.044906244 -0.082414106 -0.0049199434
0003c0 e9 81 42 3d a5 c7 b4 bc 43 bc 4e bc 54 6c 3e 3d
       0.047487173 -0.022067854 -0.012618127 0.04649003
0003d0 e4 59 8b ba f6 07 3f bd 02 d4 85 3d 6e a1 43 3d
       -0.0010631648 -0.04663845 0.06534578 0.047761373
0003e0 cc 64 81 3c 1b 7e 76 bd 98 6a 81 bd 7c d7 3b bc
       0.015795134 -0.060178857 -0.06319159 -0.01146495
0003f0 40 bc 9f 3b 97 88 93 3d 49 96 36 3c b7 a3 20 3a
       0.004874736 0.07203787 0.011144229 0.0006127911

conv_block.1.lin_l.weight f4 [128, 128]
000000 19 00 c6 bc 18 7c b5 3d 70 ab 70 bd 21 9b 9f bd
       -0.024169968 0.0886156 -0.058757246 -0.0779326
000010 92 1d f3 b9 ff 54 44 3d 48 a9 30 3d c9 5c 25 3d
       -0.00046370603 0.04793262 0.04313019 0.04037169
000020 f1 4a 73 3d bc 5a b5 3d 69 2d 72 bd 66 a7 8a bd
       0.05939764 0.08855197 -0.059125338 -0.0677021
000030 c8 d4 87 3d 5d ee 3b 3d 3c a9 3b 3d 60 7d cd 3c
       0.06632382 0.045881618 0.04581569 0.025084198
000040 23 37 9f 3c 59 72 4d 38 81 f4 c5 bc a7 4d 54 3d
       0.01943547 4.8982303e-05 -0.02416444 0.051831868
000050 fa 71 61 bd 32 00 76 3d f6 a8 8f bd 73 21 2c 3b
       -0.055040337 0.06005878 -0.070146486 0.0026265054
000060 13 e2 9b 3d c4 ea c9 bb e0 c8 9f bd dc 12 ee bc
       0.076114796 -0.0061620194 -0.07801986 -0.029061727
000070 17 d5 5b 3d 44 2d a4 3d 58 77 8a bd 05 b4 a9 bd
       0.053670015 0.08016446 -0.06761044 -0.08286289
000080 51 c6 ae bc 37 10 4c 3d b7 0e 71 3d 79 97 3e 3d
       -0.021334799 0.04982015 0.058851924 0.046531174
000090 80 49 94 bd d3 4c 48 3d 07 0e 30 3d 6d 5f 6b 3d
       -0.072405815 0.04890139 0.042982128 0.057464052
0000a0 3a ad 34 bc 67 04 7e bc 1d 9c 65 3d fe b6 63 bc
       -0.011027629 -0.015503979 0.056057084 -0.013898609
0000b0 1b ca ed bc 37 ce e7 3b 4f fe ae 3b 95 e7 84 3d
       -0.029027035 0.0070741433 0.0053403745 0.06489483
0000c0 67 99 48 3c 20 39 be bc 4f b7 9b 3d 3f 14 27 bd
       0.012243605 -0.023220599 0.07603323 -0.040790793
0000d0 e0 eb a3 3c 0a 6e ea 3c 51 02 b1 3d 2e a7 a5 bd
       0.020009935 0.028616924 0.0864302 -0.080885276
0000e0 67 95 13 3d ac 11 0f 3d 40 aa a8 3d e0 79 59 bd
       0.036031153 0.034928963 0.082355976 -0.053094745
0000f0 85 ce 02 bd 02 bc 3d 3c 93 10 b5 3d 71 59 0e bb
       -0.031935234 0.011580469 0.08841052 -0.0021720792
000100 7c 0a 90 bd 35 7e 9f 3c 24 2b 0e 3d 06 69 8c 3d
       -0.0703325 0.01946936 0.03470911 0.06855969
000110 4f 83 d6 bc fd 00 97 bd 61 96 a6 bd d2 53 a1 3d
       -0.02618566 -0.073732354 -0.08134151 0.078773156
000120 20 ad 27 bd 90 f7 14 bd ec ae 11 bd f8 9d 46 bd
       -0.04093659 -0.036368906 -0.03556721 -0.048490494
000130 28 52 9f 3d 71 5c a0 bc 7f 25 1b 3c 0e 74 30 bd
       0.07779342 -0.01957533 0.009469389 -0.04307943
000140 0d 6d a7 3d 76 f7 83 bd 4f f8 94 bc 53 c0 b5 bd
       0.08175097 -0.06443684 -0.018184809 -0.088745736
000150 c2 5d 9f 3d 5d 1f 2f 3d de de d0 bc 67 02 88 3d
       0.07781555 0.04275452 -0.025496896 0.06641083
000160 0f 31 30 3d 29 53 fa 3c ec b6 91 3c e6 e0 8d 3d
       0.043015536 0.030557232 0.01778742 0.069276616
000170 36 88 f2 bc e9 cf 91 3d 7d 8d ad 3c a8 a6 6d bd
       -0.029605966 0.07119734 0.021185631 -0.058020264
000180 10 93 0c bc 62 a6 ab bd 2c a5 bf 3c 8d 91 a1 bd
       -0.008579984 -0.083813444 0.02339419 -0.0788909
000190 1e 86 78 bd a6 9e 1d 3d 61 f4 3e 3d 69 b1 8b bd
       -0.06067478 0.038481377 0.046619777 -0.06820948
0001a0 b2 a8 8b bd b0 c4 75 3d 1c a2 7a 3d 4d 35 05 3d
       -0.068192855 0.06000203 0.061189756 0.032521535
0001b0 3b 7a 11 bd fb 2a 83 bd 59 ef eb 3b e0 b3 a4 3c
       -0.03551696 -0.06404682 0.0072001633 0.020105302
0001c0 4c 33 86 bd be bb 83 3d c3 f0 aa 3c 8f f6 86 bd
       -0.06552753 0.06432293 0.020866757 -0.06589996
0001d0 da fd ae 3d 06 9a 98 bd 0e ec 23 bd 24 26 96 3d
       0.08544512 -0.07451253 -0.04002004 0.073314935
0001e0 97 b0 b2 3d 23 f5 3c 3d 3a bf 5f bd 7c 53 fc bc
       0.08725088 0.046132218 -0.054625727 -0.030801527
0001f0 e7 55 33 bd c3 ec 1f bd a9 04 9e 3d 5d 98 11 3d
       -0.043783095 -0.039044153 0.077157326 0.035545696
000200 f9 03 60 bd 10 68 ad bd c7 e5 26 3a c4 1c 88 3c
       -0.05469129 -0.08467114 0.0006366637 0.016615279
000210 e6 86 87 bd 47 01 84 bd 8d 83 a1 3d 11 ae 7f 3d
       -0.06617527 -0.06445556 0.078864194 0.062421862
000220 8c 07 6c 3d 30 0b 63 3a 23 0d 9f 3c d4 b4 3b bd
       0.057624385 0.000866103 0.019415444 -0.045826748
000230 2d 3b 67 bd f9 d9 9f 3d 9f 8c 7b bc 91 de 7c bd
       -0.05645292 0.07805247 -0.015353351 -0.061735693
000240 67 17 bc 3c c1 09 83 3d 75 fa 86 3d 05 d9 f5 3c
       0.022960378 0.06398345 0.0659074 0.03001071
000250 71 91 2c 3d df a0 a0 3d 0e 62 ec 3c 9f d9 e3 3c
       0.04213089 0.07843184 0.02885535 0.02781373
000260 cf d2 b0 bd 64 b4 10 bd cb 8b e4 3c 05 cb 28 bd
       -0.086339585 -0.035328284 0.02789869 -0.04120924
000270 1a b5 3b bd 77 75 47 3d 26 ee 41 3d bc bb 73 bd
       -0.04582701 0.048696008 0.047346257 -0.05950521
000280 af df 12 3d 1a 48 62 3d a0 9f 33 bd 99 4d 32 3d
       0.035857853 0.055244543 -0.043853402 0.043531034
000290 ad 40 2b 3d b1 91 33 3d 3f 23 98 bb 78 c7 a9 bd
       0.041809727 0.043840114 -0.0046428735 -0.08289999
0002a0 92 a2 51 3c d5 70 4e bd 26 56 4a 3d 1e 2e e4 bc
       0.012795107 -0.050400574 0.049398564 -0.027854022
0002b0 6a c7 f8 bc e0 70 1e 3a e3 91 9a 3d 25 47 eb b8
       -0.030368526 0.00060440414 0.07547357 -0.00011218925
0002c0 90 78 02 bd 5d 1e 73 bd 96 b7 af bd 2a ac c1 3b
       -0.03185326 -0.05935513 -0.08579938 0.005910416
0002d0 71 94 56 bd 6c 6f 73 bd 27 60 23 bd 54 a8 8f bd
       -0.05238766 -0.059432432 -0.03988662 -0.07014528
0002e0 59 7b 41 bd db 6d 5e 3d 07 31 01 3d f5 d1 2f 3d
       -0.047236774 0.054303985 0.031540897 0.04292484
0002f0 55 d2 79 bd c1 07 59 bc 9b 7b 58 3d ab 61 cb 3c
       -0.060991604 -0.013246478 0.052852254 0.024826845
000300 29 58 ee 3b 1e c9 bf 3a 15 a1 ba 3b aa 7f 86 3d
       0.007273693 0.0014632081 0.005695472 0.06567319
000310 b4 b8 e6 3c 2f 3f 4c 3d e6 6f 3d 3d ad 2d 52 bb
       0.028164245 0.049864944 0.046249293 -0.0032070682
000320 0d 8d a1 3d 65 2f 3a bd d3 4d 0f 3d e8 77 86 bd
       0.078882314 -0.045455355 0.03498633 -0.06565839
000330 79 25 42 bb 2a 14 95 bd db 98 e5 3c da 8d 07 bc
       -0.0029624386 -0.072792366 0.028026989 -0.008273566
000340 5f 59 9a bd 55 2e 1c 3d fd 2c 11 bd 93 6e a7 bd
       -0.075365774 0.038130123 -0.035443295 -0.08175387
000350 2e f2 38 3d 73 af a5 bd 4d 7b 1c 3d c6 3d 0c 3b
       0.045152836 -0.08090105 0.038203526 0.0021399125
000360 2c 1f a2 bd a0 67 9b bd 3e 29 43 3d a3 c9 68 3d
       -0.07916102 -0.07588124 0.047646753 0.05683292
000370 ea ec 99 3d 64 31 a8 3d 7b 31 b4 3d b7 7c 8e 3d
       0.07515891 0.082125455 0.087985 0.06957381
000380 da f6 82 bd 9e cd 8a bd 13 fb 42 3d 55 b0 92 3d
       -0.063947394 -0.067774996 0.047602724 0.07162539
000390 d3 b6 07 bc db fa ad bd b7 41 ae 3d d5 73 95 3d
       -0.008283335 -0.084951125 0.08508628 0.07297484
0003a0 10 c6 c5 3c 9a 3e 17 bc cb 7c 21 bd 71 d7 3c 3d
       0.024142295 -0.009231234 -0.039425652 0.0461039
0003b0 19 a8 a1 bd 9b d4 f2 bc 01 d6 e5 3b 56 7e a1 3d
       -0.0789339 -0.029642394 0.0070140366 0.07885425
0003c0 b3 09 d3 bc 77 07 ae 3d 2a a2 69 3d 29 d7 ad bd
       -0.02576146 0.084975176 0.057039417 -0.08488304
0003d0 ec 92 58 bd 9a 5b ae bd 7f ba f9 bc b0 36 85 bd
       -0.05287449 -0.08513565 -0.030484436 -0.065045714
0003e0 3d de 5f bd 3f 17 5c bd 29 05 80 3d a0 c9 7a 3d
       -0.054655302 -0.053733107 0.06250984 0.06122744
0003f0 03 bd 12 3d ff fa 38 3d be 92 db 3c a4 47 0d bd
       0.035824787 0.045161244 0.02680337 -0.03449215

conv_block.1.lin_r.weight f4 [128, 128]
000000 d4 33 ab bd 27 83 70 3d 1b 39 2f bd 70 b7 84 3d
       -0.08359495 0.058718827 -0.04277907 0.064803004
000010 93 f5 77 bd b4 59 59 3d d6 e4 a5 3c d7 e9 77 3d
       -0.060536932 0.053064063 0.020250719 0.06052574
000020 9d 8b d2 3c 95 59 b3 3d f1 a0 89 bc d4 91 74 3d
       0.025701338 0.08757321 -0.016800376 0.059709385
000030 d5 4e 96 bd 1e 6f 6f bd b1 c1 a4 bd 3b ca 35 3d
       -0.07339255 -0.05845558 -0.08044756 0.044382315
000040 d9 2d 9a bd 40 41 75 bc 7a bd d9 3c 41 ec 29 bd
       -0.07528276 -0.01496917 0.026579607 -0.041485075
000050 28 ee d4 bb 24 e5 8c 3d df 8c 07 3d 2c 3d cd bc
       -0.006498117 0.068796426 0.03309333 -0.025053583
000060 15 aa 70 3d bd 0e bf 3c 58 1e 59 bc 9b 16 92 3d
       0.058755953 0.023322457 -0.013251863 0.07133218
000070 17 67 2c 3d d9 ad 93 3c 9f f7 5a 3d 24 7d 64 3d
       0.0420905 0.018027233 0.053458806 0.055783406
000080 4c 76 ab 3d ec 65 4f bd de 5a aa bd 55 09 af bc
       0.08372173 -0.05063431 -0.08318113 -0.021366755
000090 c6 c4 3a bb 1b 48 19 3d 3a f9 ed bb dd 36 22 3d
       -0.0028498634 0.03742228 -0.007262376 0.039603103
0000a0 2b 5c 0c bc 3a 0b 35 3c 21 6d 1e 3d af 82 9e bd
       -0.008566896 0.01105004 0.038678292 -0.0773977
0000b0 f3 db 2f 3c 92 ee c3 bc 6f cd 3a 3d 67 4b 16 3c
       0.010733592 -0.02391747 0.045606073 0.009173251
0000c0 61 47 b0 bd 0c 56 8d bd ba df aa bd 7d 0b 0e 3c
       -0.086073644 -0.06901178 -0.08343454 0.008669731
0000d0 96 f1 8b 3d 28 ed 3d 3d 76 f3 a8 bd 3b 9e 58 bd
       0.06833188 0.046368748 -0.082495615 -0.052885275
0000e0 27 0f dc 3c 8c 47 6d 3d 8c c9 b7 bc d9 e0 3e 3d
       0.026862694 0.05792956 -0.022434972 0.04660115
0000f0 81 15 41 3d dd d3 eb 3c 52 51 64 3d 2c c4 a8 bc
       0.04713965 0.028787548 0.055741616 -0.020601355
000100 15 d0 46 bb 03 28 85 bd 69 2c 0c 3d a8 8f aa bc
       -0.003033643 -0.06501772 0.03422204 -0.020820454
000110 41 91 7c 3c 33 dc 13 bd a9 47 12 3d bb c6 3e bc
       0.015415491 -0.03609867 0.03571287 -0.011644061
000120 14 85 a9 3c 46 dc 88 bd 11 c4 49 3d 91 33 66 bc
       0.02069334 -0.06682639 0.04925925 -0.01405038
000130 4f 60 dd 3b 33 e6 8f bd 83 4b 97 3d de b0 97 bd
       0.0067558656 -0.07026329 0.073874496 -0.074067816
000140 7f 13 82 bd 78 ec dc 3c a3 cf b2 bd 08 17 20 bd
       -0.06351375 0.026968226 -0.0873101 -0.039084464
000150 53 f3 9e 3c 86 d6 37 bd b5 16 80 bd 85 da 33 3d
       0.019403135 -0.04488232 -0.06254331 0.04390957
000160 1a 6e a4 bd 22 08 8e 3d 73 c6 f9 3b 43 d9 ce bc
       -0.08028813 0.06935145 0.007622534 -0.025250083
000170 7f 54 82 b9 8e fe c5 bc 38 89 12 3c a8 fc d8 3c
       -0.00024858487 -0.024169233 0.008943848 0.026487663
000180 4c c5 af 3d f4 b4 8b bd d7 ef 65 bd 2d 8e 62 bc
       0.08582553 -0.068216234 -0.056136932 -0.013827843
000190 a9 50 68 bd 8b 95 9a bd 1c 86 84 bd ce 7e 1a bd
       -0.05671755 -0.07548054 -0.06470892 -0.037718587
0001a0 d6 42 28 3d e0 0a 9e bd 63 ee 98 bd 44 a6 44 3c
       0.041079365 -0.07716918 -0.07467344 0.012002531
0001b0 bd 5b 56 bd 76 8e ae 3d bf b4 b6 3d ca 7d 9e 3d
       -0.052333582 0.08523266 0.08921193 0.07738836
0001c0 ea d4 a1 3d 9b 2a 88 3b ab 51 56 bd 70 03 24 bd
       0.07901938 0.0041554696 -0.05232398 -0.04004234
0001d0 05 61 52 bd 56 17 0c 3d 41 c2 2c bd 85 02 66 bd
       -0.051362056 0.034201942 -0.042177442 -0.056154747
0001e0 cc 45 9a bd 29 36 6d bd 56 01 3c 3c f2 83 0f 3d
       -0.07532844 -0.05791298 0.011474928 0.035037942
0001f0 b5 7f 82 bd 0d 7c 46 3c 44 2a ff 3c 92 fa ad 3d
       -0.063720144 0.012114537 0.031148084 0.08495058
000200 c1 ae 68 bd c7 68 ac bd 14 8e 92 3d 19 cf b1 bc
       -0.056807283 -0.08418422 0.071560055 -0.021705197
000210 c8 8c 00 3d 7d c1 98 bd 6c 67 89 bd cf 6f b3 3d
       0.03138426 -0.0745878 -0.06709179 0.0876156
000220 e0 00 88 3a 21 e9 3a 3d e0 63 25 bd 59 74 a5 3d
       0.0010376237 0.045632485 -0.04037845 0.08078832
000230 5e b9 9e bd 46 a2 85 3d 6d ef 87 3d d4 c9 28 bc
       -0.077502 0.06525092 0.06637464 -0.010302026
000240 b0 64 10 3d 9e 03 81 bd 09 3f b2 bc 21 5f 9b 3d
       0.035252273 -0.06299518 -0.021758573 0.07586504
000250 73 40 6b 3d 91 9a 94 3c 5e ba 57 3d e0 62 01 3d
       0.05743451 0.01814011 0.052667968 0.031588435
000260 1f 4c 15 bd 4c 90 c5 3c 52 b5 9b bd 12 32 5c bd
       -0.036449548 0.024116658 -0.076029435 -0.05375869
000270 d8 29 ce bc 3b fb 9f bc df 1b 3a bd a8 bf 84 3d
       -0.025166437 -0.019528976 -0.045436736 0.06481868
000280 5b f2 22 bd 9a 7a e5 3c 66 da 3f 3d 5d de b3 bd
       -0.03978191 0.028012563 0.04683914 -0.08782647
000290 d0 27 8a 3d 7e ef cd bc 21 13 8f bd 86 5d ad 3d
       0.06745875 -0.025138613 -0.069860704 0.08465104
0002a0 a7 72 6e 3d d0 8c 7e bd 5c 4e ef bc 4f d3 9b bd
       0.05821481 -0.062146008 -0.02921217 -0.07608663
0002b0 1e f8 19 3c 9b 01 76 bd 35 9d 3c bd 48 a0 b1 bd
       0.009397535 -0.060060125 -0.04604836 -0.08673149
0002c0 ac 38 26 bd 04 49 81 ba c2 01 7f bd af d5 54 bc
       -0.04058139 -0.0009863679 -0.062257536 -0.012990399
0002d0 2c a7 f5 bc 11 e6 ef 3c 37 7b 86 bb 09 bf ae bc
       -0.02998694 0.029284509 -0.004104044 -0.021331327
0002e0 e1 03 83 bd 42 37 f0 bc bf f0 85 3d 8f 7b b1 bd
       -0.06397224 -0.029323224 0.06540059 -0.08666145
0002f0 c2 f8 25 3d 20 eb 5b 3c 34 99 30 3c 9b 8c b2 bc
       0.040520437 0.013422757 0.010778714 -0.021795562
000300 ff 64 83 bd 79 29 73 3c 42 6f 0f 3c c5 a6 8d bd
       -0.06415748 0.014841431 0.008754553 -0.069165744
000310 c3 38 95 3d 76 9d 9d bb 38 c8 31 3d 44 3b 3b 3d
       0.07286217 -0.0048100306 0.043403834 0.045710817
000320 a0 69 2b 3d 08 fc 7e bb 58 47 ae bb c9 2f 86 3d
       0.04184878 -0.0038907547 -0.0053185634 0.06552083
000330 bc 77 3d 3d bb 34 49 3d bb 3b a9 bd a9 c0 69 3d
       0.046256766 0.049122553 -0.08263346 0.0570685
000340 fd 78 97 3b f9 52 99 3c 68 4b b8 3c 6d 2d 2c bd
       0.004622577 0.018716322 0.022496894 -0.04203551
000350 64 8f 2b 3d e4 6d 54 3d 28 12 51 bc 57 7f 67 bc
       0.041884795 0.051862612 -0.012760676 -0.014129481
000360 df 4a a8 bd 8a 37 12 bb 55 c7 ae 3d 03 22 9d 3d
       -0.082174055 -0.0022310936 0.08534113 0.07672503
000370 d8 0b f7 3a 38 34 86 3c b2 4d 40 bd 74 0b 9a bb
       0.0018848134 0.016382322 -0.046949096 -0.0047010724
000380 c7 37 89 3d d3 1e 28 bd 59 33 16 3c a5 17 b4 3d
       0.06700092 -0.04104502 0.009167516 0.08793572
000390 62 56 85 3d ca db cc bb b4 4c 84 3d de cc e6 3c
       0.06510617 -0.006251787 0.064599425 0.02817386
0003a0 8b 90 07 3d 04 3a 4e 3d 37 3d a2 3d 28 b5 4d 3d
       0.03309683 0.050348297 0.07921832 0.050221592
0003b0 bd 2f 94 37 23 7e b2 bd d7 80 46 3d 28 71 f2 bc
       1.7665205e-05 -0.08715465 0.048462715 -0.029594973
0003c0 ad c6 84 bc d2 45 9e 3b 10 2a 9f 3d a3 dc 8e bd
       -0.016208017 0.0048301006 0.07771695 -0.06975677
0003d0 95 8c 0e 3c 02 1c 99 ba 92 09 fd bc c3 8e b1 bd
       0.00870051 -0.0011681321 -0.030888353 -0.08669808
0003e0 74 c4 82 3d 9b 20 53 bd 92 13 5a 3d 1d 98 5e bc
       0.06385127 -0.051544767 0.05324132 -0.013586071
0003f0 5d ac e7 3b e2 98 9e bd 55 4e 60 bd 73 c4 c5 bc
       0.007070108 -0.07744004 -0.054762203 -0.024141526

conv_block.2.lin_l.weight f4 [128, 128]
000000 b3 bd 98 3d ba 0f 4c bc 4c 88 dd bc 53 69 9c bd
       0.07458057 -0.012454921 -0.02704253 -0.076372765
000010 56 88 ba 3c 2d 07 15 3d 3c 7a 9a bd 04 16 0a bd
       0.022770088 0.036383796 -0.075428456 -0.033712402
000020 69 9a 10 bd 8c eb 56 3d 43 48 a4 bd bb 90 94 3d
       -0.035303507 0.05247073 -0.08021595 0.07254168
000030 71 25 af bc 74 5b 6d 3b 41 dd 03 bd 50 56 a5 3d
       -0.021380158 0.003621784 -0.032193426 0.080731034
000040 06 27 77 bd 0d b7 92 bd ce 4c 88 3d de 9e a0 3d
       -0.06033995 -0.071638204 0.06655274 0.078428015
000050 9e 74 cf bb f9 93 67 3d 8b 42 9f bd ce b8 94 bc
       -0.0063310405 0.056537602 -0.07776364 -0.018154528
000060 51 4b 8b bd f2 8d 40 3d a0 bd a9 bb 81 4e 32 bd
       -0.06801475 0.04701037 -0.0051800758 -0.0435319
000070 59 95 64 bd 4c c0 e8 3a 1d 33 84 bd 2d 51 84 bc
       -0.05580649 0.0017757504 -0.064550616 -0.016151989
000080 3a 69 41 bd 93 0a 66 3d 11 15 5f bd 42 f3 9c bd
       -0.047219492 0.056162428 -0.05446345 -0.07663585
000090 f8 95 07 bd 8c e2 9f 3d a1 2b 96 bd 06 61 a1 bd
       -0.033102006 0.07806882 -0.0733254 -0.07879834
0000a0 a8 fe 2f bd 60 26 6f 3b 6b 73 cf 3c b6 36 83 bd
       -0.04296747 0.003649138 0.02532359 -0.0640692
0000b0 45 98 b8 bb 0c 60 1a 3d 2d a2 b8 bc 2b 74 18 3d
       -0.0056333863 0.037689254 -0.022538269 0.03722016
0000c0 5f c4 f0 bc 6e a9 a8 3d 52 04 2f bd 3d 76 14 bd
       -0.029390512 0.08235441 -0.04272873 -0.036245573
0000d0 2a c2 8c bd 7f f2 a3 3d ca 54 e9 bc 1c e3 bf bc
       -0.06872971 0.08005237 -0.028482813 -0.023423724
0000e0 60 c2 9f bd e5 2f 0b 3d 16 9b 91 3c 81 55 d1 bc
       -0.07800746 0.033981223 0.017774146 -0.025553467
0000f0 b8 4d 8f bd ab e5 c7 3b 5c 3d 9a bd 8c 73 b2 3c
       -0.069972456 0.0061003766 -0.075312346 0.021783613
000100 89 c1 a1 bd f9 4d 58 3d 88 fa 30 3d 4a 51 6b 3d
       -0.07898242 0.052808736 0.043207675 0.05745057
000110 1a 4f 36 bc b6 e9 7e 3d 7a 3b 7e bd 82 b5 59 bd
       -0.011127258 0.062234603 -0.06206844 -0.053151615
000120 5f a5 7a 3d 5c 71 99 3d d5 3e 61 3d 00 ad 65 bd
       0.061192866 0.07492325 0.054991562 -0.05607319
000130 8c e4 3c 3d 5f 59 8b bd 3e de 9c bd 3d cd 40 bc
       0.046116397 -0.068041556 -0.07659577 -0.011767683
000140 ae 57 92 3d 89 47 aa 3d 89 6d 48 3d 64 32 a3 bd
       0.0714563 0.083144255 0.048932586 -0.079685956
000150 2b 6d 6b bd 0f 0f 06 3d 1f 1f 3e 3d a3 94 af 3d
       -0.057477158 0.032729205 0.0464164 0.08573272
000160 a1 1f 79 3c af 0e 2d 3d cb 62 01 bd 43 d2 67 bd
       0.015205295 0.04225033 -0.031588357 -0.056597006
000170 30 61 67 bd e0 8b 6c bd 94 59 ab bd 5f 55 65 3d
       -0.05648917 -0.057750583 -0.08366695 0.05598962
000180 46 25 90 bd 79 b9 4c bd af d9 6b bd 83 5e 51 3d
       -0.07038359 -0.049981568 -0.057580646 0.051115524
000190 8a 24 a7 3d 9b ff 4e 3a d3 a3 33 3c 19 5c 9b 3c
       0.08161266 0.00078963646 0.010964352 0.018964814
0001a0 ea 20 b4 3d 9b 53 43 bc 47 61 01 bd e1 a8 a3 3d
       0.0879534 -0.011921789 -0.03158691 0.079911955
0001b0 b7 b3 4f bd b7 b2 7d 3d ed 7a 25 3c a5 b7 29 bd
       -0.0507085 0.061938014 0.010100109 -0.041434903
0001c0 0a 1d 97 3d aa 63 47 bd 73 25 f9 3c 94 53 25 3d
       0.07378586 -0.04867903 0.030413365 0.04036291
0001d0 70 33 37 3d 92 b1 29 bd 8f a5 fc bb 7b de 59 bd
       0.04472679 -0.04142911 -0.007710166 -0.05319069
0001e0 9a 6e 9c 3c 2f 4f 91 bd b9 04 95 3d cc 7d 99 3c
       0.019095708 -0.07095181 0.072762914 0.018736742
0001f0 7d 4c 24 bd f6 8a 86 3c 40 16 88 bd 98 e9 f9 3a
       -0.040112007 0.016423684 -0.06644869 0.0019066809
000200 61 a4 18 3d 28 fa a6 3d a6 eb e2 39 8e f0 36 3d
       0.03726614 0.08153182 0.0004328165 0.044663005
000210 12 0b 2f bd 35 4a f7 bc bd ee 24 bd 98 06 01 bd
       -0.042735167 -0.030186752 -0.04026674 -0.03150043
000220 07 2f 5c 3d 87 ee 52 bd 98 db b2 bd 04 89 a6 bc
       0.053755786 -0.05149701 -0.087332904 -0.020329006
000230 c7 c9 07 bd 82 13 ae bd 76 08 7d 3d b0 68 08 bd
       -0.033151414 -0.084998146 0.061775647 -0.033302963
000240 f0 26 58 3d e9 ca 8e bd b7 7e c4 3c 99 cd 29 bd
       0.05277151 -0.06972296 0.023986204 -0.04145584
000250 11 5f f7 bc 29 76 3c bd af d6 61 bd 29 db 13 3d
       -0.030196698 -0.046011124 -0.05513638 0.03609768
000260 be 4a dd 3b 12 68 a0 bd 9e 66 b0 3d cc 19 86 3d
       0.0067532947 -0.0783235 0.08613323 0.06547889
000270 89 86 33 3d f9 78 96 bd 41 59 8c bd 81 99 2d 3d
       0.043829475 -0.073472925 -0.06852961 0.04238272
000280 a2 3c 8f bd b6 7c 71 bd 80 e3 5f bd fd ae 2c 3d
       -0.06993987 -0.058956824 -0.05466032 0.04215907
000290 b1 b5 ea 3a 4a 19 ac bd 21 d4 fd bc ad 02 92 bd
       0.0017906931 -0.08403261 -0.03098494 -0.071294166
0002a0 90 a1 dd 3c 95 aa 95 ba c6 1e 06 bd 96 74 4c bd
       0.027054578 -0.0011418635 -0.03274419 -0.049915873
0002b0 cb d5 e7 3c 66 b4 9c bd 3d 0d f8 3c fd 47 03 3d
       0.028300187 -0.07651596 0.03027975 0.032051075
0002c0 e6 80 97 bd 3f d5 07 bd ed 05 7c bc db 44 28 3c
       -0.07397632 -0.03316235 -0.015382272 0.010270323
0002d0 2b 92 d3 3b a6 8e a2 39 98 93 d5 bc 96 3d 98 bd
       0.0064566336 0.0003100533 -0.026071355 -0.074336216
0002e0 58 fe 03 3d 3c ea 23 3c 39 fa 95 bd 98 51 61 3d
       0.032224983 0.010004576 -0.07323117 0.055009454
0002f0 30 56 d1 3c 99 e6 6f bd 78 18 d5 bc b6 4c f6 bc
       0.025553793 -0.058569524 -0.026012644 -0.030065876
000300 be 3c f9 3c 7f 49 97 3c 5b 3f 47 bd 33 08 94 bd
       0.030424472 0.018467663 -0.048644405 -0.072281264
000310 e4 a2 9a 3d d1 65 89 bd 00 98 87 3d 24 58 53 bd
       0.075506 -0.06708873 0.066207886 -0.05159773
000320 c1 68 92 3d 4f 59 8c bc ae 5d 1a bc d2 47 25 3d
       0.071488865 -0.01713243 -0.009421749 0.040351696
000330 b4 fb b4 3d ce 7c 8f 3c ef 6b 65 3d 81 e5 b0 3b
       0.08837071 0.017515566 0.056011137 0.0053984527
000340 87 bf 97 3d cf 5d 8e 3c 42 05 9c 3d ee 10 ab bd
       0.07409578 0.017378716 0.0761819 -0.083528385
000350 18 71 4e 3d 4e 31 0e bd 27 45 0d 3d 11 6d 94 3c
       0.050400823 -0.03471499 0.034489777 0.018118413
000360 04 17 0d bb cd 6c 3e 3d 1b 24 55 bd 72 86 98 3d
       -0.002152861 0.04649048 -0.052036386 0.074475184
000370 ee 7a da 3c be e6 38 3d 24 52 a5 3d 70 ba 04 3d
       0.026669946 0.045141928 0.08072308 0.032404363
000380 7f 16 a7 3d 10 5b ab 3d ea 51 e3 bb 2c bb 9a 3c
       0.08158588 0.08366978 -0.006937255 0.018888079
000390 24 4a b2 3d d7 5a 39 bc 25 e5 48 bd 2d 2a 0a bd
       0.087055475 -0.011313162 -0.049046654 -0.03373163
0003a0 3f 8a 0e bc 20 d7 a1 bd f0 23 a9 bd ee 32 10 bd
       -0.008699953 -0.0790236 -0.08258808 -0.03520482
0003b0 b2 97 59 bd cb 97 8a 3d 0b dd 8d bd 1a 26 38 bb
       -0.053123184 0.067672335 -0.06926926 -0.0028098882
0003c0 5b d9 ad bd 20 1e 73 ba 1f 42 82 bd 8e 5b 60 3d
       -0.08488723 -0.00092742033 -0.06360268 0.054774813
0003d0 ec a1 1d bd d0 e1 08 3d 7d d0 86 3d fe 5e 95 3d
       -0.0384845 0.033418477 0.06582735 0.07293509
0003e0 2b ca 5f bd 81 7b 17 bc 54 24 db bc fd c5 8c bd
       -0.05463616 -0.009245754 -0.026750721 -0.06873701
0003f0 46 c0 38 3d 55 da 00 3d 54 27 a8 bd 51 e6 46 3c
       0.04510524 0.031458218 -0.08210626 0.012139873

conv_block.2.lin_r.weight f4 [128, 128]
000000 c2 d9 22 3d 9b f2 a0 3d 9d 9a b2 bb 56 de 23 3c
       0.03975845 0.07858773 -0.0054505602 0.0100017395
000010 f5 da 40 3d bb a1 96 bc ba a4 d5 bc 3e 09 25 3c
       0.047083814 -0.018387666 -0.026079524 0.010073004
000020 84 05 d0 3c 9a b1 80 bd 55 19 89 3b 46 89 98 3d
       0.025393255 -0.06283875 0.004183928 0.07448058
000030 5a 63 16 3d 40 bc 9a bc b3 d5 ae 3d f9 b2 9c bc
       0.036715843 -0.018888593 0.08536854 -0.01912831
000040 ba ce fd 3c e6 b4 7b bb 1f 0f 23 3d aa ba 89 3d
       0.030982364 -0.0038407384 0.039809342 0.067250565
000050 18 01 6e 3c 71 08 02 bd 69 3f 54 bd fc e8 af 3d
       0.014526628 -0.03174633 -0.051818285 0.0858936
000060 bd b7 97 bd 7a b6 a6 bd 9d 1c 95 3c ca 48 eb 3c
       -0.07408092 -0.081402734 0.01820212 0.028721232
000070 a7 d1 ad 3d 14 89 24 bd 44 9b ff 3c fc 31 7c bc
       0.08487254 -0.04016979 0.031201966 -0.015392777
000080 34 28 00 bc 69 e7 cc bc 73 4d 45 3d 56 32 35 bc
       -0.007822085 -0.025012689 0.048169564 -0.011059364
000090 4b 2b cc bc f9 a0 62 bc a8 19 f0 bb b8 46 06 bd
       -0.024922987 -0.013832324 -0.007327277 -0.032782286
0000a0 92 b7 a3 bd db 8b 7e bd 21 dc 8e 3d 17 56 1f bd
       -0.07993998 -0.062145095 0.0697558 -0.03890046
0000b0 03 8b dd bc 23 f0 25 bd 42 ca 81 3d 5f 85 52 bc
       -0.027043825 -0.040512215 0.06337406 -0.012849181
0000c0 93 36 16 3c ed 15 85 3d 72 c4 30 3b 12 73 7b 3d
       0.009168285 0.06498323 0.002697256 0.061389036
0000d0 96 4e 89 3d b0 bf 23 3d 44 cf 08 bd dd 4b 9f 3d
       0.06704442 0.03997773 -0.03340079 0.07778142
0000e0 eb fa 23 bc c6 4e 2f 3c f5 68 27 bc 13 da 09 bc
       -0.010008554 0.010699933 -0.010217895 -0.008413809
0000f0 54 da 92 bd 65 08 ba bc cc 63 72 3d 09 42 a4 3c
       -0.07170549 -0.022709081 0.059177205 0.02005102
000100 4d f4 0d bd fe ad 32 bd 69 61 8c 3d ce e6 40 bd
       -0.03465681 -0.043622963 0.06854517 -0.047095113
000110 28 5c 82 bd 46 9e 5d bd 86 c2 65 bd 0f 69 1b 3d
       -0.06365234 -0.05410602 -0.056093715 0.03794199
000120 20 70 45 bd 24 4f a5 bd 9f 86 9a 3d 98 db 3a bd
       -0.048202634 -0.080717355 0.07545208 -0.045619577
000130 ce 1d e4 3b 29 eb 9a 3d e2 8e 6e bd 50 11 8b bc
       0.006961561 0.075643845 -0.058241732 -0.016976029
000140 d6 81 24 bd 7c cd 30 bd 93 60 8b bd 3b 36 94 bd
       -0.040162884 -0.043164715 -0.068055294 -0.07236906
000150 85 12 9c 3d a3 9d 77 3d 86 8f 0d bd be 3c fc bb
       0.0762072 0.06045307 -0.034560703 -0.0076976707
000160 48 7a 57 bd 66 1d 2e 3d 85 31 a6 3d 61 98 61 bd
       -0.05260685 0.042508505 0.08114914 -0.05507696
000170 42 bc b2 3d 60 33 b6 bd 58 bc 88 3d 8e 3f 54 bd
       0.087273136 -0.08896518 0.06676549 -0.051818423
000180 18 f1 a7 bc e6 10 a7 3d eb b1 8d 39 ee f1 a1 3d
       -0.020500705 0.0815752 0.00027026175 0.079074726
000190 33 be 93 3d d9 8a 6d 3d 91 f2 36 3d 5d 2a 8b bc
       0.07214012 0.057993744 0.044664923 -0.016987974
0001a0 a8 0f 74 3d e7 06 63 3d 2c 34 b9 bc 0e a8 75 3d
       0.059585243 0.055426504 -0.022607885 0.059974723
0001b0 d7 81 8d bc 1e fd 6b 3d 9c ee c7 bc c2 52 50 3d
       -0.017273827 0.05761444 -0.02440577 0.050860174
0001c0 dd 53 49 bc f4 d3 4f 3c c8 be 8a bd cc 2b 02 3d
       -0.012288061 0.012684811 -0.0677467 0.03178005
0001d0 a8 f7 ad bd 39 48 16 3c 6e b1 f4 3c 2d 0d 86 3d
       -0.08494502 0.009172493 0.029869761 0.06545482
0001e0 57 c1 34 3d 0f ca a6 3d de 8a a3 3c dd ba 2d 3d
       0.044129696 0.08144008 0.019963678 0.042414535
0001f0 c9 51 98 3d b6 30 74 3d 94 68 80 3d ea 7e 70 3c
       0.07437474 0.059616767 0.06269947 0.014678696
000200 30 b8 c0 bc 3a 1b 7c 3b d7 93 0d 3d b1 ca 14 3c
       -0.023525327 0.0038468377 0.03456482 0.0090815285
000210 6d 2d 80 bd 29 f0 6e bd 00 e1 16 3a 71 a3 7c bd
       -0.06258664 -0.058334503 0.00057555735 -0.061679307
000220 3f 04 9f bd 9c a6 5b bd 78 90 95 bd a0 2f 62 3d
       -0.07764482 -0.053625688 -0.07302946 0.0552212
000230 5b 42 b1 3c c7 e5 8f bd c8 af 70 bd f9 a0 f5 bc
       0.021638086 -0.070262484 -0.058761388 -0.029983984
000240 22 bd aa bd 9b 62 81 bc 80 3f 9f bd 63 1e 6d bd
       -0.083368555 -0.015794089 -0.077757835 -0.057890307
000250 f9 b3 7c 3d 1e d9 89 bd d9 8d 4d bd 7f d8 bb bc
       0.061695073 -0.06730865 -0.050184105 -0.022930382
000260 a1 25 89 bd d0 e8 b3 3d 68 28 0f bd 6f 61 95 bd
       -0.0669663 0.0878464 -0.034950644 -0.072939746
000270 f2 c8 29 3d 3a 22 95 3d df 6f ed bb 9c 2b 81 bd
       0.041451402 0.07281919 -0.007246002 -0.06307146
000280 58 50 35 3d f8 87 5e 3c f8 b8 0c 3b e1 53 89 bd
       0.044266075 0.013582222 0.0021472555 -0.06705452
000290 d6 25 b1 bd eb dc 6d bd e7 b2 89 bd 92 d5 91 bd
       -0.08649795 -0.058072012 -0.06723576 -0.071208134
0002a0 e3 67 80 bd c7 3a 0d bd d0 a3 57 bd 06 13 86 3d
       -0.06269815 -0.034479883 -0.05264646 0.06546597
0002b0 71 ef 18 bc 11 2d cc bb d3 84 09 3d c8 51 9c bd
       -0.009334431 -0.0062309583 0.033573937 -0.07632786
0002c0 a8 1f a5 bd c8 9a 87 3d 85 80 ef 3c d1 ec 26 bd
       -0.080626786 0.06621319 0.029236088 -0.04075319
0002d0 1f d2 89 3d 80 df 26 3b 95 ee db bb de 60 2e 3d
       0.067295305 0.0025462806 -0.006711791 0.04257285
0002e0 61 0e 6d 3b a0 1b 56 3d 80 89 9f 3d 7c 30 87 bd
       0.00361719 0.05227244 0.07789898 -0.066010445
0002f0 33 0f 6c 3c 5a 97 98 3d e5 78 83 bd 70 64 c9 3c
       0.014407921 0.07450743 -0.06419543 0.024584025
000300 ab 4d 46 3d 27 5f ce bc 81 bd f0 bc aa f1 4a bd
       0.048413914 -0.025191857 -0.029387238 -0.049546875
000310 a2 cd cf bc 6d e2 53 bc bd 0f 4d 3d 66 08 90 3d
       -0.025366608 -0.012932402 0.050063837 0.07032852
000320 64 f5 00 bd 05 51 a5 3d 86 09 9c 3b 1a bd 9d bc
       -0.031484023 0.08072094 0.0047618775 -0.01925521
000330 90 ee 58 bd 98 81 94 ba 2c 33 71 3c 00 0f 93 bd
       -0.052961886 -0.0011330126 0.014721673 -0.071805954
000340 e1 91 6b 3d 97 a7 e6 bc 09 4f a2 3d 53 74 08 bd
       0.057512168 -0.028156085 0.07925231 -0.03331406
000350 c2 4d 8b bd 82 a1 b1 3b e9 fb 02 bd 77 6d 51 bd
       -0.068019405 0.0054208646 -0.03197852 -0.051129784
000360 25 36 a5 bd 15 37 9f bd e4 35 5e bd 15 87 17 3c
       -0.08066968 -0.07774178 -0.054250613 0.009248515
000370 8d a3 37 3c 83 b7 71 bd 89 39 a3 bd b8 68 0f 3d
       0.011208427 -0.0590129 -0.07969958 0.035011977
000380 e1 97 5c 3d 16 7a 31 3c 3c 47 49 bd 65 1e 4c bc
       0.05385578 0.01083233 -0.0491402 -0.0124584185
000390 ac 1f ad 3d 18 b1 b8 3c f3 22 08 bd 8e a5 9f 3c
       0.084533066 0.022545382 -0.033236455 0.019488122
0003a0 49 29 12 3d 63 3a ab bd a0 cb 15 3d d5 00 52 bd
       0.035683904 -0.08360746 0.036571145 -0.051270325
0003b0 95 16 a0 bd dc 45 a2 bc 7b 59 05 bc 5a 9d a2 3d
       -0.07816807 -0.019808702 -0.00813901 0.07940169
0003c0 51 81 38 bd 69 7d 89 3d c5 2d b4 3d cf 0b fb 3c
       -0.0450452 0.06713373 0.08797792 0.03064528
0003d0 ff 83 35 3d b8 62 4a bd 5e d3 b0 bd 4b 20 3e bd
       0.044315334 -0.04941055 -0.08634065 -0.046417516
0003e0 88 14 02 bd 49 ea b7 bc 28 8e 93 3d b1 27 4d bd
       -0.03175786 -0.022450583 0.072048485 -0.05008668
0003f0 f5 7d 06 3d d7 b7 b2 bc 89 b9 46 bd f4 17 0d 3d
       0.032834966 -0.021816177 -0.048516784 0.03444667
