models/hyperparameter_optimization/initial/Set3/train_lr0/input_train_lr0_1e-05/GNN.pth (torch, 994184 bytes, 18 tensors)

input_layer.weight f4 [128, 8]
0.27570745 0.3026812 -0.08282783 0.31739393 -0.07746481 0.070335716 -0.17212924 0.20763578
0.31210506 -0.2593767 0.30676392 0.051245067 0.26148605 0.047770698 0.18138097 -0.04991856
0.27882478 0.05688451 -0.16505283 0.07277515 -0.162895 -0.041462213 -0.14359865 0.23453705
-0.2790845 -0.16299176 -0.09983455 -0.21258192 0.03289815 -0.3491973 0.3308342 -0.30033237
0.27793345 0.053800497 -0.114800386 0.24311408 0.054566916 0.2849611 0.0607387 -0.111501254
0.09154664 -0.09587641 0.14879918 0.3384935 0.20405433 -0.15456383 0.22126716 0.063259974
0.18097927 -0.21549258 -0.34998548 -0.13659908 -0.27118352 0.289648 0.113700375 0.1464466
0.115807846 -0.0061504054 0.27615908 -0.2512045 0.021910112 -0.2413144 0.096964985 -0.12175752
0.10486044 -0.07365984 0.2939296 -0.20955177 -0.21085852 -0.21087126 0.3322362 0.11782206
0.34501 -0.29177922 -0.35068116 -0.27660736 -0.2378315 0.14273101 0.12503399 0.29377612
-0.18258394 -0.24102151 0.1882039 -0.14290786 0.21450178 -0.08389844 0.2204026 -0.27469966
-0.17842063 0.11520998 0.0746397 -0.09014153 0.21174872 0.23979676 -0.2563875 -0.18875091
0.32567528 -0.1193004 -0.12534046 -0.34209636 -0.2024695 0.08815039 -0.046666633 -0.25663945
0.0010875863 -0.24150577 -0.29995352 -0.19468863 -0.3094342 -0.2251209 0.36914095 0.06677738
0.114269845 -0.3297537 -0.2322046 -0.1176823 0.05591186 -0.31109917 -0.15233663 -0.2116613
-3.0390607e-05 -0.13155834 -0.024499752 -0.23957828 -0.24267733 -0.20626368 -0.121020414 -0.27905294
0.28954917 -0.07016763 0.3041389 0.118217275 -0.29938793 0.24558878 -0.09727838 -0.13552622
-0.29347423 -0.35148886 0.100638025 -0.07723157 0.13742238 -0.29014835 0.25413427 -0.25952718
-0.061049245 0.07589288 0.18188195 0.26838154 0.32242268 -0.2803403 0.08157773 -0.15207249
-0.03874408 -0.2646312 0.32193878 -0.25949067 0.18969454 0.12452841 0.13576189 -0.1911473
0.32948413 0.08005905 0.045530435 -0.3115706 0.14759047 -0.053040292 -0.16197139 0.30368346
0.078639425 -0.19561274 -0.17894714 -0.016884197 0.19648643 -0.090344846 -0.20172869 -0.12107184
-0.26413083 0.12325669 0.27404085 -0.3328494 0.080877975 0.18219502 0.06858398 -0.12590908
0.1856256 0.1888343 0.13254674 -0.062126897 -0.09362138 0.03824163 -0.062456656 -0.10535928
0.23454764 0.31051177 -0.03500085 -0.07915949 0.004995743 -0.02111005 0.07779049 0.099077545
-0.32111725 -0.13047454 0.29765207 0.15237466 -0.017584886 -0.21315937 -0.21630576 -0.3167014
-0.11524512 0.12291291 0.22528702 0.18904346 -0.3125214 -0.21261373 -0.055796612 0.3420097
0.042966276 -0.091559984 0.14622882 -0.13466196 -0.22883943 0.25818855 -0.16076136 -0.0708757
-0.35171643 0.24744666 0.26765466 0.1066611 -0.24652366 -0.34893593 -0.28714862 0.26364484
0.16866145 0.30691123 0.1851877 0.06734423 -0.003462237 -0.26887947 -0.3029147 -0.3306957
0.14293215 -0.17358339 -0.07115353 -0.20347182 -0.06442576 -0.24884321 -0.23101732 0.11727748
-0.105074786 0.21683474 -0.11342303 -0.2593552 -0.06238058 -0.17138408 -0.10816668 -0.33658126
00000000: 8729 8d3e 08f9 9a3e a3a1 a9bd 7581 a23e
00000010: dfa5 9ebd 2c0c 903d a642 30be 799e 543e
00000020: 3ccc 9f3e 06cd 84be 2910 9d3e 59e6 513d
00000030: 80e1 853e 35ab 433d efbb 393e 6777 4cbd
00000040: 1fc2 8e3e bbff 683d 9c03 29be 230b 953d
00000050: f2cd 26be 48d4 29bd 860b 13be 7b2a 703e
00000060: 2ae4 8ebe 50e7 26be 0e76 ccbd 13af 59be
00000070: 36c0 063d fdc9 b2be 1a63 a93e 2ac5 99be
00000080: 4b4d 8e3e e95d 5c3d 771c ebbd e6f2 783e
00000090: 8f81 5f3d 6ce6 913e 25c9 783d c55a e4bd
000000a0: ce7c bb3d da5a c4bd d05e 183e 054f ad3e
000000b0: 9ef3 503e fb45 1ebe dc93 623e 728e 813d
000000c0: a152 393e 16aa 5cbe 4c31 b3be a1e0 0bbe
000000d0: 91d8 8abe be4c 943e bedb e83d 19f6 153e
000000e0: aa2c ed3d 5789 c9bb b964 8d3e e09d 80be
000000f0: d67c b33c 1f1b 77be 9495 c63d 025c f9bd
00000100: 12c1 d63d f8da 96bd f17d 963e bd94 56be
00000110: 4ceb 57be a3ee 57be dd1a aa3e b14c f13d
00000120: 27a5 b03e 1664 95be 7b8c b3be 7b9f 8dbe
00000130: 1a8a 73be 1428 123e e908 003e d369 963e
00000140: 49f7 3abe 58ce 76be 86b8 403e 7056 12be
00000150: 5ba6 5b3e f2d2 abbd 38b1 613e 6fa5 8cbe
00000160: e6b3 36be 36f3 eb3d b3dc 983d 1f9c b8bd
00000170: a8d4 583e 488d 753e 3945 83be eb47 41be
00000180: e9be a63e c553 f4bd 4059 00be 4127 afbe
00000190: 2a54 4fbe 3188 b43d 8325 3fbd 3f66 83be
000001a0: 578d 8e3a 4a4d 77be 8293 99be 755c 47be
000001b0: 296e 9ebe 1886 66be 0b00 bd3e 94c2 883d
000001c0: 4f06 ea3d 7ad5 a8be 0bc7 6dbe 6b03 f1bd
000001d0: d603 653d 6448 9fbe 22fe 1bbe bdbd 58be
000001e0: 55ef feb7 3bb7 06be b4b3 c8bc 0254 75be
000001f0: 6880 78be c936 53be 8dd9 f7bd 07e0 8ebe
00000200: ca3f 943e 0cb4 8fbd 18b8 9b3e e61b f23d
00000210: 6049 99be a07b 7b3e e339 c7bd 63c7 0abe
00000220: 4142 96be 59f6 b3be 4f1b ce3d 962b 9ebd
00000230: 74b8 0c3e 538e 94be e31d 823e bfe0 84be
00000240: c60e 7abd ba6d 9b3d 433f 3a3e 4e69 893e
00000250: 9614 a53e c488 8fbe 3a12 a73d e4b8 1bbe
00000260: 1db2 1ebd be7d 87be 29d5 a43e f6db 84be
00000270: 493f 423e c008 ff3d 2a05 0b3e 1ebc 43be
00000280: 25b2 a83e 00f6 a33d 1f7e 3a3d 2f86 9fbe
00000290: f521 173e c740 59bd d4db 25be 667c 9b3e
000002a0: b50d a13d b54e 48be eb3d 37be ba50 8abc
000002b0: bd33 493e b806 b9bd f791 4ebe 83f4 f7bd
000002c0: 283c 87be 016e fc3d 154f 8c3e 3d6b aabe
000002d0: 5aa3 a53d 5591 3a3e c275 8c3d 4fee 00be
000002e0: a314 3e3e c75d 413e 55ba 073e c678 7ebd
000002f0: 91bc bfbd 41a3 1c3d 8dd2 7fbd 9bc6 d7bd
00000300: 422d 703e 66fb 9e3e 0d5d 0fbd 5f1e a2bd
00000310: 54b3 a33b fcee acbc 9f50 9f3d 2be9 ca3d
00000320: 7b69 a4be 1e9b 05be da65 983e 1a08 1c3e
00000330: 2e0e 90bc 7346 5abe 427f 5dbe b026 a2be
00000340: a205 ecbd c4b9 fb3d a4b1 663e 9c94 413e
00000350: ce02 a0be 6ab7 59be fd8a 64bd e51b af3e
00000360: 68fd 2f3d cd83 bbbd 02bd 153e d3e4 09be
00000370: e254 6abe 4a31 843e a09e 24be 4727 91bd
00000380: 2d14 b4be a862 7d3e 080a 893e 2371 da3d
00000390: b370 7cbe bba7 b2be 2505 93be 75fc 863e
000003a0: 96b5 2c3e 7823 9d3e d8a1 3d3e c6eb 893d
000003b0: b3e6 62bb 92aa 89be a317 9bbe f250 a9be
000003c0: ce5c 123e d8bf 31be f1b8 91bd eb5a 50be
000003d0: a7f1 83bd c1d0 7ebe ce8f 6cbe 2d2f f03d
000003e0: 7331 d7bd ed09 5e3e 554a e8bd 34ca 84be
000003f0: c782 7fbd 4f7f 2fbe 7e86 ddbd 6154 acbe

conv_block.0.lin_l.weight f4 [128, 128]
0.019275652 -0.040144872 0.038549643 0.00439082 -0.0072565293 0.060965896 0.057386644 0.008944437
-0.06731759 -0.08262031 -0.051762003 -0.085382886 0.08391004 -0.006838915 -0.07110195 -0.015260993
0.026967267 -0.023692522 -0.01660307 -0.04853652 0.07670461 0.018926818 0.07598666 0.0010676729
0.055880208 -0.0859633 0.020945065 -0.05671029 0.059668485 -0.05931681 -0.057976503 -0.06650091
-0.07545147 -0.07814962 -0.06748464 0.06996072 -0.0077524884 0.009305552 0.08286366 -0.048171338
-0.04187052 -0.08251726 0.06009383 -0.07926506 -0.059513047 -0.014618113 -0.0024818263 0.06023864
-0.023765571 -0.009040111 0.025606867 0.041618656 0.082167745 0.069455616 -0.07804805 0.045754462
0.057570778 -0.086797975 0.043475807 -0.051272247 0.048423395 0.024290416 -0.0056640115 -0.010404608
-0.05543114 -0.06366907 0.024063133 -0.012540564 -0.05797638 -0.0731565 0.028349228 0.043293748
0.07720737 -0.052081745 -0.05390694 -0.048773013 0.033446297 -0.099821344 -0.08155488 -0.012925904
-0.04447573 0.05308567 -0.036576346 0.0070143067 -0.0588318 0.0722077 0.06612542 0.021996642
0.0334687 -0.081261136 -0.064083084 -0.0035197614 -0.0035668937 0.031533238 0.029718395 -0.0047842483
0.024148101 -0.016509522 0.047581803 -0.061002366 0.03033811 0.077619836 -0.0008954556 0.04835912
-0.08262698 0.003952702 -0.026147505 -0.0012825087 -0.033283085 0.063566945 -0.037212517 0.026913276
0.048147157 0.08043668 0.06966314 -0.05212472 -0.010944484 0.057952445 0.023628695 0.04972295
0.029009191 -0.08395852 0.039992895 0.070915885 0.042321198 -0.033791423 -0.01970545 -0.049087193
0.02595527 0.043060273 -0.059591345 -0.0031571083 -0.0134838205 0.06109327 -0.015159701 -0.05283495
0.048238803 -0.039150096 -0.004191509 -0.023629028 0.03771339 -0.027768007 0.032626204 -0.05928826
-0.012258428 0.08323976 -0.045137987 -0.015136675 -0.00090407714 0.018166447 -0.035276774 0.036920164
-0.018282969 0.0068718186 0.08738726 0.07477524 -0.017509079 -0.042326376 -0.051425584 -0.003103925
0.0077806404 0.033906486 -0.028236672 0.04256778 -0.002524655 0.032475226 0.091508225 0.00375864
0.00065236486 -0.032528687 0.07473318 -0.083021626 -0.035587262 0.0132739255 0.048632994 -0.07928876
-0.0013910945 0.021740904 0.08694575 0.04475396 0.08978369 -0.01469029 -0.07680371 0.020911027
0.05977565 0.009166309 0.014022525 0.08849754 -0.08084727 0.021284148 0.034757826 0.022318013
-0.016929958 -0.027485834 0.047471218 0.024242405 0.029146243 0.0049852873 -0.05075444 0.031264506
-0.034866907 -0.05391135 -0.048079096 -0.06086855 -0.06958214 -0.008115236 -0.08933432 0.072555974
-0.069022074 0.036109623 0.034672685 -0.029463924 0.02303097 0.08234901 -0.08586636 0.008658132
0.058046848 0.0855514 0.027579477 0.07208991 -0.046397988 0.07536202 0.008326745 -0.06145535
0.0628313 0.07760928 -0.07754891 0.048009682 0.031018792 0.07618216 -0.080947615 0.048046537
0.08315935 -0.0250812 0.033140674 -0.075216696 0.030189138 -0.05785428 -0.083415635 0.041401792
0.046334743 0.05633564 0.06866794 -0.010057285 -0.07020336 0.061483424 0.07139856 -0.063059494
-0.07927313 -0.05449792 -0.04590584 0.06692628 -0.08758823 0.0332284 0.00471832 -0.05677741
00000000: f9e7 9d3c f36e 24bd 3be6 1d3d dee0 8f3b
00000010: 2ec8 edbb 60b7 793d 420e 6b3d b08b 123c
00000020: cedd 89bd d634 a9bd 6504 54bd 39dd aebd
00000030: 07d9 ab3d fa18 e0bb e69d 91bd 3e09 7abc
00000040: 75ea dc3c d216 c2bc 2903 88bc 3bce 46bd
00000050: 4e17 9d3d 6a0c 9b3c e59e 9b3d 28f1 8b3a
00000060: a5e2 643d 870d b0bd fc94 ab3c 0d49 68bd
00000070: f166 743d 2ff6 72bd c578 6dbd a131 88bd
00000080: 4d86 9abd e80c a0bd 6335 8abd 9147 8f3d
00000090: 9608 febb 5076 183c 6cb4 a93d 4f4f 45bd
000000a0: 6c80 2bbd cffe a8bd f324 763d b855 a2bd
000000b0: f4c3 73bd cf80 6fbc 23a6 22bb cbbc 763d
000000c0: 04b0 c2bc f91c 14bc 7ec5 d13c 5378 2a3d
000000d0: 9047 a83d bf3e 8e3d a8d7 9fbd 0869 3b3d
000000e0: 56cf 6b3d 23c3 b1bd b013 323d d902 52bd
000000f0: 9c57 463d b2fc c63c 2c99 b9bb 1778 2abc
00000100: c30b 63bd ee64 82bd 0c20 c53c f076 4dbc
00000110: a478 6dbd 13d3 95bd a43c e83c c954 313d
00000120: e61e 9e3d ab53 55bd 86cd 5cbd 36c6 47bd
00000130: fcfe 083d 226f ccbd 3f06 a7bd 2cc7 53bc
00000140: 2f2c 36bd 5c70 593d 14d1 15bd 45d8 e53b
00000150: 9df9 70bd a1e1 933d c46c 873d 4d32 b43c
00000160: 7a16 093d 3d6c a6bd fe3d 83bd ccab 66bb
00000170: 8cc2 69bb ff28 013d fe73 f33c 2fc5 9cbb
00000180: 3dd2 c53c fa3e 87bc 23e5 423d 9edd 79bd
00000190: a187 f83c 26f7 9e3d 02bd 6aba 3614 463d
000001a0: 5638 a9bd ab85 813b 4b33 d6bc da19 a8ba
000001b0: d853 08bd 632f 823d 276c 18bd 3b79 dc3c
000001c0: f435 453d fcbb a43d 8cab 8e3d bb80 55bd
000001d0: 7e50 33bc 8b5f 6d3d f790 c13c 4baa 4b3d
000001e0: afa4 ed3c 72f2 abbd 97cf 233d 593c 913d
000001f0: fe58 2d3d e068 0abd 536d a1bc a70f 49bd
00000200: 25a0 d43c f85f 303d 0e16 74bd 7de7 4ebb
00000210: 3eeb 5cbc f03c 7a3d 6560 78bc 7669 58bd
00000220: 0d96 453d da5b 20bd ed58 89bb aa91 c1bc
00000230: 5b79 1a3d bb79 e3bc 0ea3 053d 3fd8 72bd
00000240: 93d7 48bc 9b79 aa3d 9ce2 38bd d1ff 77bc
00000250: 97ff 6cba cdd1 943c 617e 10bd 9939 173d
00000260: 2ac6 95bc fe2c e13b 17f8 b23d c323 993d
00000270: 336f 8fbc 6c5e 2dbd a2a3 52bd 386b 4bbb
00000280: bef4 fe3b 87e1 0a3d 9850 e7bc 8d5b 2e3d
00000290: af74 25bb be04 053d aa68 bb3d 8453 763b
000002a0: 7703 2b3a cd3c 05bd b60d 993d 3e07 aabd
000002b0: f3c3 11bd e17a 593c 6433 473d 2562 a2bd
000002c0: 6355 b6ba fb19 b23c 9d10 b23d ee4f 373d
000002d0: 83e0 b73d 8baf 70bc 434b 9dbd 9a4d ab3c
000002e0: 50d7 743d 492e 163c bcbe 653c 333e b53d
000002f0: 4193 a5bd 185c ae3c 395e 0e3d 44d4 b63c
00000300: b2b0 8abc f929 e1bc 2e71 423d 0298 c63c
00000310: 1ac4 ee3c 9f5b a33b e3e3 4fbd 360f 003d
00000320: 9ad0 0ebd 26d2 5cbd 96ee 44bd 4d51 79bd
00000330: 1581 8ebd c4f5 04bc e9f4 b6bd 3a98 943d
00000340: 725b 8dbd afe7 133d f204 0e3d 545e f1bc
00000350: 72ab bc3c 99a6 a83d b4da afbd d6da 0d3c
00000360: 88c2 6d3d 9335 af3d 5bee e13c e0a3 933d
00000370: d10b 3ebd 6757 9a3d e66c 083c 9bb8 7bbd
00000380: b2ad 803d 9df1 9e3d f7d1 9ebd cda5 443d
00000390: 1f1b fe3c 6405 9c3d ddc7 a5bd 72cc 443d
000003a0: 734f aa3d 1777 cdbc 84be 073d 360b 9abd
000003b0: 364f f73c 9cf8 6cbd d1d5 aabd ed94 293d
000003c0: 80c9 3d3d 33c0 663d c7a1 8c3d 50c7 24bc
000003d0: c7c6 8fbd 0bd6 7b3d 6939 923d 5625 81bd
000003e0: f359 a2bd 3639 5fbd c307 3cbd a510 893d
000003f0: 7561 b3bd 811a 083d 239c 9a3b 6e8f 68bd

conv_block.0.lin_r.weight f4 [128, 128]
0.033415664 -0.08147964 0.01299069 0.08246509 0.086948775 0.0060327835 0.062084198 -0.043405883
-0.081687205 -0.06720681 -0.03611804 -0.082278155 0.054206606 0.0042583067 -0.040595002 -0.054497432
0.015798956 -0.044656087 -0.03554929 -0.011344491 -0.077002585 -0.0156128965 0.08680244 0.06913245
0.011451095 -0.07364171 0.025502278 -0.050102953 -0.074289046 -0.040338904 -0.06531789 0.047547042
-0.07443498 -0.010866488 0.010874348 -0.046548706 -0.04123296 0.03770963 -0.06741786 0.04810565
-0.031844348 -0.077485055 0.0009176277 -0.017366247 0.0027808796 -0.02564824 0.009717799 0.031345215
0.05873032 -0.042051595 0.03045988 0.070127465 0.002645956 -0.0054277997 0.05303538 -0.0802903
-0.062636435 0.0868249 0.013317921 -0.0087449085 -0.09324383 -0.06277574 0.0072159893 -0.016877476
0.037902694 -0.066868514 0.034113962 -0.049610123 -0.032213 0.065092675 0.034234386 -0.058671944
0.04320026 0.026420636 -0.023136698 -0.08312616 0.042663507 0.042799957 0.046623416 0.037778046
0.0034487944 -0.07063137 -0.06112073 -0.013426136 0.029692734 -0.0047425246 -0.044009816 0.037382275
0.016103735 -0.063672185 0.07021696 0.046665836 0.0704101 -0.024814913 0.042427775 0.015927235
0.07558364 0.06493527 0.004011094 0.047540918 -0.020972481 -0.03939704 0.024082223 0.047114905
0.044335615 0.04634618 0.081177086 0.05288836 0.047561735 -0.07572391 -0.06577907 0.029797181
0.061700255 0.021012273 0.021829043 0.03670954 -0.045956396 -0.0057486375 -0.054595016 -0.03652297
-0.027485332 -0.043266557 -0.0060808086 -0.080370605 0.056756258 -0.07835882 -0.033625156 -0.011743297
-0.06993832 -0.025602996 0.076930925 -0.08737823 0.06925794 -0.050861273 -0.07078637 0.038038462
0.023998408 0.061033472 0.038673565 0.054487236 0.03570099 -0.017476639 0.068029545 -0.06797619
-0.082120545 -0.040181544 -0.062330473 0.070825845 0.045624796 0.089382134 -0.04501346 0.082539015
-0.0734508 -0.0617488 0.08694622 0.0049429443 0.017641785 -0.03348765 0.031660575 -0.0148565285
0.071133025 0.049748525 -0.0020409115 -0.034182504 -0.055094928 0.036884636 0.016853213 -0.065489836
-0.031764288 -0.014999839 0.06933438 -0.059369344 0.0068669477 -0.05129768 0.08103199 -0.037198022
-0.02131532 0.06431076 0.07004417 0.046513952 0.08973799 -0.057820328 -0.03646623 0.08941393
0.08654078 0.085222095 -0.06742217 0.038785305 0.08636345 0.04968341 0.015004648 0.07783769
0.07819288 0.055881128 0.03327135 -0.074632384 -0.082101494 0.026852794 -0.068962224 -0.010620847
-0.028479766 0.0046094344 -0.0527861 0.058457505 0.08010556 -0.07189042 0.07612169 -0.06493625
-0.055672854 0.03671429 -0.02487488 -0.06724827 -0.042525697 0.09210883 -0.06032615 -0.027961943
-0.04804923 0.039857343 0.055623133 -0.048936103 0.0040506637 -0.0136168655 -0.06339831 0.0033345728
0.029125052 0.064770885 0.08387338 -0.043986272 -0.022124423 -0.022985753 -0.05504884 0.045549955
0.017013595 -0.01295179 0.06290692 -0.0034173382 0.047340855 0.044602938 -0.081300944 -0.008512377
0.04581994 -0.018983409 -0.009381465 0.047468614 -0.0010631648 -0.04351845 0.06868919 0.049510624
0.0075489553 -0.06361093 -0.06219693 -0.011237259 0.0039054966 0.07508963 -0.0015821622 0.0037171026
00000000: ddde 083d ccde a6bd e7d6 543c 75e3 a83d
00000010: 3312 b23d a8ae c53b 004c 7e3d 5eca 31bd
00000020: 9f4b a7bd b9a3 89bd 83f0 13bd 7381 a8bd
00000030: bf07 5e3d 4489 8b3b f246 26bd b338 5fbd
00000040: d06c 813c 4de9 36bd 229c 11bd 3ede 39bc
00000050: 88b3 9dbd 3ccd 7fbc 7ac5 b13d 5095 8d3d
00000060: 609d 3b3c 77d1 96bd 27ea d03c c138 4dbd
00000070: db24 98bd 683a 25bd 63c5 85bd b0c0 423d
00000080: 5e71 98bd 5b09 32bc 522a 323c dba9 3ebd
00000090: e4e3 28bd 6a75 1a3d 6012 8abd 6e0a 453d
000000a0: 386f 02bd 7cb0 9ebd f48c 703a a943 8ebc
000000b0: 6b3f 363b 421c d2bc 6737 1f3c d763 003d
000000c0: 348f 703d 4b3e 2cbd 0087 f93c fd9e 8f3d
000000d0: c667 2d3b afdb b1bb a03b 593d 3e6f a4bd
000000e0: 8847 80bd 41d1 b13d 6933 5a3c ce46 0fbc
000000f0: 9ff6 bebd 9190 80bd 1b74 ec3b a242 8abc
00000100: db3f 1b3d 5cf2 88bd 15bb 0b3d fc33 4bbd
00000110: c7f1 03bd 4f4f 853d 5b39 0c3d fe51 70bd
00000120: c1f2 303d 1770 d83c 2c89 bdbc 0c3e aabd
00000130: eebf 2e3d 024f 2f3d 32f8 3e3d 27bd 1a3d
00000140: 2b05 623b 2ea7 90bd bb59 7abd 4cf9 5bbc
00000150: 2d3e f33c 2e67 9bbb a343 34bd 281e 193d
00000160: fbeb 833c 9066 82bd e9cd 8f3d ad24 3f3d
00000170: 2c33 903d a548 cbbc bfc8 2d3d d579 823c
00000180: 98cb 9a3d c8fc 843d 7f6f 833b 44ba 423d
00000190: 7bce abbc ca5e 21bd 1548 c53c 8ffb 403d
000001a0: 4399 353d 7ed5 3d3d 2c40 a63d 77a1 583d
000001b0: 18d0 423d 2315 9bbd 2db7 86bd 3819 f43c
000001c0: 68b9 7c3d ee21 ac3c d2d2 b23c be5c 163d
000001d0: c63c 3cbd 115f bcbb 069f 5fbd 1c99 15bd
000001e0: eb28 e1bc 4638 31bd 8541 c7bb 5899 a4bd
000001f0: 4079 683d 977a a0bd 88ba 09bd f566 40bc
00000200: d23b 8fbd 60bd d1bc f68d 9d3d 5cf3 b2bd
00000210: 1bd7 8d3d e953 50bd 72f8 90bd 38ce 1b3d
00000220: 4f98 c43c 3cfe 793d 2c68 1e3d 022e 5f3d
00000230: 343b 123d 2b2b 8fbc 1353 8b3d 1a37 8bbd
00000240: d12e a8bd 6795 24bd 3d4e 7fbd 240d 913d
00000250: 11e1 3a3d fb0d b73d 0960 38bd 370a a93d
00000260: 5f6d 96bd 4fec 7cbd dc10 b23d 6cf8 a13b
00000270: 8185 903c 592a 09bd 85ae 013d cc68 73bc
00000280: 31ae 913d 1cc5 4b3d d0c0 05bb f402 0cbd
00000290: 38ab 61bd 5814 173d c00f 8a3c 891f 86bd
000002a0: 451b 02bd e2c1 75bc 2fff 8d3d 452d 73bd
000002b0: 2204 e13b 841d 52bd 1af4 a53d f45c 18bd
000002c0: 779d aebc 5cb5 833d 5173 8f3d 6a85 3e3d
000002d0: 8dc8 b73d 02d5 6cbd 9d5d 15bd a71e b73d
000002e0: 4b3c b13d ec88 ae3d a214 8abd 57dd 1e3d
000002f0: 52df b03d d580 4b3d 0ed6 753c 5e69 9f3d
00000300: 9723 a03d 9ce3 643d 8a47 083d ddd8 98bd
00000310: d424 a8bd 64fa db3c 113c 8dbd 1003 2ebc
00000320: 664e e9bc bd0a 973b 3d36 58bd 2371 6f3d
00000330: 620e a43d 493b 93bd b0e5 9b3d 4cfd 84bd
00000340: 3809 64bd b961 163d 68c6 cbbc 76b9 89bd
00000350: 6d2f 2ebd 8ea3 bc3d 8e18 77bd 7210 e5bc
00000360: 45cf 44bd 7441 233d 15d5 633d 3971 48bd
00000370: 6ebb 843b 4619 5fbc f9d6 81bd d988 5a3b
00000380: a997 ee3c 99a6 843d cfc5 ab3d f32a 34bd
00000390: 473e b5bc 9e4c bcbc e47a 61bd 9792 3a3d
000003a0: 1860 8b3c bf33 54bc 58d5 803d 6cf5 5fbb
000003b0: 7ce8 413d 92b1 363d 1c81 a6bd 7f77 0bbc
000003c0: b0ad 3b3d 1883 9bbc b7b4 19bc 736e 423d
000003d0: e459 8bba 6740 32bd ebac 8c3d a7cb 4a3d
000003e0: 3a5d f73b 7346 82bd 35c2 7ebd 7b1c 38bc
000003f0: 5cf3 7f3b 98c8 993d 8e60 cfba a29a 733b

conv_block.1.lin_l.weight f4 [128, 128]
-0.019568825 0.093936846 -0.051708907 -0.07447457 0.0013594409 0.055105995 0.04691179 0.04406681
0.063727275 0.0895933 -0.0597407 -0.07737275 0.068299375 0.0443337 0.044275645 0.03055459
0.014033669 0.004913689 -0.009352698 0.05532293 -0.068914235 0.0465211 -0.081149526 -0.023321781
0.06967404 -0.014093433 -0.08039191 -0.042662583 0.04638923 0.07986732 -0.068270035 -0.07989126
-0.025167601 0.057279468 0.056363724 0.046531174 -0.060559683 0.05450239 0.04923364 0.056819808
-0.00453644 -0.0126588615 0.06582764 -0.014380778 -0.030297097 0.013544029 0.005324981 0.07280099
0.012942133 -0.012777084 0.082312964 -0.062153555 0.020203462 0.02565032 0.082841374 -0.08753486
0.03647234 0.03101423 0.086622834 -0.059667867 -0.022866176 0.017058425 0.09462359 -0.0058181817
-0.0729859 0.020962367 0.03470911 0.06673525 -0.021194985 -0.06962239 -0.09747004 0.07939801
-0.045040805 -0.036368906 -0.033788435 -0.06639684 0.07779342 -0.01571929 0.0045926003 -0.048119016
0.08564209 -0.0709901 -0.031482313 -0.08511543 0.07673753 0.04145925 -0.022076828 0.06657606
0.046264797 0.033822935 0.017986828 0.082938135 -0.016744526 0.07234184 0.014054612 -0.0721307
-0.011996307 -0.09124827 0.015266466 -0.07534852 -0.0595874 0.036705095 0.052080512 -0.06971481
-0.078156956 0.06904164 0.06607286 0.035441983 -0.038917597 -0.058649354 0.0076024765 0.0079208305
-0.064811975 0.052070335 0.018666454 -0.06446736 0.08236571 -0.08890325 -0.034402512 0.067955464
0.08924956 0.042058237 -0.046873905 -0.028953629 -0.041069087 -0.033516265 0.08153424 0.03804369
-0.055115677 -0.102043875 -0.0042179995 0.016233169 -0.0653795 -0.06493676 0.07831728 0.06211231
0.057170555 -0.019956902 0.018700125 -0.046453018 -0.05708296 0.07757192 -0.01564006 -0.06206944
0.023161214 0.06408408 0.06541499 0.029895538 0.04153247 0.069092765 0.028686358 0.027053427
-0.087151 -0.035506487 0.027603844 -0.04173353 -0.048680507 0.048166227 0.046909135 -0.059995547
0.035753436 0.054810733 -0.044143505 0.043531034 0.041383725 0.043581653 -0.004847374 -0.0835767
0.012450215 -0.051180165 0.04947309 -0.029143352 -0.03297488 -0.014676199 0.075466484 -0.0006549464
-0.03234084 -0.05942966 -0.08674705 0.0059078173 -0.05299904 -0.059449878 -0.04023908 -0.07006266
-0.0475794 0.053746827 0.03132839 0.04288698 -0.05317324 -0.013375412 0.042188335 0.02435919
0.0068814876 7.8027384e-05 0.005695472 0.065491155 0.02832262 0.048470147 0.04582709 -0.0034220722
0.07863462 -0.045455355 0.034043867 -0.070103526 -0.0029624386 -0.07289911 0.027576247 -0.024680546
-0.075741254 0.03770208 -0.036271486 -0.08219509 0.044677954 -0.08080157 0.037787978 0.0022582086
-0.0802395 -0.07669178 0.04722535 0.0393465 0.07533491 0.064398795 0.08908603 0.06921153
-0.06396032 -0.06824801 0.04733583 0.07010394 -0.033303794 -0.08558297 0.084969714 0.07294526
0.023826612 0.000378921 -0.0393525 0.04610344 -0.07955722 -0.030253932 0.0027491385 0.07851098
-0.02649692 0.084445275 0.039547127 -0.08465324 -0.053021107 -0.08559148 -0.04257924 -0.06525624
-0.058599263 -0.05399524 0.057727203 0.06130818 0.035495125 0.044878833 0.02646257 -0.035295058
00000000: cd4e a0bc f661 c03d b8cc 53bd 2086 98bd
00000010: 442f b23a d3b6 613d 9426 403d 667f 343d
00000020: 7283 823d b17c b73d aab2 74bd 9b75 9ebd
00000030: 8be0 8b3d 4197 353d 615a 353d 9f4d fa3c
00000040: 79ed 653c 0303 a13b 0f3c 19bc 4c9a 623d
00000050: e822 8dbd e98c 3e3d b931 a6bd 520d bfbc
00000060: 43b1 8e3d 24e8 66bc 84a4 a4bd f6be 2ebd
00000070: a202 3e3d 7a91 a33d 29d1 8bbd 079e a3bd
00000080: 492c cebc e09d 6a3d a6dd 663d 7997 3e3d
00000090: 6e0d 78bd e63d 5f3d 37a9 493d e3bb 683d
000000a0: 6ba6 94bb 1d67 4fbc a4d0 863d 5b9d 6bbc
000000b0: 9e31 f8bc c6e7 5d3c 2e7d ae3b af18 953d
000000c0: 3d0b 543c f956 51bc b393 a83d ba94 7ebd
000000d0: bb81 a53c 9f20 d23c bda8 a93d 7a45 b3bd
000000e0: 0564 153d 8e11 fe3c 5067 b13d 4b66 74bd
000000f0: d951 bbbc 1cbe 8b3c 03ca c13d 72a6 bebb
00000100: a279 95bd 45b9 ab3c 242b 0e3d 7eac 883d
00000110: 1ba1 adbc 2f96 8ebd 5f9e c7bd 6d9b a23d
00000120: b57c 38bd 90f7 14bd be65 0abd 11fb 87bd
00000130: 2852 9f3d bec5 80bc 867d 963b 7218 45bd
00000140: 1f65 af3d 4263 91bd 99f3 00bd 0051 aebd
00000150: 9128 9d3d 2dd1 293d 77da b4bc 0859 883d
00000160: 2880 3d3d eb89 0a3d 1d59 933c 78db a93d
00000170: d12b 89bc f527 943d 5145 663c 43b9 93bd
00000180: 298c 44bc 5fe0 babd 3320 7a3c 5350 9abd
00000190: eb11 74bd 1558 163d 6052 553d a3c6 8ebd
000001a0: c110 a0bd b465 8d3d 3551 873d 9d2b 113d
000001b0: 0f68 1fbd 4e3a 70bd 321e f93b 5fc6 013c
000001c0: 24bc 84bd b447 553d 64ea 983c 7707 84bd
000001d0: 5aaf a83d e812 b6bd a6e9 0cbd 3c2c 8b3d
000001e0: 79c8 b63d 4245 2c3d dafe 3fbd 2930 edbc
000001f0: 0f38 28bd 5a48 09bd 6cfb a63d b3d3 1b3d
00000200: fac0 61bd 61fc d0bd 2537 8abb 6cfb 843c
00000210: b0e5 85bd 90fd 84bd cf64 a03d 7a69 7e3d
00000220: ac2b 6a3d a87c a3bc 0131 993c 8545 3ebd
00000230: d2cf 69bd 07de 9e3d 951f 80bc 863c 7ebd
00000240: 96bc bd3c 843e 833d 4bf8 853d 7de7 f43c
00000250: f41d 2a3d 8280 8d3d a7ff ea3c 269f dd3c
00000260: 397c b2bd 406f 11bd 7521 e23c c7f0 2abd
00000270: 3665 47bd f349 453d cb23 403d e4bd 75bd
00000280: 3272 123d 3881 603d d2cf 34bd 994d 323d
00000290: fb81 293d ad82 323d b8d6 9ebb 432a abbd
000002a0: fdfb 4b3c 4ba2 51bd 4ba4 4a3d 0abe eebc
000002b0: ab10 07bd 7174 70bc 2c8e 9a3d b5b0 2bba
000002c0: d477 04bd 846c 73bd 70a8 b1bd 5d96 c13b
000002d0: 8515 59bd b781 73bd bcd1 24bd 037d 8fbd
000002e0: 9ee2 42bd a225 5c3d 3352 003d 42aa 2f3d
000002f0: 2fcc 59bd 8b24 5bbc adcd 2c3d ed8c c73c
00000300: 1a7e e13b a2a2 a338 15a1 ba3b 3a20 863d
00000310: d704 e83c a288 463d 30b5 3b3d d844 60bb
00000320: 300b a13d 652f 3abd 9571 0b3d 7092 8fbd
00000330: 7925 42bb 214c 95bd 95e7 e13c db2e cabc
00000340: 3b1e 9bbd 7f6d 1a3d 6991 14bd e655 a8bd
00000350: 3b00 373d 4b7b a5bd 91c7 1a3d 74fe 133b
00000360: 9b54 a4bd 9410 9dbd 5e6f 413d cc29 213d
00000370: 3049 9a3d 84e3 833d bd72 b63d c6be 8d3d
00000380: a1fd 82bd 9dc5 8bbd 37e3 413d a892 8f3d
00000390: 8f69 08bd 2046 afbd 9a04 ae3d 5364 953d
000003a0: 0730 c33c eaa9 c639 1630 21bd f6d6 3c3d
000003b0: e5ee a2bd 18d7 f7bc e42a 343b 5dca a03d
000003c0: 1210 d9bc a5f1 ac3d 2bfc 213d ae5e adbd
000003d0: a92c 59bd 964a afbd 9267 2ebd 10a5 85bd
000003e0: c805 70bd 1d2a 5dbd 5c73 6c3d 491e 7b3d
000003f0: 5663 113d ded2 373d 08c8 d83c 8d91 10bd

conv_block.1.lin_r.weight f4 [128, 128]
-0.07474601 0.066180505 -0.035192482 0.06871041 -0.06466484 0.057082012 0.026206592 0.06522586
0.03099042 0.08874126 -0.013596794 0.056330353 -0.07130773 -0.057830673 -0.08032191 0.051842913
-0.08234878 -0.00615291 0.03276329 -0.03737607 -0.014657936 0.060273338 0.021837229 -0.05341678
0.0567076 0.023072787 -0.011916137 0.06619015 0.029023759 0.017850302 0.05710077 0.057841342
0.084211566 -0.045849755 -0.08257347 -0.021366755 0.00667394 0.0441404 0.00015253892 0.041728403
-0.004534051 0.014557967 0.05051442 -0.07623813 0.005634642 -0.020774662 0.04559433 0.014773482
-0.08440934 -0.06436826 -0.07931495 -0.007105652 0.07151311 0.039348662 -0.08216243 -0.059978828
0.031831946 0.05781315 -0.019784737 0.047197714 0.059296407 0.04134313 0.061462805 -0.021412808
-0.0054177144 -0.062769696 0.03422204 -0.024431864 0.025055986 -0.03541798 0.033173203 -0.010805001
0.016882751 -0.06682639 0.051408265 -0.040209915 0.0067558656 -0.06567333 0.06666879 -0.086063154
-0.061512165 0.019078864 -0.10209689 -0.03680301 0.019498486 -0.04360835 -0.058784988 0.04331544
-0.07683613 0.07384984 0.0025626172 -0.009904941 0.01111928 -0.013418058 0.0012276963 0.021127654
0.0791325 -0.07194311 -0.056007426 -0.011711914 -0.05820562 -0.074318014 -0.05905045 -0.034876823
0.041681137 -0.062729165 -0.06532779 0.01715532 -0.051072773 0.089072734 0.093384586 0.07448657
0.07895325 0.0018338053 -0.051536318 -0.03653889 -0.060267802 0.022331271 -0.035906326 -0.058892723
-0.0737021 -0.05925236 0.018757446 0.044803772 -0.061120905 0.018579299 0.0301193 0.08887856
-0.057508055 -0.08914508 0.07676761 -0.022063717 0.03146949 -0.075021945 -0.06783637 0.08757488
-0.0007585761 0.044465475 -0.062162843 0.08008966 -0.077629216 0.06474609 0.066014536 -0.01083787
0.0348959 -0.063389175 -0.023388999 0.075211585 0.05727987 -0.00020850185 0.052278537 0.007400879
-0.03708339 0.023958016 -0.07632533 -0.054025847 -0.025990054 -0.019808657 -0.045087308 0.06432079
-0.040086523 0.014017598 0.046571497 -0.08782647 0.06893429 -0.029516803 -0.08894799 0.0841461
0.0582352 -0.07377659 -0.027769295 -0.07712703 0.008894256 -0.060976524 -0.04604836 -0.0940756
-0.041022953 -0.0055960654 -0.06484005 -0.012019773 -0.035215456 0.029223615 -0.0042302376 -0.02012476
-0.06445358 -0.029313851 0.06507234 -0.0857709 0.040569093 0.0053568566 0.009864633 -0.021733172
-0.064576015 0.0020315608 0.008754553 -0.069589466 0.072964765 -0.005050138 0.044777285 0.04521195
0.04146543 -0.0038907547 -0.005709666 0.06507549 0.046256766 0.04864872 -0.083176285 0.056605678
0.004425829 0.018567666 0.022002371 -0.042025615 0.04162552 0.05139672 -0.013022228 -0.014302546
-0.08466055 -0.0026577462 0.08501224 0.07672503 0.0015313106 0.015947765 -0.047011394 -0.008552848
0.066719025 -0.041233525 0.008578863 0.08764216 0.03595037 -0.0062409984 0.06401202 0.027871646
0.033676077 0.05043102 0.0787994 0.04988458 -0.0002175956 -0.08742029 0.023758365 -0.029485319
-0.016981617 0.004304655 0.07714075 -0.07002007 0.008251633 -0.0016309398 -0.048044935 -0.08709179
0.06279176 -0.05183542 0.05249674 -0.013951638 0.006587109 -0.07778279 -0.054835383 -0.038462866
00000000: 7014 99bd a589 873d fe25 10bd 0bb8 8c3d
00000010: 006f 84bd d4ce 693d 35af d63c 2395 853d
00000020: 9fdf fd3c fabd b53d 16c5 5ebc a8ba 663d
00000030: ca09 92bd dbdf 6cbd d07f a4bd 3c59 543d
00000040: 7aa6 a8bd 5a9e c9bb cd32 063d a617 19bd
00000050: d727 70bc 2de1 763d fde3 b23c 8ecb 5abd
00000060: 3a46 683d 2403 bd3c e73b 43bc b48e 873d
00000070: 3cc3 ed3c cc3a 923c 7fe2 693d 0beb 6c3d
00000080: 1d77 ac3d f4cc 3bbd 481c a9bd 5509 afbc
00000090: 11b1 da3b 90cc 343d dbf2 1f39 67eb 2a3d
000000a0: 6092 94bb 8a84 6e3c 35e8 4e3d bd22 9cbd
000000b0: cea2 b83b a02f aabc 1fc1 3a3d 7a0c 723c
000000c0: cede acbd 82d3 83bd e06f a2bd 87d6 e8bb
000000d0: 7775 923d 102c 213d c744 a8bd 5cac 75bd
000000e0: 3762 023d 7bcd 6c3d 9a13 a2bc 6452 413d
000000f0: cae0 723d 6a57 293d 6cc0 7b3d ea69 afbc
00000100: 1587 b1bb 668d 80bd 692c 0c3d 5525 c8bc
00000110: 3642 cd3c 7212 11bd a0e0 073d 7507 31bc
00000120: b24d 8a3c 46dc 88bd 7991 523d 27b3 24bd
00000130: 4f60 dd3b bd7f 86bd a689 883d e141 b0bd
00000140: 2ef4 7bbd 474b 9c3c 2d18 d1bd c1be 16bd
00000150: 4abb 9f3c ab9e 32bd 87c8 70bd 886b 313d
00000160: 435c 9dbd 963e 973d 95f1 273b 5548 22bc
00000170: a42d 363c 6ad7 5bbc a7ea a03a e713 ad3c
00000180: 3810 a23d e956 93bd 0b68 65bd 54e3 3fbc
00000190: 0469 6ebd 0b34 98bd e2de 71bd 00db 0ebd
000001a0: d7b9 2a3d 2678 80bd 94ca 85bd 5089 8c3c
000001b0: af31 51bd c46b b63d 6b40 bf3d 6a8c 983d
000001c0: 3eb2 a13d 4c5c f03a bf17 53bd cea9 15bd
000001d0: 5fdb 76bd 12f0 b63c 8312 13bd 7f39 71bd
000001e0: 20f1 96bd 9ab2 72bd 37a9 993c 2984 373d
000001f0: ea59 7abd 9d33 983c c0bc f63c f605 b63d
00000200: 918d 6bbd b291 b6bd 5638 9d3d f8be b4bc
00000210: 27e6 003d 1ba5 99bd cbed 8abd 755a b33d
00000220: 2edb 46ba 6e21 363d 779e 7ebd 0c06 a43d
00000230: 11fc 9ebd 9999 843d a132 873d 5291 31bc
00000240: 01ef 0e3d 2fd2 81bd 499a bfbc 8808 9a3d
00000250: 4c9e 6a3d 4aa1 5ab9 0522 563d 1383 f23b
00000260: c1e4 17bd 9a43 c43c 7450 9cbd 354a 5dbd
00000270: 18e9 d4bc c445 a2bc 78ad 38bd 9eba 833d
00000280: c431 24bd 11aa 653c c1c1 3e3d 5dde b3bd
00000290: 6c2d 8d3d 39cd f1bc 5d2a b6bd ca54 ac3d
000002a0: 0888 6e3d 2e18 97bd 6f7c e3bc c7f4 9dbd
000002b0: 37b9 113c 85c2 79bd 359d 3cbd b5aa c0bd
000002c0: af07 28bd 335f b7bb dcca 84bd 95ee 44bc
000002d0: 153e 10bd 5d66 ef3c ce9d 8abb aedc a4bc
000002e0: 3d00 84bd 9a23 f0bc a644 853d a7a8 afbd
000002f0: c72b 263d 9288 af3b 459f 213c c409 b2bc
00000300: 6e40 84bd ef23 053b 426f 0f3c ec84 8ebd
00000310: 8d6e 953d a17b a5bb 6368 373d 2a30 393d
00000320: a8d7 293d 08fc 7ebb 2618 bbbb 4c46 853d
00000330: bc77 3d3d e143 473d 5458 aabd 5bdb 673d
00000340: 8b06 913b 381b 983c 513e b43c 0d23 2cbd
00000350: 857f 2a3d 5e85 523d 2f5b 55bc 3a55 6abc
00000360: 8362 adbd 952d 2ebb e61a ae3d 0322 9d3d
00000370: 42b6 c83a e3a4 823c 058f 40bd 3f21 0cbc
00000380: fca3 883d 7ce4 28bd 5c8e 0c3c bc7d b33d
00000390: b240 133d 4a81 ccbb bc18 833d 1453 e43c
000003a0: edef 093d c290 4e3d 9461 a13d c653 4c3d
000003b0: 602a 64b9 6909 b3bd e7a0 c23c 328b f1bc
000003c0: 081d 8bbc 100e 8d3b f8fb 9d3d af66 8fbd
000003d0: db31 073c 42c5 d5ba c4ca 44bd 2e5d b2bd
000003e0: f798 803d 6151 54bd d206 573d 6995 64bc
000003f0: add8 d73b 954c 9fbd 119b 60bd 3d8b 1dbd

conv_block.2.lin_l.weight f4 [128, 128]
0.07474826 -0.012522919 -0.027140245 -0.07667426 0.022770088 0.036255505 -0.07554107 -0.033784676
-0.03552943 0.05247073 -0.08021595 0.07229797 -0.021590937 0.0074752737 -0.032286156 0.080557555
-0.060354494 -0.07171985 0.066632606 0.07836824 -0.0063936897 0.056683864 -0.076999046 -0.018220985
-0.06815002 0.046920963 -0.005235924 -0.043557417 -0.061282177 0.0016703102 -0.06466112 -0.016151989
-0.047137216 0.056089602 -0.055293277 -0.076551326 -0.033213705 0.078006975 -0.07334278 -0.078881286
-0.04308543 0.0034998602 0.025198366 -0.0593933 -0.0056794314 0.037631914 -0.022672538 0.037263844
-0.029336337 0.08235441 -0.042838924 -0.040052205 -0.06879943 0.0760376 -0.02856455 -0.023467846
-0.07813811 0.033940546 0.01770544 -0.025593102 -0.070422456 0.0060178214 -0.07547622 0.022442266
-0.07911922 0.052721854 0.04314995 0.05745057 -0.01399949 0.06189529 -0.06206844 -0.05325518
0.06105508 0.07496511 0.060988653 -0.056199107 0.045998033 -0.06788593 -0.076643385 -0.0118601555
0.07242224 0.083144255 0.04884027 -0.08493285 -0.047573626 0.032683585 0.046308983 0.08562932
0.013937591 0.042200167 -0.0316905 -0.052006733 -0.056576766 -0.057856094 -0.08366695 0.05587583
-0.07047703 -0.049981568 -0.057657544 0.051082358 0.08152489 0.0007410599 0.012083681 0.019456033
0.08786335 -0.011949093 -0.03158691 0.07704473 -0.050751504 0.061844636 0.009953308 -0.041494817
0.07378586 -0.04873081 0.030315297 0.04036291 0.04462478 -0.04153673 -0.008107288 -0.053290304
0.018990334 -0.07094482 0.07197116 0.020237504 -0.040112007 0.016367182 -0.06653156 0.0013849249
0.03726614 0.08153182 0.0004328165 0.044663005 -0.042735167 -0.030186752 -0.04026674 -0.03150043
0.053755786 -0.05149701 -0.087332904 -0.020329006 -0.033151414 -0.084998146 0.061775647 -0.033302963
0.05277151 -0.06972296 0.023986204 -0.04145584 -0.030196698 -0.046011124 -0.05513638 0.03609768
0.0067532947 -0.0783235 0.08613323 0.06547889 0.043829475 -0.073472925 -0.06852961 0.04238272
-0.06993987 -0.058956824 -0.05466032 0.04215907 0.0017906931 -0.08403261 -0.03098494 -0.071294166
0.027054578 -0.0011418635 -0.03274419 -0.049915873 0.028300187 -0.07651596 0.03027975 0.032051075
-0.07397632 -0.03316235 -0.015382272 0.010270323 0.0064566336 0.0003100533 -0.026071355 -0.074336216
0.032224983 0.010004576 -0.07323117 0.055009454 0.025553793 -0.058569524 -0.026012644 -0.030065876
0.030424472 0.018467663 -0.048644405 -0.072281264 0.075506 -0.06708873 0.066207886 -0.05159773
0.071488865 -0.01713243 -0.009421749 0.040351696 0.08837071 0.017515566 0.056011137 0.0053984527
0.07409578 0.017378716 0.0761819 -0.083528385 0.050400823 -0.03471499 0.034489777 0.018118413
-0.002152861 0.04649048 -0.052036386 0.074475184 0.026669946 0.045141928 0.08072308 0.032404363
0.08158588 0.08366978 -0.006937255 0.018888079 0.087055475 -0.011313162 -0.049046654 -0.03373163
-0.008699953 -0.0790236 -0.08258808 -0.03520482 -0.053123184 0.067672335 -0.06926926 -0.0028098882
-0.08488723 -0.00092742033 -0.06360268 0.054774813 -0.0384845 0.033418477 0.06582735 0.07293509
-0.05463616 -0.009245754 -0.026750721 -0.06873701 0.04510524 0.031458218 -0.08210626 0.012139873
00000000: 9e15 993d ee2c 4dbc 3855 debc 6507 9dbd
00000010: 5688 ba3c a780 143d 47b5 9abd cd61 0abd
00000020: 4f87 11bd 8ceb 563d 4348 a4bd f510 943d
00000030: 7adf b0bc 24f3 f43b 7d3e 04bd 5cfb a43d
00000040: 4636 77bd dbe1 92bd ad76 883d 877f a03d
00000050: 2882 d1bb 572d 683d adb1 9dbd 2d44 95bc
00000060: 3d92 8bbd 3230 403d 1d92 abbb 4369 32bd
00000070: 0503 7bbd 4fee da3a 0d6d 84bd 2d51 84bc
00000080: f412 41bd 36be 653d 347b 62bd f1c6 9cbd
00000090: 180b 08bd 1fc2 9f3d bd34 96bd 838c a1bd
000000a0: 597a 30bd e95d 653b ce6c ce3c 6446 73bd
000000b0: 861a babb ec23 1a3d c2bb b9bc f9a1 183d
000000c0: c252 f0bc 6ea9 a83d de77 2fbd c80d 24bd
000000d0: b7e6 8cbd 9ab9 9b3d 3400 eabc a43f c0bc
000000e0: e006 a0bd 3e05 0b3d 000b 913c a0a8 d1bc
000000f0: a639 90bd 2531 c53b 4793 9abd d8d8 b73c
00000100: 4209 a2bd dff2 573d 01be 303d 4a51 6b3d
00000110: 1e5e 65bc ea85 7d3d 7a3b 7ebd 1b22 5abd
00000120: e414 7a3d 4f87 993d 3dcf 793d 0931 66bd
00000130: 6f68 3c3d c707 8bbd 35f7 9cbd 1951 42bc
00000140: 1d52 943d 8947 aa3d bc0c 483d 46f1 adbd
00000150: 90dc 42bd 39df 053d 7dae 3d3d 6d5e af3d
00000160: 7e5a 643c 15da 2c3d e6cd 01bd 0305 55bd
00000170: 0abd 67bd 83fa 6cbd 9459 abbd 0ede 643d
00000180: 4356 90bd 79b9 4cbd 512a 6cbd bc3b 513d
00000190: 86f6 a63d b043 423a a2fa 453c 4262 9f3c
000001a0: b3f1 b33d 21c6 43bc 4761 01bd a1c9 9d3d
000001b0: cfe0 4fbd cd50 7d3d 3313 233c 78f6 29bd
000001c0: 0a1d 973d f599 47bd c957 f83c 9453 253d
000001d0: 79c8 363d 6b22 2abd 6ed4 04bc ef46 5abd
000001e0: 9e91 9b3c 854b 91bd 9e65 933d 1fc9 a53c
000001f0: 7d4c 24bd 7814 863c b341 88bd 5e86 b53a
00000200: 61a4 183d 28fa a63d a6eb e239 8ef0 363d
00000210: 120b 2fbd 354a f7bc bdee 24bd 9806 01bd
00000220: 072f 5c3d 87ee 52bd 98db b2bd 0489 a6bc
00000230: c7c9 07bd 8213 aebd 7608 7d3d b068 08bd
00000240: f026 583d e9ca 8ebd b77e c43c 99cd 29bd
00000250: 115f f7bc 2976 3cbd afd6 61bd 29db 133d
00000260: be4a dd3b 1268 a0bd 9e66 b03d cc19 863d
00000270: 8986 333d f978 96bd 4159 8cbd 8199 2d3d
00000280: a23c 8fbd b67c 71bd 80e3 5fbd fdae 2c3d
00000290: b1b5 ea3a 4a19 acbd 21d4 fdbc ad02 92bd
000002a0: 90a1 dd3c 95aa 95ba c61e 06bd 9674 4cbd
000002b0: cbd5 e73c 66b4 9cbd 3d0d f83c fd47 033d
000002c0: e680 97bd 3fd5 07bd ed05 7cbc db44 283c
000002d0: 2b92 d33b a68e a239 9893 d5bc 963d 98bd
000002e0: 58fe 033d 3cea 233c 39fa 95bd 9851 613d
000002f0: 3056 d13c 99e6 6fbd 7818 d5bc b64c f6bc
00000300: be3c f93c 7f49 973c 5b3f 47bd 3308 94bd
00000310: e4a2 9a3d d165 89bd 0098 873d 2458 53bd
00000320: c168 923d 4f59 8cbc ae5d 1abc d247 253d
00000330: b4fb b43d ce7c 8f3c ef6b 653d 81e5 b03b
00000340: 87bf 973d cf5d 8e3c 4205 9c3d ee10 abbd
00000350: 1871 4e3d 4e31 0ebd 2745 0d3d 116d 943c
00000360: 0417 0dbb cd6c 3e3d 1b24 55bd 7286 983d
00000370: ee7a da3c bee6 383d 2452 a53d 70ba 043d
00000380: 7f16 a73d 105b ab3d ea51 e3bb 2cbb 9a3c
00000390: 244a b23d d75a 39bc 25e5 48bd 2d2a 0abd
000003a0: 3f8a 0ebc 20d7 a1bd f023 a9bd ee32 10bd
000003b0: b297 59bd cb97 8a3d 0bdd 8dbd 1a26 38bb
000003c0: 5bd9 adbd 201e 73ba 1f42 82bd 8e5b 603d
000003d0: eca1 1dbd d0e1 083d 7dd0 863d fe5e 953d
000003e0: 2bca 5fbd 817b 17bc 5424 dbbc fdc5 8cbd
000003f0: 46c0 383d 55da 003d 5427 a8bd 51e6 463c

conv_block.2.lin_r.weight f4 [128, 128]
0.039708793 0.07871638 -0.0054857954 0.007896302 0.047083814 -0.018465403 -0.026125915 0.0099610165
0.025501955 -0.06283875 0.004183928 0.0739598 0.036665753 -0.019613622 0.085262194 -0.020769058
0.030931687 -0.0039458675 0.039745927 0.06805274 0.014547988 -0.0319398 -0.051818285 0.08577286
-0.07417621 -0.081528574 0.01808327 0.027085232 0.08300868 -0.040200613 0.03109526 -0.015392777
-0.007931129 -0.025058169 0.048107833 -0.011059364 -0.024994731 -0.013923634 -0.0073871072 -0.032884732
-0.08000621 -0.062175486 0.06962874 -0.038993187 -0.027454356 -0.04055603 0.06322707 -0.01464522
0.009092597 0.06518647 0.002578509 0.060479823 0.06707732 0.039935045 -0.03348814 0.07768393
-0.010018731 0.010769085 -0.010240086 -0.008706381 -0.07218433 -0.022827 0.05537418 0.023746049
-0.034739997 -0.043711666 0.07282396 -0.04853404 -0.0649482 -0.05408374 -0.056093715 0.03783095
-0.048288144 -0.080717355 0.07532708 -0.04572035 0.0064928113 0.07558303 -0.058372613 -0.017106382
-0.0412194 -0.043164715 -0.068085335 -0.07303696 0.07616823 0.060412407 -0.034672502 -0.0077399374
-0.05267479 0.042538952 0.08104378 -0.0550937 0.08726912 -0.0892878 0.06676549 -0.05189544
-0.020634862 0.081537835 0.00016900872 0.079074726 0.072021276 0.05790045 0.04454486 -0.017013328
0.05949795 0.05539945 -0.022607885 0.05991557 -0.017321698 0.05752277 -0.024544394 0.050758615
-0.012288061 0.012626883 -0.068166554 0.03178005 -0.08103348 0.0092027355 0.029752864 0.06528612
0.0440032 0.08133594 0.019916939 0.042379387 0.07437474 0.05952228 0.061263382 0.013658838
-0.023525327 0.0038468377 0.03456482 0.0090815285 -0.06258664 -0.058334503 0.00057555735 -0.061679307
-0.07764482 -0.053625688 -0.07302946 0.0552212 0.021638086 -0.070262484 -0.058761388 -0.029983984
-0.083368555 -0.015794089 -0.077757835 -0.057890307 0.061695073 -0.06730865 -0.050184105 -0.022930382
-0.0669663 0.0878464 -0.034950644 -0.072939746 0.041451402 0.07281919 -0.007246002 -0.06307146
0.044266075 0.013582222 0.0021472555 -0.06705452 -0.08649795 -0.058072012 -0.06723576 -0.071208134
-0.06269815 -0.034479883 -0.05264646 0.06546597 -0.009334431 -0.0062309583 0.033573937 -0.07632786
-0.080626786 0.06621319 0.029236088 -0.04075319 0.067295305 0.0025462806 -0.006711791 0.04257285
0.00361719 0.05227244 0.07789898 -0.066010445 0.014407921 0.07450743 -0.06419543 0.024584025
0.048413914 -0.025191857 -0.029387238 -0.049546875 -0.025366608 -0.012932402 0.050063837 0.07032852
-0.031484023 0.08072094 0.0047618775 -0.01925521 -0.052961886 -0.0011330126 0.014721673 -0.071805954
0.057512168 -0.028156085 0.07925231 -0.03331406 -0.068019405 0.0054208646 -0.03197852 -0.051129784
-0.08066968 -0.07774178 -0.054250613 0.009248515 0.011208427 -0.0590129 -0.07969958 0.035011977
0.05385578 0.01083233 -0.0491402 -0.0124584185 0.084533066 0.022545382 -0.033236455 0.019488122
0.035683904 -0.08360746 0.036571145 -0.051270325 -0.07816807 -0.019808702 -0.00813901 0.07940169
-0.0450452 0.06713373 0.08797792 0.03064528 0.044315334 -0.04941055 -0.08634065 -0.046417516
-0.03175786 -0.022450583 0.072048485 -0.05008668 0.032834966 -0.021816177 -0.048516784 0.03444667
00000000: b0a5 223d 0e36 a13d 30c2 b3bb 7e5f 013c
00000010: f5da 403d c244 97bc 0406 d6bc 8833 233c
00000020: 7ae9 d03c 9ab1 80bd 5519 893b 3c78 973d
00000030: d42e 163d bfac a0bc f29d ae3d df23 aabc
00000040: 7364 fd3c 564c 81bb a0cc 223d 3c5f 8b3d
00000050: af5a 6e3c 4fd3 02bd 693f 54bd aea9 af3d
00000060: b2e9 97bd 74f8 a6bd 5e23 943c d9e1 dd3c
00000070: 7400 aa3d 66a9 24bd 7dbb fe3c fc31 7cbc
00000080: 91f1 01bc ca46 cdbc b80c 453d 5632 35bc
00000090: c0c1 ccbc f41f 64bc 8c0f f2bb 24b2 06bd
000000a0: 4cda a3bd b9ab 7ebd 8399 8e3d 52b7 1fbd
000000b0: f5e7 e0bc 141e 26bd 327d 813d 81f2 6fbc
000000c0: 1ef9 143c 7c80 853d 34fc 283b b1b9 773d
000000d0: d55f 893d ee92 233d dc2a 09bd c118 9f3d
000000e0: 9a25 24bc d170 303c 09c6 27bc 35a5 0ebc
000000f0: 61d5 93bd b0ff babc 09d0 623d 1387 c23c
00000100: 874b 0ebd 010b 33bd ba24 953d a1cb 46bd
00000110: 9003 85bd e986 5dbd 86c2 65bd a0f4 1a3d
00000120: cac9 45bd 244f a5bd 1645 9a3d 4345 3bbd
00000130: a6c1 d43b 47cb 9a3d 1f18 6fbd af22 8cbc
00000140: acd5 28bd 7ccd 30bd 5370 8bbd 6794 95bd
00000150: 17fe 9b3d 0073 773d c104 0ebd 4d9f fdbb
00000160: 85c1 57bd 533d 2e3d 48fa a53d eea9 61bd
00000170: 27ba b23d 86dc b6bd 58bc 883d 5090 54bd
00000180: 710a a9bc 4ffd a63d ef37 3139 eef1 a13d
00000190: e47f 933d 0629 6d3d ac74 363d 895f 8bbc
000001a0: 1fb4 733d 89ea 623d 2c34 b9bc 076a 753d
000001b0: 3ce6 8dbc ff9c 6b3d 5311 c9bc 44e8 4f3d
000001c0: dd53 49bc fce0 4e3c e89a 8bbd cc2b 023d
000001d0: e2f4 a5bd 12c7 163c 47bc f33c bbb4 853d
000001e0: b33c 343d 7593 a63d d928 a33c 0296 2d3d
000001f0: c951 983d a2cd 733d 50ef 7a3d 52c9 5f3c
00000200: 30b8 c0bc 3a1b 7c3b d793 0d3d b1ca 143c
00000210: 6d2d 80bd 29f0 6ebd 00e1 163a 71a3 7cbd
00000220: 3f04 9fbd 9ca6 5bbd 7890 95bd a02f 623d
00000230: 5b42 b13c c7e5 8fbd c8af 70bd f9a0 f5bc
00000240: 22bd aabd 9b62 81bc 803f 9fbd 631e 6dbd
00000250: f9b3 7c3d 1ed9 89bd d98d 4dbd 7fd8 bbbc
00000260: a125 89bd d0e8 b33d 6828 0fbd 6f61 95bd
00000270: f2c8 293d 3a22 953d df6f edbb 9c2b 81bd
00000280: 5850 353d f887 5e3c f8b8 0c3b e153 89bd
00000290: d625 b1bd ebdc 6dbd e7b2 89bd 92d5 91bd
000002a0: e367 80bd c73a 0dbd d0a3 57bd 0613 863d
000002b0: 71ef 18bc 112d ccbb d384 093d c851 9cbd
000002c0: a81f a5bd c89a 873d 8580 ef3c d1ec 26bd
000002d0: 1fd2 893d 80df 263b 95ee dbbb de60 2e3d
000002e0: 610e 6d3b a01b 563d 8089 9f3d 7c30 87bd
000002f0: 330f 6c3c 5a97 983d e578 83bd 7064 c93c
00000300: ab4d 463d 275f cebc 81bd f0bc aaf1 4abd
00000310: a2cd cfbc 6de2 53bc bd0f 4d3d 6608 903d
00000320: 64f5 00bd 0551 a53d 8609 9c3b 1abd 9dbc
00000330: 90ee 58bd 9881 94ba 2c33 713c 000f 93bd
00000340: e191 6b3d 97a7 e6bc 094f a23d 5374 08bd
00000350: c24d 8bbd 82a1 b13b e9fb 02bd 776d 51bd
00000360: 2536 a5bd 1537 9fbd e435 5ebd 1587 173c
00000370: 8da3 373c 83b7 71bd 8939 a3bd b868 0f3d
00000380: e197 5c3d 167a 313c 3c47 49bd 651e 4cbc
00000390: ac1f ad3d 18b1 b83c f322 08bd 8ea5 9f3c
000003a0: 4929 123d 633a abbd a0cb 153d d500 52bd
000003b0: 9516 a0bd dc45 a2bc 7b59 05bc 5a9d a23d
000003c0: 5181 38bd 697d 893d c52d b43d cf0b fb3c
000003d0: ff83 353d b862 4abd 5ed3 b0bd 4b20 3ebd
000003e0: 8814 02bd 49ea b7bc 288e 933d b127 4dbd
000003f0: f57d 063d d7b7 b2bc 89b9 46bd f417 0d3d
