models/test_training/batch_size/augment/BatchSize12/GNN.pth (torch, 993672 bytes, 18 tensors)

input_layer.weight f4 [128, 7]
0	0x3da1b44a	0.078957155
1	0xbea6232b	-0.32448706
2	0xba00d963	-0.00049152056
3	0x3e5c8fcf	0.21539234
4	0xbb80239a	-0.003910494
5	0xbe692c4b	-0.22770803
6	0x3e73e4fb	0.23817818
7	0x3e00a653	0.12563448
8	0x3e47d60b	0.19515245
9	0xbe82df90	-0.2556119
10	0x3e167c37	0.14695822
11	0xbe842fda	-0.25817758
12	0x3ec3329d	0.38124552
13	0xbe23fca5	-0.16014345
14	0x3e3222b4	0.1739605
15	0xbbeb758f	-0.007185645
16	0xbaafb99b	-0.0013406755
17	0xbd6d6a57	-0.05796274
18	0x3e17ee70	0.1483705
19	0xbe214e39	-0.15752496
20	0xbeb667e7	-0.35626146
21	0xbe14b345	-0.14521511
22	0x3e87a8dd	0.2649602
23	0xbdcbca1b	-0.09950658
24	0x3d3a9be2	0.045558818
25	0xbe0f18e8	-0.13974345
26	0x3e9697ee	0.29412788
27	0xba6e1241	-0.00090816995
28	0x3e0a04ac	0.13478345
29	0xbe45d679	-0.19320096
30	0xbe9e2112	-0.30884606
31	0xbb6ee084	-0.003644974
32	0xbe630eb5	-0.22173579
33	0x3e7bb948	0.24582398
34	0xbeb9f747	-0.3632147
35	0x3dbee2b9	0.09320588
36	0x3eafafa2	0.34313685
37	0x3e254fdc	0.16143745
38	0x3db6d3b1	0.08927096
39	0xbeba3148	-0.36365724
40	0x3ea640bd	0.32471266
41	0xbd84672b	-0.0646499
42	0xbeb4d31e	-0.3531732
43	0x3ec26908	0.37970757
44	0xbe1d7f26	-0.15380535
45	0xbcdb0e05	-0.026740083
46	0x3ea622d8	0.3244846
47	0xbe86258d	-0.26200524
48	0xbe88e973	-0.26740608
49	0x3c8500f6	0.01623581
50	0xbd4f3995	-0.050592024
51	0xbbb399cb	-0.00548098
52	0xbea24dee	-0.3170008
53	0xbb49386b	-0.0030703794
54	0xbe2c234a	-0.16810337
55	0xbe3e4528	-0.18581069
56	0xbeb1312a	-0.34607822
57	0x3e55e473	0.20887928
58	0x3d396dd1	0.045270745
59	0xbea39bbb	-0.3195475
60	0x3e923be7	0.28561327
61	0x3cf4eb11	0.029897245
62	0x3c99ecd9	0.018789696
63	0xbe633e21	-0.22191669
64	0x3c7a3879	0.015272253
65	0x3ed15556	0.4088542
66	0x3e9acd6e	0.30234855
67	0xbe96b9ab	-0.29438528
68	0x3ebb1041	0.36535838
69	0x3e0fe37c	0.14051622
70	0x3db6ea71	0.08931435
71	0x3e3c22fe	0.18372723
72	0x3ea2d360	0.3180189
73	0xbe96da97	-0.29463646
74	0x3eaee307	0.34157583
75	0xbe836eb4	-0.25670397
76	0xbb17ada5	-0.0023144272
77	0xbe873924	-0.26410782
78	0xbda9b3c1	-0.082862385
79	0xbc8cb41c	-0.017175727
80	0xbd39366a	-0.04521791
81	0xbd7491b8	-0.05970928
82	0xbb516ce9	-0.0031955785
83	0x3f031a16	0.5121168
84	0x3e17474b	0.1477329
85	0x3d766178	0.060151547
86	0x3d06b60f	0.03288847
87	0x3e8d1583	0.27555475
88	0xbc8ee3f8	-0.017442688
89	0xbc3d2289	-0.011543878
90	0x3e1dbe2c	0.15404576
91	0xbea8c5d5	-0.32963434
92	0xbe9be3bd	-0.30447188
93	0x3dcd0e44	0.100124866
94	0xbe176d83	-0.14787869
95	0xbbe343b1	-0.0069355597
96	0xbdb19e12	-0.08672728
97	0x3dcc4dd5	0.09975783
98	0x3e8020e8	0.25025105
99	0xbe005b74	-0.12534887
100	0x3e3d267a	0.18471709
101	0x3e9839cd	0.29731598
102	0xbe948649	-0.290087
103	0xbe957085	-0.29187408
104	0xbe9c9205	-0.30580154
105	0xbe541a75	-0.20713218
106	0xbe16a9ed	-0.14713259
107	0xbce90e42	-0.028449181
108	0xbdbc3f82	-0.09191801
109	0xbe438c97	-0.190966
110	0xbdf5eadf	-0.12007689
111	0xbe0c020d	-0.13672657
112	0x3e9928b8	0.29913878
113	0xbe0f7252	-0.14008453
114	0xbe8a8f16	-0.2706229
115	0x3e3411da	0.17584935
116	0xbcb2d8a2	-0.021831814
117	0x3e85b698	0.2611587
118	0x3e8c5431	0.27407983
119	0x3e996234	0.29957736
120	0xbe8db980	-0.27680588
121	0x3e1009bb	0.14066212
122	0x3e9cacb0	0.306005
123	0xbe3f2161	-0.18665077
124	0x3ea011e8	0.3126366
125	0x3eb32e7c	0.34996402
126	0xba76d857	-0.00094163924
127	0x3e82aefc	0.25524127
128	0xbe0750e4	-0.13214451
129	0xbea8c879	-0.32965448
130	0x3dd92f83	0.10604765
131	0x3c45b398	0.012066744
132	0xbe7cf35a	-0.24702206
133	0x3d61b33a	0.055102564
134	0xbea54eab	-0.3228658
135	0x3e88a8e9	0.26691368
136	0x3e6584c8	0.22413933
137	0x3d59b4c0	0.053150892
138	0xbe72d658	-0.23714578
139	0x3e1a91c8	0.15094674
140	0x3d64d39d	0.055865873
141	0x3d6c6598	0.057714075
142	0x3d628e25	0.05531134
143	0x3ec856a0	0.3912859
144	0xbe265c9f	-0.1624627
145	0xbdae1f9e	-0.08502124
146	0x3e9e133b	0.30874047
147	0xbb4feee5	-0.0031728086
148	0x3ea26686	0.31718844
149	0xbe4b4938	-0.1985215
150	0xbc61833d	-0.0137642
151	0x3d525670	0.051351964
152	0xbdcd95b6	-0.10038321
153	0x3de811f4	0.11331549
154	0xbba48081	-0.0050202017
155	0xbeb2dadf	-0.3493261
156	0xbd27b826	-0.040947102
157	0xbe2f8aed	-0.1714284
158	0x3d1d6e5d	0.03843533
159	0xbd33eb39	-0.043925498
160	0xbebff4f9	-0.37491587
161	0xbd8d0e2f	-0.06887471
162	0xbd1447ae	-0.03620117
163	0xbde441c7	-0.111453585
164	0x3eba02b0	0.36330175
165	0xbda8e6d4	-0.08247152
166	0x3e652a3e	0.22379395
167	0x3e4c653c	0.19960493
168	0xbea35ad4	-0.31905234
169	0x3d5b408a	0.053528346
170	0x3eac3a8c	0.33638418
171	0xbe7d2906	-0.2472268
172	0xbe7a2b8d	-0.24430676
173	0x3eb2ab8e	0.3489651
174	0x3e745ac7	0.23862754
175	0xbe57ecc3	-0.21086411
176	0x3e30ad27	0.17253552
177	0xbd460e9c	-0.048353776
178	0xbebecb7e	-0.37264627
179	0xbadd5922	-0.0016887526
180	0x3dbe273f	0.09284829
181	0xbde830ea	-0.113374546
182	0x3d42cc8f	0.047558364
183	0xbea57a2d	-0.32319775
184	0x3e6761b2	0.22595862
185	0x3e8f734e	0.28017658
186	0x3e392e86	0.18084154
187	0x3c723131	0.014782236
188	0xbc05e274	-0.008171666
189	0xbe8c04f7	-0.27347538
190	0xbdc16b79	-0.09444327
191	0xbd13cc22	-0.036083348
192	0xbe576144	-0.21033198
193	0xbe8eefa6	-0.27917212
194	0x3e7b81bc	0.24561208
195	0x3ec05473	0.3756443
196	0xbeafc027	-0.34326288
197	0xba2fe89a	-0.00067103805
198	0x3e1ec7eb	0.1550595
199	0x3ec977e4	0.39349282
200	0x3e34b8af	0.17648576
201	0x3ea9e63c	0.33183467
202	0xbdfd6c47	-0.12374168
203	0x3e2e0131	0.16992642
204	0x3e67f089	0.2265035
205	0xbeb6be8a	-0.35692245
206	0xbe9b568a	-0.30339462
207	0x3c93280e	0.017963436
208	0x3e27c7f3	0.16384868
209	0xbe4048cb	-0.18777768
210	0xbbd5d418	-0.0065255277
211	0xba0fd6cf	-0.0005487026
212	0x3dcd4b40	0.100241184
213	0xbe4ff932	-0.20309904
214	0x3e1cf8a0	0.15329218
215	0x3e7f1b8d	0.24912854
216	0xbe864620	-0.26225376
217	0xbafa5781	-0.0019099565
218	0xbad0bca0	-0.0015925355
219	0x3e1e030c	0.1543085
220	0x3ec53c49	0.38522556
221	0x3d518840	0.05115533
222	0xbdafe2d0	-0.08588183
223	0x3eb9f4fc	0.3631972
224	0xbe13479f	-0.1438279
225	0xbde0c4b8	-0.10975021
226	0xbaf09356	-0.0018354456
227	0xbe935d93	-0.2878233
228	0x3d6a2060	0.05715978
229	0xbe834c0e	-0.25643963
230	0xbc017921	-0.007902415
231	0xb9cc0c0b	-0.00038918885
232	0x3d8ca16d	0.06866727
233	0xbea33155	-0.31873575
234	0xbeb7ccd8	-0.3589847
235	0x3e02877f	0.12747
236	0x3e998b11	0.29988912
237	0xbeabb8ec	-0.33539522
238	0x3cec7d3b	0.028868308
239	0xbe8e73df	-0.27822778
240	0xbaa873f3	-0.0012851938
241	0x3eb53847	0.353945
242	0x3e8e6a6f	0.27815577
243	0xbe8d7d13	-0.27634487
244	0x3e9e73ce	0.30947727
245	0x3e3db5f9	0.18526448
246	0xba17fa26	-0.0005797468
247	0x3eb0e649	0.34550694
248	0xbe19b890	-0.15011811
249	0xbdb4237e	-0.08795832
250	0xbe439cff	-0.19102858
251	0x3dab5a4e	0.083668336
252	0xbb8b795d	-0.004256411
253	0xbb25ad15	-0.0025280167
254	0xbe59c2b6	-0.21265683
255	0xbe2e3aff	-0.17014693

conv_block.0.lin_l.weight f4 [128, 128]
0	0xbce609cb	-0.028080842
1	0xbd86e5e8	-0.0658682
2	0x3d61f47f	0.05516481
3	0x3d62072d	0.055182625
4	0x3d7619ea	0.060083307
5	0x3c0f4e4d	0.008746696
6	0x3bc3ff6a	0.0059813755
7	0xbd429c82	-0.04751254
8	0xbc97d1e8	-0.018532708
9	0xbc8a0bf2	-0.0168514
10	0xbd36fb7b	-0.044673424
11	0xbd97adef	-0.07406222
12	0xbd8d2954	-0.06892648
13	0x3d49810f	0.049195345
14	0x3cd0d55b	0.02549236
15	0x3c9c6627	0.019091679
16	0x3d42e8d2	0.047585316
17	0xbd2512cd	-0.040301133
18	0xbd8dfc28	-0.069328606
19	0x3d48391c	0.04888259
20	0x3ba64bba	0.0050749453
21	0xbc36f427	-0.011166609
22	0x3cf5f4ad	0.030023897
23	0xbd95f707	-0.07322507
24	0xbd8cb2ba	-0.06870027
25	0x3d373544	0.044728532
26	0xbd5a6e3f	-0.053327795
27	0xbcc851e1	-0.024453105
28	0x3d213891	0.039360587
29	0x3d78e6a0	0.060766816
30	0x3ca78bb5	0.02045236
31	0x3d1f9723	0.038962495
32	0xbd60f286	-0.05491879
33	0xbd2123ef	-0.03934091
34	0xbc7e9938	-0.01553946
35	0xbd2a08df	-0.041512366
36	0xbd61f50c	-0.055165336
37	0xbd021252	-0.031755753
38	0x3d63f9eb	0.055658262
39	0xbc93480c	-0.01797869
40	0xbd4000d3	-0.046875786
41	0xbd7857ca	-0.060630597
42	0xbc3f3d13	-0.011672276
43	0x3d961c38	0.07329601
44	0xbce767bf	-0.028247712
45	0xbda64aad	-0.08119712
46	0xbdabec77	-0.083947115
47	0x3d8404a5	0.064461984
48	0x3db884ef	0.0900973
49	0x3d82c653	0.063854836
50	0x3d2f724e	0.04283362
51	0xbd2d351b	-0.042286973
52	0xbd60ccdb	-0.054882865
53	0xbcf758e7	-0.03019376
54	0x38b4ca3c	8.620738e-05
55	0x3d58f723	0.052970063
56	0x3d0479c4	0.032342687
57	0x3d25b6d4	0.04045756
58	0x3d82b29c	0.06381723
59	0xbd214fa6	-0.0393826
60	0xbdbc7f60	-0.09203982
61	0xbd64a7ed	-0.05582421
62	0xbdf8659a	-0.12128754
63	0x3d23d9da	0.04000268
64	0xbd169e6a	-0.03677217
65	0xbce94e8f	-0.028479842
66	0xbd7e0b3e	-0.06202244
67	0xbd15fd09	-0.036618266
68	0x3d96575b	0.073408805
69	0x3bfd6d40	0.007733971
70	0xbd69b4d4	-0.057057217
71	0x3d620ac3	0.055186044
72	0xbd59ea98	-0.05320224
73	0x3cc94e37	0.024573429
74	0xbda4194b	-0.08012637
75	0x3caefad5	0.02135984
76	0xbda11050	-0.078644395
77	0x3d1478bd	0.036247957
78	0x3c1661b5	0.009178569
79	0x3d0b07d0	0.033942997
80	0xbdba111e	-0.09085296
81	0x3d8b60ec	0.06805596
82	0x3d908d3a	0.07058187
83	0x3da7bc06	0.081901595
84	0xbd92b9ea	-0.071643665
85	0xbd89f39f	-0.0673592
86	0xbd915c90	-0.07097733
87	0x3c99b91d	0.018765027
88	0x3d8e25fd	0.069408394
89	0x3c6d8664	0.014497373
90	0xbdaa4b75	-0.083151735
91	0x3d110aab	0.035410564
92	0xbdba58b0	-0.09098947
93	0xbdeb5a29	-0.11491806
94	0xbd5d7544	-0.05406691
95	0x3d0dfbfc	0.03466414
96	0xbdbbb2ec	-0.09164986
97	0x3d1c8d1a	0.038220502
98	0x3d8571c4	0.0651584
99	0x3d7b69bd	0.061380137
100	0xbd76cad9	-0.060252044
101	0xbce7194a	-0.028210301
102	0xbd92ac12	-0.07161726
103	0x3ad12582	0.0015956613
104	0x3d1e4641	0.038641218
105	0xbcdeb05c	-0.027183704
106	0x3d64ca1d	0.055856813
107	0x3d69b243	0.05705477
108	0xbd12a1f3	-0.035798978
109	0xbba28efe	-0.0049608937
110	0x3d385912	0.04500682
111	0xbc6ec5a8	-0.014573492
112	0xbcd1d096	-0.025612157
113	0x3d5f2969	0.05448285
114	0xbd3caa63	-0.04606093
115	0xbd4fec40	-0.050762415
116	0x3b915129	0.004434724
117	0x3d97a9dc	0.07405445
118	0xbda59ac5	-0.080861606
119	0xbd92f70d	-0.071760274
120	0xbd89f3c4	-0.06735948
121	0xbd29a52c	-0.041417286
122	0xbdbf7082	-0.09347631
123	0xbd610d80	-0.054944515
124	0x3d116a76	0.03550192
125	0x3d8e6a06	0.06953816
126	0xbc33b10d	-0.010967505
127	0x3b7f552a	0.0038960674
128	0x3d64945d	0.055805553
129	0xbc5a15f6	-0.0133109
130	0x3d1ac9df	0.037790176
131	0x3ba92623	0.005162017
132	0xbd72c384	-0.05926849
133	0x3d2b006e	0.041748457
134	0x3c0d0d58	0.008609138
135	0xbc947e03	-0.018126493
136	0x3d7a631b	0.06112967
137	0x3ce1b4a3	0.027551955
138	0x3cb1f83c	0.021724813
139	0xbd715dc2	-0.058927305
140	0xbc8413c6	-0.01612271
141	0xbd838988	-0.064227164
142	0xbd3b428a	-0.045717753
143	0xbcf2eebf	-0.029654859
144	0xb8048ee9	-3.1604348e-05
145	0xbc53bc45	-0.012923305
146	0x3cb09f6b	0.021560391
147	0xbda4c60d	-0.08045588
148	0xbd23cc52	-0.039989777
149	0xbbeb2f0b	-0.007177239
150	0x3d73ea2a	0.059549488
151	0xbd47ca8e	-0.048777156
152	0x3d0fdec5	0.03512456
153	0xbbb8e62d	-0.0056426735
154	0x3d81220c	0.06305322
155	0xbdc15e97	-0.0944187
156	0x3d1a8bb1	0.037730876
157	0xbd27dfc9	-0.040984903
158	0xbd8509c3	-0.064960025
159	0xbd94b5cb	-0.07261237
160	0xbc453149	-0.012035676
161	0x3be45a56	0.0069687767
162	0xbd4ae987	-0.049539115
163	0xbd1cc03b	-0.038269263
164	0xbc6aaac9	-0.014322945
165	0xbd2bcff0	-0.04194635
166	0xbc42e3cc	-0.011895131
167	0x3d5925a8	0.053014427
168	0xbdbf074c	-0.09327564
169	0xbd601be7	-0.05471411
170	0x3c61568b	0.013753544
171	0xbd6ef393	-0.05833776
172	0xbb8f7496	-0.004377912
173	0x3d8d1f77	0.06890767
174	0xbd8f8294	-0.07007328
175	0xbdb58192	-0.08862604
176	0x3c9b508e	0.01895931
177	0x3d9194b7	0.07108443
178	0xbdb00353	-0.08594384
179	0x3d663185	0.05619957
180	0xbd335986	-0.043786548
181	0xbd33cdad	-0.04389732
182	0x3d2bffe9	0.0419921
183	0x3d95797e	0.072985634
184	0x3c037156	0.008022627
185	0xbd05672e	-0.032569103
186	0xbd3f7180	-0.0467391
187	0xbd1c85c9	-0.038213525
188	0xbdcb376e	-0.09922682
189	0x3b7646ad	0.0037578747
190	0x3cb35a05	0.02189351
191	0xbc898d21	-0.016790928
192	0x3bae1ddc	0.005313618
193	0x3cd0e271	0.0254986
194	0x3d59f9c2	0.053216703
195	0x3ba986e5	0.0051735514
196	0x3d570614	0.05249603
197	0xbdcf20f7	-0.101137094
198	0x3cc3e5f0	0.023913354
199	0x3d087d7c	0.033322796
200	0xbda605f7	-0.081066065
201	0x3cd35111	0.025795491
202	0xbdb3efbd	-0.08785961
203	0xbd815968	-0.06315881
204	0xbd658438	-0.056034297
205	0xbd5f4998	-0.054513544
206	0x3d313744	0.043265596
207	0xbceaf99c	-0.028683476
208	0x3cb04949	0.02151932
209	0xbd7de135	-0.061982352
210	0xbd7a97b2	-0.061179824
211	0xbdabef25	-0.083952226
212	0x3d292d7d	0.041303147
213	0xbe051a3f	-0.12998293
214	0xbdb391b7	-0.08768027
215	0xbd881c88	-0.06646067
216	0xbdb807c9	-0.0898586
217	0xbd5a1497	-0.053242292
218	0x3cd14ab9	0.025548326
219	0x3ccf76f8	0.025325283
220	0xbd93f315	-0.072240986
221	0x3cd72158	0.026261017
222	0x3cbcea21	0.02306086
223	0xbcbbad59	-0.022909807
224	0x3d83e09e	0.06439327
225	0x3da24ecb	0.07925185
226	0x3c3b4d61	0.011432023
227	0xbdd4c5b3	-0.10389271
228	0x3c5ea3bf	0.013588845
229	0xbdc2cba7	-0.095115
230	0xbd9e7624	-0.07737377
231	0x3da766e7	0.08173924
232	0xbcce4496	-0.025179189
233	0xbdb846b8	-0.089978635
234	0xbd1d8daa	-0.03846518
235	0x3d436732	0.047705837
236	0xbd99e82f	-0.07514989
237	0x3d532443	0.051548254
238	0xbd46dfa5	-0.048553128
239	0x3d350e1c	0.04420291
240	0xbc196775	-0.009363045
241	0x3d0cebd1	0.03440458
242	0x3d9547b6	0.072890684
243	0xbd814226	-0.06311445
244	0x3d7d9292	0.06190736
245	0xbb81cc4b	-0.003961121
246	0x3d2c54e7	0.042073157
247	0xbd9b041a	-0.07569142
248	0xbc1196b0	-0.008886024
249	0x3cce1667	0.025157167
250	0x3ca21f4d	0.019790316
251	0x3c224322	0.009903701
252	0x3d4c002a	0.049804844
253	0xbdacd062	-0.08438183
254	0xbdc8ee74	-0.09811106
255	0xbba5c198	-0.0050584786

conv_block.0.lin_r.weight f4 [128, 128]
0	0xbde557da	-0.11198397
1	0xbc7c8a30	-0.015413806
2	0xbd61c589	-0.055120025
3	0xbd37a755	-0.044837315
4	0xbdd78450	-0.105232835
5	0x3d6c7407	0.05772784
6	0xbd8ca4a8	-0.06867343
7	0xbd6365dc	-0.055517063
8	0x3d4122e5	0.04715242
9	0xbce3eb1f	-0.027822075
10	0xbd09e226	-0.033662938
11	0x3d309e8a	0.043119945
12	0xbd4c5784	-0.04988815
13	0x3d801e75	0.06255809
14	0xbcfaea32	-0.030629251
15	0x3d3b53df	0.045734283
16	0xbc9e92ea	-0.019357163
17	0xbd857d7b	-0.06518074
18	0xbd644598	-0.055730432
19	0xbcafa8f6	-0.021442872
20	0xbd1f22d6	-0.03885158
21	0x3d236b86	0.039897464
22	0x3d59b474	0.05315061
23	0xbd3fed83	-0.04685737
24	0xbd855eee	-0.06512247
25	0xbcefcc08	-0.029272094
26	0x3d38f6b9	0.045157168
27	0xb9ba7e6f	-0.00035570885
28	0x3d68ba74	0.05681844
29	0x3c3b9958	0.011450134
30	0xb9c938ba	-0.00038379972
31	0xbd926e67	-0.07149964
32	0xbb8ca30c	-0.0042918976
33	0xbd953188	-0.07284838
34	0xbd907432	-0.070534125
35	0x3ca0fe33	0.019652462
36	0xbd53d1f7	-0.05171391
37	0xbd3c892d	-0.04602926
38	0x3d5e4b30	0.054270923
39	0xbd7f3912	-0.062310286
40	0xbdbb03f3	-0.09131613
41	0xbd1c0b0c	-0.038096473
42	0xbb03d27e	-0.0020114477
43	0xbdcf558d	-0.101237394
44	0xbdada99d	-0.08479617
45	0xbd9e6b20	-0.07735276
46	0x39c18551	0.00036911157
47	0xbcb8f578	-0.022577986
48	0xbdaa0d97	-0.08303373
49	0xbd9472f8	-0.07248491
50	0x3a9e4bef	0.0012077073
51	0xbda058a1	-0.078294046
52	0xbd84d115	-0.06485192
53	0xbd02ac45	-0.03190257
54	0xbde2527c	-0.11050889
55	0xbce8fc94	-0.028440751
56	0xbcf20441	-0.029543044
57	0x3c7d2c7a	0.015452499
58	0xbc2e84c0	-0.010651767
59	0x3c7da5d3	0.01548143
60	0xbd299c3c	-0.041408762
61	0xbd88716a	-0.06662257
62	0xbd5aefa3	-0.05345119
63	0x3d97b937	0.07408374
64	0xbd867873	-0.065659426
65	0xbcfb1b40	-0.030652642
66	0xbd67bfb5	-0.05657931
67	0x3b886a20	0.0041630417
68	0xbdb7aab3	-0.08968105
69	0xbdaf67a6	-0.08564691
70	0x3d6d0b5a	0.057872154
71	0xbdc06002	-0.09393312
72	0x3a9f0916	0.0012133445
73	0x3cd74d29	0.02628191
74	0xbde5bceb	-0.11217674
75	0x3d30acc8	0.043133527
76	0xbd84c365	-0.06482581
77	0xbc9fa1bf	-0.019486306
78	0xbdccd612	-0.10001768
79	0x3d548791	0.0518871
80	0x3d8f2f8a	0.06991489
81	0x3d811176	0.063021585
82	0xbd9349a4	-0.0719178
83	0xbceebe29	-0.02914341
84	0x3d93b60f	0.07212459
85	0xbac5168b	-0.0015036626
86	0x3cad9d33	0.021193122
87	0x3d53098f	0.051522788
88	0xbd902770	-0.07038772
89	0xbdb832c1	-0.089940555
90	0x3d4c9cb7	0.049954142
91	0xbd6debbf	-0.058086153
92	0xbd90a19f	-0.07062077
93	0x3c70d01d	0.014698056
94	0xbc9d2bd6	-0.019185942
95	0xbd64cc40	-0.05585885
96	0xbd823ef1	-0.06359661
97	0xbc1c6b17	-0.009547017
98	0xbcabc068	-0.02096577
99	0xbd8705f5	-0.06592933
100	0xbc126525	-0.008935248
101	0xbd12e7a8	-0.035865456
102	0xbda892b4	-0.082311064
103	0x3d45f358	0.048327774
104	0xbdd0ed0f	-0.10201465
105	0xbc9ac446	-0.018892419
106	0xba410a3b	-0.000736389
107	0xbd15bc32	-0.03655643
108	0xbd90b177	-0.07065099
109	0xbd08409b	-0.033264738
110	0xbc25e346	-0.010124987
111	0xbc3891a8	-0.011265196
112	0xbd35b608	-0.04436305
113	0x3ccc5da4	0.024946995
114	0x3c3b2d9a	0.0114244465
115	0xbdd98d9b	-0.10622712
116	0xbd8a4dbc	-0.06753108
117	0xbd00e633	-0.031469535
118	0x3bcae83f	0.0061922367
119	0xbd8fdb8f	-0.07024299
120	0x3d8e3464	0.069435865
121	0xba73a672	-0.00092945166
122	0x3d0cc522	0.034367688
123	0x3cc8cd07	0.024511827
124	0x3a7be8cf	0.00096095813
125	0x3c77780e	0.015104307
126	0xbcc492b6	-0.023995738
127	0xbc4e3733	-0.012586403
128	0xbcd43b3b	-0.02590715
129	0x3d80dc83	0.06292059
130	0x3ca2fbe4	0.019895501
131	0xbcbb6b4a	-0.022878308
132	0x3d818d38	0.063257635
133	0xbd9f0758	-0.077650726
134	0xbd9a16bd	-0.07523868
135	0xbd0e96b7	-0.0348117
136	0x3cd7be8b	0.026335975
137	0x3c06b275	0.008221258
138	0xbd64318f	-0.055711325
139	0x3d8b3fd5	0.06799284
140	0xbbb36641	-0.005474836
141	0x3d05fae3	0.032709967
142	0xbc8233ce	-0.015893843
143	0xbca37179	-0.019951569
144	0xbcde4d17	-0.027136369
145	0xbd96f60b	-0.07371148
146	0x3d032b8c	0.03202395
147	0xbd1e000e	-0.03857427
148	0x3d3b247b	0.045689087
149	0xbd87062c	-0.06592974
150	0xbda67bb0	-0.0812906
151	0xbd6ce0bd	-0.057831515
152	0x3c2d844c	0.010590624
153	0x3c21ff2d	0.009887499
154	0xbd8a0896	-0.06739919
155	0x3d67052c	0.056401417
156	0x3d3ac89d	0.045601476
157	0xbd15eef1	-0.036604825
158	0x3d938201	0.07202531
159	0xbd40f004	-0.047103897
160	0x3d892d16	0.066980526
161	0xbdbb05c0	-0.09131956
162	0x3d8bf6ef	0.06834208
163	0x3d9b2a58	0.07576436
164	0x3c8ddfdb	0.017318657
165	0x3d3b9152	0.045792885
166	0xbd7751b2	-0.060380645
167	0x3d778c87	0.06043675
168	0x3cab4578	0.020907149
169	0x3ce78a85	0.028264293
170	0x3d989408	0.0745011
171	0xbdacb3fd	-0.084327675
172	0x3cc83907	0.024441255
173	0x3bff039b	0.007782412
174	0x3d57fa45	0.05272891
175	0x3b8ff946	0.0043937294
176	0xbcb8d95d	-0.022564584
177	0x3d724647	0.059149053
178	0x3d28d3c2	0.041217573
179	0x3c1bb9bf	0.009504735
180	0xbd07991b	-0.033104997
181	0x3d3f6bda	0.046733715
182	0xbd5c1261	-0.053728465
183	0xbbbeb8b4	-0.005820358
184	0x3d91f1fe	0.071262345
185	0x3d24bba3	0.040218007
186	0x3bff7b12	0.0077966535
187	0x3d98ca16	0.0746042
188	0xbd20bf7a	-0.039245106
189	0x3d359846	0.044334672
190	0xbd29e3a1	-0.04147685
191	0x3d528798	0.051398844
192	0x3d0ec05f	0.034851428
193	0xbcc9d1ad	-0.024636114
194	0xbdabc854	-0.08387819
195	0x3d7ef67e	0.062246792
196	0xbdd17e6c	-0.10229191
197	0xbb2db2c1	-0.002650425
198	0xbc9f39bc	-0.01943671
199	0xbdaf0f1c	-0.08547804
200	0xbc099f7d	-0.008399841
201	0xbd92b578	-0.07163519
202	0xbd12f829	-0.035881195
203	0x3da8dc81	0.08245183
204	0x3b5d6d31	0.0033787007
205	0x3ce5af2e	0.028037634
206	0xbd867bc6	-0.06566577
207	0x3cd3ef22	0.025870863
208	0x3d946bdb	0.07247134
209	0xbc84d24b	-0.016213557
210	0xbd32077b	-0.043464165
211	0x3cdeef37	0.027213676
212	0x3c9b99a6	0.018994164
213	0xbdbc12a8	-0.09183246
214	0xbd5f6871	-0.054542962
215	0xbd038f87	-0.0321193
216	0xbd7d4f94	-0.06184347
217	0xbdc7bf11	-0.0975324
218	0xbbdfdad2	-0.0068315053
219	0xbd480388	-0.048831493
220	0x3a67fffe	0.00088500965
221	0xbd1aaf85	-0.037765045
222	0x3d65eb5f	0.05613267
223	0xbc32bad2	-0.010908799
224	0x3bdd4602	0.0067527303
225	0xbdaba557	-0.083811454
226	0xbbab86ec	-0.00523459
227	0x3c4218c9	0.01184673
228	0xbcc96c8a	-0.024587888
229	0x3d834fc2	0.06411697
230	0x3d744708	0.059638053
231	0xbb8c38ec	-0.0042792466
232	0xbd7f929a	-0.06239567
233	0x3d0ed5f6	0.034872018
234	0xbd89b913	-0.06724753
235	0x3d8d670a	0.06904419
236	0x3d009c49	0.031399045
237	0xbdb23dbf	-0.087031834
238	0x3c17e144	0.009270016
239	0xbb580dc0	-0.003296718
240	0xbdc08e34	-0.09402123
241	0xbdad71d3	-0.08468976
242	0xbd8bdaa1	-0.068288095
243	0xba81a965	-0.0009892402
244	0xbd93ef8b	-0.072234236
245	0x3da1abe3	0.07894113
246	0x3d6da04f	0.05801421
247	0x3d7ce515	0.061741907
248	0x3ce57bbc	0.028013103
249	0x3c107271	0.008816347
250	0xbc2dc3b3	-0.01060574
251	0xbc19d774	-0.009389747
252	0xbd5a4367	-0.053286936
253	0x3d1c3627	0.03813758
254	0x3d00de00	0.031461716
255	0xbd3fdcc4	-0.046841398

conv_block.1.lin_l.weight f4 [128, 128]
0	0x3d1b8dcd	0.03797703
1	0x3d7fa7bb	0.06241582
2	0xbd231175	-0.03981157
3	0xbd0f03d3	-0.034915756
4	0x3d87f10a	0.066377714
5	0xbda46995	-0.08027951
6	0xbd0f2cfa	-0.034955002
7	0x3c6cc64b	0.014451574
8	0x3d4b81f6	0.049684487
9	0x3d0a6aef	0.033793386
10	0x3d347a18	0.04406175
11	0xbd5ff56d	-0.054677416
12	0xbd00f617	-0.03148469
13	0xbd7560e9	-0.059906874
14	0xbdbcc5f3	-0.09217443
15	0x3cdd669a	0.027026463
16	0xbd9d35d8	-0.076762855
17	0xbd86a896	-0.06575124
18	0xbbd59fae	-0.0065192794
19	0xbd8c9651	-0.06864608
20	0x3d8a8013	0.067627095
21	0x3ce9a0a3	0.02851898
22	0x3cd8e348	0.026475564
23	0x3ce39c0c	0.02778437
24	0xbdc83801	-0.09776307
25	0xbda41d2b	-0.08013376
26	0xbe464829	-0.19363464
27	0x3d2d6693	0.04233415
28	0x3c713a27	0.014723337
29	0xbd8f4c2d	-0.06996951
30	0x3d16f09f	0.036850568
31	0xbd004a8d	-0.031321097
32	0xbdb6bf31	-0.089231856
33	0xbda2d6f8	-0.07951158
34	0x39fc3e94	0.0004811181
35	0x3d7aa546	0.061192773
36	0x3c6a9f80	0.014320254
37	0x3d876647	0.06611305
38	0xbc412191	-0.011787788
39	0xbd831769	-0.064009495
40	0xb7cca429	-2.4395138e-05
41	0x3d908c42	0.07058002
42	0x3d5f6af9	0.054545376
43	0xbdb15ec2	-0.08660652
44	0x3d995e7f	0.07488727
45	0xbdbc3ff3	-0.09191885
46	0xbd823518	-0.06357783
47	0xbd5250da	-0.051346637
48	0x3a92b67f	0.0011193304
49	0xbc1a8ca5	-0.009432946
50	0xbd5bd22f	-0.053667244
51	0xbdb9f1c9	-0.0907932
52	0xbc740ce8	-0.014895655
53	0x3bba74b4	0.0056901816
54	0xbd4acc27	-0.0495111
55	0xbdbf8c2b	-0.09352907
56	0x3bacadf2	0.0052697593
57	0xbd2ec122	-0.042664655
58	0xbc3a8efc	-0.011386629
59	0x3d1833df	0.037158843
60	0x3b8c1183	0.0042745485
61	0x3cbf6a1c	0.023366027
62	0x3d74548e	0.05965095
63	0x3d06cade	0.032908313
64	0x3b2b5570	0.0026143454
65	0xbe2705e6	-0.16310844
66	0x3c961015	0.018318215
67	0xbca0fb93	-0.01965121
68	0xbcef3802	-0.029201511
69	0xbcd529bc	-0.026020877
70	0x3c5b7bd6	0.013396224
71	0xbe33b858	-0.1755079
72	0x3d9f3775	0.077742495
73	0x3cfbf726	0.030757498
74	0xbda674c0	-0.08127737
75	0xbd887d93	-0.066645764
76	0xbc595bb8	-0.013266496
77	0xbd4ea359	-0.05044875
78	0xbdb594a4	-0.088662416
79	0x3c8fc9c8	0.017552271
80	0x3d72b19f	0.059251424
81	0x3c3ad1ed	0.011402589
82	0xbd54fb9e	-0.051997773
83	0x3da9f973	0.08299532
84	0xbd2445f1	-0.040105764
85	0xbd78ddc3	-0.060758363
86	0xbca5076c	-0.02014514
87	0xbd7a93aa	-0.06117598
88	0xbd9d59f8	-0.07683176
89	0xbdba4f9d	-0.09097216
90	0xbe2ae0e6	-0.16687354
91	0xbc756d98	-0.0149797425
92	0x3cf22848	0.029560223
93	0xbc1fe3f9	-0.009758943
94	0xbdba0786	-0.09083466
95	0x3d81acf8	0.06331819
96	0x3d8e6a9c	0.06953928
97	0xba2d1130	-0.00066019874
98	0x3d31e621	0.04343236
99	0x3c807539	0.015680896
100	0xbdf9c5ed	-0.121959545
101	0xbb01d2df	-0.0019809527
102	0xbc9ff186	-0.019524347
103	0xbd387b77	-0.04503962
104	0x3d910ce1	0.070825346
105	0xbe4296ff	-0.19002913
106	0x3c87e74f	0.016589789
107	0x3d0d3807	0.03447726
108	0xbd082492	-0.033238
109	0xbd0ffcb0	-0.03515309
110	0xbd8162d6	-0.063176796
111	0x3d280191	0.04101712
112	0xbcf9b889	-0.030483501
113	0xbdd8f73f	-0.105940334
114	0xbd790b7c	-0.060801968
115	0xbd83d57d	-0.06437204
116	0xbc6f072f	-0.014589115
117	0xbd3f54ae	-0.046711616
118	0x3d4644f4	0.048405603
119	0xbc51299c	-0.012766268
120	0xbd393a5e	-0.04522168
121	0x3d5b31b7	0.05351421
122	0xbdc8842d	-0.097908355
123	0xbba4f14d	-0.005033648
124	0x3d15f7b2	0.036613174
125	0xbd412602	-0.047155388
126	0x3c1854b7	0.009297541
127	0xbda8c4a0	-0.08240628
128	0x3cada695	0.021197597
129	0x3c22c998	0.009935759
130	0x3d04ce9a	0.032423593
131	0xbb9537a8	-0.004553754
132	0x3d6dcc97	0.05805644
133	0x3d073298	0.033007234
134	0xbd9b8e65	-0.07595519
135	0x3bfefe65	0.007781791
136	0xbcbef880	-0.023311853
137	0xbbc6f432	-0.006071591
138	0xbbcdcdd0	-0.0062806383
139	0xbd7a0304	-0.061038032
140	0x3d4b33de	0.04961001
141	0x3ce64f03	0.028113848
142	0xbd647c1c	-0.055782422
143	0xbd756962	-0.059914954
144	0xbd7103a9	-0.05884138
145	0x3c0fedef	0.008784755
146	0xbc25e24d	-0.010124755
147	0xbdbf7356	-0.093481705
148	0xbcd82e56	-0.026389282
149	0xbdb3ca7c	-0.08778855
150	0xbe2c944f	-0.1685345
151	0xbbd4ee73	-0.006498152
152	0xbd9b4a03	-0.07582476
153	0xbd0ef732	-0.034903713
154	0x3d9478a7	0.07249575
155	0xbbb1462d	-0.005409977
156	0xbd2a2e2e	-0.041547947
157	0x3d9ab0e8	0.075532734
158	0x3d6656c8	0.056235105
159	0x3c81819a	0.01580887
160	0xbd179fb7	-0.03701755
161	0xbdb1c27d	-0.08679674
162	0xbc85ad0b	-0.016317865
163	0x3b9d3616	0.0047977073
164	0xbd8b0b64	-0.06789282
165	0x3bf3bd6f	0.0074383537
166	0xbdc1cc73	-0.09462824
167	0xbe26e30b	-0.16297548
168	0xbc0956de	-0.008382527
169	0x3d91412a	0.07092507
170	0x3d3cc589	0.04608682
171	0x3dbbdf27	0.09173422
172	0xbcaed273	-0.021340584
173	0xbd7f3daf	-0.062314685
174	0x3db50f4a	0.08840807
175	0xbd2b3af4	-0.04180427
176	0x3de5fc0d	0.112297155
177	0xbd93e997	-0.07222288
178	0xbc2fdf44	-0.010734383
179	0xbcc85751	-0.024455698
180	0x3ce421a8	0.02784808
181	0xbd9c2923	-0.07625034
182	0xbc95eee1	-0.018302383
183	0xbc2ecfa3	-0.010669622
184	0xbd3c6ddd	-0.04600321
185	0x3d6aba6d	0.057306696
186	0xbdf4d03c	-0.1195378
187	0xbcbf457e	-0.023348566
188	0xbce8c387	-0.028413547
189	0x3db90579	0.09034247
190	0x3cb4398d	0.022000099
191	0x3d415b6d	0.04720633
192	0x3cf7e93f	0.030262588
193	0x3db488c8	0.088151515
194	0x3d42fcf9	0.047604535
195	0xbd0b7321	-0.034045342
196	0x3cee5d7d	0.029097313
197	0x3c0f0a36	0.008730462
198	0xbd1e69f1	-0.038675252
199	0xbd366e72	-0.044538923
200	0xbdb7bb14	-0.08971229
201	0x3cca79e2	0.024716321
202	0xbd1286a1	-0.035772923
203	0xbd003461	-0.031299952
204	0x3d8881a3	0.06665351
205	0x3d598d3d	0.05311321
206	0xbd277ea5	-0.040892262
207	0xbdc0af70	-0.09408462
208	0x3d9232b3	0.07138576
209	0xbcd56645	-0.026049742
210	0xbda8102c	-0.082062095
211	0x3d39ca42	0.045358904
212	0x3cd41b68	0.025891975
213	0xbd9a2a3b	-0.07527586
214	0x3d59b908	0.053154975
215	0x3cf025cd	0.0293149
216	0x3cabfca1	0.020994486
217	0xbd8d9694	-0.06913486
218	0x3d35760d	0.044302035
219	0xbda56101	-0.08075143
220	0xbdb3cae0	-0.0877893
221	0x3b283c80	0.0025670826
222	0xbc4d53fc	-0.0125322305
223	0x3e11f01a	0.14251748
224	0xbd911476	-0.07083981
225	0x3d7a913c	0.061173663
226	0x3d4f7c15	0.050655443
227	0xb9bab9e5	-0.00035615187
228	0x3ca5ebf6	0.020254117
229	0x3dc7dcc0	0.097589016
230	0x3cf73afd	0.030179495
231	0xbbf2f8ac	-0.007414898
232	0xbd18014d	-0.037110616
233	0x3d51e0f7	0.051239934
234	0xbd3ae507	-0.045628574
235	0xbd361d0a	-0.044461288
236	0xbd09ece7	-0.033673193
237	0xbd13b0ec	-0.036057398
238	0xbc0bffe1	-0.008544893
239	0xbd4a6410	-0.049411833
240	0xbb54f4e0	-0.003249459
241	0xbe67e10b	-0.22644441
242	0x3b30ca9d	0.0026976236
243	0x3d54ea50	0.05198127
244	0xbe11c1fe	-0.14234158
245	0xbe1ff797	-0.15621792
246	0x3d94dfa3	0.07269218
247	0xbc2a39db	-0.01038977
248	0x3d4dccdc	0.050244197
249	0x3d5cca79	0.05390403
250	0xbd8266c1	-0.06367255
251	0x3d1642a3	0.036684643
252	0x3cddb7bc	0.02706515
253	0xbdc45a44	-0.09587529
254	0xbd316fdd	-0.04331957
255	0x3d32c806	0.04364779

conv_block.1.lin_r.weight f4 [128, 128]
0	0x3d82975a	0.06376524
1	0xbd01a8e0	-0.031655192
2	0xbc11893e	-0.008882819
3	0x3d9d3c01	0.076774605
4	0x3b6bf177	0.0036002079
5	0xbd1eff04	-0.03881742
6	0x3d6e30fc	0.058152184
7	0xbcc4a033	-0.02400217
8	0x3dc773c6	0.09738879
9	0x3d534b86	0.051585697
10	0x3cce5840	0.025188565
11	0x3d0a1bd3	0.03371794
12	0x3d25907f	0.040421005
13	0x3d88f528	0.06687385
14	0xbdab0c0d	-0.08351908
15	0x3d8a8733	0.067640685
16	0x3d9ff883	0.07811072
17	0x3d5a12f9	0.05324075
18	0x3d0c2f2c	0.034224674
19	0xbb8d93ca	-0.0043205963
20	0x3d02395e	0.03179299
21	0x3c9b8fb0	0.018989414
22	0x3d96fecf	0.0737282
23	0x3c438099	0.011932516
24	0x3cd8e44f	0.026476054
25	0x3cb902e4	0.022584386
26	0x3e08214d	0.13293953
27	0xbd81ab31	-0.0633148
28	0xbc654570	-0.013993606
29	0xbcbeaf8f	-0.023277072
30	0x3da0680f	0.078323476
31	0xbe02396f	-0.12717222
32	0x3d27c69a	0.040960886
33	0xbc841623	-0.016123837
34	0xbc89816b	-0.016785344
35	0xbbe0b7ca	-0.006857847
36	0x3cb3901b	0.0219193
37	0x3d76d8b6	0.060265265
38	0x3d05c479	0.032658074
39	0xbdf31e31	-0.11870993
40	0x3d861624	0.06547192
41	0xbd16ce88	-0.036818057
42	0x3c431b7e	0.01190841
43	0xbcc34c1e	-0.023840006
44	0xbd1b6e15	-0.03794678
45	0xbd3b2283	-0.04568721
46	0xbd807377	-0.06272023
47	0xbd999d7f	-0.07500743
48	0x3d6a0357	0.05713209
49	0xbda2bdb7	-0.079463415
50	0xbd9b2d44	-0.07576993
51	0xbdb8ee60	-0.090298414
52	0x3d0dfd19	0.0346652
53	0x3ca9efc3	0.02074421
54	0x3db292bb	0.08719393
55	0x3d102fd8	0.035201877
56	0x3da9a018	0.082824886
57	0xbd672d7b	-0.056439858
58	0x3da4fda9	0.08056194
59	0xbc885cd8	-0.016645834
60	0x3b9bd2f9	0.0047553745
61	0xbdbb01e3	-0.09131219
62	0xbd805d97	-0.06267851
63	0xbd1908c2	-0.037361868
64	0xbd3c0bba	-0.04590962
65	0x3e094086	0.1340352
66	0x3d551b0c	0.052027747
67	0xbb6bd4de	-0.0035985033
68	0x3d279a0c	0.040918395
69	0x3c887360	0.016656578
70	0x3d7cc30a	0.06170944
71	0xbc31b510	-0.010846391
72	0x3d5c7ff2	0.053832956
73	0xbd37bd55	-0.044858295
74	0xbda02b1d	-0.07820723
75	0x3d0c0f38	0.0341942
76	0xbd7d9b61	-0.06191576
77	0xba5aec28	-0.000835123
78	0xbd166caa	-0.036724724
79	0x3da4c877	0.08046048
80	0xbe104b90	-0.14091325
81	0xbda42105	-0.080141105
82	0xbb3a6c8b	-0.0028446044
83	0x3b030e6a	0.0019997605
84	0xbddea33c	-0.10870978
85	0xbd77ff7e	-0.06054639
86	0xbd48a94b	-0.048989575
87	0xbcf43958	-0.0298125
88	0x3d808113	0.06274619
89	0x3c5ff807	0.013669974
90	0xbdba147c	-0.09085938
91	0x3d4bb517	0.049733248
92	0x3e4c6ba2	0.19962934
93	0xbdb73603	-0.08945849
94	0x3c033077	0.00800716
95	0xbd9b7581	-0.075907715
96	0x3d484710	0.048895895
97	0xbd5ab84e	-0.053398423
98	0xbd1ce25e	-0.038301818
99	0xbda62fb5	-0.08114568
100	0xbdcbc1e7	-0.09949093
101	0x3ccdd134	0.02512417
102	0x3d3195f1	0.043355886
103	0xbdc3d029	-0.09561188
104	0xbd61106d	-0.054947305
105	0xbd6ec853	-0.058296513
106	0xbd0c1a86	-0.034204982
107	0x3d833333	0.0640625
108	0xbd0f775f	-0.03502595
109	0x3ac302bd	0.0014878135
110	0x3da1a5cd	0.07892952
111	0x3d817016	0.06320207
112	0x3d1d97c3	0.03847481
113	0x3d2ddae0	0.042445064
114	0x3c90cabf	0.017674802
115	0x3d0ac942	0.03388334
116	0x3d4a8f04	0.049452797
117	0x3ba01c40	0.00488618
118	0xbdb60941	-0.08888484
119	0x3bfeae6a	0.0077722566
120	0xbd5000ab	-0.050781887
121	0xbd67309f	-0.056442853
122	0xbd708e43	-0.05872942
123	0x3ad328a9	0.001611014
124	0xbd1ca838	-0.038246363
125	0x3dbf88b0	0.09352243
126	0x3cd36059	0.025802778
127	0x3de0815b	0.109621726
128	0x3bce2286	0.0062907366
129	0xbd251135	-0.040299613
130	0xbd906568	-0.07050592
131	0x3d5bc553	0.05365498
132	0x3c8b71af	0.017021982
133	0x3da0a7f1	0.07844532
134	0xbdb2d55d	-0.08732102
135	0x3bc7eb79	0.0061010686
136	0x3cc3252a	0.023821432
137	0x3db0374c	0.08604297
138	0x3d870af8	0.06593889
139	0xbd92f5bd	-0.07175777
140	0x3d89bb19	0.06725139
141	0xbdcc2f77	-0.09969991
142	0x3c4f507f	0.012653469
143	0x3ce7e65e	0.02830809
144	0x3d8867a3	0.06660392
145	0xbcc98830	-0.024601072
146	0x3c2dc9fa	0.010607237
147	0xbc96097f	-0.018315075
148	0x3d620c71	0.055187646
149	0xbb38db19	-0.0028206764
150	0x3d81c61e	0.06336616
151	0x3b1d27f7	0.002398012
152	0xbc6ab9ad	-0.014326495
153	0x3d0a314c	0.03373842
154	0xbd98199f	-0.07426762
155	0x3dae173a	0.08500524
156	0xbd34caba	-0.044138648
157	0xbc60b0c0	-0.0137140155
158	0xbb7d53e8	-0.0038654748
159	0x3c8b2f29	0.016990261
160	0xbce90408	-0.028444305
161	0x3d09d04f	0.033645924
162	0xbdb70f55	-0.08938471
163	0xbd98dcf6	-0.0746402
164	0xbdb8f366	-0.090307996
165	0x3c3f1b5e	0.01166424
166	0xbc83dfbb	-0.016097894
167	0xbdbb9013	-0.09158339
168	0xbd2db763	-0.04241122
169	0xbd8f18fd	-0.06987188
170	0xbd2ffa7a	-0.042963482
171	0x3cad8702	0.02118254
172	0xbcc51340	-0.02405703
173	0x3d2bb37b	0.041919213
174	0xbd870730	-0.06593168
175	0xbdaa63cd	-0.08319817
176	0x3dc2b84f	0.0950781
177	0x3d66cce2	0.056347735
178	0xbe44c1e8	-0.19214594
179	0xbc24f0c1	-0.010067166
180	0x3c73a251	0.014870242
181	0x3d0062c4	0.03134419
182	0x3c9254f9	0.017862784
183	0xbdaf48e0	-0.08558822
184	0xbd2166d4	-0.039404705
185	0x3d5e8901	0.054329876
186	0xbcf2d10d	-0.029640699
187	0xbd1c3cc4	-0.038143888
188	0xbd36051a	-0.04443846
189	0xbd2d086e	-0.042244367
190	0x3d6ac20e	0.05731397
191	0x3d9ae7d8	0.07563752
192	0xbddb295c	-0.10701248
193	0x3dc0a2a6	0.09406023
194	0x3ce10a31	0.02747068
195	0xbd2f2994	-0.04276426
196	0xbcfcdbe5	-0.030866573
197	0xbccd3833	-0.025051212
198	0xbd75a952	-0.05997593
199	0xbc4a7a3d	-0.012358245
200	0x3ceb4083	0.028717285
201	0xbd09d11a	-0.03364668
202	0xbdbc86f5	-0.092054285
203	0xbdbb766a	-0.09153445
204	0x3c2c405d	0.010513392
205	0xbcb46dc0	-0.02202499
206	0xbca6a765	-0.020343492
207	0x3d6dded1	0.058073822
208	0x3cadf926	0.021236967
209	0x3d176807	0.036964443
210	0x3cf43671	0.029811116
211	0xbdc56974	-0.09639254
212	0xbe0ba09b	-0.13635485
213	0xbbe60917	-0.0070201266
214	0x3c0d1716	0.008611461
215	0xbc605f1d	-0.013694552
216	0xbd94c6e2	-0.072644964
217	0x3d4a525b	0.049394947
218	0xbbb7d64f	-0.0056102644
219	0x3cc2096f	0.023686139
220	0xbc395e99	-0.011314058
221	0xbc1d0994	-0.009584803
222	0xbd313f0b	-0.043273013
223	0xbd46b412	-0.048511572
224	0x3b8404e7	0.0040289047
225	0xbd855067	-0.06509476
226	0xbdd586e0	-0.10426116
227	0xbd8fa388	-0.07013613
228	0x3d2566f0	0.040381372
229	0x3da87744	0.08225873
230	0x3d28c42e	0.041202717
231	0x3d800e84	0.06252769
232	0xbba490a0	-0.0050221235
233	0xbc895cdd	-0.016767913
234	0x3d07b7a5	0.03313412
235	0xbd03836c	-0.032107756
236	0x3d0bc6ce	0.03412514
237	0x3da13d64	0.078730375
238	0xbd391584	-0.045186535
239	0xbd1fa46c	-0.038975164
240	0x3d58e7f7	0.052955594
241	0xbc6687c2	-0.014070453
242	0x3c5afd36	0.013366034
243	0xbd410639	-0.047125075
244	0xbd3ebbaa	-0.04656569
245	0x3d23b92a	0.039971508
246	0xbdc23cd3	-0.094842575
247	0x3df1f11d	0.11813567
248	0xbca59b71	-0.020215722
249	0x3d39678a	0.04526476
250	0xbe0f196d	-0.13974543
251	0x3d8eb565	0.06968192
252	0xbbfb5110	-0.0076695755
253	0x3d8905f4	0.066905886
254	0x3d9bf347	0.07614761
255	0xbd9bf7dc	-0.07615635

conv_block.2.lin_l.weight f4 [128, 128]
0	0xbd803d63	-0.062617086
1	0xbda578b6	-0.080796644
2	0xbde1cb0e	-0.11025058
3	0x3ce1b705	0.02755309
4	0x3c706ef8	0.0146748945
5	0xbb2a58b7	-0.002599282
6	0xbce56518	-0.028002307
7	0xbc492024	-0.012275729
8	0x3d973690	0.07383454
9	0xbd7e8762	-0.06214083
10	0x3d7b9d4f	0.061429318
11	0xbdcbfbbf	-0.09960126
12	0xbc6e065f	-0.014527886
13	0xbd94a22d	-0.07257495
14	0xbd062a64	-0.03275527
15	0x3d6b910f	0.057511386
16	0x3c8bd372	0.017068598
17	0xbdb3a83f	-0.08772325
18	0x3c76800e	0.015045179
19	0x3d80cd50	0.0628916
20	0x3d0acda4	0.03388752
21	0x3cc54861	0.024082365
22	0x3d2099d7	0.039209213
23	0x3d8b38de	0.06797956
24	0x3c91efdd	0.017814571
25	0xbdac14a9	-0.08402378
26	0xbd30556b	-0.04305021
27	0xbd96f8a0	-0.0737164
28	0xbdbd02e1	-0.09229065
29	0xba02a1e3	-0.00049832294
30	0xbd326859	-0.043556545
31	0x3d44e512	0.04807002
32	0x3d7b4297	0.061342802
33	0x3d1ef5ce	0.038808636
34	0x3d246325	0.040133614
35	0x3bfb6aa1	0.0076726233
36	0x3d225189	0.03962854
37	0x3d60e07d	0.05490159
38	0xbd7b4ea7	-0.061354306
39	0x3cfa5de5	0.03056235
40	0xbd528d10	-0.05140406
41	0xbd7a5e46	-0.061125062
42	0xbc8bbea7	-0.017058684
43	0xbd914830	-0.07093847
44	0xbd1c4264	-0.038149253
45	0xbc893170	-0.016747206
46	0xbd799735	-0.060935218
47	0x3d86f5d9	0.065898605
48	0xbd8e44d4	-0.06946722
49	0xbcbd35d0	-0.023096949
50	0x3d2f2ddc	0.042768344
51	0x3d6624d7	0.056187477
52	0x3cd97e37	0.026549442
53	0xbd27d0fb	-0.040970784
54	0x3c563085	0.013073091
55	0xbc71958a	-0.014745126
56	0xbb9da698	-0.0048111193
57	0x3cd7cbe0	0.026342332
58	0xbd457338	-0.048205584
59	0xbd15bbba	-0.036555983
60	0xbd6e316f	-0.058152612
61	0xbcc16f9a	-0.023612786
62	0x3ba47510	0.0050188377
63	0x3d13e71e	0.036109082
64	0x3d9b1a19	0.07573337
65	0x3cae139f	0.02124959
66	0x3bb1467d	0.005410014
67	0x3da0856b	0.078379475
68	0xbbb0dfcf	-0.005397774
69	0x3cd109d5	0.025517384
70	0xbda76b28	-0.08174735
71	0xbd523591	-0.051320616
72	0xbd5cb184	-0.05388023
73	0xbd82e8a6	-0.063920304
74	0xbcf31b6e	-0.029676165
75	0x39c36e32	0.000372754
76	0xba415508	-0.00073750364
77	0x3d4a0dd9	0.049329612
78	0x3d6eb123	0.0582744
79	0xbc815d72	-0.015791629
80	0xbd5ac561	-0.05341089
81	0xbcdfd84c	-0.027324818
82	0xbd180328	-0.037112385
83	0xbdb87f1d	-0.0900862
84	0xba0e784c	-0.0005434796
85	0xbd9ac2a9	-0.0755666
86	0x3d9c8f47	0.076445155
87	0x3d2ad6aa	0.041708626
88	0xbd76b88b	-0.060234588
89	0xbd8413ff	-0.064491265
90	0xbd92f0b3	-0.07174816
91	0xbda207b0	-0.079116225
92	0x3c727cec	0.0148002915
93	0xbd50649d	-0.050877202
94	0xbd6ae99f	-0.057351705
95	0x3ca61bcc	0.020276926
96	0xbd438ae5	-0.047739882
97	0xbd430954	-0.047616318
98	0xbd8c885d	-0.06861947
99	0xbc75d92e	-0.015005393
100	0x3d4ba737	0.049720015
101	0xbd917729	-0.07102806
102	0x3c8b3017	0.016990704
103	0xbd805339	-0.062658735
104	0xbd720837	-0.059089866
105	0x3dbda224	0.092594415
106	0x3c83ccd9	0.01608889
107	0xbd9bced1	-0.076078065
108	0x3cfc86c5	0.030825982
109	0xbd4455a6	-0.047933243
110	0x3d5bf092	0.053696223
111	0xbc6189cb	-0.013765763
112	0x3ce1309a	0.027488995
113	0xbce56ef9	-0.028007017
114	0x3d7ee0c7	0.062226083
115	0xbcf0c38a	-0.029390115
116	0x3d60f63e	0.054922335
117	0x3d48c28d	0.049013663
118	0xbdd0c77c	-0.101942986
119	0xbc788e99	-0.015170717
120	0x3d01b4d7	0.031666603
121	0x3c2a2960	0.010385841
122	0xbd82e902	-0.06392099
123	0xbc81d430	-0.01584825
124	0x3cc45622	0.023966853
125	0xbd8b1da8	-0.06792766
126	0xbbed8941	-0.007249028
127	0x3c9c2c2f	0.019064037
128	0xbd7146d1	-0.058905426
129	0x3cff484d	0.031162405
130	0x3de3d665	0.11124877
131	0x3cccfa94	0.025021829
132	0xbd5ea826	-0.054359578
133	0x3ca1ecd9	0.019766258
134	0x3d301902	0.0429926
135	0xbcce13c3	-0.025155907
136	0x3c9776c1	0.018489243
137	0x3d17044b	0.03686933
138	0x3d313af4	0.043269113
139	0xbd75246e	-0.059849195
140	0x3c354319	0.011063361
141	0xbc56fffb	-0.013122554
142	0xbd3137e9	-0.04326621
143	0xbe6e70a9	-0.23285164
144	0xbd910258	-0.07080525
145	0x3ca3d76b	0.02000018
146	0x3cf46fbe	0.02983844
147	0x3d67fb36	0.056636058
148	0x3d529f2a	0.051421322
149	0xbccf3d61	-0.025297822
150	0x3d215c49	0.03939465
151	0xbd712d19	-0.0588809
152	0xbd52e12b	-0.05148427
153	0x3d86d318	0.06583232
154	0xbd16fddc	-0.036863193
155	0xbc0b354b	-0.008496593
156	0xbd6ba79c	-0.05753289
157	0xbd92c919	-0.071672626
158	0x3d5bcc87	0.05366185
159	0x3d3d8e80	0.046278477
160	0xbd983519	-0.074320026
161	0xbd34a910	-0.044106543
162	0x3ddf4daf	0.10903489
163	0xbc4b32e3	-0.012402269
164	0xbd82cf7b	-0.0638723
165	0xbdb1f865	-0.086899556
166	0xbd49e2f1	-0.049288694
167	0x3da6e793	0.08149638
168	0xbd4722bc	-0.04861711
169	0xbc9bc6b6	-0.019015651
170	0xbc826582	-0.015917543
171	0xbd739868	-0.059471518
172	0x3cfb6384	0.030687101
173	0x3dba2e60	0.090908766
174	0x3cf3266c	0.029681407
175	0x3950668b	0.00019874626
176	0xbc89a93b	-0.016804328
177	0xbd6b491d	-0.057442773
178	0x3de2db45	0.110769786
179	0xbb6bacbb	-0.003596111
180	0x3d7abbc3	0.06121422
181	0x3d928de5	0.071559705
182	0x3d093853	0.03350098
183	0x3d85de4d	0.06536541
184	0x3c2d4a38	0.010576777
185	0xbc2f750b	-0.010709058
186	0xbc30c7f8	-0.010789864
187	0xbc512097	-0.012764118
188	0xbdf6d24a	-0.12051828
189	0xbd1beeaf	-0.038069423
190	0xbd36622a	-0.04452721
191	0xbd6187fe	-0.055061333
192	0xbd022efd	-0.031783093
193	0xbd561a6f	-0.052271303
194	0x3d7ecd58	0.06220755
195	0xbbf272ab	-0.0073989234
196	0xbd0e80ae	-0.034790687
197	0x3d2b6bf2	0.04185099
198	0xbe152bee	-0.14567539
199	0x3d865dfd	0.065608956
200	0x3da13ad2	0.07872547
201	0xbd68ba5a	-0.056818344
202	0x3d15a9b3	0.03653879
203	0xbd9453e8	-0.07242566
204	0x3d8e57b6	0.06950323
205	0x3bda2497	0.006657194
206	0xbd1d628d	-0.038424063
207	0xbd1e5adf	-0.03866088
208	0xbd12fecf	-0.035887536
209	0xbc253ffc	-0.010086056
210	0xbd64f736	-0.05589982
211	0xbdd388d8	-0.10328835
212	0x3d79a30c	0.06094651
213	0x3d03ce3b	0.0321791
214	0xbdb13550	-0.08652747
215	0x3cc921f4	0.024552323
216	0x3c4440c6	0.011978334
217	0x3d2d3263	0.04228438
218	0x3d79d242	0.060991533
219	0x3cd022e1	0.025407257
220	0x3dd9b50a	0.106302336
221	0xbd3b8167	-0.045777705
222	0x3d06731f	0.03282463
223	0xbdcd5576	-0.10026066
224	0x3d536f6e	0.05161994
225	0x3db03c08	0.086052
226	0x3d5a71b2	0.053331085
227	0xbd4b14c3	-0.049580347
228	0x3d29f261	0.041490916
229	0xbd251ab3	-0.040308665
230	0xbd1445d6	-0.036199413
231	0xbce50623	-0.027957028
232	0x3d9a7400	0.075416565
233	0x3cef34a0	0.029199898
234	0xbc54bc89	-0.012984403
235	0x3d9a849a	0.07544823
236	0xbd7039d1	-0.058648888
237	0xbd960dee	-0.073268756
238	0x3e33229d	0.17493673
239	0x3d2dcad3	0.042429756
240	0x3cf1b5d8	0.029505655
241	0x3beca8a9	0.0072222543
242	0xbd7cf4ce	-0.0617569
243	0x3d0841f7	0.033266034
244	0x3e4d079c	0.20022434
245	0xbd580539	-0.052739356
246	0x3dbdc843	0.092667125
247	0xbda68853	-0.081314705
248	0x3c98c037	0.018646343
249	0xbd54f6ee	-0.051993303
250	0x3d3193d7	0.04335388
251	0x3aaa0fab	0.001297464
252	0x3d975d4b	0.07390841
253	0x3cd88408	0.026430145
254	0x3c8df7a2	0.017329995
255	0xbc993787	-0.018703235

conv_block.2.lin_r.weight f4 [128, 128]
0	0x3d8a65fe	0.06757735
1	0xbcf0acc0	-0.029379249
2	0x3da40a12	0.08009733
3	0x3a425bdd	0.00074142014
4	0xbd26b1b5	-0.04069682
5	0x3d06e2a1	0.032930974
6	0xbdbd48e7	-0.09242421
7	0xbc5a099a	-0.013307953
8	0xbc9f8ede	-0.019477304
9	0x3d2715f0	0.040792406
10	0x3d390939	0.04517481
11	0xbd48efd9	-0.04905686
12	0xbd87f865	-0.06639174
13	0xbcc47631	-0.02398214
14	0xbd5f7c05	-0.054561634
15	0xbce552c7	-0.027993573
16	0x3bf51654	0.0074794684
17	0xbc8e1dad	-0.017348135
18	0xbd63a381	-0.05557585
19	0x3d555aa0	0.05208838
20	0xbccbad5a	-0.024862934
21	0xbd8293ef	-0.06375872
22	0xbda02483	-0.07819464
23	0x3d4ef1af	0.050523456
24	0x3ccc292e	0.02492198
25	0xbcb94a16	-0.022618335
26	0xbd84af4b	-0.06478747
27	0xbcb4d7e9	-0.02207561
28	0xbd072263	-0.032991778
29	0xbd97a15c	-0.07403824
30	0x3d6f6d24	0.058453694
31	0xbda6bec1	-0.08141852
32	0xbd935c06	-0.071952865
33	0xbd84f1c7	-0.06491428
34	0xbc5702f4	-0.013123263
35	0xbd91aaea	-0.071126774
36	0x3d394b3b	0.04523776
37	0xbd751503	-0.05983449
38	0x3db9063c	0.09034392
39	0x3cde4278	0.027131304
40	0x3d20014a	0.03906373
41	0xbd61ef5d	-0.055159915
42	0xbd42f6d3	-0.04759867
43	0xbd4d0286	-0.050051235
44	0x3c979539	0.018503772
45	0x3d57fa0a	0.05272869
46	0xbd9aae32	-0.07552756
47	0xbd8a3b69	-0.06749613
48	0xbcf96bf4	-0.030446984
49	0x3d65e35f	0.05612504
50	0x3d850f3b	0.064970456
51	0xbbfc9c76	-0.0077090813
52	0x3d80d12b	0.062898956
53	0xbbb2db95	-0.005458305
54	0x3d26db7c	0.04073666
55	0x3d0bf652	0.034170456
56	0x3d8498c4	0.0647445
57	0x3ca6caab	0.020360311
58	0xbd8785f2	-0.06617345
59	0x3d7fe1c8	0.06247118
60	0x3d8dd377	0.06925099
61	0xbc787117	-0.0151636815
62	0xbcbdf56b	-0.023188313
63	0xbdbabe9b	-0.09118386
64	0x3d682e7e	0.056684963
65	0xbd1ded25	-0.038556237
66	0xbb3ecc89	-0.0029113612
67	0x3d3faf7b	0.04679821
68	0x3d486381	0.04892302
69	0x3d8bc97c	0.068255395
70	0xbc6bc1eb	-0.014389495
71	0x3c9a3cc8	0.01882781
72	0xbcf18ca8	-0.029486015
73	0x3c65bbdc	0.01402184
74	0xbc5450e9	-0.012958744
75	0xbd94514a	-0.07242067
76	0xbd9b85b4	-0.07593861
77	0x3d14cebb	0.036329966
78	0xbc1c8a0c	-0.009554397
79	0xbd4d6f06	-0.05015471
80	0xbddad5d9	-0.106853195
81	0xbbbe1db8	-0.0058018826
82	0xbcd854ce	-0.026407626
83	0x3d5cede1	0.053937797
84	0x3d9e1fa9	0.077208824
85	0xbc653d19	-0.013991618
86	0xbd051b72	-0.032496877
87	0xbdbf9b01	-0.093557365
88	0xbd3b3255	-0.045702297
89	0x3da43451	0.08017791
90	0x3d7be7ce	0.061500363
91	0x3d968fcc	0.07351646
92	0x3da2a205	0.07941059
93	0xbd4f9a05	-0.050683994
94	0x3cec8ddf	0.028876243
95	0xbd8f4c41	-0.06996966
96	0x3dbfece2	0.09371354
97	0x3c9f3e8a	0.019439
98	0xbc9f73d6	-0.019464415
99	0x3c904b9e	0.017614182
100	0xbd46bd8c	-0.04852061
101	0xbcfcb4cc	-0.03084793
102	0x3d3bfa96	0.045893274
103	0xbc0757ef	-0.008260711
104	0xbc36b1ea	-0.011150816
105	0x3d9234ed	0.07139001
106	0x3dab2958	0.08357495
107	0xbc58f473	-0.013241875
108	0xbdcbb765	-0.09947089
109	0x3c8179f4	0.015805222
110	0xbd6a9537	-0.05727121
111	0x3c95d09d	0.018287951
112	0x3db5f280	0.08884144
113	0xbcbeae74	-0.023276545
114	0x3d6f0bba	0.058360793
115	0x3d4520b6	0.0481269
116	0xbd0607db	-0.032722335
117	0xbd86c656	-0.06580798
118	0xbd000ea6	-0.03126397
119	0xbda87cb9	-0.08226914
120	0x3d801f70	0.06255996
121	0x3ce1f70c	0.027583621
122	0xbd1ea5af	-0.038732227
123	0xbcd0f162	-0.025505725
124	0xbc8d24d0	-0.017229468
125	0x3cb8e87c	0.022571795
126	0x3d40f723	0.047110688
127	0x3da4bbde	0.08043645
128	0x3c14d644	0.009084288
129	0xbd0afbe6	-0.033931635
130	0xbe23dcbe	-0.16002175
131	0x3ccbb962	0.02486867
132	0xbc927243	-0.01787675
133	0xbdc1c04d	-0.094605066
134	0xbdb18b14	-0.08669105
135	0x3dc761d9	0.0973546
136	0x3cab99d0	0.020947367
137	0xbd9d2a4f	-0.07674085
138	0x3dd0a761	0.10188175
139	0x3d61bb79	0.05511043
140	0xbcdcb6df	-0.026942668
141	0xbc53f26e	-0.012936218
142	0x3c1e2c2a	0.009654084
143	0xbda04527	-0.0782569
144	0x3d442ee9	0.0478963
145	0x3ce72f0f	0.028220681
146	0x3b86c6aa	0.004113038
147	0xbd3b44db	-0.045719963
148	0xbdc69076	-0.096955225
149	0x3d21d033	0.039505195
150	0x3cb540d7	0.022125645
151	0x3b53025c	0.0032197451
152	0xbe08872b	-0.13332812
153	0x3d4aaea9	0.049482975
154	0x3ce54db9	0.027991163
155	0xbc770e24	-0.015079055
156	0x3d8e3ac1	0.069448
157	0xbd830afb	-0.06398579
158	0xbd7b224e	-0.061312012
159	0xbcb6c982	-0.022312883
160	0xbc30b9b3	-0.010786462
161	0xbca3029f	-0.01989871
162	0x3b5abdd5	0.003337731
163	0x3d0e5522	0.034749158
164	0xbb59f631	-0.0033258314
165	0xbda109a1	-0.07863165
166	0x3da500ee	0.08056818
167	0xbd9e33a4	-0.077246934
168	0x3d99a275	0.07501689
169	0x3b37f8c5	0.0028071862
170	0x3d308e1e	0.043104284
171	0x3bb5689a	0.005536151
172	0x3c984fa2	0.01859266
173	0xbd76eb6c	-0.06028311
174	0xbd9781e1	-0.07397819
175	0xbcc80d11	-0.024420293
176	0xbd306ded	-0.043073583
177	0xbced963a	-0.029002298
178	0x3de1df61	0.11028934
179	0x3b9b309a	0.0047360184
180	0xbd175e8d	-0.036955405
181	0xbd960e65	-0.07326964
182	0xbc91deba	-0.0178064
183	0xbd4643bd	-0.048404444
184	0x3c016122	0.007896693
185	0x3d054601	0.032537464
186	0xbd4dce1f	-0.0502454
187	0xbca5e464	-0.020250507
188	0x3b8247f5	0.003975863
189	0x3dd3a2a4	0.103337556
190	0x3d0d3e49	0.034483228
191	0x3ddd7f83	0.108153366
192	0x3d6b352a	0.057423748
193	0x3cd68780	0.026187658
194	0x3da49f15	0.08038155
195	0x3d7bdb84	0.061488643
196	0xbd407c8f	-0.04699379
197	0x3c9a1df7	0.018813116
198	0xbd917375	-0.071021
199	0x3d4ac34a	0.04950265
200	0xbcfa16ad	-0.03052839
201	0xbcf0ceb4	-0.029395439
202	0xbd64dcfe	-0.055874817
203	0x3d701bad	0.058620144
204	0x3d56f419	0.052478883
205	0x3c8a8bf4	0.016912438
206	0xbe1b34d0	-0.15156865
207	0x3e122318	0.142712
208	0x3c1bb9f9	0.009504789
209	0x3e31a759	0.17348994
210	0xbcc5922b	-0.02411755
211	0xbdf61653	-0.12015977
212	0xbd0ed407	-0.034870174
213	0xbc66381e	-0.014051465
214	0xbd4c922c	-0.049944088
215	0xbc63d6da	-0.013906205
216	0x3d51384c	0.05107908
217	0xbd6ad6d0	-0.057333767
218	0xbc28a4fb	-0.010293241
219	0x3ca4c63e	0.02011406
220	0x3c8819bd	0.016613835
221	0xbd1f8f61	-0.038955096
222	0x3d7bb781	0.0614543
223	0xbd853cb1	-0.065057166
224	0xbd1edf64	-0.03878726
225	0xbc536dde	-0.012904612
226	0xbd26c58e	-0.040715747
227	0xbd483fca	-0.04888896
228	0xbb92eadb	-0.0044835634
229	0x3d1ede0c	0.03878598
230	0xbacec858	-0.001577626
231	0x3df681aa	0.1203645
232	0xbd85de50	-0.06536543
233	0x3d23b8e4	0.039971247
234	0xbc808ec6	-0.01569308
235	0x3d4d5fb5	0.0501401
236	0x3dc4f4c5	0.096169986
237	0x3cc9d772	0.024638865
238	0x3d05b8b6	0.032646857
239	0x3d657a31	0.056024734
240	0x3daa85d4	0.08326307
241	0xbd3d8928	-0.04627338
242	0x3d78a0ab	0.0607001
243	0xbdb701da	-0.089359
244	0x3dfb4d2b	0.12270578
245	0xbd1442ca	-0.036196508
246	0xbc8fa56b	-0.017534932
247	0x3dae94c7	0.08524471
248	0xbc59331d	-0.013256815
249	0x3e096e88	0.1342107
250	0xbd6b99dc	-0.05751978
251	0x3d9af68e	0.07566558
252	0x3d3d1e23	0.04617132
253	0xbd098d4b	-0.033582013
254	0x3d23e5c0	0.04001403
255	0x3d8da812	0.069168225
