models/test_training/database_1/AUGMENT/test_gcn_6/GNN.pth (torch, 994696 bytes, 18 tensors)

input_layer.weight f4 [128, 9]
00000000: be6f af3e 4125 533e 563b 6f3b 81e3 9e3d
00000010: cbac eebd 4bda 94be 5402 a23d 2b85 cb3d
00000020: db14 5fbe 3466 0e3e 8fc9 91be 0185 9e3e
00000030: 6349 853e a6f7 b33d 8595 6ebe 9fc4 553e
00000040: a0ac 683d 67c2 b03d 86cf 5fbb cd96 8a3e
00000050: a3b7 12be 0090 99bd 9d9e a53d 7278 043c
00000060: ecca 8a3e 0b48 33be 4781 acbc a280 903d
00000070: 0b4f b5bd 30bf 703e 7749 92bb 3abc 9dbe
00000080: 20ea 13bd 68d0 1abe cbab 043d e8d2 38bd
00000090: 444a a9be 60cc 78bd 4bc5 02bd c04d c9bd
000000a0: 23f7 8f3e 10f5 94bd b325 963e d01b a93d
000000b0: 795b eebe c878 9cbb 1e26 7d3e 3044 5fbe
000000c0: 1ba1 5cbe 5665 993e a03b 823e 866d 3ebe
000000d0: 4865 4d3e cc4e 34bd ea43 a8be c922 d7bb
000000e0: bd41 dd3d f6c5 ccbd eda9 ff3d 27bd 9dbe
000000f0: c210 a43e cb7f 913e f43c 2c3e d6fe 90bb
00000100: c465 ae3d c9cd 75be 8b94 aabd 62aa 2abd
00000110: e2cc 41be 9b1d 7cbe 3896 653e 9ddf 693e
00000120: 5aff 9abe a005 feb9 6788 fd3d a58d 4f3e
00000130: 3acc 333e b5d7 903e 807f dfbd b310 6f3e
00000140: cc25 7e3e 532a a1be cbfe 88be eb2c 8a3d
00000150: 463d 693e 3094 29be cb5e 163d 56b5 fdb9
00000160: c6c9 ac3d 536a 37be c022 353e 5208 6b3e
00000170: 43d6 6cbe 2931 42bb ebc6 6dbb d55f 543d
00000180: 7a40 9f3e 8033 c83d ec4c 07be 9249 c13e
00000190: 78e3 01be 44c1 bcbd 6787 553d d4f6 81be
000001a0: 4a2b 523d 1896 67be 6b62 0c3d 866b 393d
000001b0: 41cb e0bb 26ec 8fbe b618 a2be 1eae e23d
000001c0: 78d6 9a3e e471 97be af2d 683e 4843 7bbe
000001d0: 79f2 0e3d 3105 cd3e 108c 4c3e f88f 79be
000001e0: 858f 1d3e 8014 113e 0008 06ba a3b0 d93e
000001f0: b391 07be 95fa c4bd c383 2cbe 4665 5ebb
00000200: 36da fc3d f618 8e3d fb0b 40be 26a8 19be
00000210: 10e8 813e 22a5 95be c3f8 16bd 56f4 f1bb
00000220: c34b 0abe 93d2 033e 7e45 82bb 0736 613e
00000230: 009c dcbc b86d 57be 702b 713e 1bfc 253d
00000240: b683 c3bd 48f9 60be 7002 a03d 16c6 a2be
00000250: b616 d63d b720 813e 7ab5 95be 2676 5fbe
00000260: 3f23 9ebe 7383 5c3e 75d9 923e 27c3 103c
00000270: 2a02 a13e 859c dbbd 4efc aabe 2900 113e
00000280: ebd8 f13d 9fb1 a43e 5655 cab8 6d4d 9e3e
00000290: a0fc 3d3e 4d5b 7d3e a75b a9be bac0 8d3e
000002a0: 3c7c 91be 2b01 993e 2926 94bc 6b3f 97be
000002b0: 7e22 133e 34ad b5bd ab4a 99be 6d6a febd
000002c0: 6082 743c b7e3 243e 3bdf d1bd e10c 453e
000002d0: e985 123c 6723 1bbc 3723 cd3d a301 60be
000002e0: c075 a1be 7687 1fbe 5309 9fbe 562e 1fbe
000002f0: ce95 9e3d 28ce 60be 6e95 0dbe 1310 5cbd
00000300: 804a 1dbd c66b 3cbe c77c bd3b 8ba3 3fbd
00000310: 5b3d c33d 6919 a73c 9873 2abe fb07 ebbd
00000320: 7240 a63c abfc 54be 6f31 8e3c ef1b 45bd
00000330: 02f7 043e 5690 a13d 5f26 773e 0009 34bc
00000340: 8636 7cbe fb63 2c3e 9eaf 66be 0100 8dbd
00000350: a088 07be 5e84 01be 6093 fcbd 71d8 8e3e
00000360: 2322 263e c08f 25bb de17 993e 72a9 9abe
00000370: 8f30 303d 8b91 783e ac34 8e3e 62d3 87be
00000380: 8616 d73d eb73 42be 2b65 55bc c673 8ebd
00000390: 2880 8ebe 28cd a2be 0090 60be 1fe5 b33e
000003a0: 5323 1c3e 8f70 94be 632f 00be 95fc 943c
000003b0: 54e7 9dbe cb75 383e 8e86 8e3e 0dc9 dc3c
000003c0: a09d 7dbe 4630 9f3d 5219 db3d 47c0 893e
000003d0: fb9c 35be 5686 9ebe 5f39 0e3e 2166 433c
000003e0: 78e4 fcbd bb06 0fbe 33ff 2fbe edcf 853e
000003f0: cb92 6bbd b4c0 9b3e dc64 923e e79c 5cbb
0.3426494 0.2061968 0.0036503873 0.07758237 -0.116540514 -0.29072794 0.079106 0.09937509
-0.217853 0.13906175 -0.2847409 0.3096085 0.26032552 0.087874696 -0.23299225 0.20875786
0.056805253 0.08630829 -0.0034150793 0.27068177 -0.14327864 -0.07498169 0.08086894 0.008085357
0.27107942 -0.17507951 -0.021057738 0.07055785 -0.08852967 0.23510432 -0.004464324 -0.30807668
-0.03611195 -0.15118563 0.032390397 -0.04512301 -0.33064473 -0.060741782 -0.031926434 -0.09829283
0.28118238 -0.072733045 0.29325637 0.08257258 -0.46554163 -0.0047751404 0.24721572 -0.21803355
-0.21545832 0.29960126 0.25436115 -0.18596467 0.20058167 -0.04402046 -0.32864314 -0.006565426
0.10803554 -0.099986956 0.12483583 -0.30808374 0.32044035 0.2841781 0.16820127 -0.00442491
0.08515504 -0.24004282 -0.083291136 -0.041666396 -0.18925813 -0.24620669 0.22420585 0.22839208
-0.30272943 -0.00048450846 0.12379532 0.20268877 0.17558375 0.2828957 -0.109129906 0.23346214
0.24819106 -0.31477603 -0.26756892 0.06746849 0.2277728 -0.16560435 0.036711495 -0.00048391026
0.08436923 -0.17911653 0.17689037 0.22952393 -0.2312861 -0.0029631353 -0.0036281894 0.051849205
0.3110388 0.09775448 -0.13212937 0.37751442 -0.12684429 -0.0921655 0.052131083 -0.25383627
0.051310815 -0.2261585 0.034273546 0.045268558 -0.0068601673 -0.28109854 -0.31659478 0.110683665
0.30241752 -0.2957908 0.22673677 -0.24537385 0.03489921 0.40043023 0.19975305 -0.24371326
0.1538678 0.14167976 -0.00051128864 0.42517576 -0.13239174 -0.09618107 -0.16847138 -0.0033934875
0.12346308 0.06938355 -0.1875457 -0.1500555 0.25372362 -0.2922755 -0.03685833 -0.0073838634
-0.13505463 0.12873296 -0.0039755693 0.21993266 -0.026929855 -0.21037948 0.23551726 0.04052363
-0.09546606 -0.21970093 0.07812965 -0.31791753 0.104535505 0.25220272 -0.29240018 -0.21822414
-0.30886266 0.21534519 0.28681532 0.00883559 0.31446964 -0.10723213 -0.33395618 0.14160217
0.11808952 0.32166764 -9.648006e-05 0.30918446 0.185534 0.2474186 -0.33077738 0.276861
-0.28415096 0.29883704 -0.018084602 -0.29540572 0.14368626 -0.088709265 -0.2993978 -0.12422643
0.014923662 0.16102491 -0.10247656 0.19243194 0.0089430595 -0.00946889 0.10016482 -0.21875624
-0.3153515 -0.15579018 -0.310618 -0.1554502 0.07743417 -0.21953642 -0.13826534 -0.053726267
-0.038401127 -0.18400487 0.005782697 -0.046786826 0.09533187 0.020397859 -0.16645658 -0.114761315
0.020294402 -0.2079951 0.017357556 -0.048122343 0.12984851 0.07888858 0.24135731 -0.010988474
-0.24630174 0.16835015 -0.2252793 -0.06884766 -0.13235712 -0.1264815 -0.12332797 0.27899507
0.1622396 -0.0025262684 0.29901022 -0.30207402 0.04301506 0.2427427 0.2777456 -0.2652846
0.10502343 -0.18989532 -0.013024609 -0.06955676 -0.2783215 -0.31797147 -0.21929932 0.35135743
0.1524785 -0.28992125 -0.12518077 0.018186847 -0.30840552 0.18013684 0.27837032 0.026951337
-0.2476716 0.07772879 0.10698189 0.26904508 -0.17735665 -0.30961865 0.13889073 0.011926205
-0.123482645 -0.13967411 -0.17187195 0.26135197 -0.05751304 0.30420458 0.28592575 -0.0033662857

conv_block.0.lin_l.weight f4 [128, 128]
00000000: 5727 773c 17a6 113d c1e4 56bd ce7f 053e
00000010: 6e08 643c 0b03 4cbc f482 583d deb5 01bb
00000020: b062 833c fc5d 483c 556d e0bd bb0d 4c3d
00000030: c7f3 aa3d dab7 0a3c 36b4 e9bd 15bc 013d
00000040: 6630 0f3d c4a1 93bd afd8 a03d c42b 643c
00000050: 5dae 243d a665 3dbd 1ed0 a9bd b9ce 95bd
00000060: 2689 413d 4c37 6dbe d8bb 1dbd f54c a4bc
00000070: 6c79 4e3d 9712 f4bd ab50 ad39 03d2 00bc
00000080: f74e 843c 56b9 7fbd 191a b9bc cd3c 6e3d
00000090: 497b 52bd b019 903d a03d 723d 8b5f 91bd
000000a0: 05ff 56ba 8a07 413d c10d 4bbc 1138 53bd
000000b0: f2cc 7dbd bc42 46bb bad4 6ebd c6ff 38bc
000000c0: f635 90bd a561 353d 0c1e 72bc dba5 113d
000000d0: b690 4fbc acb4 66bd 6c8a 69bd 9ac8 2fbd
000000e0: 1a51 23bc 85d7 5c3d 4c88 a53d 8c65 2b3d
000000f0: bea5 793d c5bf ae3c cbf2 01be 96cb 5b3d
00000100: e271 07bb c915 1e3d 7291 98bc 413d 8abb
00000110: 4975 bd3d 5c61 073d 70ab 3dbb f4aa 5a3d
00000120: d794 a43d c0a2 883d edcf ffbc e1d2 67bd
00000130: eaae 8c3d f40f 49bd e877 dcbd fb39 473d
00000140: 7493 cabb 37fd 9b3d 90a3 1bbc baa8 613d
00000150: 7b2b bd3d 43a7 6c3d d3ee 31bd 08bb c23c
00000160: 55f2 f5bd 60c6 103d a126 983c c243 4bbc
00000170: 23e1 163d d0aa 9bbd 5b0f 5a3d 26af 1e3c
00000180: c430 123d 75a7 f5bc ce0c 793c 3759 63bc
00000190: 039f 143c 8622 7c3c 98b6 b43d da61 713d
000001a0: 33fc 89bc 5746 33bb ba22 8f3d b900 a3bd
000001b0: 880a 7c3d 617c d63d d4ee d6bc 97ab c8bc
000001c0: e296 e6bb a702 c03d 1489 2ebd baad 7a3d
000001d0: 5591 63bd ef72 97bd c098 a2bd 08fa 1dbd
000001e0: 0550 373c 1923 cbbc 5e97 c53d 5b52 2a3d
000001f0: 5d00 50bd 634e 10bd 0f80 98bd 2eba 4abd
00000200: c56f 01be 74f4 f4bd 3491 233c 65f9 1ebd
00000210: 7c32 0abe 0860 993c 04df 99bd b81d a2bb
00000220: ef9c a43d b1f6 c6bd 84c7 d5bd a315 3dbd
00000230: b16a 45be 40e8 51be a48d 01be b08b b4bd
00000240: e152 8c3d 4960 483b e02f 8e3b 9a99 0c3e
00000250: 5f84 a03c be51 053e d065 b6bc bcbf cc3d
00000260: 3876 123c ac77 44be d9b3 a7bc d08a 2a3d
00000270: 2705 6d3d d5bf 8ebc 55f4 e9bd 7d96 2ebd
00000280: 87b4 2ebd a1c5 ab3d 0260 a73b 6dd6 54bd
00000290: fb45 08be 9c7f adbc 8101 b6bc b8c4 a6bc
000002a0: 565f 6dbd 5a1e d13c 469f 173d 61c1 ff3d
000002b0: 3d4d a0bd 623b e0bd 5db8 3bbd 2c0f 9f3d
000002c0: 8f32 aabb 9095 19be f04d a23d 47d0 9ebd
000002d0: 6965 06be c952 563c 80ee 34bd 7a45 d6bd
000002e0: 77b8 64be b4be b4bd 9076 63bd cd19 303d
000002f0: f77a a5bc 0253 f6bd aac4 0d3d b59a f23c
00000300: e0a1 81bd da1a c13c b199 3ebe f9fd 363d
00000310: 7591 953c dfe8 103d e6e3 113e 270e ab3d
00000320: c9d7 9d3d e6b2 03be 530a 5abd f72f b23d
00000330: 1ed3 273c e168 0fbe bc1e 173e a8de 19be
00000340: 88b0 7f3d 719b fbbd 9e5a 173e 7b9e e53d
00000350: bf91 6a3a f1ee 1f3a 6bd0 673d 42da 49be
00000360: 5239 00be 59da 5dbd ee8e ef3d d0bd fc3d
00000370: 4bc3 983d 4dc7 67bd dbba 1d3d da88 b33d
00000380: e1a0 d3bd 4918 9a3d bbdb 4abc 2573 c23d
00000390: 4e0b 883d dc5f b8bd c52b debd ea81 6abd
000003a0: 73e6 913c 91d5 50bd 32ec c23c 3a83 32bc
000003b0: 8559 69be e319 25be ed76 e53d f3d4 9e3c
000003c0: add7 99bd d5cb e03c 1be8 4b3d 732a 8cbc
000003d0: 4aed eebc 10da 0dbe f9d4 f33c f42a 1fbe
000003e0: 516a 64bd 480b 213e 60ba fbbd b9c4 09be
000003f0: 89e3 8f3c 2bb6 5dbe 927a abbd 845f 5b3d
0.015085063 0.035558786 -0.05246425 0.13037035 0.013918025 -0.012451897 0.05285926 -0.001979224
0.016038269 0.012229439 -0.109583534 0.049817782 0.08347278 0.008466685 -0.11411326 0.03167351
0.034958266 -0.07208589 0.07853829 0.01392645 0.04020535 -0.046239518 -0.08291648 -0.0731482
0.047249936 -0.23165625 -0.03850922 -0.020056227 0.050408766 -0.11917608 0.00033057234 -0.007862571
0.016150935 -0.06243261 -0.022595452 0.058163453 -0.051387105 0.070361495 0.0591408 -0.070983015
-0.0008201453 0.04712633 -0.012393416 -0.05156714 -0.06196303 -0.003025218 -0.05830834 -0.01129145
-0.07041542 0.044282574 -0.014777672 0.035558563 -0.012668779 -0.056324646 -0.057016775 -0.042915918
-0.009968067 0.053916473 0.08082637 0.04184489 0.06094908 0.021331677 -0.12690274 0.05366095
-0.0020667245 0.038594995 -0.018624041 -0.004218728 0.09250886 0.033051834 -0.0028941296 0.05338569
0.080362014 0.06671667 -0.031227076 -0.056597594 0.068693 -0.04908748 -0.10765058 0.04863928
-0.0061821286 0.07616656 -0.009499446 0.05509255 0.09236809 0.0577767 -0.04344065 0.023770824
-0.12009112 0.035345435 0.018573107 -0.012406291 0.0368358 -0.07600939 0.0532373 0.009685313
0.035691038 -0.029987076 0.015200807 -0.013876251 0.0090711145 0.01538909 0.088238895 0.05893121
-0.01684389 -0.0027355158 0.069890454 -0.07959122 0.06153348 0.10472942 -0.026236929 -0.024495883
-0.0070370296 0.09375506 -0.042611197 0.061200835 -0.05555852 -0.07394969 -0.07939291 -0.038568527
0.011188512 -0.02479701 0.096480116 0.041582447 -0.050781596 -0.035231005 -0.074463 -0.04949396
-0.12640293 -0.11960688 0.00998335 -0.03881206 -0.13495821 0.01872255 -0.0751324 -0.0049473904
0.08037745 -0.097150214 -0.10438445 -0.046163213 -0.19278981 -0.20498753 -0.12651688 -0.08815706
0.068517454 0.0030574969 0.0043392032 0.1373047 0.01959437 0.13019463 -0.022265345 0.09997508
0.008939318 -0.19186276 -0.0204715 0.04163629 0.05786624 -0.017425457 -0.11423556 -0.042623986
-0.042652633 0.08387304 0.0051078806 -0.051962305 -0.13307945 -0.021179013 -0.022217514 -0.020357475
-0.057952248 0.025527168 0.03701713 0.12488056 -0.07827232 -0.109488264 -0.04583012 0.07766566
-0.0051940153 -0.1499846 0.07925022 -0.077545695 -0.13124622 0.013081261 -0.044172764 -0.1046247
-0.22335993 -0.08825436 -0.055532992 0.042993356 -0.020200236 -0.12027551 0.03461138 0.029614786
-0.06329703 0.023572374 -0.18613316 0.0446758 0.018257836 0.035378333 0.14247093 0.08352309
0.077071734 -0.12861213 -0.053232502 0.08700555 0.010243205 -0.14004852 0.14757818 -0.15026343
0.062424213 -0.122855075 0.14780661 0.112118684 0.00089481095 0.00061009737 0.056595247 -0.19712165
-0.12521866 -0.05416331 0.116971835 0.12340891 0.07459124 -0.056586552 0.038508277 0.08766337
-0.103334196 0.07524163 -0.012381489 0.09494618 0.06642781 -0.09002659 -0.10848192 -0.057252802
0.017810082 -0.050984923 0.023794267 -0.010895545 -0.22788055 -0.16123156 0.11204324 0.019388651
-0.0751184 0.027440945 0.0497819 -0.017110085 -0.029165883 -0.13852715 0.02976464 -0.15543729
-0.055765454 0.1572696 -0.122914076 -0.1345395 0.017564552 -0.21651523 -0.08372988 0.053557888

conv_block.0.lin_r.weight f4 [128, 128]
00000000: 6ac5 35bd 4355 c5bd ee5b b2ba 94ed 963c
00000010: efea 8f3d daea 41bd bf6d 973d 7786 583c
00000020: ca0c 063c 40fa 1d3d 442c 943d 941c 423d
00000030: e5f4 583a c6b0 b63d a669 f5bc 8b74 3fbd
00000040: 8312 8b3d 1c5b 9cbd 495e 61bd d2b7 e1bc
00000050: 5213 e83c b708 85bb 8339 98bd 8d59 043d
00000060: af4b b43d 7ca9 143e ea2f 82bd 2a8b a23d
00000070: 6ab1 15bc 331e 373d e7c5 11bd 4c54 c73d
00000080: 562e 32bd 9410 83bd 4d3a 3f3d 870d 95bd
00000090: 0dc5 2bbd 9fc7 153d fc86 ca3d 3683 4bbc
000000a0: e402 adbc bb1f 81bd 0fb3 093d 408e 55bd
000000b0: 74af c33c b22e 353c 789f 3bbd 982f 103d
000000c0: e85e 9dbd 355c 03ba 497f b6bd bf8e 913d
000000d0: 45df 6abd 5166 23bd 31cd 2d3d 9ffc debc
000000e0: 7267 2b3d 7b0f 813b 4662 c5bc b9a6 0d3d
000000f0: e770 4dbd 1e9b 353d 072c 2bbe f64d 833b
00000100: 1e99 bb3d 0bc7 fe3c adc4 30bc 09f7 3f3c
00000110: 5c01 ba3d 2501 be3c 8e2c 863d c0e3 b43d
00000120: cd12 2cbc 660d 913d b3d9 723c f68e 3dbd
00000130: 8656 31bd 921d c9bc e90f 33bc e424 723d
00000140: 674d ac3d 9832 dabd f39b 85bd 5ff6 d93b
00000150: 7d89 b2bd fab3 3b3d 9a7e f9bc 9dc5 84bd
00000160: c249 5f3b 7910 02bd e094 db3d c5f9 0e3e
00000170: 7d5c 72bd 977f 493d 3638 c43c f064 473d
00000180: b4c5 903d f970 673d ec86 9dbd e416 2d3d
00000190: 07ad 593d c65e aa3d a16f fd3c 10e4 8bbc
000001a0: 6661 df3d f8df a0bd c89c e43b d391 6ebd
000001b0: fc5e 05bd 6bae 903d f935 5f3d 1163 b13d
000001c0: 7657 803c d5d8 e73c a930 cd3c 58ea a23d
000001d0: faa4 093d 243d e53b 36fb b4bd 1f8e e7ba
000001e0: d0ab acbd 97e4 923d 88a8 a93d d2fc f63c
000001f0: 3d02 bf3c 0f19 1cbc d7ea a0bd 254c c3bd
00000200: 057f 1bbd 38be dabd 8a5d ccbd e055 cbbc
00000210: a092 573d 88ac 55bd 55d7 303d b27d e03d
00000220: 3e30 413d 34d3 07bb ecef 8f3d 67c0 ba3d
00000230: 1c41 2ebd 749c 2e3c c94d a03b aa9c ccbd
00000240: 1399 4cbe bf4c 943d 305f cdbd 36a0 f0bc
00000250: 2394 50be 8759 0c3c dceb ecbc 5a62 79bd
00000260: c47a e4bd fc55 14be 0c0e d83d be59 9b3d
00000270: 362a afbd 82b3 403d a647 1aba f21a da3b
00000280: 9983 a13c 61da 90bd d204 babd 14a8 db3d
00000290: 8036 dabd 23c9 7ebd f9bf 6a3b db5e 7ebd
000002a0: 366e 7dbd 8e3d a73b 5f5f 1a3e cbd3 1abe
000002b0: 7726 d7bc d476 6eba 9bf6 383d fa30 be3d
000002c0: 747c cd3d 0c25 873d a446 333d 0439 d6bc
000002d0: bbec 6d3d f4bd a13d bc56 03bd 4c09 74bc
000002e0: 3666 d8bc 4f8b 8d3d 1230 0ebc 1798 94bd
000002f0: 8f57 cdbd 4fdb 84bc 72b7 ebba 02de 49bd
00000300: 0fbc d3bc 2a6c 913d 1fc5 933a 6b27 d73d
00000310: b84a fabd abcc e9bd 4e97 363d 9717 903d
00000320: e022 073d 9e44 733c f3e9 21bd fa8f a2bc
00000330: d1cf b63d 0ac4 e93c d4f5 9fbc df94 3b3d
00000340: d366 be3d e76b 48bc 06d7 c33b 3ef2 bbbd
00000350: 787e 77bc 8fa4 14be 82b5 ecbd 0b2a aabc
00000360: 6b96 cabc 24ca a63b 5a0c aebd aea3 febc
00000370: 245e 743d 9c86 4fbd 9ed6 723d 9af9 ed3c
00000380: c190 f63c 7e57 81bd 60b3 2e3c 7f34 ad3c
00000390: e002 ffbc 205c f3bc f3bb da3b cddb b2bd
000003a0: 3956 00be 5224 7a3d 47c6 3dbd 3728 0c3e
000003b0: abfa 96bc 4354 473c da38 c2bd bfab f23c
000003c0: 1f29 053d 314f 6e3d 8eee cf3d 9199 c43d
000003d0: ee27 bcbd b901 babc 630e d03d c643 233a
000003e0: a978 12bd 3e36 75bd 7fc0 e63d 1b64 bc3d
000003f0: b2c5 02be 32f8 1c3d a866 9c3d 8c66 76bd
-0.04437772 -0.09635403 -0.001360772 0.018423833 0.07027232 -0.047343113 0.07393979 0.013215653
0.00818176 0.038568735 0.072350055 0.047390535 0.0008276238 0.089204356 -0.029957604 -0.046742003
0.0679064 -0.07634565 -0.055021558 -0.027553473 0.028329525 -0.004059877 -0.074328445 0.032311965
0.08803498 0.14517778 -0.06356795 0.079367 -0.009136537 0.044706535 -0.035589125 0.09732875
-0.04350122 -0.063996464 0.04668646 -0.07277971 -0.04193597 0.036567327 0.098890275 -0.01242142
-0.021119542 -0.0630488 0.03361803 -0.052137613 0.023887374 0.011058496 -0.045806378 0.03520164
-0.076841176 -0.00050109933 -0.089109965 0.07107305 -0.057341833 -0.0398925 0.042432014 -0.027220068
0.0418467 0.003938613 -0.024094712 0.034582827 -0.0501565 0.044337384 -0.16716014 0.0040070964
0.09160064 0.03110077 -0.010789079 0.011716613 0.090822905 0.023193905 0.06551467 0.08832502
-0.010502529 0.07082634 0.014822411 -0.046278916 -0.043295406 -0.024550233 -0.010929086 0.059117213
0.08413201 -0.10654181 -0.065238856 0.006651684 -0.0871763 0.045825936 -0.030455876 -0.06483004
0.0034071063 -0.03175399 0.10721755 0.13962467 -0.059170235 0.049193945 0.023952585 0.048680246
0.07068959 0.056504223 -0.0769175 0.04225816 0.053143527 0.08318858 0.030937018 -0.017076522
0.10907249 -0.07855219 0.0069766976 -0.058244538 -0.032561287 0.070645176 0.05449483 0.086614735
0.015666705 0.028301636 0.025047617 0.07954854 0.0336046 0.006995814 -0.08836977 -0.0017666257
-0.08431208 0.07172506 0.08284098 0.030149851 0.023316497 -0.009527459 -0.07857292 -0.09536008
-0.037962932 -0.106808126 -0.09978779 -0.024821222 0.052630067 -0.05216649 0.043174107 0.109614745
0.047165148 -0.0020725252 0.07028183 0.09118729 -0.042542562 0.0106574185 0.004892085 -0.09990819
-0.19980268 0.07241201 -0.10027921 -0.02937327 -0.2036901 0.008566267 -0.02892106 -0.06088481
-0.11156228 -0.14485925 0.10549554 0.07585476 -0.08552973 0.047046192 -0.000588531 0.006656044
0.019716071 -0.070729025 -0.09082951 0.10725418 -0.10654926 -0.062203538 0.003581999 -0.06210218
-0.061872683 0.0051037734 0.15075444 -0.15119855 -0.026263459 -0.0009096686 0.045157056 0.09286685
0.10033503 0.06598863 0.04376854 -0.026150234 0.058087092 0.07897559 -0.03206514 -0.014894795
-0.026415925 0.06911337 -0.008678453 -0.07255571 -0.10026466 -0.016217856 -0.0017983748 -0.04928399
-0.02584651 0.07100709 0.0011273957 0.10505565 -0.12221283 -0.114159904 0.04457789 0.070357494
0.032992244 0.014847903 -0.039529752 -0.019844044 0.089263566 0.028535862 -0.0195264 0.04579627
0.09296956 -0.012232757 0.0059765605 -0.091770634 -0.015105836 -0.14515899 -0.11558057 -0.020772
-0.024729928 0.005090015 -0.084984496 -0.031083908 0.059660092 -0.050665483 0.059286706 0.029049683
0.03009832 -0.06315516 0.0106628835 0.021143196 -0.0311293 -0.029707015 0.0066752373 -0.0873333
-0.12532891 0.061069794 -0.04633167 0.13687216 -0.018430075 0.012166086 -0.094835 0.02962291
0.03250992 0.05818099 0.101529226 0.09599603 -0.091873035 -0.0227059 0.10158994 0.00062280556
-0.0357596 -0.059866183 0.112671845 0.09198781 -0.12770727 0.038322635 0.076367676 -0.06015639

conv_block.1.lin_l.weight f4 [128, 128]
00000000: ed6c 32be 91de 47bd c05a 183d 0089 a3bd
00000010: 344f 6bbe a140 953d 52ff 28ba 729a 823d
00000020: e6dd a038 205e 803d 720b cf3d 0a93 8bbd
00000030: 1a50 903d 3169 f1bd d144 8a3d 91c4 a53c
00000040: 7ffa b3bb 738f 43bd 0f26 81bd 0794 ce3d
00000050: 5894 35bd 8d13 2dbd 34f7 593d 4ee8 64bc
00000060: 936c 7b3d c598 2fbe d906 823d 7c5f ec3c
00000070: b268 fe3c 4a67 453d dd1d 2ebd b6f6 19bd
00000080: 2c66 1e3a cf44 f3bb f986 32bd 4103 b13d
00000090: 24e7 f5bc 191b a9bd 8246 84be eac2 87bd
000000a0: 6d89 8d3d c39e c7bc 0c04 53be 5d70 adbc
000000b0: 2e84 cabd 7807 643d 61de c73d 4f2f 4a3d
000000c0: 6014 bb3b 3331 b6bd f000 903d 3fda 083d
000000d0: 2cb8 0d3e 45ab fc3d ee99 84be 66f9 133d
000000e0: 7591 8b3c 1868 92bd 0234 1e3d 2826 7b3d
000000f0: 6fa7 aa3d a4c8 00bd a77b fcbc 390d 9fbc
00000100: 71be 0b3d a2e0 803d 0bd7 77bd d5f5 6bbc
00000110: c9e7 95bd 6743 b1bd ba42 41bd 7186 fd3c
00000120: 9bd9 78bd b2ff 733c 0427 5dbd d35a d4bd
00000130: 29d7 5c3d dc2b 2b3c 288c 68bd 79ef d3bc
00000140: 96f8 ea3d f247 53be 2835 7c3d d60a 83bd
00000150: e338 723b 8a8c ba3c 3029 063d 2b39 d6bb
00000160: 8621 1ebc ee30 a3bc f2b8 b53b 554f 83bd
00000170: 639f bd3c 45e6 0abd 6221 a03d bbbd 4ebd
00000180: f18f b9bc e83e 573d 0086 97bb 8651 7a3c
00000190: cc6a 72bc 79d6 c83c 0ddf df3c 4d56 ce3c
000001a0: 260c 5bbd 82f2 2e3c 7a8d 7abd 7755 393e
000001b0: 3adb 8f3c 26f4 cf3d c121 793d 459a df3c
000001c0: c64a e0bc 5212 a9bd de7f a1bd 7c13 113e
000001d0: ca87 1fbe c39b 3fbd 55f2 c9bd 621b aebb
000001e0: af0e 3a3c 6b56 13bd 33c2 bd3c 696b 803d
000001f0: c55c 5bbd eb66 69bc b6c1 7b3b 19b4 303e
00000200: 9c7f 743d b2d2 25bd 28fa a23d 069f 93bd
00000210: 7a72 7a3d 9f51 763c f995 8f3d 81b5 943d
00000220: 91bf 1abd 9935 6cbc c3b8 cf3c 99d3 8b3d
00000230: b66b c53d fde7 f2bc 1dc2 603d fae4 37bd
00000240: 0181 de3c 3c68 1e3e 537d ea3b 2655 6abd
00000250: 2846 b9bd 9066 b43d d578 cb39 6fdf a3bd
00000260: cdad 153d 5647 85bd 3444 173d 7d54 913d
00000270: 2715 2a3c 87b4 04be ec35 8abd fc79 c23c
00000280: 4c44 0f3e 20be 56bd 142b abbd ac8d 9a3d
00000290: 00c1 293d 9b86 383d 7c51 163d e0ae 2e3e
000002a0: 8502 dcbc 3525 88bd 70c7 d5bd 8088 babc
000002b0: 2a7e 15bd c91b 85bd dc0d cc3d 5115 d73c
000002c0: 5959 a8bd 4e86 8b3d 20f0 aebd da2e eebc
000002d0: 2989 c03c 0c7f 3bbd 170b 30bd 23b2 a63d
000002e0: ee68 8d3a eccd 91bc e916 19bd 39c3 49bd
000002f0: 8e54 65bd ff06 903d 164d 3dbd fd15 75bd
00000300: 6b1d ab3d a434 1c3c 8d5e 463d 54f6 e13c
00000310: 7e54 babd c591 b03d 28d5 a9bd 31ab 3ebd
00000320: 6e13 083d c95f b9bc bb0f 23bd a9ba 663d
00000330: 0d69 fbbb 6972 853d 22b2 67bc f2c3 4c3d
00000340: b74e 233d f386 a43d 855c 073c d4f5 a53c
00000350: 72af 913d 06de a13d 38fe 8d3d 70cc 80bc
00000360: c6b5 8d3c 2fb9 dfbb 40f0 8b3c 2656 823d
00000370: 559b 0d3d 48d2 99bc 2f80 96bd 8e7b 8ebd
00000380: c4f5 0c3d 6a0f 693c fdf4 f5bc 9536 52bb
00000390: 9873 66bb 2df7 7fbe b963 82bd 274f f93d
000003a0: e944 01bd e7d7 6abd 49a5 dc3d ffdd d0bd
000003b0: bdf2 043d 01a3 603d 39a4 1b3e c535 633c
000003c0: 1e7f 643d 888e 513d c2c9 60bb 2473 763d
000003d0: a347 243d c340 bfbc 913e 76bd a838 b73d
000003e0: cf2b 8e3d 9da2 993d 667a 7fbb ddce 8bbd
000003f0: 4388 263e 7667 673c a5a1 1f3d 88c4 15bd
-0.17424364 -0.04879624 0.03719592 -0.07985115 -0.22979432 0.072877176 -0.0006446737 0.06377114
7.670726e-05 0.06267953 0.10109605 -0.06815155 0.07046528 -0.11787642 0.06751407 0.020235332
-0.005492508 -0.047744226 -0.06306087 0.10086828 -0.044330925 -0.042254973 0.053214267 -0.013971401
0.06138284 -0.1714812 0.06348962 0.028854124 0.031055782 0.048194207 -0.04250895 -0.037588798
0.00060424465 -0.007423974 -0.04358575 0.08643199 -0.030017443 -0.082571216 -0.25835043 -0.06628974
0.069109775 -0.024367696 -0.20607013 -0.021171743 -0.098884925 0.055671185 0.09759212 0.049361523
0.005709216 -0.08896103 0.07031429 0.03341126 0.13839787 0.123373546 -0.2589869 0.036126517
0.017037133 -0.071487606 0.038623817 0.061315686 0.08332717 -0.031441346 -0.03082068 -0.019415485
0.034117166 0.06292845 -0.060507815 -0.014401873 -0.073196 -0.08655434 -0.047182776 0.030947896
-0.0607544 0.0148925055 -0.053992286 -0.10368886 0.05391613 0.010447469 -0.05677429 -0.025871025
0.11473195 -0.20632914 0.06157413 -0.06398551 0.0036960177 0.022772092 0.032754123 -0.0065375767
-0.009651547 -0.019920792 0.005545729 -0.06411616 0.02314729 -0.03391101 0.07818867 -0.05047391
-0.022651644 0.052550226 -0.0046241283 0.015278226 -0.01479597 0.024516331 0.027328039 0.025187636
-0.053478383 0.010677936 -0.06117008 0.18099009 0.01756059 0.101539895 0.060823206 0.027295241
-0.027379405 -0.082554474 -0.07885717 0.14167589 -0.15579143 -0.046779405 -0.09860674 -0.005313323
0.01135604 -0.035971086 0.02316389 0.06270487 -0.05355527 -0.014245729 0.0038415021 0.17256202
0.05969201 -0.040484138 0.0795787 -0.07208066 0.06114433 0.015034108 0.07011027 0.072611816
-0.03778035 -0.014417076 0.025356656 0.068274684 0.09639685 -0.029651636 0.05487262 -0.044896103
0.027161123 0.1546945 0.007156053 -0.05721011 -0.09046584 0.08808625 0.00038809204 -0.08001601
0.036542702 -0.06507747 0.036930278 0.07096193 0.01038102 -0.1295949 -0.06748566 0.023739807
0.13990897 -0.05242741 -0.08357826 0.07546553 0.041443825 0.045050245 0.036698803 0.17058897
-0.02685667 -0.06647722 -0.1043843 -0.022770166 -0.036497273 -0.0649944 0.09963581 0.026255282
-0.08220167 0.06812726 -0.08541894 -0.029075075 0.023502903 -0.04577546 -0.042979326 0.08139446
0.0010788718 -0.017798387 -0.037375364 -0.049258444 -0.05598884 0.070325844 -0.046216093 -0.059835423
0.083552204 0.009534035 0.048430014 0.027583279 -0.09098147 0.08621553 -0.082926095 -0.04654998
0.033221655 -0.022628682 -0.039809924 0.056330357 -0.007672435 0.06515963 -0.014141591 0.049991556
0.03986999 0.08033552 0.0082618045 0.020258822 0.07113542 0.07903676 0.06933254 -0.015722483
0.01729859 -0.0068274955 0.017082334 0.06364088 0.034571964 -0.018777028 -0.07348668 -0.0695716
0.034414068 0.014224866 -0.030024046 -0.003207599 -0.0035164114 -0.24996634 -0.06366677 0.121733
-0.03155986 -0.057334807 0.10773713 -0.101985924 0.032458056 0.054842953 0.15199365 0.0138678
0.05578529 0.05116132 -0.0034299945 0.0601684 0.04010738 -0.02334631 -0.06011826 0.08946353
0.069419496 0.07501719 -0.0038982867 -0.068265654 0.16262917 0.014123788 0.038972516 -0.03656438

conv_block.1.lin_r.weight f4 [128, 128]
00000000: c699 4bbd d0a1 97bd a53e 253e f1f6 84bd
00000010: 2a79 f3bd 6fbe a93c 054c 7cbd bc65 873d
00000020: c426 55bc dd81 9ebd e304 5d3d f0dd 4dbd
00000030: 8794 c1bd 0f1a c63d 04b7 b9bd 5018 803c
00000040: b17c 033d c9fd 14bd 4a3a 02bd fbab 1b3d
00000050: d0a7 bb3c 5a04 0abe deb2 9fbd 4166 eb3d
00000060: 0e07 42bc a407 52bd 8ae7 9f3c 1e06 f73a
00000070: d326 90bd 3b30 e23d 2d88 f2bc 0058 703d
00000080: 656a 29be e371 5f3c 00e9 a93d 416c db3c
00000090: 1daa 883d 2ef7 9ebc cd67 91bc a0c1 0fbd
000000a0: be6b 4cbb d4c5 af3d 8470 5c3d af60 e3bd
000000b0: d729 6c3d 0f29 e3bb c7cb 97bd f10e 8a3d
000000c0: 346e 47bd c282 443d 5ebf b1bd 53ec 553d
000000d0: 79d9 223c 7657 943c c709 09be 402e 3dbd
000000e0: 8758 79bd 8b6b eb3d be34 91bd 9e1f 2bbd
000000f0: 3aaa 9d3d bc2a 01bd bdca 8c3d 5932 d0bc
00000100: 45b3 98bc 8b96 94bd 525b 6c3d c678 803d
00000110: 30c0 2abb 5ed0 943c 5a7b 0abd dea7 453c
00000120: 50dd 973d 9b6f 97bd a2ad 20bd c22d b63d
00000130: 6e4c 30bb 8bd8 083d 8a1c e73d d1bb 143d
00000140: 3b7f 2abd 8d55 15be 3694 903d ee5e d5bc
00000150: 7384 51bd f7eb 553d c4dd 1d3d d0a5 31bd
00000160: d19f 783d df55 833d 3fb9 4fbc 24ae f53b
00000170: b333 0bbd 1045 8dbd 5e95 913c 0371 20bc
00000180: 9f90 4d3d 2b9f 18bd ee2c d0bc fa07 0b3e
00000190: 6dee 7e3d 2079 e13c bf16 0d3d 27f7 e0bc
000001a0: 7e00 e1bc e9af c7bc 1aaf b8bd 4d02 9fbb
000001b0: 0db1 de3d 9b3a 25be 97f0 febd 1a91 29bb
000001c0: eba9 91bd 5952 903c 8f7f ee3b 4711 32be
000001d0: a2b7 0c3e cc13 04be 8c1d 4cbc 10ef 733d
000001e0: 8b29 7f3d 1c00 2ebd 13b0 92bd 2a06 b6bd
000001f0: 7322 96bc e76f e33c fc6d c2bc b30d ccbd
00000200: 83e4 84bd 7dfb 563d b981 473c f8a8 85bc
00000210: 0987 78bd 1b32 87bd 6dec c83c bda3 26bd
00000220: a82a 7dbd 1d20 93bd 344b f1bd 3858 603c
00000230: f307 263d 447a c6bc c076 2dbe 1c27 16ba
00000240: 2f5a c6bb f429 18bf a33c ffbb 044c 633d
00000250: 7cb8 09be bdb0 d7bd 74ed 25bd 41a1 d3bc
00000260: 5e68 0cbe a678 f8bd bb34 833d 0f1b d2b8
00000270: a161 a53d 83aa 99bd bcd5 38bc 471e 28bd
00000280: 4e6e 77bc be45 863d b943 25bd fc9c 5ebe
00000290: a9c5 9eba ba3f 423d c99e 6cbe 6610 00be
000002a0: c4b8 7b3d e3b5 89be 4c98 323e 51fd ae3c
000002b0: 6370 b8bd 49c3 06bd 90cd 24bb 26d3 b4bd
000002c0: e859 1cbb eba7 013c 6345 2a3d 17eb a4bd
000002d0: eaf4 e0ba fb2d 7cbd 657f a9bd f537 18bd
000002e0: 3a72 5abd 35de 873d ac22 9fbd 448f ddbc
000002f0: da13 863c 3cdd 3c3d 38fa 20bd b48a 47bd
00000300: 96b7 ad3d f9cb 98bd b7c9 e2bc a110 7e3d
00000310: 2fb9 5f3e 2811 46bd 994d 5fbc f437 d0bc
00000320: 512f fd3c 6fe5 a53d 5ce4 49bd 932d babd
00000330: c1c0 cbbc a796 c3bd 18fa 46bd 54b2 85bd
00000340: 5cd9 cdbd 9c7a fb3c 44c8 dbbc 37b2 9abc
00000350: 7dbd a8bd 6841 8f3c 7584 3bbe b597 adbd
00000360: 683a 20be 8d07 d43c ad80 90bc 5abc a93c
00000370: 7b64 45bd ed5d 513c 23b3 813d 72a2 f2bc
00000380: 0ee2 4a3c c044 3fbe e991 1c3c 978f e0bc
00000390: d15d 8cbd 8bef 8a3d 8a3e abbc b3a9 0cbd
000003a0: cfb2 903d d1b6 cf3d 6a13 0cbe c991 fabd
000003b0: 6381 afbd aa4c 04bd 0082 ebbd 6fd6 2a3d
000003c0: 2258 773d ff80 84bd 3cfa fc3c 925b 863d
000003d0: 5894 9b3d 9330 b13b cff5 7c3d b854 99bd
000003e0: 54ac 45bd 4d93 4fbd e5f9 92bc 3500 10bc
000003f0: 586a fdbc eb9a 86bc 71fb 333c f41b 003d
-0.049707197 -0.0740391 0.16137178 -0.06492413 -0.118883446 0.020720689 -0.061595935 0.06611201
-0.013009731 -0.07739613 0.05395974 -0.050260484 -0.094521575 0.09672939 -0.090681106 0.015636593
0.032101337 -0.03637484 -0.03179387 0.03800581 0.022907168 -0.13478222 -0.07797788 0.11494113
-0.011842502 -0.051276818 0.019519586 0.0018846428 -0.07038655 0.110443555 -0.02960595 0.058677673
-0.16544493 0.013637993 0.08296394 0.026785018 0.066730715 -0.019404974 -0.017749691 -0.035096765
-0.003119215 0.085826546 0.05381824 -0.11102425 0.05765709 -0.006932385 -0.07411914 0.06741131
-0.048689082 0.047976263 -0.086790785 0.05222733 0.009939545 0.01810811 -0.13382636 -0.046186686
-0.060875442 0.114951216 -0.07090138 -0.0417782 0.07698484 -0.031534895 0.06874607 -0.025414633
-0.01864017 -0.07255276 0.057704277 0.06273036 -0.0026054494 0.018165763 -0.033809043 0.012063948
0.07415259 -0.07394334 -0.03922809 0.08895446 -0.0026901024 0.033409636 0.1128474 0.03631193
-0.041625243 -0.14583416 0.07059519 -0.026046243 -0.051151704 0.052226987 0.03854157 -0.04337102
0.060699288 0.06412863 -0.012678443 0.007497566 -0.03398485 -0.06897938 0.01777142 -0.009792569
0.05018675 -0.03726117 -0.02541205 0.13577262 0.0622391 0.027523577 0.03444552 -0.027461601
-0.027466055 -0.024375873 -0.09017773 -0.004852569 0.108736135 -0.16135637 -0.124482326 -0.002587384
-0.071124874 0.017617391 0.0072783898 -0.17389403 0.13741925 -0.12898177 -0.012458216 0.05955416
0.062295478 -0.042480573 -0.0716249 -0.088878945 -0.018326974 0.02776332 -0.023734085 -0.099635504
-0.06488898 0.05248593 0.012176924 -0.016315922 -0.060675655 -0.06601354 0.0245268 -0.040683497
-0.06180826 -0.071838595 -0.11781922 0.013692908 0.040534925 -0.024228223 -0.16939831 -0.00057278736
-0.006053231 -0.59439015 -0.007789211 0.055492416 -0.13449281 -0.10531757 -0.040509656 -0.025833728
-0.13711688 -0.12132387 0.06406542 -0.000100186204 0.08075262 -0.07503226 -0.011281427 -0.0410445
-0.015101982 0.06556271 -0.04034779 -0.21739572 -0.0012113351 0.047424056 -0.23107447 -0.12506256
0.061455503 -0.2689658 0.17440909 0.021361025 -0.09005811 -0.032901082 -0.002514694 -0.08829336
-0.00238573 0.00791357 0.04157008 -0.08052652 -0.0017162834 -0.061567288 -0.08276252 -0.03716274
-0.05333159 0.066341795 -0.07770285 -0.027045853 0.016366888 0.046109423 -0.039301127 -0.048716262
0.08482282 -0.0746078 -0.027684076 0.062027577 0.21847986 -0.048356205 -0.013629341 -0.025417306
0.030906351 0.081004016 -0.049290046 -0.09090724 -0.024872186 -0.09550219 -0.04857835 -0.06528154
-0.10051224 0.030698113 -0.026828893 -0.018883808 -0.08239267 0.017487243 -0.18312247 -0.084762014
-0.1564728 0.025882507 -0.017639482 0.020719696 -0.04819153 0.012778741 0.06332996 -0.029618476
0.012382997 -0.1867857 0.009556272 -0.027412219 -0.068538316 0.067839704 -0.020903844 -0.034341525
0.07065355 0.10142291 -0.13679281 -0.122348376 -0.085696004 -0.032299675 -0.11499405 0.041708406
0.060386784 -0.064699166 0.03088104 0.065604344 0.07596654 0.005407402 0.06175786 -0.07486862
-0.048260048 -0.050677586 -0.017941425 -0.008789112 -0.030934498 -0.016431293 0.010985241 0.03127666

conv_block.2.lin_l.weight f4 [128, 128]
00000000: 7922 4cbd 14ae a03c 4ec4 81bb 2eef 95bd
00000010: 3671 b13c 13d3 9abd 0093 7f3c a5a3 7cbd
00000020: ffb8 78bd 14b6 8ebd d18d 9d3d 157b 0c3d
00000030: 5123 8c3b e60b abbd 7939 f9bd 5662 403d
00000040: 4b25 383d 0969 603c 7dbc b7bd 051d 1f3d
00000050: 4518 973d 0526 97bd c85b adbd da90 003d
00000060: 0507 2c3c 7f76 ffbd 5a3e 7e3c 143d c13c
00000070: af8e 15bd 0a77 5fbd 2fcf 8abc e02a a5bd
00000080: fbf8 26bd 6600 5f3b 5cd0 fbbd 3e08 acbd
00000090: 20b5 1abe b91d 4ebc 9555 e9bb 65c9 8d3d
000000a0: 3923 0bbd 6681 273d be50 7d3d 67d4 113d
000000b0: 1be8 57bd 3195 823d 3439 ab3d 90a4 983d
000000c0: 4ced 753d 907a 1fbc 8a8f 0d3d d1f8 b3bd
000000d0: b7ff d13c d880 acbd ad5d e9bc f7ba c23c
000000e0: bacb 2a3c d5db 883d 865a 59bd 1c83 6d3d
000000f0: 0232 4abd 7475 5bbd b4e2 913d 47cf 39b9
00000100: 5695 7ebc 8dd9 4dbd 4bc9 323c 0a3d f3bc
00000110: a536 c33d 1229 b43d 7cf1 72bc f536 c8bd
00000120: 3cf8 82bc 2478 453b 7aaf 91bd 7a0a a3bb
00000130: 4f60 173d 17a1 3c3d 587a 093d c791 75bd
00000140: 5b7f b6bd 4603 b9bd cfa4 9bbd 8b7e 653d
00000150: b8eb 37bd 5ebb abbd ede8 de3c e4e7 043d
00000160: 50a4 993d a473 78bd f2e6 a83c 3ed0 493d
00000170: abd1 0b3e 7b40 ddbc 8085 a53c 611a debd
00000180: 17dc 94bd 59b6 efbc 8e7e 69bd fea0 c3bc
00000190: 2f51 8b3c fb74 51be 03a5 933d d82f 8a3d
000001a0: 627b 4fbd 8e2d 4c3c 267d d7bd 6472 343d
000001b0: 5695 903d 5171 a9bc 582d ac3d b0a0 3c3d
000001c0: ef72 2cbd 6a0a b73c 914f 0a3d 6953 bdbc
000001d0: 34b6 27bc f57d 40bd ebcb 00bc e3b8 4f3d
000001e0: c853 1fbd df00 84bb 41fe c4bc 199b 84bc
000001f0: 56e0 5c3c 3a4a 5cbc 8430 233d 60c4 a3bc
00000200: bd36 febc d603 8fbd 2914 b83d e153 6dbd
00000210: 507e 3e3c 1df1 893d ed4b d0bd fc74 d6bd
00000220: 3a84 53bc 485c 90bd 1b8f 0f3d 158b 33bb
00000230: e91a 643c c750 dcbc bfc8 a5bc 480f 8a3c
00000240: ec37 c3bb 91e4 88bb e2ae 91ba 81f8 c1bc
00000250: bb12 64ba 90f4 bfbc 821c 913d 4e85 26be
00000260: 52c8 3ebd 7cdc 67bd b9af 01bd b905 bbbc
00000270: 713d 25bd 39fc 1e3c 2285 9fbc 41e7 8c3a
00000280: a1d6 b73b aaa1 443d b5ad 1abe 58e1 c1bd
00000290: d6b3 d63c 227d 02be 3f41 a5bd 8106 82bc
000002a0: c838 1d3d 20e6 c9bc 6a48 8d3c 53c4 62bd
000002b0: b5d2 91bc fe83 87bd 3351 023d 580d 833c
000002c0: e346 ba3d 0241 4fbd b094 043d c3ad 7fbd
000002d0: 5a7c 95bc 0e26 3a3d d5ce 9b3b 9040 7ebd
000002e0: a81a 96bc 19e0 a03d f5c9 2bbd 8e3f 9abd
000002f0: b7a9 9bbd a3fd f7bb ca07 763c d127 4fbd
00000300: e013 7cbd 7c98 d839 277e 94bb 74b2 14bd
00000310: 2d3b 6e3d 7fde c13b 9eb4 283c 4f1c a83d
00000320: 1e52 1d3d 0176 4e3b f0f2 fcbc 787a 99bd
00000330: 555c 043d 3c52 6cbd e9c1 a2bd faa3 7bbc
00000340: 4a66 15bd c43f 713b f4f2 273d aeb3 3c3d
00000350: 393b 0b3d 7ad7 963d 978d 8b3d 6ff2 13be
00000360: 3e56 0bb9 0711 adbd 1bba a0bd 879c c2bb
00000370: 571b d0bd 7707 5c3d 65b7 8abd 6a7b c0bb
00000380: b7f3 d9bc d345 41bc 816d 8ebd 8533 3f3d
00000390: 9612 bcbc b22e 9dbc acaa 2d3b 5882 d7bd
000003a0: f292 a9bd 3ab2 b13d 94cb 51bb dd10 f83c
000003b0: 6eb7 453c 7c68 b3bd b4ea cabc 0e61 ab3d
000003c0: 0ae2 f0bb 363a c7bc 1b94 763d 1a5e 68bd
000003d0: 051f b5bd b96c d0bb fcf4 5c3d faae 33bd
000003e0: ca78 5a3d 7432 8fbd 72bc c2bc 8548 2c3d
000003f0: d0b1 8bbd a230 b7bd fdeb a1bd efd0 073d
-0.049837563 0.019614257 -0.003960169 -0.073210105 0.021660428 -0.075597905 0.015599012 -0.0616795
-0.0607233 -0.069683224 0.07693065 0.034297068 0.004276671 -0.08351879 -0.12169165 0.04696878
0.04495744 0.013696917 -0.08971498 0.038846035 0.07377676 -0.073802985 -0.084647715 0.03138814
0.01049972 -0.12473773 0.015517795 0.023588695 -0.036513027 -0.054556884 -0.016944496 -0.080648184
-0.04076479 0.0034027337 -0.12295601 -0.084000096 -0.15108156 -0.012580329 -0.007120798 0.069231786
-0.033969138 0.04089489 0.06184458 0.035602953 -0.052711587 0.06376112 0.0836052 0.07453263
0.060040757 -0.009733811 0.034560718 -0.08787692 0.02563463 -0.084230125 -0.02848705 0.023770792
0.010424549 0.06682555 -0.053064846 0.057986364 -0.049364097 -0.05357881 0.07123318 -0.00017720192
-0.015538534 -0.0502563 0.01091225 -0.029692192 0.09531907 0.08796896 -0.014828082 -0.09776107
-0.015987508 0.0030131424 -0.071135476 -0.004975614 0.03695708 0.046052065 0.03356394 -0.059953477
-0.0891101 -0.090338275 -0.07599794 0.056028884 -0.044902533 -0.08385347 0.027210677 0.03244771
0.07502043 -0.06065716 0.020617936 0.04927086 0.136542 -0.027008286 0.02020526 -0.10844875
-0.07268541 -0.029261755 -0.057005458 -0.023880478 0.017006485 -0.20454781 0.07209208 0.06747407
-0.050654776 0.012462033 -0.10521917 0.044054404 0.070597336 -0.020683916 0.08407086 0.04605168
-0.042101797 0.022343833 0.033767287 -0.023111062 -0.010236312 -0.046995122 -0.007861118 0.05071343
-0.03889826 -0.004028424 -0.024047019 -0.016187238 0.01348122 -0.013445431 0.03984119 -0.0199911
-0.03103196 -0.069831535 0.0898822 -0.05794132 0.011626795 0.06735442 -0.10170732 -0.10471532
-0.012909943 -0.07048851 0.035048585 -0.0027396132 0.0139224315 -0.026893986 -0.020237325 0.01685299
-0.005957594 -0.004177638 -0.0011114741 -0.023678066 -0.0008700301 -0.023432046 0.070855156 -0.16261789
-0.04657776 -0.056606755 -0.031661723 -0.022829877 -0.0403418 0.009703689 -0.019472662 0.0010750071
0.0056103026 0.048005737 -0.15105326 -0.09466809 0.0262088 -0.12743047 -0.08069085 -0.015872242
0.03838423 -0.024645865 0.017246444 -0.05536301 -0.017800668 -0.066169724 0.03181572 0.015997574
0.09095552 -0.050599106 0.032368362 -0.06242157 -0.018247772 0.045446448 0.004754881 -0.06207329
-0.018323258 0.07855243 -0.041940648 -0.07531653 -0.0760073 -0.0075680776 0.0150165055 -0.05057508
-0.06154239 0.0004131234 -0.00453164 -0.036303 0.058161903 0.005916416 0.010296969 0.082085244
0.03840839 0.0031503441 -0.03087756 -0.07494062 0.032314617 -0.057695612 -0.07947142 -0.015358919
-0.036474504 0.003681169 0.041003183 0.046069793 0.033992026 0.07365318 0.068141155 -0.1444795
-0.000132882 -0.08450513 -0.07847997 -0.0059390697 -0.10161465 0.053718057 -0.06773261 -0.005874087
-0.02660547 -0.011796433 -0.0695448 0.046679992 -0.022958081 -0.019187305 0.0026499433 -0.10522908
-0.08279981 0.08676572 -0.003201221 0.030281479 0.012067659 -0.08760163 -0.024770118 0.08368121
-0.0073511647 -0.02431975 0.060199838 -0.056730367 -0.08843807 -0.006360617 0.053944573 -0.043868043
0.05333785 -0.06992045 -0.023771498 0.042061348 -0.068210244 -0.08944823 -0.07906339 0.03315824

conv_block.2.lin_r.weight f4 [128, 128]
00000000: a902 8b3d 3ab1 36bd 9fbd 36bd ff8f 9e3d
00000010: 25c9 bf3a 322c b53d 4ab9 7b3d b813 763d
00000020: eeb8 893d 2d91 52bd 14be 403d 51da 29bc
00000030: 668f 5d3d c694 95bc ceb1 9fbd c793 8b3d
00000040: 06b4 dd3c 094b 9dbd 224d b0bc bb6d 55bc
00000050: cf21 19bd a9f7 75bd 7e95 8fbc 0fcb d1bd
00000060: da9f 1bbe 7328 c8bd 0cbf 023c 635f a0bd
00000070: d8ee 5dbd b16f 5fbd 70bc 1ebd 5ad9 ab3c
00000080: 80e6 9ebd 6b9c 823d 086e 6dbc fa66 293d
00000090: 6ae3 103d a08a cabd 57bf b63d d69a 9dbd
000000a0: 4ea1 9a3d 8947 8c3d a525 663d f896 96bd
000000b0: 0213 4d3d 4592 67bc 81ca 073d 841c cb3d
000000c0: 6cb7 713d b6dc bfbc 39b8 513d 832a e3bc
000000d0: 3f6e 1c3d 0fe4 d1bd 678e e63c f789 50bd
000000e0: 36b2 563d 8b24 b0bd d6ac 7c3c 0844 1fbd
000000f0: e257 71bd cf23 743d 39cc 24bd ee73 973d
00000100: 7c77 6f3d 40ee 853d b0ca e93c 3885 9d3c
00000110: 1f38 65bd ed88 9f3d f4e0 12bb 5926 a4bd
00000120: 07c4 4cbd 6bc7 58bd 29fc 86bd 7532 57bd
00000130: a1a6 da3d db9f 993d 0dc0 83bd 1d98 173c
00000140: b08d 8e3d add5 443d db2d 623c cc04 41bb
00000150: cc05 cbbc b0af 4fbd b406 723d 8106 21bd
00000160: bd4e ef3d 5210 823c e407 a53d 0fa9 09bd
00000170: 40d0 7a3d 1bc4 043d bcf1 c53c 6958 d0bd
00000180: 6051 743c dba6 88bc c728 b0bd 267e 6e3d
00000190: d524 a1bd 88c1 a1bd 8525 213d 21b3 53bd
000001a0: 7e7d abbd 8b7b 93bd a781 a0bc 874a 37bd
000001b0: 110a a3bd 7866 b13d 6dca 6d3d 95eb 70bc
000001c0: decd 95bc 1aef b6bd 8e0b 33bd 8560 0ebd
000001d0: 5896 99bd b833 18bd 1ba8 0b3d f3fb 3ebd
000001e0: c27e b1bd 4729 9fbc 1c21 74bd 1b0f 9fbc
000001f0: 9f33 3ebc 9580 a13d c862 5a3d 1e97 57bd
00000200: e1ad 8e3d 8fa8 dd3c 72d2 823c ebae 833d
00000210: 16c9 e1bd e711 2d3d a79b 4abd a082 2ebc
00000220: ac5f d1bc f940 0ebd be76 5a3d e04e ca3d
00000230: 2696 463a e5e9 7b3d b2a1 8e3a 6bf0 b2bd
00000240: 8db2 3dbd 5f2f 7bbd 3598 7f3b 65bd cdbd
00000250: 952a 1a3d 6222 b4bd eb30 93bd 1409 0dbd
00000260: 3323 27bd 0258 a2bc 7d05 8a3d 7a1a aebd
00000270: 23bb 44bd ae3e 8fbd d858 103c 26ab 8d3d
00000280: 57fd c83b ac97 2d3c c116 9f3d fd2f 21bd
00000290: 1194 f5bc eebf 5abd 1aa9 6fbd 4a41 fd3c
000002a0: 8b91 7ebd 048a e43a 74a3 503d 9b45 bfba
000002b0: fc99 f9bd 24cd a83c e87e 5cbd 0247 eabd
000002c0: d138 9bbd 6119 3fbd e925 9ebc 2a69 b1bd
000002d0: e4bc a33d 8390 68bd 53bc 2e3d 1293 f53c
000002e0: 88d1 ac3d cc95 aabd d148 963c 0bcc df3c
000002f0: 2061 61bc e0f7 113d bc6b 133d c4ec 663d
00000300: 7a1b 23bd 8206 54bd a39f 18bd 5da8 fc3c
00000310: 8da8 3e3d 0c93 02bd 4b8f ecbc 9e1b 14bd
00000320: 62d3 c43c 7f28 953d ab69 a8bc a974 5cbd
00000330: db57 82bd 8b09 fb3c ef72 8dbd 85f6 0a3d
00000340: 0b7b 8cbc f474 0ebd 261d 41bd 57c6 943c
00000350: 32e7 6dbd d480 f2bc 4d6b afbd efd0 afbb
00000360: 956b b1bc 8eaf 24bd 7e35 3cbd 282b 0bbd
00000370: dd4d 3c3d 4323 8ebd 0f13 f5bc 8496 823c
00000380: abf6 943d 97ab 90bc bcc0 a3bd 811d 1c3d
00000390: 4864 6a3d b6a7 f1bc 314c 4cbd cfad 8bbd
000003a0: bf47 a63c a27d 0fbd 6216 46bd b9da bcbc
000003b0: 997f 143d fcb6 933c e850 cf3c bc97 073c
000003c0: 5edb 1abd 94e7 14bd aaef 843d 3b8d 85bc
000003d0: 12c0 3fbc 401e a63c 6122 363d 664c 363d
000003e0: 8f6c 09bd ff0d a9bd e80c 3c3d b7c6 933d
000003f0: 88e6 093d ea5b 263d a98b 80bd 730d 433d
0.06787617 -0.04460261 -0.04461443 0.07742309 0.0014632089 0.0884632 0.061456002 0.0600774
0.06724726 -0.05140798 0.047056273 -0.010366992 0.054091834 -0.018259417 -0.077975854 0.06815296
0.02706338 -0.076803274 -0.021521155 -0.01302665 -0.037385758 -0.06005064 -0.017527338 -0.102438085
-0.15197697 -0.0977334 0.007980119 -0.078306936 -0.054182857 -0.054549877 -0.038753927 0.020977665
-0.07758808 0.063774906 -0.0144915655 0.04135797 0.03537313 -0.09889722 0.08923214 -0.07695548
0.07550298 0.06849582 0.056188244 -0.07353014 0.050066955 -0.0141339945 0.033152107 0.09917548
0.059012815 -0.023420673 0.05120108 -0.027730232 0.038191076 -0.10248577 0.028144075 -0.050912824
0.05241605 -0.0860072 0.015422067 -0.03888324 -0.058921702 0.059604462 -0.040233824 0.07395159
0.05846356 0.06539583 0.028539032 0.019228563 -0.055961724 0.077897884 -0.0022411915 -0.08015127
-0.049991634 -0.052924555 -0.065910645 -0.052538354 0.10676313 0.07501193 -0.06433115 0.009252575
0.069606185 0.04805534 0.013804878 -0.0029452322 -0.024783038 -0.050704658 0.059088424 -0.039312843
0.1168494 0.015876923 0.08058146 -0.033608492 0.06123376 0.032413583 0.02416312 -0.10173113
0.014911979 -0.016681125 -0.08601528 0.058225773 -0.07868353 -0.07898241 0.039342422 -0.051684503
-0.08373545 -0.07201298 -0.019593073 -0.04474881 -0.079609044 0.086621225 0.058054376 -0.014704605
-0.018286642 -0.08932324 -0.04371219 -0.034760017 -0.07499379 -0.037158698 0.034095865 -0.046626996
-0.08666755 -0.019428862 -0.059601888 -0.019416383 -0.011608987 0.07885853 0.05331686 -0.05263435
0.069667585 0.027057914 0.015969489 0.06429847 -0.11024682 0.0422534 -0.049464848 -0.010651261
-0.025558315 -0.03472993 0.053335898 0.098783255 0.00075754744 0.061502356 0.0010881929 -0.08737262
-0.046312857 -0.061324473 0.0039000635 -0.1004589 0.037638266 -0.087956205 -0.07187065 -0.034432486
-0.040805053 -0.019817356 0.06739328 -0.08501144 -0.04803003 -0.06994377 0.0088102445 0.069174096
0.006133716 0.010595243 0.07768012 -0.039352406 -0.02997783 -0.053405695 -0.058510877 0.030914921
-0.06215052 0.0017436151 0.05093713 -0.0014592888 -0.12187573 0.020605631 -0.053831965 -0.11439325
-0.07579196 -0.046655063 -0.019305186 -0.086626366 0.079950124 -0.056778442 0.04266007 0.029977355
0.084384024 -0.08329353 0.018345268 0.027318975 -0.013756067 0.035636783 0.035991415 0.05637814
-0.039821126 -0.05176402 -0.037261616 0.030842 0.04654746 -0.031878516 -0.028876921 -0.03615915
0.024026576 0.07283115 -0.020558199 -0.053822193 -0.06364413 0.030644199 -0.069066875 0.033926506
-0.017148515 -0.034779504 -0.04714694 0.018160982 -0.058081813 -0.029602446 -0.08565388 -0.005365483
-0.021657744 -0.040206484 -0.04594945 -0.033976704 0.045972694 -0.069403194 -0.029916314 0.015940912
0.07273611 -0.017659945 -0.079957455 0.038114075 0.057224542 -0.029498916 -0.04987735 -0.06820261
0.020297883 -0.035031922 -0.04836119 -0.023053514 0.0362545 0.01803159 0.025307134 0.008275922
-0.03780686 -0.036353663 0.06491025 -0.016302695 -0.011703508 0.020278096 0.04446638 0.044506453
-0.033550795 -0.08254623 0.045910746 0.07215636 0.033667117 0.040615 -0.06276638 0.047620248
