models/hyperparameter_optimization/initial_test/initial/Set2/architecture_num_conv/input_architecture_num_conv_2/GNN.pth (torch, 862550 bytes, 16 tensors)

input_layer.weight f4 [128, 8]
0.19461513 0.24040274 -0.08282783 0.29668328 -0.07746481 0.042972974 -0.17212924 0.20763578
0.3285134 -0.2593767 0.28004408 -0.0018236729 0.23739867 0.048115883 0.056960527 -0.04991856
0.24968262 0.05087926 -0.16505283 0.06390444 -0.162895 -0.041462213 -0.14359865 0.23453705
-0.2790845 -0.16299176 -0.09983455 -0.21258192 0.023360765 -0.3491973 0.45523322 -0.30033237
0.24405247 -0.002384335 -0.114800386 0.22982772 0.03344555 0.23925486 0.061706845 -0.111501254
0.11535886 -0.09587641 0.13265972 0.26950404 0.15871835 -0.15456383 0.1455965 0.063259974
0.17438187 -0.21549258 -0.34998548 -0.13659908 -0.27118352 0.29135832 0.16692887 0.1464466
0.07651541 -0.0061504054 0.25314352 -0.2512045 0.011889541 -0.2413144 0.07806012 -0.12175752
0.10632316 -0.07365984 0.26719734 -0.20955177 -0.21085852 -0.21087126 0.40499115 0.11782206
0.33640906 -0.29177922 -0.35068116 -0.27660736 -0.2378315 0.1367056 0.08926893 0.29377612
-0.18258394 -0.24102151 0.16582106 -0.14290786 0.18196152 -0.08389844 0.24279256 -0.27469966
-0.17842063 0.0833474 0.083219334 -0.09014153 0.20162365 0.22925887 -0.2563875 -0.18875091
0.2980431 -0.1193004 -0.12534046 -0.34209636 -0.2024695 0.06214572 -0.046666633 -0.25663945
0.025499858 -0.24150577 -0.29995352 -0.19468863 -0.3094342 -0.2251209 0.51408255 0.06677738
0.114534244 -0.3297537 -0.2322046 -0.1176823 0.043208223 -0.31109917 -0.15233663 -0.2116613
-0.0050013145 -0.13155834 -0.024499752 -0.23957828 -0.24267733 -0.20626368 -0.121020414 -0.27905294
0.18483253 -0.07016763 0.3032594 0.12874128 -0.29938793 0.21853217 -0.09727838 -0.13552622
-0.29347423 -0.35148886 0.08715928 -0.07723157 0.086034104 -0.29014835 0.41653243 -0.25952718
-0.061049245 0.030075407 0.1385147 0.2927475 0.31056365 -0.2803403 0.1722029 -0.15207249
-0.03874408 -0.2646312 0.31451082 -0.25949067 0.16269177 0.10192276 0.03897767 -0.1911473
0.3112083 0.08658132 0.026045255 -0.3115706 0.1465671 -0.053040292 -0.16197139 0.30368346
0.033708986 -0.19561274 -0.17894714 -0.016884197 0.20757815 -0.090344846 -0.20172869 -0.12107184
-0.26413083 0.11679378 0.2432599 -0.3328494 0.05465412 0.17510177 -0.004695305 -0.12590908
0.16679373 0.21021394 0.09506026 -0.062126897 -0.09362138 -0.001745975 -0.062456656 -0.10535928
0.24105556 0.25703874 -0.03500085 -0.07915949 -0.0008681282 -0.02111005 0.057665784 0.099077545
-0.32111725 -0.13047454 0.28639758 0.16430308 -0.017584886 -0.21315937 -0.21630576 -0.3167014
-0.11524512 0.053079497 0.19556102 0.2074912 -0.3125214 -0.21261373 -0.055796612 0.3420097
0.01721876 -0.091559984 0.1605002 -0.13466196 -0.22883943 0.2723077 -0.16076136 -0.0708757
-0.35171643 0.23270108 0.23819506 -0.005408325 -0.24652366 -0.34893593 -0.28714862 0.26364484
0.1671977 0.28925416 0.14916058 0.004822002 -0.003462237 -0.26887947 -0.3029147 -0.3306957
0.13255838 -0.17358339 -0.07115353 -0.20347182 -0.06442576 -0.24884321 -0.23101732 0.11727748
-0.105074786 0.22749904 -0.11342303 -0.2593552 -0.06238058 -0.17138408 -0.10816668 -0.33658126
00000000: 3049 473e 232c 763e a3a1 a9bd dfe6 973e
00000010: dfa5 9ebd 6e04 303d a642 30be 799e 543e
00000020: e932 a83e 06cd 84be f061 8f3e 4f08 efba
00000030: a318 733e 2915 453d 714f 693d 6777 4cbd
00000040: cdac 7f3e c566 503d 9c03 29be 55e0 823d
00000050: f2cd 26be 48d4 29bd 860b 13be 7b2a 703e
00000060: 2ae4 8ebe 50e7 26be 0e76 ccbd 13af 59be
00000070: 135f bf3c fdc9 b2be 5414 e93e 2ac5 99be
00000080: e4e8 793e 8142 1cbb 771c ebbd f557 6b3e
00000090: 33fe 083d 3aff 743e 51c0 7c3d c55a e4bd
000000a0: 4441 ec3d da5a c4bd f3d7 073e 6ffc 893e
000000b0: 1087 223e fb45 1ebe 4017 153e 728e 813d
000000c0: 2991 323e 16aa 5cbe 4c31 b3be a1e0 0bbe
000000d0: 91d8 8abe eb2c 953e 67ef 2a3e 19f6 153e
000000e0: 1cb4 9c3d 5789 c9bb 079c 813e e09d 80be
000000f0: 59cc 423c 1f1b 77be fcdd 9f3d 025c f9bd
00000100: f5bf d93d f8da 96bd 17ce 883e bd94 56be
00000110: 4ceb 57be a3ee 57be 005b cf3e b14c f13d
00000120: cf3d ac3e 1664 95be 7b8c b3be 7b9f 8dbe
00000130: 1a8a 73be 8efc 0b3e a1d2 b63d d369 963e
00000140: 49f7 3abe 58ce 76be ffcc 293e 7056 12be
00000150: 1f54 3a3e f2d2 abbd 9d9e 783e 6fa5 8cbe
00000160: e6b3 36be 0bb2 aa3d e66e aa3d 1f9c b8bd
00000170: 6e76 4e3e d6c2 6a3e 3945 83be eb47 41be
00000180: 1b99 983e c553 f4bd 4059 00be 4127 afbe
00000190: 2a54 4fbe 838c 7e3d 8325 3fbd 3f66 83be
000001a0: 14e5 d03c 4a4d 77be 8293 99be 755c 47be
000001b0: 296e 9ebe 1886 66be ea9a 033f 94c2 883d
000001c0: ee90 ea3d 7ad5 a8be 0bc7 6dbe 6b03 f1bd
000001d0: 1bfb 303d 6448 9fbe 22fe 1bbe bdbd 58be
000001e0: 11e2 a3bb 3bb7 06be b4b3 c8bc 0254 75be
000001f0: 6880 78be c936 53be 8dd9 f7bd 07e0 8ebe
00000200: bd44 3d3e 0cb4 8fbd d144 9b3e c1d4 033e
00000210: 6049 99be e6c6 5f3e e339 c7bd 63c7 0abe
00000220: 4142 96be 59f6 b3be 9180 b23d 962b 9ebd
00000230: a632 b03d 538e 94be bd43 d53e bfe0 84be
00000240: c60e 7abd b360 f63c ccd6 0d3e 00e3 953e
00000250: 3302 9f3e c488 8fbe f555 303e e4b8 1bbe
00000260: 1db2 1ebd be7d 87be 9007 a13e f6db 84be
00000270: ac98 263e e1bc d03d 0da7 1f3d 1ebc 43be
00000280: b256 9f3e 8c51 b13d dc5c d53c 2f86 9fbe
00000290: b015 163e c740 59bd d4db 25be 667c 9b3e
000002a0: 6f12 0a3d b54e 48be eb3d 37be ba50 8abc
000002b0: 5e8f 543e b806 b9bd f791 4ebe 83f4 f7bd
000002c0: 283c 87be 9431 ef3d 2019 793e 3d6b aabe
000002d0: 00dd 5f3d e14d 333e 13db 99bb 4fee 00be
000002e0: facb 2a3e 5342 573e f4ae c23d c678 7ebd
000002f0: 91bc bfbd 33d9 e4ba 8dd2 7fbd 9bc6 d7bd
00000300: 45d7 763e 959a 833e 0d5d 0fbd 5f1e a2bd
00000310: 1993 63ba fcee acbc f532 6c3d 2be9 ca3d
00000320: 7b69 a4be 1e9b 05be b4a2 923e 113f 283e
00000330: 2e0e 90bc 7346 5abe 427f 5dbe b026 a2be
00000340: a205 ecbd e369 593d 2641 483e 9378 543e
00000350: ce02 a0be 6ab7 59be fd8a 64bd e51b af3e
00000360: 5b0e 8d3c cd83 bbbd 2a5a 243e d3e4 09be
00000370: e254 6abe ea6b 8b3e a09e 24be 4727 91bd
00000380: 2d14 b4be 3149 6e3e 68e9 733e 5238 b1bb
00000390: b370 7cbe bba7 b2be 2505 93be 75fc 863e
000003a0: e035 2b3e 1f19 943e 8dbd 183e e201 9e3b
000003b0: b3e6 62bb 92aa 89be a317 9bbe f250 a9be
000003c0: 62bd 073e d8bf 31be f1b8 91bd eb5a 50be
000003d0: a7f1 83bd c1d0 7ebe ce8f 6cbe 2d2f f03d
000003e0: 7331 d7bd 82f5 683e 554a e8bd 34ca 84be
000003f0: c782 7fbd 4f7f 2fbe 7e86 ddbd 6154 acbe

conv_block.0.lin_l.weight f4 [128, 128]
0.004944163 -0.05775486 0.033916734 -0.024842659 -0.014918777 0.03487803 0.06421443 0.004689025
-0.07323044 -0.08748135 -0.073480636 -0.0895372 0.08021406 -0.037572976 -0.085329816 -0.0104249045
0.028174117 -0.04388633 -0.046843626 -0.05979043 0.06132245 -0.0054699783 0.081548974 0.0015308895
0.05347334 -0.11823729 -0.027192844 -0.024854662 0.04531412 -0.062100332 -0.06093239 -0.05394799
-0.09844909 -0.08690218 -0.07082773 0.06996072 -0.011512869 -0.033893157 0.020991618 -0.049856897
-0.08908653 -0.12879105 0.07279071 -0.051347177 -0.077132806 -0.029497348 -0.044795867 0.03650379
-0.048103303 -0.011338224 0.049512662 0.022408016 0.094641164 0.062142268 -0.18700813 0.016579488
0.05433949 -0.06626857 0.034407813 -0.059047215 0.0406457 0.012215997 -0.010826553 -0.01398323
-0.08046735 -0.095751554 0.04235228 -0.11812673 -0.0812338 -0.09222184 0.024611048 0.058223214
0.053163804 -0.06022644 -0.106476836 -0.03628846 0.037623033 -0.15128762 -0.073188104 -0.017084619
-0.060021173 0.028504878 -0.048208233 -0.016018936 -0.06644655 0.0748729 0.07499891 -0.00075119565
0.027129378 -0.103346854 -0.07112012 0.026510512 -0.028619071 0.06734172 0.06583606 0.027826414
-0.028509118 -0.04570665 0.08064067 -0.06143029 -0.07686658 0.062928684 -0.006947919 0.025048213
-0.19304778 0.00026680232 -0.023702474 -0.02755624 -0.052629143 0.038389236 -0.043748613 -0.02121071
0.03422812 0.074858025 0.06944743 -0.07578927 -0.0013175469 0.077911936 0.06101833 0.045703642
0.06348523 -0.11636054 0.0029038175 0.043792732 0.06518197 -0.038290884 -0.049966466 -0.08209832
0.020271635 0.042871404 -0.043406293 -0.048961535 -0.021538291 0.025610715 -0.01952187 -0.047722206
0.05227268 -0.0276077 -0.06815786 -0.09297419 0.053354647 -0.04660266 0.048342682 -0.05376768
-0.019910075 0.024962021 -0.14329076 -0.099743664 0.011132364 -0.008391774 -0.093411185 0.04044384
-0.010870591 -0.09525736 0.015331487 0.025363179 -0.05506774 -0.04295076 -0.02835416 -0.024807554
-0.0015003979 0.029912127 -0.03243983 0.04256778 0.020104766 -0.022280576 0.051689163 -0.07230439
-0.114309855 -0.121702686 0.052548982 -0.16091928 -0.032131504 -0.06236385 -0.06355057 -0.1118841
-0.03428032 0.028794132 0.06357877 -0.02282772 0.067156345 -0.004313252 -0.12444633 -0.034925524
0.07737144 -0.0208007 -0.024051823 0.103482194 -0.06290365 0.023638038 0.034083314 0.03669646
-0.037032302 -0.08651799 0.02117005 -0.090580225 0.021066565 -0.04290081 -0.044138987 -0.0030131005
-0.075420186 -0.067973614 -0.08300073 -0.08228382 -0.07890968 -0.056773394 -0.18247107 0.07420766
-0.095854305 -0.03357884 -0.07393489 -0.044769235 0.03093524 0.08038166 -0.1743952 0.0023880594
0.044508576 0.07616254 -0.03229668 0.0104338415 -0.15343021 0.01294491 -0.064435355 -0.100788735
0.0259706 0.014865004 -0.14986451 0.06448834 -0.024391616 0.0823152 -0.10476876 -0.020126306
-0.024602868 0.0011419083 0.025749987 -0.088717915 -0.004040554 -0.07919662 -0.12578928 0.0063054226
-0.026763119 0.05471689 0.06539236 -0.07003679 -0.12391749 0.035572436 0.019175045 -0.05203073
-0.12327375 -0.10131947 -0.11575089 -0.009188163 -0.15537713 0.051670138 -0.03685852 -0.107596114
00000000: a502 a23b 5c90 6cbd 46ec 0a3d d582 cbbc
00000010: e36d 74bc 44dc 0e3d db82 833d 65a6 993b
00000020: d7f9 95bd 6c29 b3bd 047d 96bd 485f b7bd
00000030: 4547 a43d 1fe6 19bd 66c1 aebd 38cd 2abc
00000040: 68cd e63c 27c2 33bd 1adf 3fbd cfe6 74bd
00000050: 402d 7b3d 813d b3bb 2603 a73d 21a8 c83a
00000060: dc06 5b3d 6426 f2bd 87c3 debc 019c cbbc
00000070: 4c9b 393d eb5c 7ebd 3e94 79bd 91f8 5cbd
00000080: ad9f c9bd c5f9 b1bd 210e 91bd 9147 8f3d
00000090: 79a0 3cbc 8dd3 0abd 9df6 ab3c bf36 4cbd
000000a0: 0073 b6bd cde1 03be 4c13 953d 6b51 52bd
000000b0: cef7 9dbd 6ca4 f1bc df7b 37bd 0085 153d
000000c0: f807 45bd f5c3 39bc cacd 4a3d 0491 b73c
000000d0: 3ad3 c13d e488 7e3d 0f7f 3fbe b5d1 873c
000000e0: 1693 5e3d d1b7 87bd 35ef 0c3d 7edb 71bd
000000f0: 1b7c 263d 9b25 483c db61 31bc eb19 65bc
00000100: 11cc a4bd 6419 c4bd 9679 2d3d 6dec f1bd
00000110: e85d a6bd cede bcbd 1c9d c93c 777b 6e3d
00000120: 4ac2 593d 00b0 76bd 8710 dabd 35a3 14bd
00000130: 9c1a 1a3d 24eb 1abe a5e3 95bd 0bf5 8bbc
00000140: c3d8 75bd 1083 e93c ff75 45bd 253a 83bc
00000150: 2115 88bd f756 993d 0799 993d e3eb 44ba
00000160: 6e3e de3c 84a7 d3bd 6da7 91bd 932c d93c
00000170: 8b72 eabc 75ea 893d 0ed5 863d 38f4 e33c
00000180: f48b e9bc e536 3bbd f026 a53d 549e 7bbd
00000190: 3a6c 9dbd c1e0 803d 5eab e3bb e931 cd3c
000001a0: 51ae 45be 9ae1 8b39 b12b c2bc a0bd e1bc
000001b0: a891 57bd 083e 1d3d bf31 33bd 15c2 adbc
000001c0: c932 0c3d 2a4f 993d 743a 8e3d 6837 9bbd
000001d0: 8ab1 acba 4b90 9f3d 5bee 793d be33 3b3d
000001e0: 8b04 823d 6f4e eebd f94d 3e3b 0260 333d
000001f0: 207e 853d e7d6 1cbd a3a9 4cbd 2a23 a8bd
00000200: b310 a63c ed99 2f3d ccca 31bd e48b 48bd
00000210: 1271 b0bc 90cd d13c 54ec 9fbc 5c78 43bd
00000220: e11b 563d 8b29 e2bc 5996 8bbd 4169 bebd
00000230: 678a 5a3d 6ee2 3ebd fa02 463d 803b 5cbd
00000240: 741a a3bc 277d cc3c d0ba 12be 6846 ccbd
00000250: 8564 363c a77d 09bc 5d4e bfbd 71a8 253d
00000260: 901a 32bc 4a16 c3bd eb30 7b3c 71c6 cf3c
00000270: b68e 61bd 23ed 2fbd fc46 e8bc 3639 cbbc
00000280: 00a9 c4ba 470a f53c a1df 04bd 8d5b 2e3d
00000290: c0b2 a43c c185 b6bc 04b8 533d 5314 94bd
000002a0: 491b eabd 423f f9bd 9a3d 573d 06c8 24be
000002b0: 539c 03bd 3d71 7fbd cd26 82bd 7e23 e5bd
000002c0: 8569 0cbd ace1 eb3c 9635 823d 3301 bbbc
000002d0: 4489 893d 2e56 8dbb b8dd febd 110e 0fbd
000002e0: eb74 9e3d 3b66 aabc 5408 c5bc 79ee d33d
000002f0: a1d3 80bd 8fa4 c13c f29a 0b3d 074f 163d
00000300: 2faf 17bd 5830 b1bd d06c ad3c 2082 b9bd
00000310: ca93 ac3c c2b8 2fbd 15cb 34bd 7077 45bb
00000320: e675 9abd c035 8bbd 49fc a9bd 6b84 a8bd
00000330: 669b a1bd 388b 68bd b2d9 3abe 30fa 973d
00000340: 434f c4bd f789 09bd 2d6b 97bd f25f 37bd
00000350: e76b fd3c 249f a43d a894 32be fd80 1c3b
00000360: a04e 363d 1bfb 9b3d 8649 04bd b4f2 2a3c
00000370: cf1c 1dbe e316 543c aff6 83bd 536a cebd
00000380: 4cc0 d43c 598c 733c 1576 19be 7612 843d
00000390: edd0 c7bc df94 a83d 0191 d6bd ecdf a4bc
000003a0: f48b c9bc 16ac 953a a3f1 d23c bdb1 b5bd
000003b0: a066 84bb d631 a2bd e8ce 00be b89d ce3b
000003c0: 543e dbbc d11e 603d 6eec 853d 736f 8fbd
000003d0: 74c8 fdbd 67b4 113d fc14 9d3c 2d1e 55bd
000003e0: f376 fcbd 9580 cfbd cd0e edbd f389 16bc
000003f0: 2f1b 1fbe 11a4 533d f6f8 16bd 5a5b dcbd

conv_block.0.lin_r.weight f4 [128, 128]
0.02761387 -0.088966526 0.0058214865 0.08226728 0.07023494 0.00030091705 0.05365789 -0.045184094
-0.06995572 -0.08163639 -0.040734645 -0.09319006 0.033444077 0.026996711 -0.045669425 -0.054497432
0.005871885 -0.048905753 -0.043580048 -0.020186221 -0.08448442 -0.020421337 0.073590875 0.06429189
0.010260136 -0.07550576 0.023734642 -0.057841796 -0.07486554 -0.041436553 -0.087417826 0.04740772
-0.07939645 -0.011703922 0.0040003513 -0.046548706 -0.05234599 0.032085624 -0.06499216 0.0368716
-0.03377307 -0.05028858 -0.00033785493 -0.024622837 -0.00850598 -0.03391618 0.012596864 0.021237342
0.04859263 -0.047533818 0.029225018 0.06027988 0.00061607326 -0.025345359 0.053403463 -0.09062967
-0.08390837 0.08236905 0.004057011 -0.03647161 -0.09554534 -0.0682229 0.0065898425 -0.020193988
0.033180386 -0.076096594 0.028896995 -0.049598083 -0.038215645 0.050811063 0.032374155 -0.059154194
0.03256238 0.015502019 0.0065832287 -0.083843514 0.033776328 0.038011238 0.041683253 0.036251485
0.012602519 -0.07710386 -0.06427764 -0.018317768 0.02776378 -0.016658345 -0.060133483 0.026400877
0.007709352 -0.070058875 0.06366733 0.042447764 0.062857695 -0.030881254 0.035010893 0.01032965
0.07468258 0.05586016 -0.002977922 0.025440982 -0.014945548 -0.05216602 0.011300517 0.04303892
0.063641064 0.024246251 0.07162537 0.04380193 0.045828838 -0.08185596 -0.076862894 0.028928252
0.05342455 0.019238545 0.011322046 0.026719792 -0.045956396 -0.0072675804 -0.06492492 -0.03652922
-0.033754535 -0.048030715 -0.015876798 -0.08560013 0.048926484 -0.110362425 -0.013546131 -0.012876904
-0.08916455 -0.06325013 0.040501658 -0.07764593 0.026434593 -0.081464425 -0.11612205 -0.005159139
-0.0128060905 0.016847342 0.034124013 0.04475776 -0.007736464 -0.008023885 0.026852949 -0.06187558
-0.12630239 -0.04226215 -0.07633248 0.06594563 0.011103513 0.06343164 -0.04872661 0.06389511
-0.09001461 -0.06644842 0.084005795 -0.041288927 0.022228071 -0.046308573 -0.011347994 -0.009515225
0.03553168 0.041819885 -0.017895509 -0.034182504 -0.09762319 0.040223733 0.016069597 -0.07328301
-0.036543712 0.0067073135 0.073129 -0.049551245 -0.017174399 -0.053054087 0.07270611 -0.04736656
-0.023652017 0.041023273 0.07369259 0.032360237 0.093172275 -0.09558232 -0.035072096 0.085079335
0.04351558 0.08799061 -0.09752863 -0.0051746117 0.043779504 0.029979305 0.008937022 0.05035115
0.04850311 0.04950172 0.0018471106 -0.081201434 -0.11861895 0.01958015 -0.08365282 0.0036111479
-0.03207207 -0.01482531 -0.027918844 0.0637888 0.061710395 -0.11641641 0.0353228 -0.07545761
-0.09467421 0.034378365 -0.0644059 -0.09776148 -0.07057292 0.055452503 -0.086069584 -0.04888671
-0.09483984 -0.00045262574 0.05029713 -0.04196401 -0.0036473456 -0.018278157 -0.10602262 0.0038401035
0.03215711 0.059900977 0.039651092 -0.08735647 -0.028749524 -0.06607557 -0.07331743 0.040037096
0.04065709 -0.05537683 0.050649565 -0.03258299 0.049914476 0.018395854 -0.101624176 -0.009284283
0.041776653 -0.032653194 -0.037864648 0.038891606 -0.0010631648 -0.04085764 0.055934805 0.021582989
0.0077889524 -0.08177567 -0.07083429 -0.011580852 -0.029251777 0.032022238 0.02679372 0.0068312683
00000000: 7c36 e23c 1534 b6bd 2bc2 be3b bf7b a83d
00000010: 56d7 8f3d 67c4 9d39 60c8 5b3d f512 39bd
00000020: f244 8fbd fb30 a7bd 5fd9 26bd 6eda bebd
00000030: a8fc 083d 3528 dd3c dd0f 3bbd b338 5fbd
00000040: f168 c03b 6651 48bd fe80 32bd 935d a5bc
00000050: 2b06 adbd a64a a7bc d0b6 963d 77ab 833d
00000060: 211a 283c c4a2 9abd 276f c23c 85eb 6cbd
00000070: 1b53 99bd 60b9 29bd 1e08 b3bd 992e 423d
00000080: 9b9a a2bd cfc1 3fbc 6115 833b dba9 3ebd
00000090: c068 56bd 376c 033d 9c1a 85bd ad06 173d
000000a0: a155 0abd 66fb 4dbd 1f22 b1b9 d5b5 c9bc
000000b0: aa5c 0bbc b1eb 0abd 1463 4e3c eff9 ad3c
000000c0: 1109 473d d2b2 42bd 4e69 ef3c 09e8 763d
000000d0: fa7f 213a 12a1 cfbc 97bd 5a3d 0c9c b9bd
000000e0: 27d8 abbd 1bb1 a83d adf0 843b 4163 15bd
000000f0: 46ad c3bd 73b8 8bbd 9bef d73b dd6d a5bc
00000100: 28e8 073d 88d8 9bbd 64b9 ec3c 5c27 4bbd
00000110: 0288 1cbd 431f 503d c39a 043d ab4b 72bd
00000120: 2160 053d 2efc 7d3c 20b8 d73b 26b6 abbd
00000130: 0c59 0a3d acb1 1b3d 0fbc 2a3d 707c 143d
00000140: cc7a 4e3c a1e8 9dbd ffa3 83bd 250f 96bc
00000150: de70 e33c 1577 88bc 874e 76bd a746 d83c
00000160: bb9e fc3b 077b 8fbd 0464 823d b5dd 2d3d
00000170: 89bb 803d affa fcbc 9567 0f3d b13d 293c
00000180: 2ef3 983d a0cd 643d 3e29 43bb 9b69 d03c
00000190: 2cde 74bc 09ac 55bd ce25 393c 9449 303d
000001a0: 3f56 823d 13a0 c63c 52b0 923d a769 333d
000001b0: 05b7 3b3d 19a4 a7bd 4b6a 9dbd f1fa ec3c
000001c0: b3d3 5a3d 279a 9d3c 1a80 393c 77e3 da3c
000001d0: c63c 3cbd e224 eebb 5bf7 84bd aa9f 15bd
000001e0: 3242 0abd dbbb 44bd 0f10 82bc 1f4f afbd
000001f0: 2367 483d b205 e2bd 97f0 5dbc a6f9 52bc
00000200: e79b b6bd 4989 81bd 11e5 253d d404 9fbd
00000210: 5c8d d83c d2d6 a6bd 66d1 edbd ff0d a9bb
00000220: a3d0 51bc 7003 8a3c 9fc5 0b3d ea53 373d
00000230: 2a82 fdbb 9d76 03bc b7fa db3c 4071 7dbd
00000240: 6a55 01be 141b 2dbd 3454 9cbd 810e 873d
00000250: 82eb 353c 73e8 813d 8e95 47bd 70db 823d
00000260: 9459 b8bd 1c16 88bd 3b0b ac3d 941e 29bd
00000270: a517 b63c 0fae 3dbd f0ec 39bc bfe5 1bbc
00000280: ab89 113d 544b 2b3d 9a99 92bc f402 0cbd
00000290: abee c7bd a4c1 243d 63a4 833c 6715 96bd
000002a0: dcae 15bd 06c9 db3b a8c4 953d 3ff6 4abd
000002b0: 53b1 8cbc 3e4f 59bd f1e6 943d 7003 42bd
000002c0: e0c1 c1bc 0508 283d 24ec 963d 2b8c 043d
000002d0: 1bd1 be3d aac0 c3bd c2a7 0fbd 133e ae3d
000002e0: 653d 323d 6c34 b43d 17bd c7bd ca8f a9bb
000002f0: 2352 333d 2997 f53c 966c 123c 023d 4e3d
00000300: 32ab 463d 51c2 4a3d bf1a f23a f04c a6bd
00000310: 7eee f2bd 8d66 a03c 2b52 abbd 02a9 6c3b
00000320: 015e 03bd dbe5 72bc 0fb6 e4bc b4a3 823d
00000330: 0ac4 7c3d ba6b eebd a4ae 103d 8589 9abd
00000340: 8de4 c1bd 54d0 0c3d 3ee7 83bd 2c37 c8bd
00000350: 8988 90bd 2a22 633d 4045 b0bd 6e3d 48bd
00000360: 643b c2bd 664e edb9 5d04 4e3d 74e2 2bbd
00000370: 4e08 6fbb 13bc 95bc 6322 d9bd 3faa 7b3b
00000380: 2cb7 033d ba5a 753d 2f69 223d f3e7 b2bd
00000390: 1f84 ebbc a152 87bd 7327 96bd f0fd 233d
000003a0: 0c88 263d d1d2 62bd eb75 4f3d be75 05bd
000003b0: 1f73 4c3d e7b2 963c 5620 d0bd 1b1d 18bc
000003c0: ff1d 2b3d 5bbf 05bd f617 1bbd ce4c 1f3d
000003d0: e459 8bba 575a 27bd e51b 653d cfce b03c
000003e0: 783a ff3b 017a a7bd 9111 91bd 9dbd 3dbc
000003f0: 6ca1 efbc c029 033d 817e db3c d5d8 df3b

conv_block.1.lin_l.weight f4 [128, 128]
-0.046523694 0.030227207 -0.07372863 -0.085623056 -0.0062866258 0.038565382 0.038108613 0.03213054
0.04623883 0.08490637 -0.05339449 -0.08869075 0.054735176 0.015423224 0.032431543 0.0016852904
0.014057292 -0.003728187 -0.0194278 0.043375857 -0.061428677 0.056316655 -0.07632734 -0.00044295067
0.069996335 -0.012487044 -0.077162296 -0.029696219 0.034309965 0.07629785 -0.06368212 -0.089353666
-0.024251847 0.028244989 0.030354783 0.046531174 -0.07088613 0.046118118 0.0101111345 0.041842386
-0.023901751 -0.07624903 0.060342524 -0.037780847 -0.039273947 -0.00086552347 -0.101326376 0.054112017
0.0044129686 -0.041428983 0.078026116 -0.03529094 0.014710882 0.017967131 0.08432564 -0.07492825
0.0070902472 0.024991091 0.06099276 -0.07594019 -0.07009554 0.00688407 0.08803376 -0.014061956
-0.07478002 0.047440685 0.03470911 0.061277825 -0.028517237 -0.076363906 -0.07700282 0.07454757
-0.046534695 -0.036368906 -0.053583343 -0.053067584 0.07779342 -0.028253471 0.008664382 -0.054759927
0.073743284 -0.08016689 -0.03554093 -0.08333677 0.07520168 0.030453244 -0.04032384 0.057609137
0.038402285 0.012201873 -0.009543961 0.06870053 -0.041804165 0.058682367 0.013273146 -0.058897182
-0.024009975 -0.10567174 0.012907889 -0.091964215 -0.085360296 0.039019577 0.02039598 -0.07706608
-0.07391321 0.0570948 0.058086302 0.024291432 -0.05568448 -0.06521984 -0.006723832 0.024616217
-0.07843913 0.04816626 0.012548696 -0.07360256 0.059411116 -0.07923154 -0.06337362 0.058638968
0.082604006 0.02803708 -0.051417634 -0.061850097 -0.050807353 -0.04283079 0.053914763 0.012947863
-0.07426925 -0.07695849 0.07492455 0.005811096 -0.08776032 0.0021334896 0.07205694 0.06512738
0.05111715 -0.0040326435 0.012798233 -0.08846284 -0.065220766 0.072837114 -0.04400874 -0.093168944
0.016334804 0.05725241 0.058680024 0.074650094 0.03585536 0.075171456 0.024126174 0.021137191
-0.09478378 -0.05142412 0.021477858 -0.04802755 -0.083604515 0.028504577 0.04051109 -0.07111549
0.019226521 0.060708232 -0.0013208677 0.043531034 0.045351256 0.03267278 -0.0014584373 -0.06675325
0.01667792 -0.008583523 0.042798433 0.009250722 0.026288476 0.03518199 0.12793124 -0.03131307
-0.04925301 -0.16337097 -0.08314641 -0.008431377 -0.05844346 -0.07185499 -0.048167728 -0.07671862
-0.1556635 0.029384682 0.0050015976 0.054005988 -0.19420387 -0.05027354 0.059789278 0.010106653
-0.0011956787 0.019809445 0.005695472 0.06795018 0.11323114 0.0071089515 0.03876925 -0.021690175
0.07190949 -0.045455355 0.054801192 -0.06122369 -0.0029624386 -0.047732614 0.020429721 -0.20271406
-0.05161793 0.01571322 -0.054933142 -0.08913846 0.037919875 -0.17088407 0.03170415 -0.0034431193
-0.10100851 -0.022839844 0.014697907 0.05985869 -0.17583245 0.020562062 0.1905102 0.06233511
-0.077015474 -0.10466675 0.028495314 0.13817689 0.005380189 -0.0840052 0.1586195 0.07094354
0.016099056 -0.015161467 -0.065765046 0.03639247 -0.090321586 -0.034899015 0.0044417777 0.07195056
-0.051369645 0.03571155 0.09295332 -0.002421999 -0.054297447 -0.09287246 0.11335975 -0.08215831
-0.082959265 -0.07225926 0.06550594 0.075805746 0.015412775 0.033103533 0.051262934 -0.046340827
00000000: a18f 3ebd 0c9f f73c 09ff 96bd 245b afbd
00000010: 0a00 cebb bcf6 1d3d c717 1c3d 509b 033d
00000020: ed64 3d3d 64e3 ad3d 2eb4 5abd 7fa3 b5bd
00000030: fe31 603d b1b1 7c3c f0d6 043d f6e4 dc3a
00000040: 8e50 663c 9954 74bb 0d27 9fbc e2aa 313d
00000050: a39c 7bbd 4bac 663d 8251 9cbd d53b e8b9
00000060: 3d5a 8f3d 7596 4cbc 4407 9ebd 7c45 f3bc
00000070: 9b88 0c3d 0c42 9c3d c56b 82bd 0eff b6bd
00000080: cfab c6bc 0962 e73c 98aa f83c 7997 3e3d
00000090: bf2c 91bd 5ae6 3c3d 2ca9 253c ec62 2b3d
000000a0: 9bcd c3bc 7428 9cbd b929 773d 17c0 1abd
000000b0: b8dd 20bd 4ce4 62ba 3484 cfbd 90a4 5d3d
000000c0: aa9a 903b 70b1 29bd 28cc 9f3d 3c8d 10bd
000000d0: e905 713c ce2f 933c ecb2 ac3d fb73 99bd
000000e0: 4e55 e83b 1eba cc3c 8bd3 793d 8886 9bbd
000000f0: 408e 8fbd c493 e13b 0b4b b43d 1e64 66bc
00000100: 4426 99bd 2a51 423d 242b 0e3d 75fe 7a3d
00000110: fb9c e9bc ae64 9cbd a8b3 9dbd 65ac 983d
00000120: 2a9b 3ebd 90f7 14bd 357a 5bbd 655d 59bd
00000130: 2852 9f3d d373 e7bc 0df5 0d3c f24b 60bd
00000140: b806 973d 8a2e a4bd 5e93 11bd 78ac aabd
00000150: 5703 9a3d 1579 f93c 9c2a 25bd 8ff7 6b3d
00000160: b74b 1d3d 5dea 473c 465e 1cbc ddb2 8c3d
00000170: d83a 2bbd ec5c 703d 9c77 593c 2c3e 71bd
00000180: 91b0 c4bc 6d6a d8bd 9c7b 533c bc57 bcbd
00000190: 61d1 aebd fed2 1f3d 7815 a73c d2d4 9dbd
000001a0: cf5f 97bd 3ddc 693d e7eb 6d3d d3fe c63c
000001b0: 6915 64bd fb91 85bd 9753 dcbb f3a7 c93c
000001c0: b2a4 a0bd fc49 453d 0c99 4d3c f0bc 96bd
000001d0: 1259 733d 2544 a2bd 07ca 81bd 6a2f 703d
000001e0: 4a2c a93d 05ae e53c 4c9b 52bd 8756 7dbd
000001f0: 5f1b 50bd 576f 2fbd bad5 5c3d 4623 543c
00000200: 7a1a 98bd 6a9c 9dbd 0b72 993d 026b be3b
00000210: afbb b3bd 04d2 0b3b 9792 933d 8161 853d
00000220: 3760 513d 4424 84bb aeaf 513c 012c b5bd
00000230: 7792 85bd a02b 953d 8242 34bd 5ccf bebd
00000240: 91d0 853c 8181 6a3d 775a 703d 26e2 983d
00000250: 12dd 123d 7ef3 993d 41a4 c53c e727 ad3c
00000260: 001e c2bd 19a2 52bd 55f2 af3c 89b8 44bd
00000270: d838 abbd 6e82 e93c f5ee 253d ffa4 91bd
00000280: f080 9d3c 32a9 783d f720 adba 994d 323d
00000290: 3dc2 393d e5d3 053d 0929 bfba eeb5 88bd
000002a0: 22a0 883c e8a1 0cbc 694d 2f3d 5790 173c
000002b0: ee5a d73c fe1a 103d 6800 033e 2242 00bd
000002c0: 86bd 49bd b84a 27be aa48 aabd c223 0abc
000002d0: 6962 6fbd b628 93bd 864b 45bd a71e 9dbd
000002e0: 4166 1fbe 25b8 f03c 71e4 a33b 6235 5d3d
000002f0: 61dd 46be a1eb 4dbd 9ae5 743d 6096 253c
00000300: 52b8 9cba 6b47 a23c 15a1 ba3b 7729 8b3d
00000310: bae5 e73d 35f2 e83b 81cc 1e3d 98af b1bc
00000320: 4845 933d 652f 3abd 3777 603d b1c5 7abd
00000330: 7925 42bb 4683 43bd 3b5c a73c 4694 4fbe
00000340: 536d 53bd 03b9 803c 9301 61bd 3a8e b6bd
00000350: df51 1b3d 3cfc 2ebe 36dc 013d f5a5 61bb
00000360: 8ddd cebd a01a bbbc 7dcf 703c 632e 753d
00000370: 6c0d 34be c571 a83c 1b15 433e 1a53 7f3d
00000380: 4aba 9dbd 855b d6bd 016f e93c 3e7e 0d3e
00000390: 4c4c b03b eb0a acbd 266d 223e d94a 913d
000003a0: 2be2 833c cd67 78bc d3af 86bd 4510 153d
000003b0: 86fa b8bd 45f2 0ebd 558c 913b d15a 933d
000003c0: fa68 52bd 4646 123d 4f5e be3d 66ba 1ebb
000003d0: 0067 5ebd eb33 bebd 2829 e83d 9e42 a8bd
000003e0: 8ce6 a9bd aafc 93bd fa27 863d 0b40 9b3d
000003f0: dd85 7c3c 9297 073d 15f9 513d e1cf 3dbd

conv_block.1.lin_r.weight f4 [128, 128]
-0.11764646 0.042813756 -0.092408784 0.057032056 -0.062147114 0.042650294 0.012862482 0.05040232
0.017398775 0.083492994 -0.028684726 0.03638718 -0.08787557 -0.065033846 -0.09981769 0.018865664
-0.07428725 -0.013523737 0.014188971 -0.045946777 -0.013485619 0.0592582 0.033358056 -0.033555485
0.052269164 0.016267492 -0.018376354 0.06450989 0.04098971 0.009458547 0.047903977 0.049827382
0.06862109 -0.095073536 -0.09985197 -0.021366755 -0.024887664 0.035003573 -0.030031582 0.03433591
-0.024114916 -0.022003131 0.03284621 -0.114095956 0.0028153479 -0.032663185 -0.0482527 -0.007688622
-0.09749071 -0.07516924 -0.082186535 0.005224468 0.058535554 0.032688055 -0.09062715 -0.05653395
-0.0004251342 0.04345742 -0.04407297 0.041280955 0.034634873 0.021080092 0.0540174 -0.03165177
-0.004669613 -0.07235239 0.03422204 -0.02668699 0.008389463 -0.03477218 0.028551267 -0.018113077
0.017499398 -0.06682639 0.04636557 -0.013216977 0.0067558656 -0.07613927 0.06947514 -0.08646075
-0.07114784 0.010629112 -0.0890722 -0.042546958 0.010238213 -0.045037813 -0.0692219 0.03904723
-0.08831678 0.053876325 -0.006483828 -0.025654197 0.0076857223 -0.023512064 0.008025221 0.020729214
0.08225837 -0.080757774 -0.064792655 -0.044056837 -0.07575458 -0.084311716 -0.070880644 -0.036793776
0.035282787 -0.08599775 -0.07701906 -0.0016562464 -0.06387776 0.077564724 0.077255614 0.072864786
0.076057665 0.011607924 -0.05816589 -0.051720165 -0.05775199 0.03468202 -0.071929984 -0.070787705
-0.07478333 -0.063813314 0.00813528 0.021947796 -0.08333764 0.008685719 0.02327066 0.06453569
-0.015277955 -0.26699108 0.10480121 -0.03018205 -0.12561622 -0.09266511 -0.0773947 0.09570687
-0.04348549 0.05210251 -0.08564312 0.037646953 -0.09530124 0.09578609 0.036863122 -0.033966642
0.028759299 -0.07080254 -0.019657206 0.05532655 0.050231867 0.013728561 0.04397133 0.0053021745
-0.043258294 0.0026914908 -0.08226525 -0.06033147 0.04688047 -0.0027841812 -0.051986095 0.037240367
-0.06051486 -0.3458568 0.15712266 -0.08782647 0.029057775 -0.025135843 -0.15803328 0.05454234
-0.07412482 -0.36278006 -0.029460773 0.018656788 0.00045651806 -0.2721274 0.1011198 -0.011029135
-0.06190457 -0.013774671 -0.061484233 0.12644058 -0.023497274 0.12251736 -0.023126598 -0.021336578
-0.095676996 -0.017912189 0.036801368 -0.10767035 -0.13029844 0.19462101 0.012841291 -0.08862882
-0.079096735 -0.079856575 0.008754553 -0.07588442 0.04922808 0.1649726 0.04327064 0.031829223
0.034886993 -0.0038907547 -0.29473022 0.057878383 0.046256766 0.023413 -0.103716046 0.031073939
-0.014177303 0.0065101334 0.034758948 -0.04932468 0.03384426 0.04452639 -0.04189265 -0.02797328
0.09244071 0.005846447 0.062795244 0.07672503 -0.019529007 0.0010546418 -0.083940215 -0.011908262
0.057133365 0.119971514 0.042628057 -0.020020302 0.22921744 -0.0005134389 -0.028642988 0.02123949
0.03230557 0.050348297 0.080042124 0.043719873 -0.020853903 -0.095070854 0.0498424 -0.036157046
-0.01977286 0.069421336 0.092886254 -0.09808484 0.09122039 -0.006315638 -0.24519514 -0.10733061
0.19716136 -0.06983571 0.052674804 0.0057349503 -0.021500502 -0.08408252 -0.33951688 -0.14139837
00000000: a1f0 f0bd 7a5d 2f3d d140 bdbd 729a 693d
00000010: f98d 7ebd 13b2 2e3d 29bd 523c aa72 4e3d
00000020: e087 8e3c 60fe aa3d 3bfc eabc b90a 153d
00000030: 1bf8 b3bd 7730 85bd 386d ccbd 2a8c 9a3c
00000040: ea23 98bd aa92 5dbc dc78 683c b032 3cbd
00000050: c9f2 5cbc bab8 723d 75a2 083d 7a71 09bd
00000060: 3118 563d 6743 853c 028a 96bc c31d 843d
00000070: d3e4 273d 06f8 1a3c f636 443d cc17 4c3d
00000080: 3789 8c3d eab5 c2bd 317f ccbd 5509 afbc
00000090: 37e1 cbbc e85f 0f3d cb04 f6bc d0a3 0c3d
000000a0: a58c c5bc e93f b4bc bf89 063d 24ab e9bd
000000b0: b381 383b d5c9 05bd a0a4 45bd d6f0 fbbb
000000c0: 36a9 c7bd 55f2 99bd 6a51 a8bd 0432 ab3b
000000d0: fac2 6f3d e9e3 053d ba9a b9bd 2590 67bd
000000e0: 8ce4 deb9 6800 323d dc85 34bd 3816 293d
000000f0: 4cdd 0d3d 28b0 ac3c 5941 5d3d 49a5 01bd
00000100: 8e03 99bb 7d2d 94bd 692c 0c3d ad9e dabc
00000110: f573 093c 466d 0ebd 59e4 e93c e061 94bc
00000120: e65a 8f3c 46dc 88bd d3e9 3d3d 058c 58bc
00000130: 4f60 dd3b e8ee 9bbd fb48 8e3d 5512 b1bd
00000140: f5b5 91bd ba25 2e3c 7c6b b6bd b845 2ebd
00000150: 2ebe 273c 9279 38bd 36c4 8dbd fdef 1f3d
00000160: 6edf b4bd 6cad 5c3d 4b76 d4bb c028 d2bc
00000170: 83d8 fb3b 5f9c c0bc 377c 033c 50d0 a93c
00000180: 1477 a83d 5564 a5bd 03b2 84bd f174 34bd
00000190: 3825 9bbd 9fab acbd df29 91bd 12b5 16bd
000001a0: af84 103d 971f b0bd 2bbc 9dbd 6816 d9ba
000001b0: 58d2 82bd 41da 9e3d 3138 9e3d 223a 953d
000001c0: 1fc4 9b3d 292f 3e3c 5b3f 6ebd 86d8 53bd
000001d0: 5a8d 6cbd bc0e 0e3d 0750 93bd 25f9 90bd
000001e0: 0128 99bd 8eb0 82bd d649 053c ddcb b33c
000001f0: edac aabd 8c4e 0e3c 1ca2 be3c 4a2b 843d
00000200: 6350 7abc 0eb3 88be 04a2 d63d 5940 f7bc
00000210: 8aa1 00be 35c7 bdbd 1d81 9ebd f701 c43d
00000220: d71d 32bd 7169 553d a965 afbd b133 1a3d
00000230: 4c2d c3bd 7f2b c43d c9fd 163d 9b20 0bbd
00000240: 9f98 eb3c ec00 91bd 2608 a1bc 189e 623d
00000250: eebf 4d3d c2ed 603c 481b 343d ddbd ad3b
00000260: 9c2f 31bd b963 303b af7a a8bd 221e 77bd
00000270: bc05 403d cf76 36bb 5fef 54bd 5b89 183d
00000280: 6ede 77bd 2414 b1be c3e4 203e 5dde b3bd
00000290: 920a ee3c afe9 cdbc 7ad3 21be ca67 5f3d
000002a0: c1ce 97bd 4fbe b9be b857 f1bc 1fd6 983c
000002b0: d158 ef39 4854 8bbe e617 cf3d 8cb3 34bc
000002c0: a58f 7dbd 28af 61bc e4d6 7bbd a479 013e
000002d0: 5b7d c0bc 62ea fa3d fe73 bdbc 0cca aebc
000002e0: 4df2 c3bd 95bc 92bc 08bd 163d 4682 dcbd
000002f0: f46c 05be bb4a 473e 4764 523c 0783 b5bd
00000300: 78fd a1bd d88b a3bd 426f 0f3c 4a69 9bbd
00000310: 62a3 493d 94ee 283e 8e3c 313d 5c5f 023d
00000320: aae5 0e3d 08fc 7ebb e1e6 96be e211 6d3d
00000330: bc77 3d3d 9fcc bf3c 1469 d4bd c68e fe3c
00000340: eb47 68bc f552 d53b 665f 0e3d ad08 4abd
00000350: 47a0 0a3d 4e61 363d a197 2bbd 3828 e5bc
00000360: 8e51 bd3d 8d93 bf3b cb9a 803d 0322 9d3d
00000370: 4cfb 9fbc e83b 8a3a d9e8 abbd df1a 43bc
00000380: ad04 6a3d a0b3 f53d c29a 2e3d 9e01 a4bc
00000390: fab7 6a3e 4d98 06ba b3a4 eabc 70fe ad3c
000003a0: d852 043d 043a 4e3d 20ed a33d 9c13 333d
000003b0: ced5 aabc 82b4 c2bd 8b27 4c3d 6919 14bd
000003c0: b1fa a1bc c62c 8e3d 263b be3d b4e0 c8bd
000003d0: c1d1 ba3d 69f3 cebb 6f14 7bbe 27d0 dbbd
000003e0: abe4 493e 0606 8fbd 89c1 573d 40ec bb3b
000003f0: d221 b0bc 7533 acbd 28d5 adbe bcca 10be

ts_layer.lins.0.weight f4 [128, 128]
0.060603242 0.06724885 -0.06452562 0.08949923 -0.087118685 -0.02099682 -0.07046191 -0.028155664
-0.036020212 -0.05522994 0.01640359 0.11642077 -0.04540384 0.05945941 0.085340686 0.008952435
0.07958638 0.071815036 0.011791882 0.025860036 -0.067091234 0.13647352 -0.0337314 -0.035083164
0.012463556 0.067282505 -0.03032287 0.0797315 0.058293045 -0.07064083 0.021444688 -0.06475628
0.07430859 0.039444245 0.008052937 0.06958675 -0.045661137 -0.06919934 0.0035087883 -0.08106503
-0.061773147 -0.026357958 0.028621988 -0.07666305 0.035373744 -0.08943607 -0.09358561 -0.0743709
0.058775313 0.013956969 -0.07765287 -0.020311436 0.06646289 -0.0654252 -0.044820447 0.011264022
-0.023967726 -0.0019416434 -0.046744857 -0.07264103 0.06250142 -0.05303748 0.024534008 0.04539774
-0.033209864 0.08192736 0.056744985 -0.07738384 0.15572034 0.0068803043 0.029009279 -0.030521154
0.021448923 -0.017194761 -0.00011215837 0.0053714053 0.026641201 0.044396065 0.05948453 -0.05099273
0.06152448 0.019120835 0.0600787 -0.08971551 -0.08161391 -0.020979034 -0.06423875 0.02174502
0.023084039 0.1455773 0.025927005 -0.0030166244 0.058333766 -0.011032853 -0.06754221 -0.05319362
-0.058357395 -0.019864945 0.04852898 -0.009792346 -0.021107681 0.005675589 0.030365132 -0.030153379
-0.02264041 0.051205654 -0.012033686 0.026041608 0.03517827 0.087645605 -0.020289931 0.017267888
-0.011683534 0.013832608 0.053778455 0.1071352 0.019728173 0.053141065 0.05360846 0.046706587
0.013399047 0.07306445 -0.019983761 -0.043126114 -0.10220848 -0.07127374 -0.04238087 -0.07601888
0.030958503 0.059574723 -0.04395209 0.005039034 -0.014386526 -0.012288533 0.016906794 -0.047745757
0.06231078 -0.027246533 0.0005574568 -0.053900167 -0.03322402 -0.034086045 0.056345697 0.039015923
0.009528599 0.016308706 -0.083986245 -0.028054444 -0.030790051 0.073143594 -0.021274542 0.055597886
-0.07324696 -0.025422793 -0.03842297 0.06911369 0.072322845 0.064397365 0.014043564 0.06778841
0.03229304 0.030200796 -0.084029205 -0.017399626 -0.05567292 0.0595475 -0.029946053 -0.07699624
-0.06467173 -0.046723597 0.038862396 -0.032333456 0.04113793 0.034840323 -0.015209666 -0.023554325
0.005894108 -0.09700047 0.083161 -0.05557086 0.05941938 0.08103604 0.007960578 -0.0055633695
-0.037496902 0.06558072 0.05957928 -0.05256587 -0.048149433 0.08133927 0.09425133 -0.023607962
0.0081009865 -0.06604292 0.09617408 -0.07734587 0.002024807 0.046965793 0.021597724 -0.016424196
-0.04406899 -0.17240566 0.014049242 0.0035314362 -0.0070665847 0.049404446 -0.017742371 0.050799567
-0.010698665 0.036346238 -0.08512755 0.097549185 -0.0020737515 -0.0691666 -0.07027668 0.052188367
-0.01262698 0.051138856 0.058578856 -0.07014032 0.011994771 0.0028309748 -0.06023237 -0.03392682
0.034706097 -0.059735652 -0.0052774507 0.044656362 -0.015453895 0.014667499 -0.04751403 -0.04555219
0.09003895 0.07744047 0.09717512 0.072889514 -0.0667969 -0.07862962 -0.035122473 0.044588614
0.07184279 -0.03480086 0.045648467 0.001167789 0.06596011 -0.08259515 0.060053654 -0.076086886
0.017452428 -0.015317974 -0.0014719694 0.06945381 -0.08994217 -0.038950615 -0.052225202 -0.08010682
00000000: 1b3b 783d c4b9 893d 0226 84bd 5f4b b73d
00000010: 486b b2bd 8601 acbc 554e 90bd b5a6 e6bc
00000020: ee89 13bd ca38 62bd d260 863c 036e ee3d
00000030: 60f9 39bd b68b 733d 19c7 ae3d 3cad 123c
00000040: 2ffe a23d c313 933d bd32 413c 6dd8 d33c
00000050: 2167 89bd b7bf 0b3e f029 0abd 5db3 0fbd
00000060: f133 4c3c 69cb 893d ab67 f8bc 454a a33d
00000070: b0c4 6e3d 24ac 90bd c5ac af3c f19e 84bd
00000080: 1a2f 983d 4a90 213d 77f0 033c 7f83 8e3d
00000090: 2c07 3bbd 62b8 8dbd b3f3 653b 6c05 a6bd
000000a0: d705 7dbd a5ec d7bc a978 ea3c 8401 9dbd
000000b0: 0fe4 103d 422a b7bd d0a9 bfbd c54f 98bd
000000c0: 62be 703d c5ab 643c 7808 9fbd 2b64 a6bc
000000d0: b21d 883d a6fd 85bd a595 37bd bc8c 383c
000000e0: f757 c4bc be7e feba 8977 3fbd d2c4 94bd
000000f0: bf00 803d d43d 59bd 8bfb c83c fbf2 393d
00000100: 1107 08bd 88c9 a73d 6e6d 683d 6b7b 9ebd
00000110: 2775 1f3e 2d74 e13b dea4 ed3c 8007 fabc
00000120: a7b5 af3c 07dc 8cbc 9136 ebb8 9d02 b03b
00000130: a63e da3c a6d8 353d 0da6 733d c1dd 50bd
00000140: 1801 7c3d 4ca3 9c3c 1515 763d c4bc b7bd
00000150: 3225 a7bd 39dc abbc 9b8f 83bd 9d22 b23c
00000160: bd1a bd3c 3712 153e df64 d43c 8fb2 45bb
00000170: 63ef 6e3d 24c3 34bc 9253 8abd 8ee1 59bd
00000180: 2a08 6fbd cfbb a2bc 53c6 463d 1370 20bc
00000190: 04ea acbc 4bfa b93b 4cc0 f83c 3804 f7bc
000001a0: 6278 b9bc 05bd 513d f028 45bc 3655 d53c
000001b0: 1717 103d 8a7f b33d 1237 a6bc 6375 8d3c
000001c0: 4b6c 3fbc 2aa2 623c cc46 5c3d b369 db3d
000001d0: fa9c a13c 72aa 593d 8b94 5b3d 684f 3f3d
000001e0: ad87 5b3c d0a2 953d fcb4 a3bc 02a5 30bd
000001f0: ae52 d1bd f7f7 91bd 9097 2dbd c9af 9bbd
00000200: b09c fd3c a004 743d 1b07 34bd 7b1e a53b
00000210: 77b5 6bbc d855 49bc 1e80 8a3c 0e91 43bd
00000220: 9739 7f3d 1f34 dfbc 4b22 123a 6cc6 5cbd
00000230: e915 08bd cf9d 0bbd bfca 663d 29cf 1f3d
00000240: d71d 1c3c d699 853c fb00 acbd 6fd2 e5bc
00000250: 6b3b fcbc 4fcc 953d f347 aebc 9cba 633d
00000260: 8102 96bd 7643 d0bc 6761 1dbd 7a8b 8d3d
00000270: 001e 943d c4e2 833d fa16 663c a6d4 8a3d
00000280: b545 043d a967 f73c 8117 acbd a989 8ebc
00000290: 4a09 64bd 14e8 733d 6d51 f5bc 34b0 9dbd
000002a0: 9d72 84bd 3e61 3fbd 2d2e 1f3d 1670 04bd
000002b0: 3f80 283d bab4 0e3d f731 79bc 00f5 c0bc
000002c0: 5d23 c13b 2fa8 c6bd 5050 aa3d 459e 63bd
000002d0: bc61 733d 39f6 a53d 166d 023c ed4c b6bb
000002e0: 5a96 19bd 2f4f 863d 6709 743d 4f4f 57bd
000002f0: 5738 45bd 3495 a63d d706 c13d 7c65 c1bc
00000300: 00ba 043c 8341 87bd ebf6 c43d 8367 9ebd
00000310: a0b2 043b 345f 403d b6ed b03c 098c 86bc
00000320: af81 34bd 1c8b 30be cb2e 663c ab6f 673b
00000330: cf8e e7bb 515c 4a3d 7358 91bc 3513 503d
00000340: 7449 2fbc cbdf 143d 5a57 aebd dec7 c73d
00000350: c7e7 07bb 38a7 8dbd 38ed 8fbd 78c3 553d
00000360: 65e1 4ebc fa76 513d 62f0 6f3d baa5 8fbd
00000370: b785 443c e087 393b 38b6 76bd d9f6 0abd
00000380: fb27 0e3d 5fad 74bd 77ee acbb 97e9 363d
00000390: 5532 7dbc f34f 703c 129e 42bd ef94 3abd
000003a0: 5766 b83d 1c99 9e3d c003 c73d 1947 953d
000003b0: d0cc 88bd 9108 a1bd 95dc 0fbd 8da2 363d
000003c0: 5022 933d 598b 0ebd e3f9 3a3d 7f10 993a
000003d0: 1816 873d a527 a9bd d2fa 753d 71d3 9bbd
000003e0: 65f8 8e3c 3df8 7abc 19ef c0ba cd3d 8e3d
000003f0: 9a33 b8bd ae8a 1fbd 18ea 55bd 0b0f a4bd

ts_layer.lins.1.weight f4 [128, 128]
-0.05229466 -0.07611009 -0.02829458 0.052137937 -0.027803622 0.077897444 0.027803853 0.07828343
-0.0685674 0.0750241 0.035034314 0.050577283 0.021321774 -0.01381619 -0.008583374 -0.04748596
-0.05887251 0.08701918 0.05611781 0.04791001 0.08322693 -0.03467045 0.060343992 0.05041348
-0.0020494116 -0.06348074 0.011618042 0.010599574 -0.081732914 -0.05047889 -0.033526953 0.031594142
0.07292957 -0.056659747 -0.06766134 0.08605961 -0.07761834 -0.03853305 0.034274153 -0.05705992
0.039573267 0.08731401 -0.036079302 0.041912753 -0.006933652 0.056661665 -0.072887905 -0.051174186
0.0586619 0.005283044 0.050787173 -0.07875864 -0.059080396 0.041281193 0.012440201 0.063385434
-0.087008424 0.061249305 -0.03626242 -0.08410157 0.017078346 -0.039952926 0.004115882 -0.071783476
-0.003967641 -0.0140955495 0.0072349804 0.023565652 0.072092004 0.046801124 -0.079346485 -0.048906095
0.070625514 0.086706445 -0.080337465 -0.06393766 0.01065231 -0.07633354 0.066522986 -0.037950065
0.05724861 0.05244407 -0.0065522967 0.011019357 0.02504589 -0.035943083 0.068591215 -0.036775917
0.078084506 0.022007082 -0.021749407 0.06025528 -0.022107791 -0.04168746 0.055648126 -0.0038287777
-0.06565143 0.080863364 0.0390058 -0.043672036 0.048838936 0.057443276 -0.007387394 0.07770979
-0.036791176 -0.0519833 -0.0023612455 0.0187552 0.07877758 0.079693526 0.028908249 0.049838543
-0.014920922 -0.008165962 -0.07011782 -0.027617838 -0.0409692 0.059629507 0.00043149941 -0.044720765
-0.03379629 -0.04855751 0.030911783 0.0121138785 0.074952826 -0.054310545 -0.026171306 0.084678285
0.02735715 -0.07281403 0.053284626 -0.08079079 -0.048768148 -0.058486212 -0.07977167 0.0029427982
0.03020771 0.07593944 0.030989945 -0.0836718 -0.016160682 0.01692748 0.06630486 0.05867386
0.01903317 -0.011148104 -0.07870749 -0.08615338 0.085928045 -0.042691763 0.042835705 0.05664628
0.064906396 0.08132583 -0.042466544 0.039180364 -0.07101216 -0.05090237 0.072091565 0.004552734
-0.06398587 0.06880602 0.014957916 -0.0014358166 -0.05029438 -0.055787317 -0.014615178 -0.047264077
-0.066779025 0.037579384 0.057454582 0.031274013 0.0127042085 0.0479623 -0.076960936 -0.042382427
-0.011102902 -0.039425828 0.02634058 0.032754727 0.08489629 -0.009438039 -0.02349494 0.005273519
-0.055019926 -0.06915843 -0.04989191 0.073345885 0.046272043 -0.014870609 -0.08718524 -0.041605797
0.05791212 -0.012604015 -0.035524588 -0.054356717 -0.04894959 -0.052193265 -0.03664331 -0.022521874
-0.06594462 0.08106792 -0.066897735 -0.026010264 -0.07618363 -0.00600581 -0.020891117 -0.01325727
0.0023873134 0.069827646 -0.0322565 0.058649655 0.0063144616 0.07550472 0.08303523 0.04899964
-0.05076749 0.08185822 0.01009867 0.0040076384 -0.08095598 -0.00955664 -0.055719588 0.06215894
0.047529705 -0.024898114 -0.02562347 -0.06312937 0.021517336 -0.07604622 -0.0440716 -0.071187556
0.06875206 -0.051050466 0.04712967 -0.040571768 0.020841932 0.024793262 -0.059035186 -0.04620147
-0.06284851 -0.06391932 0.019966183 0.013688654 0.032861993 -0.038022168 0.03826544 -0.029699346
0.042258643 0.03195731 0.004435302 -0.025634388 0.031175591 0.023076948 0.066840805 0.046264637
00000000: ed32 56bd 9bdf 9bbd 09ca e7bc 978e 553d
00000010: 6cc4 e3bc b288 9f3d e8c4 e33c 1053 a03d
00000020: 116d 8cbd 3ca6 993d 2480 0f3d 202a 4f3d
00000030: 00ab ae3c 4d5d 62bc 48a1 0cbc a380 42bd
00000040: 4d24 71bd 1d37 b23d cadb 653d 493d 443d
00000050: e172 aa3d 9a02 0ebd 432b 773d 5d7e 4e3d
00000060: 6c4f 06bb 3102 82bd 9a59 3e3c d6a9 2d3c
00000070: 9663 a7bd f4c2 4ebd 8f53 09bd dc68 013d
00000080: 195c 953d 0d14 68bd 0792 8abd 0540 b03d
00000090: 5df6 9ebd d5d4 1dbd 0e63 0c3d aab7 69bd
000000a0: 9417 223d b0d1 b23d e4c7 13bd b5ac 2b3d
000000b0: b033 e3bb 1016 683d 4146 95bd 069c 51bd
000000c0: 7647 703d 631d ad3b 3606 503d 364c a1bd
000000d0: 49fe 71bd 7816 293d fcd1 4b3c 39d0 813d
000000e0: 7931 b2bd 8de0 7a3d e787 14bd 723d acbd
000000f0: e3e7 8b3c aea5 23bd 85de 863b 3703 93bd
00000100: fc02 82bb 05f1 66bc 6a13 ed3b c10c c13c
00000110: f9a4 933d 89b2 3f3d 6980 a2bd c251 48bd
00000120: 1ca4 903d 2693 b13d f887 a4bd bff1 82bd
00000130: 0787 2e3c c254 9cbd 343d 883d 8771 1bbd
00000140: 857d 6a3d 98cf 563d a6b4 d6bb 888a 343c
00000150: 0a2d cd3c 0e39 13bd 8d79 8c3d 58a2 16bd
00000160: c5ea 9f3d 3248 b43c d02b b2bc 3ece 763d
00000170: 661b b5bc 78c0 2abd 4aef 633d 3bec 7abb
00000180: 4274 86bd b19b a53d 8cc4 1f3d 73e1 32bd
00000190: 560b 483d a449 6b3d f411 f2bb 4f26 9f3d
000001a0: 58b2 16bd 71ec 54bd 20bf 1abb 81a4 993c
000001b0: 2456 a13d 5c36 a33d fed0 ec3c 8023 4c3d
000001c0: e276 74bc 87ca 05bc ee99 8fbd ce3e e2bc
000001d0: 52cf 27bd 123e 743d df3a e239 1f2d 37bd
000001e0: fb6d 0abd 3de4 46bd b53a fd3c 4a79 463c
000001f0: de80 993d bc74 5ebd 3565 d6bc cf6b ad3d
00000200: 1a1c e03c 861f 95bd fb40 5a3d a475 a5bd
00000210: 1cc1 47bd 3d8f 6fbd 545f a3bd f6db 403b
00000220: 2976 f73c 2386 9b3d a0de fd3c 1f5c abbd
00000230: 6863 84bc 80ab 8a3c d8ca 873d 0054 703d
00000240: 73eb 9b3c 8aa6 36bc 6431 a1bd 2f71 b0bd
00000250: 0bfb af3d 8fdd 2ebd 7e74 2f3d ee05 683d
00000260: a5ed 843d 288e a63d 66f1 2dbd 977b 203d
00000270: d36e 91bd 017f 50bd bea4 933d 1a2f 953b
00000280: 060b 83bd 2cea 8c3d 0c12 753c 0332 bcba
00000290: 7b01 4ebd 3e81 64bd 8074 6fbc fa97 41bd
000002a0: 71c3 88bd d7ec 193d 7f55 6b3d 2e19 003d
000002b0: 5025 503c 1e74 443d b29d 9dbd 3299 2dbd
000002c0: f2e8 35bc fa7c 21bd 33c8 d73c d229 063d
000002d0: 1bde ad3d 01a2 1abc 7678 c0bc 7ccd ac3b
000002e0: 935c 61bd efa2 8dbd 765b 4cbd 5e36 963d
000002f0: c187 3d3d dba3 73bc 2d8e b2bd d76a 2abd
00000300: 4235 6d3d 1281 4ebc 3b82 11bd 26a5 5ebd
00000310: 5e7f 48bd 9bc8 55bd 4c17 16bd cb7f b8bc
00000320: f90d 87bd f006 a63d ae01 89bd 7a13 d5bc
00000330: 2a06 9cbd 63cc c4bb d923 abbc 0535 59bc
00000340: 7974 1c3b cc01 8f3d 641f 04bd 9f3a 703d
00000350: 8be9 ce3b 38a2 9a3d 600e aa3d d9b3 483d
00000360: 92f1 4fbd 48a5 a73d e474 253c 8252 833b
00000370: 40cc a5bd 7493 1cbc 393a 64bd 5f9a 7e3d
00000380: 82ae 423d 21f7 cbbc 50e8 d1bc f949 81bd
00000390: 2045 b03c 1fbe 9bbd 6c84 34bd c8ca 91bd
000003a0: e1cd 8c3d 4b1a 51bd 0a0b 413d 952e 26bd
000003b0: b3bc aa3c 3d1b cb3c e1ce 71bd c13d 3dbd
000003c0: b8b6 80bd 22e8 82bd 1f90 a33c 6046 603c
000003d0: 4c9a 063d 22bd 1bbd 39bc 1c3d 0b4c f3bc
000003e0: 6617 2d3d abe5 023d 0356 913b 35ff d1bc
000003f0: f463 ff3c de0b bd3c d5e3 883d fd7f 3d3d
