models/hyperparameter_optimization/augment/Set3/architecture_dim/input_architecture_dim_64/model.pth (torch, 275252 bytes, 18 tensors)

weight f4 [64, 8]
0.24663876 0.15133108 -0.08282783 0.40560007 -0.07746481 -0.0025315378 -0.17212924 0.20763578
0.2975797 -0.2593767 0.288639 -0.0058301403 0.2532288 -0.001641578 -0.0053105955 -0.04991856
0.2983963 0.04139131 -0.16505283 0.055738915 -0.162895 -0.041462213 -0.14359865 0.23453705
-0.2790845 -0.16299176 -0.09983455 -0.21258192 0.07124016 -0.3491973 0.36804405 -0.30033237
0.28876084 0.06589427 -0.114800386 0.08723155 -0.002558387 0.18603966 -0.013620067 -0.111501254
0.06462944 -0.09587641 0.08264396 0.38071084 0.14654985 -0.15456383 0.29097897 0.063259974
0.19014657 -0.21549258 -0.34998548 -0.13659908 -0.27118352 0.18044764 -0.0095979655 0.1464466
0.07479558 -0.0061504054 0.26043075 -0.2512045 -0.014008683 -0.2413144 0.26286098 -0.12175752
0.11599756 -0.07365984 0.28626955 -0.20955177 -0.21085852 -0.21087126 0.4251318 0.11782206
0.41507336 -0.29177922 -0.35068116 -0.27660736 -0.2378315 0.13169707 0.0621138 0.29377612
-0.18258394 -0.24102151 0.18570548 -0.14290786 0.17135842 -0.08389844 0.24433446 -0.27469966
-0.17842063 0.10914961 0.082759805 -0.09014153 0.17996049 0.20337968 -0.2563875 -0.18875091
0.40168244 -0.1193004 -0.12534046 -0.34209636 -0.2024695 -0.002419534 -0.046666633 -0.25663945
-0.0034094849 -0.24150577 -0.29995352 -0.19468863 -0.3094342 -0.2251209 0.49624473 0.06677738
0.08907437 -0.3297537 -0.2322046 -0.1176823 0.03617007 -0.31109917 -0.15233663 -0.2116613
-0.0018015964 -0.13155834 -0.024499752 -0.23957828 -0.24267733 -0.20626368 -0.121020414 -0.27905294
0.30025363 -0.07016763 0.303337 0.12395299 -0.29938793 0.2085177 -0.09727838 -0.13552622
-0.29347423 -0.35148886 0.10837462 -0.07723157 0.12911057 -0.29014835 0.13596164 -0.25952718
-0.061049245 0.05271058 0.11570416 0.34272608 0.25852308 -0.2803403 0.18301414 -0.15207249
-0.03874408 -0.2646312 0.346317 -0.25949067 0.11993678 0.2126082 0.08268222 -0.1911473
0.31919718 0.040670294 0.013409006 -0.3115706 0.13654889 -0.053040292 -0.16197139 0.30368346
0.038827945 -0.19561274 -0.17894714 -0.016884197 0.21968515 -0.090344846 -0.20172869 -0.12107184
-0.26413083 0.153316 0.2310465 -0.3328494 0.10634575 0.21940988 -0.0058194436 -0.12590908
0.15469846 0.17724958 0.07858726 -0.062126897 -0.09362138 -0.0042233323 -0.062456656 -0.10535928
0.24992362 0.32728595 -0.03500085 -0.07915949 -0.00072943745 -0.02111005 -0.00972599 0.099077545
-0.32111725 -0.13047454 0.29364994 0.04566078 -0.017584886 -0.21315937 -0.21630576 -0.3167014
-0.11524512 0.11235532 0.19729386 0.17384754 -0.3125214 -0.21261373 -0.055796612 0.3420097
0.10102446 -0.091559984 0.20618677 -0.13466196 -0.22883943 0.2310504 -0.16076136 -0.0708757
-0.35171643 0.23395039 0.19171344 0.1761937 -0.24652366 -0.34893593 -0.28714862 0.26364484
0.15003815 0.36244118 0.12591259 -0.0035964698 -0.003462237 -0.26887947 -0.3029147 -0.3306957
0.1561052 -0.17358339 -0.07115353 -0.20347182 -0.06442576 -0.24884321 -0.23101732 0.11727748
-0.105074786 0.26745707 -0.11342303 -0.2593552 -0.06238058 -0.17138408 -0.10816668 -0.33658126
00000000: df8e 7c3e 89f6 1a3e a3a1 a9bd d0aa cf3e
00000010: dfa5 9ebd 28e8 25bb a642 30be 799e 543e
00000020: 5e5c 983e 06cd 84be 7ec8 933e c30a bfbb
00000030: 35a7 813e 382a d7ba 8104 aebb 6777 4cbd
00000040: 66c7 983e ef89 293d 9c03 29be 7d4e 643d
00000050: f2cd 26be 48d4 29bd 860b 13be 7b2a 703e
00000060: 2ae4 8ebe 50e7 26be 0e76 ccbd 13af 59be
00000070: 5ce6 913d fdc9 b2be 4570 bc3e 2ac5 99be
00000080: 76d8 933e 93f3 863d 771c ebbd 74a6 b23d
00000090: 9caa 27bb 2e81 3e3e b426 5fbc c55a e4bd
000000a0: 715c 843d da5a c4bd 3d41 a93d 88ec c23e
000000b0: 2a11 163e fb45 1ebe 32fb 943e 728e 813d
000000c0: c8b5 423e 16aa 5cbe 4c31 b3be a1e0 0bbe
000000d0: 91d8 8abe 44c7 383e c940 1dbc 19f6 153e
000000e0: 6d2e 993d 5789 c9bb 2e57 853e e09d 80be
000000f0: ad84 65bc 1f1b 77be b795 863e 025c f9bd
00000100: 2190 ed3d f8da 96bd ec91 923e bd94 56be
00000110: 4ceb 57be a3ee 57be e0aa d93e b14c f13d
00000120: 7f84 d43e 1664 95be 7b8c b3be 7b9f 8dbe
00000130: 1a8a 73be 99db 063e 0a6b 7e3d d369 963e
00000140: 49f7 3abe 58ce 76be 9429 3e3e 7056 12be
00000150: 9578 2f3e f2d2 abbd d032 7a3e 6fa5 8cbe
00000160: e6b3 36be d589 df3d f97d a93d 1f9c b8bd
00000170: 9047 383e c342 503e 3945 83be eb47 41be
00000180: 52a9 cd3e c553 f4bd 4059 00be 4127 afbe
00000190: 2a54 4fbe 0b91 1ebb 8325 3fbd 3f66 83be
000001a0: aa71 5fbb 4a4d 77be 8293 99be 755c 47be
000001b0: 296e 9ebe 1886 66be ca13 fe3e 94c2 883d
000001c0: a06c b63d 7ad5 a8be 0bc7 6dbe 6b03 f1bd
000001d0: 1127 143d 6448 9fbe 22fe 1bbe bdbd 58be
000001e0: 8b23 ecba 3bb7 06be b4b3 c8bc 0254 75be
000001f0: 6880 78be c936 53be 8dd9 f7bd 07e0 8ebe
00000200: d8ba 993e 0cb4 8fbd fd4e 9b3e 11db fd3d
00000210: 6049 99be aa85 553e e339 c7bd 63c7 0abe
00000220: 4142 96be 59f6 b3be 83f3 dd3d 962b 9ebd
00000230: 9035 043e 538e 94be 8739 0b3e bfe0 84be
00000240: c60e 7abd 0de7 573d 4df6 ec3d cb79 af3e
00000250: 235d 843e c488 8fbe 0f68 3b3e e4b8 1bbe
00000260: 1db2 1ebd be7d 87be 7650 b13e f6db 84be
00000270: 6aa1 f53d f7b5 593e 4c55 a93d 1ebc 43be
00000280: d06d a33e e595 263d 73b1 5b3c 2f86 9fbe
00000290: 79d3 0b3e c740 59bd d4db 25be 667c 9b3e
000002a0: 0d0a 1f3d b54e 48be eb3d 37be ba50 8abc
000002b0: 25f5 603e b806 b9bd f791 4ebe 83f4 f7bd
000002c0: 283c 87be dffe 1c3e 7497 6c3e 3d6b aabe
000002d0: cdcb d93d fcac 603e 08b1 bebb 4fee 00be
000002e0: 4669 1e3e ea80 353e 5bf2 a03d c678 7ebd
000002f0: 91bc bfbd e163 8abb 8dd2 7fbd 9bc6 d7bd
00000300: faeb 7f3e 0692 a73e 0d5d 0fbd 5f1e a2bd
00000310: b837 3fba fcee acbc c259 1fbc 2be9 ca3d
00000320: 7b69 a4be 1e9b 05be 4959 963e cc06 3b3d
00000330: 2e0e 90bc 7346 5abe 427f 5dbe b026 a2be
00000340: a205 ecbd 8c1a e63d 6707 4a3e 1705 323e
00000350: ce02 a0be 6ab7 59be fd8a 64bd e51b af3e
00000360: e9e5 ce3d cd83 bbbd a022 533e d3e4 09be
00000370: e254 6abe 7a98 6c3e a09e 24be 4727 91bd
00000380: 2d14 b4be b190 6f3e 8750 443e 1f6c 343e
00000390: b370 7cbe bba7 b2be 2505 93be 75fc 863e
000003a0: 9aa3 193e e491 b93e 3bef 003e c0b2 6bbb
000003b0: b3e6 62bb 92aa 89be a317 9bbe f250 a9be
000003c0: 0bda 1f3e d8bf 31be f1b8 91bd eb5a 50be
000003d0: a7f1 83bd c1d0 7ebe ce8f 6cbe 2d2f f03d
000003e0: 7331 d7bd 22f0 883e 554a e8bd 34ca 84be
000003f0: c782 7fbd 4f7f 2fbe 7e86 ddbd 6154 acbe

weight f4 [64, 64]
-0.107541725 -0.02251012 -0.0065577626 0.18116322 -0.026698478 -0.018617332 0.043238565 -0.12733439
-0.070226885 0.027365904 -0.0672494 -0.037312232 -0.041770495 -0.105571814 0.027400946 0.0701807
-0.12412842 -0.03706437 0.11539381 -0.06411728 0.06415911 0.13434361 0.046538074 -0.039919958
-0.0411046 -0.4380973 0.00744349 -0.059339035 0.012644321 -0.054431923 -0.037739143 -0.008912255
0.15516123 0.09706686 -0.09085276 -0.11821352 0.13324983 -0.008190113 0.14459683 -0.17708947
-0.368378 -0.2289965 0.16327032 -0.16135189 0.19870308 0.14577572 -0.21488817 -0.034069125
0.20130725 -0.055609833 0.15252721 0.10638677 0.0046187774 -0.017858783 0.014154593 0.18123247
0.10037102 0.02829382 -0.070222676 0.10022988 0.16735694 -0.021752466 0.17145751 0.09292822
0.11293346 0.043803897 0.13034196 -0.15044981 0.04541501 -0.072931275 -0.046192657 0.06810966
-0.13074759 -0.07050591 -0.12258288 -0.093765795 0.02872689 -0.14948289 0.045432057 -0.033485357
-0.07911929 -0.06890271 0.059888728 -0.21027546 -0.051619347 0.08297795 -0.08231243 -0.019557327
0.15408155 -0.112480424 0.06794103 -0.06296785 0.011950775 0.13332461 0.0537728 0.1362214
0.024682714 0.09811873 0.06899983 -0.06927757 0.16242865 -0.005258316 0.076232836 -0.24599002
-0.10377472 -0.04699107 -0.04025893 -0.38039646 0.13318634 -0.2185848 -0.0644481 0.0008484492
0.091515064 -0.008095983 -0.08610557 -0.13336083 0.07407811 -0.05597266 -0.076663226 0.01661195
0.0768084 -0.054238744 -0.1314951 0.12776428 -0.033171855 -0.07125085 0.0047294837 0.15160002
-0.1020115 -0.096129164 -0.18801032 -0.019444482 0.04396603 0.033520814 -0.08059886 -0.11427114
-0.059214067 -0.028929748 0.100332074 0.05352079 -0.096706904 0.2044031 -0.00050716725 0.009233015
0.0011206027 -0.035882223 0.026366252 0.004742987 0.023542767 -0.03409677 0.06493628 -0.17098537
0.037167106 -0.0039714705 -0.05593504 -0.10712235 -0.015635503 -0.05090774 -0.20953156 0.05574606
0.019155528 0.09558924 -0.13797393 -0.100516155 -0.035741374 0.09030106 0.08879163 0.039296042
0.09533657 0.2000151 -0.05638942 -0.124333516 -0.11494753 -0.08816217 0.1028772 0.101885885
0.07138158 -0.14104295 0.04645905 0.10429218 -0.00981645 -0.08463861 -0.048086155 -0.01833627
0.018697763 -0.043814253 -0.026523938 -0.016987938 -0.08566369 -0.078630246 -0.014065004 0.023320815
-0.005670692 0.01170858 -0.11501531 0.123271964 0.028091297 -0.027643144 -0.046137817 -0.03461118
-0.0005506869 0.09918987 0.111736 -0.007303205 0.10224866 0.2570909 -0.035719573 -0.1084264
-0.04308468 0.113044575 0.10471237 0.13979235 0.006168342 0.062849514 -0.009317911 0.026196921
-0.3848156 0.007133312 -0.13738978 0.051702175 -0.1617545 -0.22085032 0.07350172 -0.2953307
0.12745844 -0.20845935 -0.09108756 -0.0037739873 0.017665794 0.083969645 -0.049435537 0.12167774
-0.07734879 0.06965634 -0.5139124 -0.043651402 -0.058535274 0.060968254 0.12666227 0.06719781
-0.033908557 -0.0367719 -0.13915655 0.027911693 -0.46489984 -0.052303143 0.090064086 -0.011437296
-0.055332843 -0.22544594 0.051166665 0.08988434 0.14473104 0.011836871 -0.3618305 -0.20060037
00000000: d63e dcbd 2567 b8bc 80e2 d6bb da82 393e
00000010: c4b6 dabc 6083 98bc ec1a 313d f263 02be
00000020: 1dd3 8fbd 762e e03c 0eba 89bd b6d4 18bd
00000030: 8a17 2bbd 0936 d8bd f377 e03c e6ba 8f3d
00000040: 0b37 febd cfd0 17bd 9753 ec3d ec4f 83bd
00000050: da65 833d 5f91 093e b59e 3e3d 1c83 23bd
00000060: 4c5d 28bd 4a4e e0be 85e8 f33b 7d0d 73bd
00000070: 202a 4f3c 02f4 5ebd 5c94 1abd b504 12bc
00000080: 96e2 1e3e fdca c63d 0311 babd ee19 f2bd
00000090: a572 083e d32f 06bc 3111 143e f156 35be
000000a0: 0b9c bcbe 0f7e 6abe 5630 273e 6e39 25be
000000b0: d278 4b3e 3b46 153e a50b 5cbe 118c 0bbd
000000c0: 7d23 4e3e 23c7 63bd 1830 1c3e 4fe1 d93d
000000d0: 1d59 973b 954c 92bc abe8 673c 0195 393e
000000e0: 528f cd3d 71c8 e73c e8d0 8fbd 5345 cd3d
000000f0: 9e5f 2b3e 3a32 b2bc 8f92 2f3e 2751 be3d
00000100: a849 e73d b76b 333d 5d78 053e 840f 1abe
00000110: 1705 3a3d fe5c 95bd 8334 3dbd 147d 8b3d
00000120: b2e2 05be 6765 90bd bc0c fbbd 4808 c0bd
00000130: a854 eb3c 0b12 19be f716 3a3d f127 09bd
00000140: 4b09 a2bd dd1c 8dbd e24d 753d 7352 57be
00000150: cf6e 53bd 58f0 a93d 6b93 a8bd b036 a0bc
00000160: 8ec7 1d3e 235c e6bd ab24 8b3d 4af5 80bd
00000170: 2fcd 433c 3f86 083e de40 5c3d 9f7d 0b3e
00000180: 6733 ca3c 79f2 c83d c84f 8d3d 66e1 8dbd
00000190: b253 263e f44d acbb f61f 9c3d cfe4 7bbe
000001a0: d787 d4bd b579 40bd 8ce6 24bd 53c3 c2be
000001b0: 0062 083e b2d4 5fbe 5efd 83bd 766a 5e3a
000001c0: 406c bb3d 04a5 04bc 1e58 b0bd be8f 08be
000001d0: 44b6 973d 9743 65bd 9c01 9dbd c915 883c
000001e0: b94d 9d3d 7229 5ebd a7a6 06be a4d4 023e
000001f0: 36df 07bd f7eb 91bd c9f9 9a3b 093d 1b3e
00000200: 68eb d0bd 5edf c4bd c785 40be 094a 9fbc
00000210: b915 343d 1f4d 093d 0411 a5bd fd06 eabd
00000220: 738a 72bd 14fe ecbc e77a cd3d 9e38 5b3d
00000230: 450e c6bd 0c4f 513e 6bf3 04ba 1246 173c
00000240: 30e1 923a 3df9 12bd 0afe d73c 0f6b 9b3b
00000250: c3dc c03c 0ea9 0bbd 50fd 843d ca16 2fbe
00000260: 893c 183d 1c23 82bb 241c 65bd f662 dbbd
00000270: 0716 80bc a284 50bd 718f 56be fb55 643d
00000280: 0eec 9c3c 4bc4 c33d 0a49 0dbe 6adb cdbd
00000290: 8c65 12bd c3ef b83d 63d8 b53d e3f4 203d
000002a0: d23f c33d c2d0 4c3e 98f8 66bd 92a2 febd
000002b0: 9c69 ebbd 5e8e b4bd 48b1 d23d 8ca9 d03d
000002c0: 8130 923d 906d 10be d84b 3e3d 2397 d53d
000002d0: 2dd5 20bc 0257 adbd fdf5 44bd f235 96bc
000002e0: 0d2c 993c 9376 33bd bb48 d9bc 4a2a 8bbc
000002f0: 7270 afbd e508 a1bd e770 66bc 4b0b bf3c
00000300: 36d1 b9bb 58d5 3f3c 268d ebbd 0376 fc3d
00000310: b81f e63c e073 e2bc 02fb 3cbd 74c4 0dbd
00000320: f95b 10ba 0f24 cb3d d8d5 e43d b94f efbb
00000330: bf67 d13d 6ba1 833e b04e 12bd a90e debd
00000340: 9079 30bd ea83 e73d 7073 d63d ba25 0f3e
00000350: ce1f ca3b 3fb7 803d 27aa 18bc ed9a d63c
00000360: 8d06 c5be 8fbe e93b e8af 0cbe a9c5 533d
00000370: f9a2 25be 9626 62be 1288 963d 9635 97be
00000380: 7784 023e 5e76 55be 1d8c babd 0055 77bb
00000390: dbb7 903c 47f8 ab3d eb7c 4abd 2e32 f93d
000003a0: 0b69 9ebd fca7 8e3d c38f 03bf d0cb 32bd
000003b0: afc2 6fbd d9b9 793d c1b3 013e 019f 893d
000003c0: b3e3 0abd 229e 16bd 0e7f 0ebe 10a7 e43c
000003d0: 5a07 eebe d23b 56bd 8573 b83d 7f63 3bbc
000003e0: b1a4 62bd 4ddb 66be 2394 513d 4815 b83d
000003f0: 6034 143e 6fef 413c d941 b9be 2f6a 4dbe

weight f4 [64, 64]
-0.08220147 -0.052634753 0.064634904 0.16578755 -0.11367776 -0.045114886 0.015075171 0.11402488
0.019725572 -0.09512216 0.003666828 0.03688433 -0.09002535 0.0050896495 -0.047349673 0.103905275
-0.09352917 0.03475958 0.0768279 -0.021078508 -0.12583311 -0.08104574 -0.13559961 -0.043079928
-0.10541025 0.06424715 0.0030274917 -0.12590499 0.12930807 -0.017805912 0.0340665 0.028761696
0.0551879 -0.04884252 -0.094028145 -0.06892243 -0.09032563 -0.10106782 -0.01189203 0.07995718
-0.0521685 0.032522917 -0.14404435 -0.05359296 0.044449877 -0.13291836 -0.027310647 -0.12199353
-0.01775053 -0.086126775 -0.10371771 0.076962404 -0.02566823 -0.072760284 -0.028982429 0.053623103
0.023934001 -0.12390217 -0.0730743 -0.03243807 0.10963347 -0.16485572 0.0736618 -0.032620646
0.029802741 0.061057564 0.09740768 -0.07530609 -0.07683728 -0.07639095 0.06407667 0.0023007097
-0.0014625206 0.09414894 0.008770342 -0.031454943 -0.05816063 0.023601823 0.035693437 -0.06747967
0.05936981 0.0615088 -0.0076714903 0.05314152 -0.09503186 -0.016142448 -0.055185392 0.046509586
-0.03661076 0.075703524 -0.13515581 0.053085636 -0.14246973 -0.055412892 0.1208252 -0.06614232
-0.033068854 0.047268156 -0.089660615 0.025908157 -0.03816811 0.06443052 -0.11790932 -0.056241833
-0.10606478 -0.08434271 0.09940962 0.05218596 -0.08292054 0.1190444 0.091886535 0.15422471
0.030097185 0.02244528 0.0659015 0.14880423 -0.0208265 -0.033305366 0.072383925 -0.014284309
0.09179655 0.06808243 0.032679554 -0.10123951 0.094230495 0.0580791 0.0117291305 0.02591295
0.010921074 0.052527808 -0.09709475 -0.10626055 0.05812376 -0.06549732 -0.1118025 0.092025764
-0.10880447 -0.04498314 -0.09442789 0.09643288 -0.048730098 -0.06663059 0.08228625 0.114109635
0.05480896 0.07801702 -0.12843458 -0.12369585 0.04241761 -0.03438852 0.041575473 0.095525615
-0.059905466 -0.0778099 0.10045584 -0.068077214 -0.0875195 0.074762665 -0.019839672 -0.07472217
0.026380464 -0.0902755 -0.012561184 -0.09847754 -0.045408264 0.08542695 -0.022894427 -0.02692182
0.08407169 0.057155624 0.05735337 0.04928872 -0.082594305 -0.1074952 -0.0841248 -0.0937264
0.006459334 0.06624611 0.07967159 0.09359766 0.00532386 0.07293511 0.010068905 0.03724773
-0.1041209 0.06724998 0.0554318 -0.009963566 -0.06166897 -0.015735196 -0.041508198 -0.10495083
-0.09304942 -0.040592715 -0.059938777 -0.05500464 0.087970786 -0.0639825 0.09854495 0.018461777
0.014519632 0.03346029 0.012901302 0.082772255 0.0021562118 -0.08342578 -0.027376298 -0.070664234
0.07174005 0.017007126 0.0624906 0.00072977453 -0.01861384 -0.074947886 -0.03408161 0.015327455
-0.102254815 -0.03223412 0.109065905 -0.016424878 -0.012808984 0.10181785 -0.07980925 -0.11139223
-0.0075845956 -0.11190942 0.033415798 -0.058901638 -0.14095438 0.08965326 -0.03183574 0.004002013
-0.010604861 -0.03808498 -0.2672094 0.05026844 -0.19298172 0.022312097 0.10262294 0.06530877
-0.041091736 0.02873934 -0.102894515 0.08116611 -0.084712975 0.060041167 0.053547196 -0.21033491
-0.113026984 -0.04235681 0.05064248 -0.004489136 -0.121573344 -0.067744754 -0.10246338 -0.12561959
00000000: 3f59 a8bd 8a97 57bd 4e5f 843d 36c4 293e
00000010: e3cf e8bd 63ca 38bd dafd 763c e085 e93d
00000020: 8697 a13c 68cf c2bd 2a4f 703b 0614 173d
00000030: 365f b8bd 13c7 a63b bbf1 41bd 4acc d43d
00000040: 398c bfbd 1060 0e3d f257 9d3d d6ac acbc
00000050: 65da 00be 4ffb a5bd a0da 0abe 9474 30bd
00000060: 54e1 d7bd 0394 833d e268 463b 3ded 00be
00000070: 5669 043e b4dd 91bc 5089 0b3d a69d eb3c
00000080: b50c 623d 180f 48bd d491 c0bd 3427 8dbd
00000090: a5fc b8bd a5fc cebd cad6 42bc 97c0 a33d
000000a0: a3ae 55bd c036 053d 5d80 13be 4b84 5bbd
000000b0: 1311 363d c01b 08be 94ba dfbc bed7 f9bd
000000c0: 8f69 91bc 3c63 b0bd f369 d4bd 779e 9d3d
000000d0: 2e46 d2bc 5803 95bd 8f6c edbc e6a3 5b3d
000000e0: 3d11 c43c 6cc0 fdbd fba7 95bd c8dd 04bd
000000f0: 8387 e03d f0cf 28be ffdb 963d 3a9d 05bd
00000100: e124 f43c 7f17 7a3d ad7d c73d 143a 9abd
00000110: dd5c 9dbd dc72 9cbd a13a 833d 81c7 163b
00000120: 0cb2 bfba 29d1 c03d 7bb1 0f3c e6d6 00bd
00000130: d739 6ebd 9c58 c13c 4833 123d c832 8abd
00000140: c22d 733d a7f0 7b3d 2061 fbbb ecaa 593d
00000150: 10a0 c2bd 2b3d 84bc 140a 62bd d680 3e3d
00000160: 2af5 15bd 730a 9b3d 4966 0abe 5370 593d
00000170: 96e3 11be a1f8 62bd 3473 f73d a075 87bd
00000180: 3573 07bd 419c 413d fc9f b7bd 583d d43c
00000190: 2a56 1cbd 26f4 833d 717a f1bd d65d 66bd
000001a0: 7e38 d9bd dfbb acbd 4597 cb3d f2c0 553d
000001b0: 3ed2 a9bd 8dcd f33d 022f bc3d 15ed 1d3e
000001c0: 5f8e f63c 2adf b73c 5ef7 863d 2360 183e
000001d0: 569c aabc 356b 08bd 063e 943d bc08 6abc
000001e0: d4ff bb3d cd6e 8b3d ffda 053d a956 cfbd
000001f0: ebfb c03d 5ae4 6d3d 8a2b 403c 6547 d43c
00000200: 4eee 323c 6627 573d 9dd9 c6bd 229f d9bd
00000210: 2e13 6e3d 7523 86bd b6f8 e4bd 0178 bc3d
00000220: e1d4 debd 3e40 38bd 6963 c1bd 9a7e c53d
00000230: 3699 47bd 9e75 88bd b285 a83d 50b2 e93d
00000240: 5c7f 603d 63c7 9f3d 5b84 03be 4054 fdbd
00000250: 16be 2d3d fada 0cbd 0b4b 2a3d efa2 c33d
00000260: 6f5f 75bd cc5a 9fbd cbbb cd3d 116c 8bbd
00000270: 6c3d b3bd 2b1d 993d cf86 a2bc f007 99bd
00000280: d81b d83c 5de2 b8bd 6dcd 4dbc 98ae c9bd
00000290: 04fe 39bd 53f4 ae3d 188d bbbc 268b dcbc
000002a0: c72d ac3d 041c 6a3d 5eeb 6a3d f8e2 493d
000002b0: 3427 a9bd 7226 dcbd a049 acbd a0f3 bfbd
000002c0: d2a8 d33b 0aac 873d dc2a a33d 21b0 bf3d
000002d0: c673 ae3b 015f 953d 0cf8 243c 1391 183d
000002e0: 573d d5bd 5cba 893d 750c 633d 3a3e 23bc
000002f0: 9a98 7cbd 19e7 80bc 8004 2abd 76f0 d6bd
00000300: b290 bebd 8c44 26bd 5d82 75bd 8c4c 61bd
00000310: 072a b43d 4209 83bd efd1 c93d 273d 973c
00000320: c0e3 6d3c a80d 093d fc5f 533c 8084 a93d
00000330: 3b4f 0d3b 23db aabd 4244 e0bc 69b8 90bd
00000340: 73ec 923d 8752 8b3c 25f6 7f3d 574e 3f3a
00000350: 0d7c 98bc 477e 99bd 2999 0bbd 0120 7b3c
00000360: f96a d1bd ed07 04bd f25d df3d 778d 86bc
00000370: c6dc 51bc e085 d03d 0873 a3bd 9c21 e4bd
00000380: 3388 f8bb c430 e5bd 01df 083d d842 71bd
00000390: 5856 10be 219c b73d 3166 02bd 5123 833b
000003a0: 03c0 2dbc fffe 1bbd accf 88be 48e6 4d3d
000003b0: 009d 45be dcc7 b63c fa2b d23d 9bc0 853d
000003c0: cf4f 28bd c46e eb3c 5cba d2bd 6b3a a63d
000003d0: ff7d adbd baed 753d 4e54 5b3d 0962 57be
000003e0: b17a e7bd 567e 2dbd 7d6e 4f3d 9a19 93bb
000003f0: 72fb f8bd c3bd 8abd 52d8 d1bd 6ca2 00be

weight f4 [64, 64]
-0.13162327 -0.08158656 0.11725797 0.010837766 -0.1031738 -0.03944057 -0.11456701 -0.12162146
0.08199305 -0.118534595 0.0012824407 -0.010032074 0.032398023 0.088404454 0.011958317 -0.013297244
-0.14781997 -0.019603396 -0.009123167 0.17533441 0.114444524 -0.056609377 -0.004258604 0.0320517
0.14499822 0.06633992 -0.0658098 0.12090105 0.035359915 -0.3497562 -0.24399467 -0.0012377823
-0.08646527 0.088534325 -0.04580241 -0.045338463 0.022052428 -0.071398735 0.09312029 0.08857759
0.118595555 0.016327295 -0.025427336 -0.040315337 -0.040980153 -0.12482183 -0.026572753 0.03406862
0.0432558 0.0043834443 0.013166038 0.11069158 -0.0022846938 -0.08307013 0.09805092 0.07957423
-0.19621053 -0.13138813 -0.093539305 0.11389588 -0.095233805 0.095511414 -0.028388526 -0.0880308
0.013516011 -0.027987372 -0.012611216 0.05291252 -0.02588747 -0.0054614204 0.09389573 -0.08352581
-0.08645922 0.09487508 -0.034433573 0.16260616 0.013951774 0.010770412 0.0073517193 -0.028804496
-0.031528775 -0.03463775 -0.03099033 -0.02848479 0.03205444 -0.010245307 0.10479265 0.022391371
0.08576207 0.03960848 0.07870426 0.081205785 0.040235102 -0.021399485 -0.0060250554 -0.1089454
-0.060220633 0.14672834 0.10653565 -0.09357772 -0.095123716 0.06877257 -0.107643984 -0.033312425
-0.082604915 -0.08161211 -0.04759135 0.0011635644 -0.040179547 -0.0689031 0.077795625 -0.08215718
-0.117135875 0.046750657 0.059782322 -0.034605637 -0.020027885 0.015983626 0.030695243 -0.039145056
-0.09360556 0.08395612 -0.01478498 0.06629637 0.08711423 -0.0851096 -0.05235567 0.050878562
0.084045365 0.07273392 0.09913445 0.06173466 -0.09514531 0.018721033 0.114791356 0.017445186
0.06328878 0.11863072 -0.04160215 -0.054843806 0.076753765 0.024787067 -0.08262284 0.009273755
0.06885916 -0.012325859 0.00044716746 -0.027762095 0.07767122 0.039242662 -0.03949443 0.051010888
-0.09614762 0.029389877 -0.14004901 0.042850614 0.06815633 -0.101452254 0.05191307 -0.012373202
-0.03367888 0.028202299 -0.026337348 -0.06663828 0.053019542 0.0325187 -0.09639484 -0.0409695
-0.065377936 -0.12129338 0.10919983 -0.034487497 -0.021446705 -0.020488322 -0.0141907325 -0.07929241
-0.028477198 -0.05871474 0.030827455 -0.040604472 -0.15000097 -0.07474633 -0.1848335 -0.007548595
0.055235483 0.0034272086 0.012321115 0.07146011 -0.05345955 0.15285295 -0.106543384 -0.15143125
0.016680298 -0.10615757 0.021283317 0.06737161 0.05759262 0.008013123 0.11298889 -0.05670699
0.033514053 0.04641837 -0.033990636 -0.201225 -0.025038255 0.08346201 -0.031819526 0.03534281
-0.015076882 0.10791808 0.023633828 -0.032693006 -0.08903765 0.045914177 -0.05331123 -0.04373446
0.1458479 0.019414404 -0.0044591916 -0.094996646 -0.024176372 0.023389908 0.048482988 -0.045759384
-0.0072293896 -0.0025298197 -0.09402257 -0.04109613 -0.12309064 -0.044941217 -0.06372159 0.0650061
-0.05729275 -0.15316586 -0.022900276 -0.058232643 -0.057236925 -0.023422234 0.055955987 -0.10257223
-0.108955435 -0.024153797 0.08248068 0.0234858 0.118038096 0.06784587 -0.08675461 0.07937899
-0.035277434 0.0986258 -0.025162518 0.10408065 -0.039427586 -0.06472462 -0.09354371 0.11035865
00000000: 40c8 06be db16 a7bd f224 f03d e390 313c
00000010: c94c d3bd 6f8c 21bd 1ca2 eabd ac14 f9bd
00000020: f9eb a73d 44c2 f2bd 9217 a83a 915d 24bc
00000030: cab3 043d 650d b53d d1ec 433c afdc 59bc
00000040: 1e5e 17be 4d97 a0bc 5679 15bc dd8a 333e
00000050: e461 ea3d 3cdf 67bd c28b 8bbb a548 033d
00000060: 6a7a 143e 39dd 873d 4ac7 86bd f89a f73d
00000070: 8fd5 103d 3f13 b3be bdd9 79be 153d a2ba
00000080: b414 b1bd 7c51 b53d 4f9b 3bbd d3b4 39bd
00000090: 4ba7 b43c 8039 92bd dab5 be3d 2b68 b53d
000000a0: 3ae2 f23d d2c0 853c fd4c d0bc b221 25bd
000000b0: ceda 27bd 96a2 ffbd 1aaf d9bc 8a8b 0b3d
000000c0: fe2c 313d ffa2 8f3b 5eb6 573c 44b2 e23d
000000d0: cdba 15bb ac20 aabd ecce c83d d0f7 a23d
000000e0: 6aeb 48be 9c8a 06be 8991 bfbd 3e42 e93d
000000f0: f109 c3bd 7d9b c33d 0e8f e8bc 7e49 b4bd
00000100: 4272 5d3c c645 e5bc 469f 4ebc ccba 583d
00000110: f611 d4bc b7f5 b2bb 684c c03d 940f abbd
00000120: 8811 b1bd de4d c23d 380a 0dbd 3b82 263e
00000130: fb95 643c 6276 303c b1e6 f03b 68f7 ebbc
00000140: 5124 01bd 50e0 0dbd 6fdf fdbc ef58 e9bc
00000150: 844b 033d efdb 27bc 879d d63d 1c6e b73c
00000160: 06a4 af3d 803c 223d b32f a13d 384f a63d
00000170: 90cd 243d f94d afbc d46d c5bb c41e dfbd
00000180: e9a9 76bd f43f 163e 5d2f da3d ada5 bfbd
00000190: 39d0 c2bd a2d8 8c3d 7374 dcbd 9c72 08bd
000001a0: c42c a9bd 4024 a7bd 26ef 42bd be82 983a
000001b0: 4f93 24bd 121d 8dbd 5053 9f3d 0642 a8bd
000001c0: efe4 efbd 9e7d 3f3d 4fde 743d a4be 0dbd
000001d0: 8511 a4bc 18f0 823c 9774 fb3c 9156 20bd
000001e0: 46b4 bfbd 30f1 ab3d b33c 72bc 64c6 873d
000001f0: f268 b23d f14d aebd e672 56bd 0a66 503d
00000200: fa1f ac3d 85f5 943d 0107 cb3d 7cdd 7c3d
00000210: 8bdb c2bd da5c 993c bb17 eb3d 35e9 8e3c
00000220: 8c9d 813d aaf4 f23d 0467 2abd e6a3 60bd
00000230: 1431 9d3d 3f0e cb3c 2a36 a9bd f3f0 173c
00000240: 0806 8d3d 66f2 49bc cd71 ea39 556d e3bc
00000250: 1712 9f3d eabc 203d e9c4 21bd cbf0 503d
00000260: 0be9 c4bd 0ac3 f03c 0269 0fbe 2084 2f3d
00000270: 8c95 8b3d 33c6 cfbd cda2 543d f8b8 4abc
00000280: def2 09bd 8208 e73c 6cc1 d7bc a779 88bd
00000290: 052b 593d 5432 053d a86a c5bd a2cf 27bd
000002a0: dee4 85bd aa68 f8bd 29a4 df3d c342 0dbd
000002b0: 00b1 afbc 20d7 a7bc 3f80 68bc 0f64 a2bd
000002c0: 0349 e9bc de7e 70bd dc89 fc3c e050 26bd
000002d0: db99 19be 9b14 99bd fe44 3dbe 345a f7bb
000002e0: 9a3e 623d 059b 603b 80de 493c ae59 923d
000002f0: 67f8 5abd 7c85 1c3e 6b33 dabd cb10 1bbe
00000300: 1fa5 883c 2469 d9bd 5a5a ae3c 20fa 893d
00000310: 3de6 6b3d 7949 033c b866 e73d 9745 68bd
00000320: 0846 093d 3021 3e3d c439 0bbd ed0d 4ebe
00000330: 071d cdbc 21ee aa3d 3155 02bd 9fc3 103d
00000340: 0705 77bc 2804 dd3d bb9b c13c 1ae9 05bd
00000350: 5f59 b6bd 8110 3c3d e05c 5abd e822 33bd
00000360: 2759 153e f50a 9f3c 691e 92bb 9a8d c2bd
00000370: 870d c6bc 319c bf3c 1996 463d 316e 3bbd
00000380: 84e4 ecbb 55cb 25bb e88e c0bd 6a54 28bd
00000390: f216 fcbd 4814 38bd 7780 82bd eb21 853d
000003a0: cdab 6abd 83d7 1cbe 5c99 bbbc 5a85 6ebd
000003b0: 4471 6abd fcdf bfbc 1b32 653d 6411 d2bd
000003c0: 0724 dfbd 2fde c5bc a1eb a83d 4b65 c03c
000003d0: f5bd f13d c7f2 8a3d 67ac b1bd 7491 a23d
000003e0: 127f 10bd 53fc c93d a021 cebc 3c28 d53d
000003f0: d27e 21bd 578e 84bd d893 bfbd b703 e23d

weight f4 [64, 64]
0.09939924 -0.019275354 -0.09438355 -0.015743276 -0.042818192 -0.036683794 0.057674736 0.044025008
0.050375666 0.097189814 -0.019114504 -0.040307563 0.012853184 0.044563208 0.08278439 0.002080278
0.08800294 -0.06710378 0.06342191 -0.10366362 0.17566374 -0.069585636 0.034964576 0.15534043
0.02933864 -0.010925591 -0.04363786 0.051464066 0.03937982 -0.032078743 -0.008865361 0.07911385
0.05108485 -0.102285944 -0.3229287 0.028698556 -0.15153982 -0.060354576 -0.048501287 -0.044594612
-0.009274008 -0.03237424 0.027497023 -0.08183112 -0.080724575 0.10228424 0.060138877 -0.05289134
-0.015622671 -0.095730305 0.021141414 -0.09910003 -0.14925808 0.105179675 -0.12277871 -0.10018176
-0.06028587 0.050391622 0.013401167 0.1011948 0.03173503 -0.11866978 0.0010098388 0.021043662
0.012105906 -0.0157101 -0.08324583 -0.033397254 -0.07134796 -0.055060815 0.081876636 0.01827483
0.121734925 -0.06649035 0.09672812 0.18250734 -0.049624637 -0.11474133 -0.028932761 0.061997835
0.027381293 -0.12204453 0.026753927 0.13319366 -0.03463806 -0.07679426 -0.048003983 0.008307408
0.14687905 -0.20338713 0.025695648 -0.0405982 -0.17058803 0.070158415 0.1247663 -0.0076425076
-0.04790027 0.02972365 0.1280071 0.0026850952 -0.20198266 -0.099705905 -0.12558307 0.121525496
0.043653067 -0.10630177 0.019333398 -0.00907038 0.026148312 -0.10296622 0.027255625 0.13753939
-0.045429617 0.1536327 0.21480021 0.03499706 0.07052883 -0.030963674 0.18947938 -0.04388671
-0.38509956 0.016035646 -0.057707183 -0.083306625 0.06161965 -0.032745752 -0.106503494 0.057876553
0.024923772 0.04942744 -0.09781811 -0.09954414 -0.016344756 0.10952733 0.11761492 -0.07306636
-0.03320767 -0.0249995 0.099062905 -0.15974784 0.050318662 0.005655069 -0.12071179 -0.005549912
-0.122751325 0.04870085 0.065073304 -0.0133880675 -0.029887743 0.09582449 -0.016700167 -0.11317391
-0.13725835 0.02910102 0.12915437 0.11383535 0.02834824 -0.103903614 -0.06558228 0.017226338
0.038585957 -0.04348146 0.035947893 0.06320921 0.0064047165 -0.031343684 -0.052678574 -0.047201954
-0.037488297 -0.13755915 0.07782743 0.0077856933 0.060368665 0.10799565 -0.056381658 0.016819853
-0.060831703 0.03179977 0.023473162 0.048280504 -0.018562483 0.055703714 -0.04359349 -0.07208159
-0.12054256 0.013852514 -0.13568279 -0.050080925 -0.056831535 -0.043494757 0.09374182 0.07270749
-0.09308627 -0.16609709 -0.08660768 -0.08724767 -0.10415741 -0.019783277 0.089408316 -0.16411236
0.0648257 -0.10001071 -0.07516972 0.18030728 -0.024803562 0.08813891 -0.057256084 0.10238539
0.042077493 0.04605946 -0.17069317 0.09330828 -0.09412088 0.118162915 0.096483484 -0.10328709
0.0011413834 0.030122614 -0.12528221 0.023490876 -0.014335162 0.031910334 0.07354596 -0.06168558
-0.08443759 -0.12880175 0.021741329 -0.013083542 -0.07023454 -0.04761477 0.021144513 -0.07832258
0.1550383 0.048965443 -0.055692296 -0.02926491 0.036790907 0.08149464 -0.032898825 -0.059721753
0.057984043 -0.019321471 0.1194927 0.08952896 0.014376888 0.11757453 -0.0380588 -0.091037735
-0.02482029 0.012011913 0.11284731 0.1234428 0.0039701443 -0.042668357 0.110180676 0.15478255
00000000: d491 cb3d 59e7 9dbc 2a4c c1bd 0bf8 80bc
00000010: 2162 2fbd bf41 16bd 583c 6c3d 9153 343d
00000020: b756 4e3d 740b c73d 0596 9cbc 8b19 25bd
00000030: 2996 523c e987 363d dd8a a93d 4655 083b
00000040: e33a b43d b56d 89bd 59e3 813d 984d d4bd
00000050: 32e1 333e ea82 8ebd 0437 0f3d 9011 1f3e
00000060: 9657 f03c 4001 33bc 9dbd 32bd fccb 523d
00000070: bc4c 213d 0065 03bd 0540 11bc 7106 a23d
00000080: 593e 513d 4b7b d1bd e956 a5be 3c19 eb3c
00000090: 412d 1bbe 5c36 77bd 49a9 46bd d7a8 36bd
000000a0: 02f2 17bc da9a 04bd 7041 e13c 1397 a7bd
000000b0: ed52 a5bd 667a d13d 2f54 763d 97a4 58bd
000000c0: 3bf6 7fbc 400e c4bd c230 ad3c f5f4 cabd
000000d0: 1cd7 18be 7168 d73d 6873 fbbd 182c cdbd
000000e0: 51ee 76bd 7267 4e3d 9190 5b3c 383f cf3d
000000f0: 97fc 013d 2409 f3bd 915c 843a c263 ac3c
00000100: da57 463c 78b2 80bc ca7c aabd 8fcb 08bd
00000110: e11e 92bd 7387 61bd f0ae a73d 19b5 953c
00000120: 2950 f93d 182c 88bd 6519 c63d 34e3 3a3e
00000130: 3443 4bbd 81fd eabd 6604 edbc 71f1 7d3d
00000140: bc4e e03c 7cf2 f9bd 0d2b db3c eb63 083e
00000150: a3e0 0dbd 4f46 9dbd d39f 44bd cb1b 083c
00000160: 7667 163e b744 50be ae7f d23c 4c4a 26bd
00000170: a1ae 2ebe 37af 8f3d 7985 ff3d 006e fabb
00000180: 1333 44bd 037f f33c 4b14 033e 6cf8 2f3b
00000190: 8bd4 4ebe 9c32 ccbd d998 00be 5ce2 f83d
000001a0: 8fcd 323d beb4 d9bd 1361 9e3c ee9b 14bc
000001b0: fc34 d63c f4df d2bd 3047 df3c 20d7 0c3e
000001c0: 6814 3abd e451 1d3e 96f4 5b3e 1459 0f3d
000001d0: 6b71 903d 88a7 fdbc e206 423e 8dc2 33bd
000001e0: c52b c5be 305d 833c 5e5e 6cbd aa9c aabd
000001f0: e364 7c3d 6920 06bd 811e dabd f70f 6d3d
00000200: f02c cc3c 6d74 4a3d dc54 c8bd ccdd cbbd
00000210: 70e5 85bc dd4f e03d 17e0 f03d d1a3 95bd
00000220: c404 08bd c0cb ccbc 7ee1 ca3d f094 23be
00000230: f11a 4e3d 284e b93b be37 f7bd 09dc b5bb
00000240: 0c65 fbbd 8b7a 473d 2745 853d a059 5bbc
00000250: 24d7 f4bc a13f c43d cace 88bc b9c7 e7bd
00000260: 748d 0cbe 4365 ee3c 0b41 043e 8222 e93d
00000270: 913a e83c 6bcb d4bd 0150 86bd 401e 8d3c
00000280: 4f0c 1e3d 9e19 32bd 193e 133d d573 813d
00000290: a8de d13b 3c62 00bd 7dc5 57bd d656 41bd
000002a0: 548d 19bd 4edc 0cbe fd63 9f3d 211f ff3b
000002b0: 2245 773d d32c dd3d 74f0 66bd cac9 893c
000002c0: aa2a 79bd 7a40 023d ca4a c03c c7c1 453d
000002d0: 5910 98bc 9429 643d 168f 32bd 839f 93bd
000002e0: 05df f6bd a8f5 623c 6ef0 0abe a821 4dbd
000002f0: 2fc8 68bd 8f27 32bd b6fb bf3d aae7 943d
00000300: 04a4 bebd 5b15 2abe 5e5f b1bd e8ae b2bd
00000310: 7b50 d5bd 8a10 a2bc b51b b73d 120d 28be
00000320: 56c3 843d 6ad2 ccbd 95f2 99bd 79a2 383e
00000330: d730 cbbc 2c82 b43d 5b85 6abd 6eaf d13d
00000340: 7359 2c3d d8a8 3c3d 31ca 2ebe 6918 bf3d
00000350: 73c2 c0bd 66ff f13d 2299 c53d 2f88 d3bd
00000360: 799a 953a b3c3 f63c fb49 00be f06f c03c
00000370: 07de 6abc 69b4 023d 449f 963d 05aa 7cbd
00000380: 9ded acbd 9be4 03be df1a b23c 5a5c 56bc
00000390: 20d7 8fbd b407 43bd 4237 ad3c 9767 a0bd
000003a0: 5cc2 1e3e fd8f 483d 9b1d 64bd f7bc efbc
000003b0: 10b2 163d a9e6 a63d ebc0 06bd cc9e 74bd
000003c0: ad80 6d3d 1048 9ebc 97b8 f43d f65a b73d
000003d0: 0a8d 6b3c eaca f03d 8be3 1bbd fe71 babd
000003e0: ec53 cbbc 9dcd 443c 7e1c e73d 94cf fc3d
000003f0: fc17 823b 04c5 2ebd 68a6 e13d 517f 1e3e

weight f4 [64, 64]
0.0939047 0.03999884 -0.027351484 0.012939617 0.029867822 -0.081071176 -0.010773316 0.07492465
-0.13768567 0.06307007 -0.05332611 0.09316466 -0.013698524 -0.021998346 0.10487365 0.04957256
0.054682665 0.087505445 0.0020163115 -0.03727617 0.10590031 -0.058491796 0.03298835 0.057631508
-0.09991811 0.03590369 -0.028285364 -0.12311022 -0.08061892 -0.09992397 -0.07558964 0.09515885
0.052591205 -0.08254656 -0.08120757 -0.026767937 -0.028532775 -0.03874918 -0.016923748 0.03960556
0.032045472 -0.11058337 -0.07177255 0.04322657 0.06727504 -0.029735574 -0.0752835 -0.018544788
0.09917074 0.037906073 -0.06966048 -0.101267464 -0.09215441 -0.020575607 0.013629621 -0.025891274
-0.043947775 0.095282 -0.075314805 -0.015413043 -0.027520794 0.032124225 -0.059864994 -0.013853741
-0.015400869 0.1218375 -0.12477639 -0.10294443 -0.16262673 0.022538768 -0.23239811 0.071935855
-0.015356717 0.041795388 0.016787171 0.036501106 0.0076685287 0.023047514 -0.122713596 -0.11807279
0.052653998 -0.20131747 -0.111642994 -0.124016404 -0.16077647 -0.05413742 0.19422154 -0.09648272
0.021242656 0.0438348 0.4019944 0.26128322 -0.075023346 -0.17560485 -0.15879193 0.021557158
-0.042229075 -0.18556686 -0.17125788 0.08487905 -0.055280842 0.077490635 -0.02830538 0.044661667
-0.16372924 -0.080445215 -0.16401891 -0.1556483 -0.12787116 0.033208836 -0.09765 0.05460324
0.10393889 0.2896779 0.04122264 -0.010393287 0.010723996 -0.13731006 -0.062038075 -0.004666268
-0.042023927 -0.2929955 -0.079474926 0.010480637 -0.15792814 -0.08367409 -0.024153307 0.057252187
-0.028769314 0.07874817 0.098611996 -0.00021444731 0.06973611 -0.14267023 -0.11697423 -0.062750116
0.044078562 -0.07428764 0.036620803 0.024380673 -0.033499144 -0.09957072 0.056845415 0.011679065
-0.07076153 -0.120579086 0.02480048 -0.023655448 -0.07663594 -0.006355047 -0.13703762 -0.033242144
0.0404139 -0.030635813 -0.009592835 -0.02628095 -0.009481618 0.09588854 0.003393678 0.08153102
0.016044723 -0.0132683 -0.09995615 0.029679278 0.05622302 0.14787666 0.04543456 -0.097453624
0.0635025 0.06204245 0.06020295 -0.017528495 -0.012660819 0.10569131 0.089110374 -0.13381803
-0.03318546 -0.10246948 -0.02987528 -0.12185694 -0.014230977 -0.11578862 -0.10471319 -0.012073206
0.045701597 -0.0600079 -0.056973927 0.07160329 -0.033794492 -0.12699637 -0.07358044 0.06261105
-0.09046104 -0.043355104 -0.023633651 -0.07771494 -0.016372658 0.14518927 0.14224227 -0.064364865
0.043216247 -0.024646446 -0.025630461 -0.11705235 -0.08817466 0.0034502002 -0.066136755 -0.22260337
0.067552626 0.16766252 0.053788856 -0.03725811 0.14704713 0.025481524 -0.061656322 -0.23938811
-0.036775786 0.03388304 0.14885613 -0.008688789 0.027274372 0.04785537 0.0036932307 -0.06930011
-0.019915227 -0.065077424 0.044610027 0.09797548 0.0050126943 0.10363553 0.05815162 -0.044854045
-0.019513395 0.123151846 -0.10796644 0.004794074 -0.05537744 0.03679381 0.009091513 -0.099228136
0.14426674 0.0861128 -0.013597449 -0.024891248 -0.012943447 -0.25191367 -0.094032995 0.09708386
-0.33344012 0.05674689 -0.34010735 -0.22564466 0.08663391 -0.027362963 0.0026593686 -0.048150606
00000000: 1b51 c03d d3d5 233d 3810 e0bc b000 543c
00000010: 5dad f43c a508 a6bd 9082 30bc 1872 993d
00000020: 79fd 0cbe e22a 813d 7b6c 5abd 1dcd be3d
00000030: c66f 60bc e035 b4bc ffc7 d63d 990c 4b3d
00000040: eefa 5f3d 0e36 b33d 1824 043b e6ae 18bd
00000050: 43e2 d83d 1895 6fbd cb1e 073d 040f 6c3d
00000060: dea1 ccbd bf0f 133d b5b6 e7bc 3621 fcbd
00000070: 881b a5bd f0a4 ccbd bece 9abd a5e2 c23d
00000080: e069 573d 2c0e a9bd 2850 a6bd 6f48 dbbc
00000090: 91bd e9bc 76b7 1ebd aca3 8abc 7139 223d
000000a0: 1d42 033d 8979 e2bd 7dfd 92bd 580e 313d
000000b0: 7fc7 893d 0598 f3bc 3c2e 9abd 3deb 97bc
000000c0: 071a cb3d 6643 1b3d 27aa 8ebd 5165 cfbd
000000d0: 74bb bcbd 2d8e a8bc c64e 5f3c f019 d4bc
000000e0: 9502 34bd 3623 c33d a63e 9abd fd86 7cbc
000000f0: 4a73 e1bc b194 033d ff34 75bd cdfa 62bc
00000100: ed53 7cbc f085 f93d c48a ffbd 88d4 d2bd
00000110: 9f87 26be 39a3 b83c c5f9 6dbe 1b53 933d
00000120: bd9a 7bbc a431 2b3d 4085 893c 2f82 153d
00000130: 4848 fb3b 24ce bc3c 4451 fbbd 26d0 f1bd
00000140: b8ab 573d 2b26 4ebe 15a5 e4bd 50fc fdbd
00000150: 96a2 24be 33bf 5dbd 03e2 463e bb98 c5bd
00000160: 1405 ae3c 1f8c 333d 36d2 cd3e eac6 853e
00000170: d7a5 99bd c2d1 33be 5a9a 22be a398 b03c
00000180: 65f8 2cbd 3d05 3ebe 3a5e 2fbe 11d5 ad3d
00000190: 2a6e 62bd 69b3 9e3d afe0 e7bc 27ef 363d
000001a0: a3a8 27be 76c0 a4bd 93f4 27be 4562 1fbe
000001b0: a8f0 02be fd05 083d b9fc c7bd a6a7 5f3d
000001c0: eadd d43d a950 943e 12d9 283d 9b48 2abc
000001d0: b3b3 2f3c 029b 0cbe a31b 7ebd 7ee7 98bb
000001e0: 4821 2cbd 8203 96be c0c3 a2bd fab6 2b3c
000001f0: eab7 21be 525d abbd 28dd c5bc 4581 6a3d
00000200: a0ad ebbc b846 a13d 16f5 c93d 43dd 60b9
00000210: ced1 8e3d 2518 12be 2f90 efbd 2283 80bd
00000220: b98b 343d 1e24 98bd b2ff 153d fab9 c73c
00000230: 6636 09bd bceb cbbd bdd6 683d 8d59 3f3c
00000240: 6ceb 90bd 2bf2 f6bd 602a cb3c 12c9 c1bc
00000250: 4ef3 9cbd 003e d0bb 9753 0cbe ea28 08bd
00000260: 0c89 253d f5f7 fabc 442b 1dbc 264b d7bc
00000270: ca58 1bbc 3661 c43d 7868 5e3b bcf9 a63d
00000280: 3970 833c 4963 59bc cfb5 ccbd f521 f33c
00000290: 1c4a 663d fb6c 173e 9719 3a3d c495 c7bd
000002a0: 990d 823d 3920 7e3d 5e97 763d eb97 8fbc
000002b0: 536f 4fbc af74 d83d 807f b63d 9807 09be
000002c0: 7aed 07bd 85db d1bd 01bd f4bc 2290 f9bd
000002d0: 0b29 69bc 9622 edbd de73 d6bd b2ce 45bc
000002e0: 9931 3b3d d8ca 75bd 7e5d 69bd bfa4 923d
000002f0: 186c 0abd 560b 02be 57b1 96bd 393a 803d
00000300: a343 b9bd 1f95 31bd 5c9b c1bc 0329 9fbd
00000310: f41f 86bc 7fac 143e f5a7 113e bad1 83bd
00000320: 8503 313d 58e7 c9bc f9f6 d1bc 24b9 efbd
00000330: eb94 b4bd c11c 623b b572 87bd 23f2 63be
00000340: 0859 8a3d b9af 2b3e b451 5c3d f69b 18bd
00000350: 8693 163e a1be d03c 578b 7cbd 2822 75be
00000360: 35a2 16bd f1c8 0a3d be6d 183e 6c5b 0ebc
00000370: 816e df3c fe03 443d 210a 723b 37ed 8dbd
00000380: 4225 a3bc 5047 85bd 01b9 363d 5ea7 c83d
00000390: 8741 a43b dd3e d43d 6530 6e3d e0b8 37bd
000003a0: 8eda 9fbc 0937 fc3d 821d ddbd 9c17 9d3b
000003b0: 74d3 62bd 1bb5 163d 92f4 143c 1f38 cbbd
000003c0: a9ba 133e e85b b03d d6c7 5ebc bbe8 cbbc
000003d0: c010 54bc d4fa 80be 5f94 c0bd e7d3 c63d
000003e0: aab8 aabe 6d6f 683d 8d22 aebe 650f 67be
000003f0: 1f6d b13d 4b28 e0bc cd48 2e3b 9239 45bd

weight f4 [64, 64]
-0.044072494 -0.098870076 -0.13702428 -0.025568584 -0.078221925 -0.1464459 -0.17587017 -0.14599389
-0.004976435 -0.054903734 -0.07674762 0.09119749 0.026433824 0.032462656 -0.06130243 -0.07818116
0.10146054 0.147572 -0.101383395 0.049804937 0.0043148096 0.099792495 0.0576985 0.0077664363
0.02181129 0.10675228 -0.08910669 -0.009354827 0.08022251 -0.0057564685 0.073345974 -0.011705542
-0.0139694195 0.1398314 -0.14513241 0.021090355 -0.030550245 0.024314428 -0.022076085 -0.11291155
-0.09713845 -0.07390475 -0.019049896 -0.10273706 0.09465375 -0.10773925 -0.034478046 -0.13577731
-0.2569632 0.07677678 0.077782884 0.09244337 0.08298657 0.0850228 0.09067759 -0.12704495
-0.064763024 -0.031274613 -0.1263679 -0.059378546 -0.15485463 -0.04126669 -0.07917301 0.0033218719
0.012398131 0.18708193 0.047967277 -0.04201198 0.06808354 -0.04519384 -0.21645203 -0.014808022
0.07956982 -0.0068955524 0.030105501 -0.10110755 -0.17944755 0.0074948096 0.02084738 -0.0022899548
0.06903275 -0.17378709 -0.15014213 -0.20665182 0.15373674 -0.0011294119 0.014005779 -0.14148538
-0.08210668 -0.020217652 -0.029588502 0.06307257 0.09038405 -0.068850316 0.009860232 -0.041012492
-0.0659511 -0.13986884 0.0702694 0.026864368 0.11113287 -0.0067491 0.008595865 0.04590062
0.17903787 0.070432514 -0.016179442 0.048875388 -0.20898409 0.020893175 -0.061188642 0.1132938
0.029465491 -0.039076727 0.1814774 -0.015974531 -0.06104263 0.028853957 0.02511362 0.107818395
-0.023447925 -0.16161257 -0.07137396 -0.1152714 -0.004340206 0.13401578 0.10363172 0.041903436
0.04783217 0.0037204232 0.090841025 -0.10438659 0.04753275 -0.0055736615 0.035275366 -0.127644
-0.06060352 -0.03328194 0.072694644 -0.027853904 -0.007874986 -0.015400318 -0.04008954 -0.15422787
0.06330337 -0.13715847 -0.2176695 -0.13188733 -0.070431486 -0.10793377 -0.11916221 0.03151064
-0.07042478 -0.06574154 -0.058432363 -0.022723092 0.00056755624 0.056423157 0.014777978 0.00371161
0.037270144 0.033165082 -0.16299357 -0.113181904 -0.01246749 -0.080694966 -0.053107508 -0.036327004
0.009751271 0.1072329 0.028456684 -0.05954908 -0.020448282 0.05814472 -0.13778925 -0.08823169
-0.21583171 -0.054604203 -0.10611309 0.04173553 0.027883999 -0.046669085 0.06650823 -0.08709529
-0.21338779 0.077616334 0.12201588 -0.08789486 -0.010950156 0.043540295 -0.05880736 0.009915263
-0.12280546 -0.09202419 0.035095934 -0.19501448 0.1083276 -0.17261095 -0.08211652 -0.021520864
-0.10562199 -0.11692508 0.07481621 0.08150813 -0.01420985 0.006203292 -0.03792261 -0.015585013
-0.16175136 -0.14895612 0.17466313 -0.08780539 0.01886691 0.0067121647 0.1229557 0.009740862
-0.063058026 0.10993998 0.10204785 -0.064239904 0.033245854 -0.1279553 0.004066467 -0.119483046
-0.1376871 0.14704545 -0.02364217 0.098786764 -0.031992212 -0.029506296 0.019412111 0.043887943
0.1481803 0.009851928 0.045396 -0.12361772 0.11079893 -0.04602287 -0.12638281 0.03236802
0.0016104297 -0.04063073 0.037447684 -0.008173922 0.002715046 -0.1258135 -0.013969458 -0.07669781
-0.06294605 0.023876859 0.13041937 -0.18979384 -0.077805005 0.11333552 -0.0263514 0.097980276
00000000: 5c85 34bd 657c cabd 1850 0cbe 3575 d1bc
00000010: d132 a0bd eaf5 15be 4f17 34be 6c7f 15be
00000020: 5d11 a3bb bde2 60bd db2d 9dbd c0c5 ba3d
00000030: bf8b d83c 90f7 043d 4218 7bbd 721d a0bd
00000040: 8bca cf3d 1d1d 173e 19a2 cfbd 4300 4c3d
00000050: 3f63 8d3b 0260 cc3d 4355 6c3d 977d fe3b
00000060: 97ad b23c f0a0 da3d 917d b6bd fd44 19bc
00000070: b34b a43d c2a0 bcbb 6a36 963d 9ac8 3fbc
00000080: fedf 64bc f62f 0f3e 979d 14be aec5 ac3c
00000090: 8244 fabc 0d2f c73c e8d8 b4bc 2c3e e7bd
000000a0: 86f0 c6bd 605b 97bd 870e 9cbc cf67 d2bd
000000b0: d3d9 c13d 65a6 dcbd da38 0dbd 3509 0bbe
000000c0: ae90 83be 253d 9d3d a24c 9f3d f352 bd3d
000000d0: ddf4 a93d 6f20 ae3d 2cb5 b93d 1218 02be
000000e0: 7aa2 84bd cf19 00bd 9666 01be eb36 73bd
000000f0: 3692 1ebe 4307 29bd 7625 a2bd c3b3 593b
00000100: 8821 4b3c 6892 3f3e 5679 443d c114 2cbd
00000110: 626f 8b3d 2d1d 39bd 9aa5 5dbe 599d 72bc
00000120: 80f5 a23d 16f4 e1bb d09f f63c 7a11 cfbd
00000130: 19c1 37be 0597 f53b 20c8 aa3c 1113 16bb
00000140: 0b61 8d3d 3ef5 31be dcbe 19be 899c 53be
00000150: 2a6d 1d3e c608 94ba 7f78 653c 8be1 10be
00000160: 8c27 a8bd 7d9f a5bc 9663 f2bc 312c 813d
00000170: 461b b93d 6501 8dbd cf8c 213c b7fc 27bd
00000180: 5f11 87bd c739 0fbe 67e9 8f3d aa12 dc3c
00000190: a199 e33d 8e27 ddbb acd5 0c3c 4a02 3c3d
000001a0: b455 373e ec3e 903d c08a 84bc 8f31 483d
000001b0: edff 55be 2a28 ab3c f1a0 7abd 9406 e83d
000001c0: 9d61 f13c eb0e 20bd 36d5 393e 05dd 82bc
000001d0: d607 7abd 225f ec3c 14bb cd3c e4cf dc3d
000001e0: dd15 c0bc c47d 25be 832c 92bd 6913 ecbd
000001f0: 4938 8ebb 6f3b 093e de3c d43d f0a2 2b3d
00000200: aaeb 433d 58d2 733b dc0a ba3d a3c8 d5bd
00000210: b3b1 423d 43a3 b6bb e77c 103d 1cb5 02be
00000220: 663b 78bd a552 08bd eee0 943d df2d e4bc
00000230: 1606 01bc 9e51 7cbc ee34 24bd e9ed 1dbe
00000240: 32a5 813d 4573 0cbe c1e4 5ebe 790d 07be
00000250: 623e 90bd 610c ddbd 510b f4bd 4d11 013d
00000260: de3a 90bd 80a3 86bd c656 6fbd c725 babc
00000270: 0ec8 143a f81b 673d 551f 723c 7c3e 733b
00000280: 94a8 183d 1cd8 073d c9e7 26be eacb e7bd
00000290: 7144 4cbc 6743 a5bd 4287 59bd a0cb 14bd
000002a0: ccc3 1f3c ec9c db3d fe1d e93c bce9 73bd
000002b0: 2883 a7bc 2829 6e3d a018 0dbe d1b2 b4bd
000002c0: fd02 5dbe a8a8 5fbd d251 d9bd e0f2 2a3d
000002d0: fc6c e43c 1528 3fbd 7835 883d 045f b2bd
000002e0: 5482 5abe 50f5 9e3d 76e3 f93d 3802 b4bd
000002f0: 4868 33bc 4f57 323d fcdf 70bd a173 223c
00000300: 6e81 fbbd 2e77 bcbd c1c0 0f3d e0b1 47be
00000310: dcda dd3d edc0 30be b52c a8bd 864c b0bc
00000320: 5850 d8bd 6b76 efbd 3e39 993d bced a63d
00000330: 6ed0 68bc fc44 cb3b bd54 1bbd 4858 7fbc
00000340: 26a2 25be f487 18be e4da 323e 50d3 b3bd
00000350: c78e 9a3c b8f1 db3b 33d0 fb3d 2398 1f3c
00000360: 9124 81bd 3628 e13d 77fe d03d 3690 83bd
00000370: ce2c 083d b706 03be ff3f 853b 87b3 f4bd
00000380: d9fd 0cbe 1593 163e 39ad c1bc b750 ca3d
00000390: 440a 03bd 30b7 f1bc 2606 9f3c d8c3 333d
000003a0: 94bc 173e fb69 213c 28f1 393d 4a2b fdbd
000003b0: 8dea e23d 7a82 3cbd 7f6a 01be 5494 043d
000003c0: 0e15 d33a 696c 26bd be62 193d eaeb 05bc
000003d0: eaee 313b 41d5 00be 27e0 64bc be13 9dbd
000003e0: dce9 80bd 6799 c33c a88c 053e 5159 42be
000003f0: 3b58 9fbd 741c e83d e4de d7bc e2a9 c83d
