models/hyperparameter_optimization/augment/Set15/architecture_num_conv/input_architecture_num_conv_2/GNN.pth (torch, 862550 bytes, 16 tensors)

input_layer.weight f4 [128, 8]
000000 77 91 87 3e 51 82 84 3e a3 a1 a9 bd 41 5e a6 3e
       0.26478168 0.25880674 -0.08282783 0.32493785
000010 df a5 9e bd f4 06 06 3d a6 42 30 be 79 9e 54 3e
       -0.07746481 0.032721475 -0.17212924 0.20763578
000020 83 cd b0 3e 06 cd 84 be 04 29 55 3e fd 6b 48 3e
       0.34531793 -0.2593767 0.20816427 0.19572444
000030 17 83 6b 3e 7e 3b f7 3c 7d d9 58 3e 67 77 4c bd
       0.22999226 0.030179735 0.21176715 -0.04991856
000040 2c cd 90 3e 11 ca f7 3c 9c 03 29 be d3 85 65 3d
       0.28281534 0.03024772 -0.16505283 0.056035828
000050 f2 cd 26 be 48 d4 29 bd 86 0b 13 be 7b 2a 70 3e
       -0.162895 -0.041462213 -0.14359865 0.23453705
000060 2a e4 8e be 50 e7 26 be 0e 76 cc bd 13 af 59 be
       -0.2790845 -0.16299176 -0.09983455 -0.21258192
000070 49 53 6c 3c fd c9 b2 be cc bc d7 3e 2a c5 99 be
       0.014424154 -0.3491973 0.42136228 -0.30033237
000080 bd f3 8b 3e 8a 65 e7 ba 77 1c eb bd 2b c1 55 3e
       0.27334395 -0.0017654162 -0.114800386 0.20874469
000090 a8 9d 76 3d bd 17 6f 3e 02 d9 0e 3c c5 5a e4 bd
       0.060208946 0.23348899 0.008718731 -0.111501254
0000a0 5f 65 ca 3c da 5a c4 bd 16 ca 01 3e ca 04 0b 3e
       0.02470654 -0.09587641 0.12674746 0.13576046
0000b0 16 36 3c 3e fb 45 1e be b7 0d 1f 3e 72 8e 81 3d
       0.18380007 -0.15456383 0.15532576 0.063259974
0000c0 d2 2e 03 3e 16 aa 5c be 4c 31 b3 be a1 e0 0b be
       0.1281083 -0.21549258 -0.34998548 -0.13659908
0000d0 91 d8 8a be 0c d6 6e 3e ea 4c 0a 3e 19 f6 15 3e
       -0.27118352 0.2332384 0.13505903 0.1464466
0000e0 45 aa 81 3d 57 89 c9 bb eb f1 6a 3e e0 9d 80 be
       0.063313045 -0.0061504054 0.22943847 -0.2512045
0000f0 e4 09 5f ba 1f 1b 77 be 97 1c a4 3d 02 5c f9 bd
       -0.0008508249 -0.2413144 0.080132656 -0.12175752
000100 98 62 97 3d f8 da 96 bd d2 9e 80 3e bd 94 56 be
       0.07391852 -0.07365984 0.2512117 -0.20955177
000110 4c eb 57 be a3 ee 57 be 55 4c c0 3e b1 4c f1 3d
       -0.21085852 -0.21087126 0.37558237 0.11782206
000120 35 b7 d0 3e 16 64 95 be 7b 8c b3 be 7b 9f 8d be
       0.40764776 -0.29177922 -0.35068116 -0.27660736
000130 1a 8a 73 be fa ff 65 3d 5f 70 3d 3e d3 69 96 3e
       -0.2378315 0.05615232 0.18499897 0.29377612
000140 49 f7 3a be 58 ce 76 be c6 4c 43 3e 70 56 12 be
       -0.18258394 -0.24102151 0.19072255 -0.14290786
000150 3c 95 46 3e f2 d2 ab bd e7 0d 79 3e 6f a5 8c be
       0.19392866 -0.08389844 0.2432171 -0.27469966
000160 e6 b3 36 be da b1 1b 3e 43 ad 72 3d 1f 9c b8 bd
       -0.17842063 0.15204564 0.059247267 -0.09014153
000170 54 c2 53 3e 56 da 66 3e 39 45 83 be eb 47 41 be
       0.20679599 0.22544226 -0.2563875 -0.18875091
000180 32 a7 a6 3e c5 53 f4 bd 40 59 00 be 41 27 af be
       0.32549435 -0.1193004 -0.12534046 -0.34209636
000190 2a 54 4f be c7 54 0f 3d 83 25 3f bd 3f 66 83 be
       -0.2024695 0.03499296 -0.046666633 -0.25663945
0001a0 b9 d1 c9 bb 4a 4d 77 be 82 93 99 be 75 5c 47 be
       -0.006159034 -0.24150577 -0.29995352 -0.19468863
0001b0 29 6e 9e be 18 86 66 be 7c 66 d8 3e 94 c2 88 3d
       -0.3094342 -0.2251209 0.4226569 0.06677738
0001c0 9a d8 ee 3d 7a d5 a8 be 0b c7 6d be 6b 03 f1 bd
       0.11662407 -0.3297537 -0.2322046 -0.1176823
0001d0 82 ba cd 3c 64 48 9f be 22 fe 1b be bd bd 58 be
       0.025113348 -0.31109917 -0.15233663 -0.2116613
0001e0 10 e2 a3 bb 3b b7 06 be b4 b3 c8 bc 02 54 75 be
       -0.005001314 -0.13155834 -0.024499752 -0.23957828
0001f0 68 80 78 be c9 36 53 be 8d d9 f7 bd 07 e0 8e be
       -0.24267733 -0.20626368 -0.121020414 -0.27905294
000200 58 b3 70 3e 0c b4 8f bd 88 3c 89 3e 76 fc 07 bc
       0.23505914 -0.07016763 0.26803994 -0.0082999375
000210 60 49 99 be a4 e6 5a 3e e3 39 c7 bd 63 c7 0a be
       -0.29938793 0.21377045 -0.09727838 -0.13552622
000220 41 42 96 be 59 f6 b3 be 52 ac e7 3d 96 2b 9e bd
       -0.29347423 -0.35148886 0.11312164 -0.07723157
000230 b2 45 a5 3d 53 8e 94 be a8 04 22 3e bf e0 84 be
       0.08069934 -0.29014835 0.15822089 -0.25952718
000240 c6 0e 7a bd 66 42 04 bc a5 35 f8 3d a8 b3 a6 3e
       -0.061049245 -0.008072471 0.12119607 0.32558942
000250 a9 d5 93 3e c4 88 8f be 1d 31 0d 3e e4 b8 1b be
       0.28873947 -0.2803403 0.13788266 -0.15207249
000260 1d b2 1e bd be 7d 87 be 18 28 9a 3e f6 db 84 be
       -0.03874408 -0.2646312 0.30108714 -0.25949067
000270 35 80 06 3e 9c de 09 3e 54 d5 d8 bb 1e bc 43 be
       0.13134845 0.13463825 -0.0066172276 -0.1911473
000280 e5 4c a9 3e 64 f0 17 3c 66 28 9d ba 2f 86 9f be
       0.33066478 0.009273622 -0.0011990189 -0.3115706
000290 0a 48 f4 3d c7 40 59 bd d4 db 25 be 66 7c 9b 3e
       0.11927803 -0.053040292 -0.16197139 0.30368346
0002a0 0c be 77 3d b5 4e 48 be eb 3d 37 be ba 50 8a bc
       0.060483977 -0.19561274 -0.17894714 -0.016884197
0002b0 2f cb 36 3e b8 06 b9 bd f7 91 4e be 83 f4 f7 bd
       0.17850946 -0.090344846 -0.20172869 -0.12107184
0002c0 28 3c 87 be 0c 06 9f 3d de 8e 94 3e 3d 6b aa be
       -0.26413083 0.07764825 0.2901525 -0.3328494
0002d0 aa 81 81 3d 12 a5 41 3e 70 ce a1 ba 4f ee 00 be
       0.063235596 0.18910626 -0.0012344848 -0.12590908
0002e0 c8 d4 25 3e ef ae 73 3e ea 2e 51 3d c6 78 7e bd
       0.16194451 0.237972 0.05107013 -0.062126897
0002f0 91 bc bf bd 91 ce 57 b9 8d d2 7f bd 9b c6 d7 bd
       -0.09362138 -0.0002058095 -0.062456656 -0.10535928
000300 1a 04 61 3e 14 74 a9 3e 0d 5d 0f bd 5f 1e a2 bd
       0.21974221 0.33096373 -0.03500085 -0.07915949
000310 45 8b c1 ba fc ee ac bc b3 c9 89 3d 2b e9 ca 3d
       -0.0014766237 -0.02111005 0.06727924 0.099077545
000320 7b 69 a4 be 1e 9b 05 be cd 6c a8 3e 54 48 03 3e
       -0.32111725 -0.13047454 0.32895508 0.1282056
000330 2e 0e 90 bc 73 46 5a be 42 7f 5d be b0 26 a2 be
       -0.017584886 -0.21315937 -0.21630576 -0.3167014
000340 a2 05 ec bd 63 0b a1 3d 78 e3 33 3e e6 9e 61 3e
       -0.11524512 0.078635 0.17567241 0.22033271
000350 ce 02 a0 be 6a b7 59 be fd 8a 64 bd e5 1b af 3e
       -0.3125214 -0.21261373 -0.055796612 0.3420097
000360 c6 d1 43 3c cd 83 bb bd ca dd 55 3e d3 e4 09 be
       0.011951869 -0.091559984 0.20885387 -0.13466196
000370 e2 54 6a be e4 1b 91 3e a0 9e 24 be 47 27 91 bd
       -0.22883943 0.2834159 -0.16076136 -0.0708757
000380 2d 14 b4 be 1c 6d 7f 3e 17 95 5a 3e 46 e4 a4 3d
       -0.35171643 0.24943966 0.21345936 0.08051352
000390 b3 70 7c be bb a7 b2 be 25 05 93 be 75 fc 86 3e
       -0.24652366 -0.34893593 -0.28714862 0.26364484
0003a0 6d 0d e2 3d d9 67 92 3e 60 7b 0c 3e 0b 00 b1 3d
       0.11037717 0.28594854 0.13718939 0.08642586
0003b0 b3 e6 62 bb 92 aa 89 be a3 17 9b be f2 50 a9 be
       -0.003462237 -0.26887947 -0.3029147 -0.3306957
0003c0 ba 80 40 3e d8 bf 31 be f1 b8 91 bd eb 5a 50 be
       0.18799105 -0.17358339 -0.07115353 -0.20347182
0003d0 a7 f1 83 bd c1 d0 7e be ce 8f 6c be 2d 2f f0 3d
       -0.06442576 -0.24884321 -0.23101732 0.11727748
0003e0 73 31 d7 bd 15 1e 93 3e 55 4a e8 bd 34 ca 84 be
       -0.105074786 0.28733888 -0.11342303 -0.2593552
0003f0 c7 82 7f bd 4f 7f 2f be 7e 86 dd bd 61 54 ac be
       -0.06238058 -0.17138408 -0.10816668 -0.33658126

conv_block.0.lin_l.weight f4 [128, 128]
000000 e8 7c 42 3c 84 7b 57 bd 26 2a 32 3d 75 b1 75 bc
       0.0118706 -0.052608028 0.043497227 -0.014995922
000010 56 c2 48 bc 59 cb 3c 3d ea 91 61 3d eb f6 14 3c
       -0.012253365 0.046092365 0.055070795 0.009092073
000020 9a e3 7f bd c0 c4 ac bd 47 06 87 bd 2a 99 bf bd
       -0.062472917 -0.084359646 -0.06592994 -0.093553856
000030 f3 b9 ab 3d 12 33 52 bd 20 81 ad bd e7 d7 2a bc
       0.083850764 -0.051318236 -0.08471894 -0.010427452
000040 5c f1 d0 3c ca e4 17 bd 1c 6c 05 bd c7 3a 68 bd
       0.025505714 -0.037083425 -0.032573804 -0.05669668
000050 89 04 86 3d fc 7d c1 3b 64 bb 8f 3d 13 ca 52 3a
       0.06543834 0.005904911 0.07018164 0.00080409757
000060 5e ee 5c 3d 02 36 ba bd 54 66 04 3c 66 bd 6e bd
       0.053938262 -0.090923324 0.008081038 -0.058286093
000070 b4 9d 7f 3d 8c 64 6c bd a8 df 50 bd 2e 4d c8 bd
       0.062406257 -0.057713076 -0.050994545 -0.09780346
000080 e8 29 b6 bd 36 63 a8 bd 11 fb 8d bd 91 47 8f 3d
       -0.08894712 -0.08222048 -0.06932653 0.06996072
000090 19 34 68 ba 93 c5 5f bb e9 56 67 3d a1 78 60 bd
       -0.0008857861 -0.0034144863 0.05647937 -0.05480254
0000a0 d7 e3 53 bd 87 e2 d3 bd 28 4a ec 3c 86 10 a3 bd
       -0.051730957 -0.10345941 0.028843954 -0.07962136
0000b0 ab 4e 95 bd 96 42 ce bc 88 a8 19 bc ac 3d 3f 3d
       -0.07290395 -0.025178235 -0.00937856 0.046689674
0000c0 db f1 1d bd ed 97 f0 bb 37 ec a5 b8 a3 d7 f5 3c
       -0.03856073 -0.0073423297 -7.9118116e-05 0.03001005
0000d0 84 16 4f 3d 33 60 88 3d 59 56 f8 bd e2 c5 f1 3c
       0.050558582 0.066589735 -0.121258445 0.029513303
0000e0 ae b1 6c 3d bb 2f c1 bd 68 62 0f 3d 97 92 3b bd
       0.057786636 -0.09432932 0.035005957 -0.045794096
0000f0 b1 cc 51 3d 32 fd 58 3c de e4 ce bb 17 3c c9 bb
       0.0512206 0.01324396 -0.006313904 -0.0061411965
000100 e4 f7 8d bd 6f f7 a4 bd d9 2a b2 3c f1 ce 94 bd
       -0.06932047 -0.08055007 0.021748947 -0.072660334
000110 a8 53 93 bd 33 69 ae bd 63 ac ef 3c 48 04 22 3d
       -0.071936905 -0.08516159 0.029257005 0.039554864
000120 e3 4e 80 3d 07 75 69 bd 74 e3 cb bd 4f 7e a4 bd
       0.062650464 -0.05699637 -0.099554926 -0.08031904
000130 75 91 f9 3c aa f5 06 be bf 77 b2 bd 96 5b 73 bc
       0.030464867 -0.13179651 -0.08714246 -0.014853379
000140 3b f6 3f bd 4c 29 25 3d 14 39 42 bd 09 25 db bb
       -0.046865683 0.040322587 -0.047417715 -0.0066877645
000150 bd 21 7b bd 57 66 8e 3d 21 f7 76 3d 45 49 b7 3b
       -0.061311472 0.069531135 0.060294274 0.005593451
000160 8b 45 07 3d 47 1b c2 bd c8 55 97 bd 98 ae be bb
       0.033025306 -0.09477859 -0.07389408 -0.005819153
000170 aa 41 8e bc 99 39 f2 3c 35 9b eb 3c 9e 39 f0 bb
       -0.017365295 0.02956848 0.028760532 -0.0073310873
000180 5f b8 85 3b b2 d0 04 bd 35 5b 39 3d 1a 18 48 bd
       0.0040808166 -0.03242559 0.045252997 -0.04885111
000190 3c d9 be bc e5 e0 90 3d 3e cd 08 bc 44 e3 0c 3d
       -0.023296945 0.07074145 -0.008349715 0.034396425
0001a0 a4 5d 14 be 83 c2 0d 3b e1 dc f6 bc 38 71 58 bc
       -0.14488846 0.002163083 -0.03013462 -0.013210587
0001b0 44 21 44 bd a0 5b 4c 3d a4 23 35 bd 9c 07 17 3c
       -0.047883287 0.049892068 -0.044223443 0.009218123
0001c0 ce 99 1d 3d c6 7f a4 3d 7d 4e 8d 3d 87 7c 88 bd
       0.038476758 0.08032183 0.06899736 -0.06664377
0001d0 b2 40 0d 3c 03 72 63 3d 1c 5b af 3c 16 b1 5b 3d
       0.008621382 0.055528652 0.021405749 0.05363568
0001e0 3d 7e d9 3c 80 d4 ce bd 1e 2e 96 3c 8c 60 5e 3d
       0.026549453 -0.10099125 0.018332537 0.054291293
0001f0 fd dd 3b 3d 52 75 04 bd 60 3b ad bc 85 0f 82 bd
       0.045866 -0.032338448 -0.021146476 -0.06350616
000200 34 6e c7 bb 7f 56 35 3d 85 a1 c4 bd ff ad 01 bd
       -0.0060861353 0.044271942 -0.0960112 -0.031660076
000210 51 14 45 bd 77 09 c5 3d e4 d5 a8 bd 84 64 22 bd
       -0.04811508 0.09620946 -0.082439214 -0.03964664
000220 45 4b f2 3c 70 19 b7 bd 02 6b 87 3d 27 61 20 3b
       0.029576907 -0.08940399 0.06612207 0.002447197
000230 1d 45 aa bb 6e 9c aa bd 8d 00 ea 3c 2d 3c 5c bd
       -0.005196227 -0.08330618 0.028564716 -0.053768326
000240 1c 2a 17 bd f4 79 15 3e 9c e3 d0 3b a7 44 64 3d
       -0.036905393 0.14597303 0.0063747894 0.055729534
000250 5e ad 83 bc fc 11 8e 3d 4c 1b 13 bc 4c 2e 5b 3b
       -0.016073879 0.06937024 -0.008978676 0.0033444343
000260 12 b7 55 bd 88 bf 23 3d 2d 5c a5 3d 12 77 96 3d
       -0.052176543 0.03997758 0.08074222 0.073469296
000270 ca ed da bc 49 4c 80 bd 03 0e b8 bd 57 87 f1 bc
       -0.026724715 -0.0626455 -0.089870475 -0.02948348
000280 4b 4f e3 3c 9b 31 20 38 99 c1 3e bd 8d 5b 2e 3d
       0.02774777 3.819317e-05 -0.046571348 0.04256778
000290 e4 c4 3d bd 7d 8e 01 3e d5 5d 5f 3d 75 53 2e 3d
       -0.046330348 0.12652011 0.054532845 0.04256006
0002a0 e1 74 e8 3c cc aa c1 bc eb 54 42 3d 0e 73 dc bc
       0.028376045 -0.023641013 0.047444265 -0.026910331
0002b0 2d 1c 2a bd 37 25 7a 3d 9d 23 a1 3d 53 1e 3f bd
       -0.041530777 0.061070647 0.07868121 -0.04665978
0002c0 e3 42 0f 3b a1 37 53 bc f1 2b 81 3d 17 2b ad 3d
       0.0021859936 -0.012891681 0.06307209 0.08455484
0002d0 21 c6 80 3d 00 a0 7f bd 10 f3 b7 bd 15 d0 61 3d
       0.0628779 -0.062408447 -0.08981907 0.055130083
0002e0 a0 4f 18 3c a4 4d df bc 09 9e 1f 3d a6 42 57 3d
       0.009296328 -0.027258702 0.038969073 0.052553795
0002f0 ed 38 06 be 64 79 2d bb 3c ae 80 3b 78 37 85 bc
       -0.13107653 -0.002647006 0.0039270204 -0.016261801
000300 d5 65 fc 3c a3 e7 1b 3b 15 ae 91 b9 a7 c0 5f 3d
       0.030810276 0.002378919 -0.00027786256 0.054627087
000310 8e cd 41 3d 59 ff e4 bb a1 2a ab bd d3 71 02 bd
       0.047315173 -0.0069884476 -0.0835774 -0.031846832
000320 e3 99 76 ba 16 68 e5 bd 7e 68 c9 bd 1e 30 b2 bd
       -0.0009407086 -0.112014934 -0.098343834 -0.08700584
000330 a2 81 e3 bd 29 fa 4a 3c fa 1a ca bd dc b2 2b 3d
       -0.1110871 0.012388744 -0.098684266 0.04191862
000340 35 9e 90 bd 34 57 f2 3d 11 45 28 3d a2 31 61 3b
       -0.070614256 0.11833039 0.04108149 0.003436186
000350 d5 58 22 bc 36 17 fd 3c 9f 59 b9 bd 80 65 f6 ba
       -0.0099088745 0.030894857 -0.09050297 -0.001879856
000360 51 f2 8c 3d 34 d1 c7 3d 9f 08 0f 3c 45 a6 92 3d
       0.06882156 0.09756699 0.008730083 0.0716062
000370 c4 6b b8 ba 69 0c af 3d d9 ca 52 3d eb e1 06 be
       -0.0014070203 0.08547289 0.05146298 -0.13172118
000380 9f 27 3e 3d 70 96 09 3e 49 5d ae bd c8 f6 0d 3d
       0.046424504 0.13436294 -0.085138865 0.034659177
000390 d6 a9 7e 3c 73 75 2c 3d f8 c6 d1 bd 47 11 dd 3d
       0.015543422 0.042104196 -0.102430284 0.10794311
0003a0 c2 13 cb 3d 92 cc a9 bd 06 70 29 3b 48 42 c3 bd
       0.09915878 -0.08290972 0.0025854125 -0.095341265
0003b0 d3 4a ae 3c c4 2f 26 bd 30 14 cd bd cd a3 1a bc
       0.021275913 -0.040572897 -0.10013616 -0.009438467
0003c0 3e db b5 3d e1 95 c1 3c f2 e2 53 3d 03 b3 87 3d
       0.08879708 0.023631038 0.051730104 0.06625941
0003d0 fd f4 e5 3b 43 63 13 3d 40 58 0f 3c 3e dc d1 bd
       0.0070177303 0.035983335 0.008749068 -0.10247086
0003e0 28 f7 12 be ef 9f 34 bd 42 30 2c bd 28 34 20 3e
       -0.14352095 -0.044097837 -0.04203821 0.15644896
0003f0 9d d4 98 bc 3b cb 1f ba 74 93 47 bc f3 cb 6f bd
       -0.01865607 -0.00060956524 -0.012181152 -0.05854411

conv_block.0.lin_r.weight f4 [128, 128]
000000 a0 80 22 3c 28 be ae bd 81 ca 74 bc b8 71 a4 3d
       0.009918362 -0.08532363 -0.014940859 0.08029503
000010 ac d9 a5 3d 01 8f 0c 3b 27 c5 6b 3d 69 0a 3d bd
       0.08098158 0.0021447542 0.057561066 -0.046152506
000020 00 e7 93 bd 0d 01 93 bd 30 32 1d bd d6 fb b6 bd
       -0.07221794 -0.07177935 -0.03837794 -0.08934753
000030 77 9f 4b 3d d1 2b 6b 3c c9 3f 30 bd b3 38 5f bd
       0.049712624 0.014353708 -0.04302958 -0.054497432
000040 b0 1c 34 3c 3a 06 40 bd 29 ae 22 bd 02 70 6d bc
       0.010993168 -0.046880938 -0.039716873 -0.014492037
000050 cf 74 aa bd ec a5 92 bc 99 79 a0 3d 14 da 43 3d
       -0.08323061 -0.017901383 0.07835693 0.047815397
000060 43 68 4e bc 3c 6c af bd fa 44 33 bb ad 7d 5f bd
       -0.0125981 -0.08565566 -0.0027354346 -0.054563213
000070 44 9e cc bd 60 7b 86 bd 74 3e ac bd 78 64 bc 3c
       -0.09991124 -0.06566501 -0.084103495 0.022997126
000080 5e 77 9e bd 1c 09 13 bd f9 df 06 bc db a9 3e bd
       -0.07737611 -0.03589736 -0.00823211 -0.046548706
000090 df 94 28 bd 92 68 0d 3d c2 3e bc bd 65 e1 2e 3d
       -0.0411576 0.034523554 -0.091916576 0.04269542
0000a0 50 df 33 bd e8 14 b2 bd 73 a0 c5 bc 71 81 b2 bc
       -0.04391414 -0.08695394 -0.02412436 -0.021790238
0000b0 5e 61 0b bc f2 93 ee bc 6d 34 a0 bb 0a 21 b6 3c
       -0.008507101 -0.02912328 -0.004889062 0.022232551
0000c0 63 7f 35 3d 13 f5 80 bd 39 c9 a3 3b 1b 10 86 3d
       0.04431094 -0.06296744 0.004998353 0.065460406
0000d0 b3 a0 b5 bc 5c e9 a4 bc a1 82 dd 3c 5f b4 b8 bd
       -0.022171354 -0.020130806 0.027039828 -0.09018778
0000e0 f3 cc 88 bd d5 34 86 3d e6 a7 20 3c 22 cf b5 bc
       -0.06679716 0.06553046 0.009805655 -0.022193495
0000f0 df 9c cd bd 7d cd a8 bd c4 80 8d bc c3 bf 2b bd
       -0.100396864 -0.08242319 -0.017273314 -0.041930925
000100 f3 cc 11 3d 30 a8 9e bd 14 f6 ed 3c 1e e4 89 bd
       0.035595845 -0.07746923 0.029048003 -0.06732963
000110 d5 05 14 bd e6 5c 60 3d a2 57 17 3c db 60 80 bd
       -0.036138374 0.054776095 0.009237202 -0.06268474
000120 ff 17 0d 3d a3 e9 a9 3c cd 1b 9c bc c4 1e dc bd
       0.034446713 0.02074129 -0.019056225 -0.107480556
000130 4d 80 e1 3c 1b 94 fb 3c 18 07 21 3d ba 68 4f 3c
       0.027526999 0.03071027 0.039313406 0.012659246
000140 52 c0 00 bc 2b c5 95 bd 14 d2 95 bd 72 35 87 bc
       -0.007858353 -0.073129974 -0.0731546 -0.016504977
000150 85 3a f5 3a 31 86 34 bc 34 4e 4d bd e4 41 b5 3c
       0.0018709457 -0.011018322 -0.05012341 0.022126146
000160 f0 c4 41 3c 85 b8 8c bd d0 ac 4f 3d 1f a9 2d 3d
       0.011826739 -0.06871132 0.050701916 0.042397615
000170 14 cc 86 3d ae bf ef bc 3e c4 1c 3d 08 30 3e 3c
       0.065818936 -0.029266205 0.03827309 0.011608131
000180 f4 a0 4c 3d 58 2c 6b 3d 59 0c 7c ba 64 90 eb 3c
       0.049958184 0.057415336 -0.0009614877 0.028755374
000190 c8 14 4d bd fa a8 31 bd 21 dc 6c 3c c8 57 37 3d
       -0.050068647 -0.04337404 0.01445678 0.04476145
0001a0 ad 62 07 3d 66 06 5f 3d e0 fe 7c 3d bf 5a 0c 3d
       0.03305309 0.05444946 0.061766505 0.03426623
0001b0 ad 51 cd 3c ee 71 a1 bd 89 41 94 bd df a7 e0 3b
       0.02506336 -0.078830585 -0.07239062 0.0068559493
0001c0 e6 aa 6f 3d c3 11 8a bb 4a 40 1f 3c c9 b8 01 3d
       0.05851259 -0.004213543 0.009719918 0.031670365
0001d0 c6 3c 3c bd 36 61 fd bc 02 db 79 bd a9 8c 79 bd
       -0.045956396 -0.030930143 -0.060999878 -0.06092516
0001e0 33 12 03 bd 8f d4 46 bd 9a 00 c6 bc e4 30 ac bd
       -0.031999778 -0.048542555 -0.024170209 -0.08407763
0001f0 5d 16 57 3d 21 45 b9 bd ad 9f 1a bd 0a c1 20 bd
       0.05251156 -0.090463884 -0.037749935 -0.039246596
000200 8a ee 56 bd e4 57 06 bd 8a 8f be 3d 3f 85 c1 bd
       -0.052473582 -0.032798663 0.09304722 -0.09449243
000210 52 87 69 3d 9f 3e 98 bd 60 a4 c0 bd dd ad be 3c
       0.057013817 -0.07433819 -0.09406352 0.023276264
000220 49 21 2b 3c fb 44 85 3d 95 8a c8 3b 8d c3 b6 3c
       0.0104449475 0.065072976 0.006120036 0.022310043
000230 ba 8b 28 3d cb 9a 71 bc 73 f4 9b 3d e8 71 7d bd
       0.04114888 -0.014746378 0.07614984 -0.061876208
000240 b1 6d cc bd 0d 0f 90 bd 20 da b4 bd 1b 43 f8 3b
       -0.099818595 -0.07034121 -0.088306665 0.007576359
000250 17 02 65 3d 47 43 ae 3d 8b d8 b2 bd ec 50 c4 3d
       0.055910196 0.08508926 -0.087327085 0.09585747
000260 bf 25 57 bd de 0f c9 bd 39 75 ba 3d 42 30 56 bd
       -0.05252623 -0.098174796 0.0910439 -0.052292116
000270 7c 70 21 3d 5b 23 8c bc 5a 4f 2e 3d f3 7d 92 3c
       0.039413914 -0.017106703 0.042556144 0.017882323
000280 58 84 7f 3d 70 a7 99 3d 7f 17 96 bb f4 02 0c bd
       0.062382072 0.07502639 -0.0045804377 -0.034182504
000290 78 6a 2f bd 8f 85 e1 3c ae 4c 2b 3d 17 13 ee bd
       -0.042826146 0.027529506 0.041821174 -0.11624735
0002a0 01 d0 89 bd 1a 9d 1e bd af 5d cd 3d bf d4 04 be
       -0.06729127 -0.038724042 0.10027634 -0.12971781
0002b0 9a 4a 9e 3c 98 50 b1 bd 74 29 33 3d 55 5b 1a bd
       0.019322682 -0.0865795 0.043740705 -0.037684757
0002c0 1b 1c 4a 3a a1 e5 a1 3d 7a 81 cf 3d 95 2a c3 3c
       0.00077098765 0.07905126 0.101321176 0.023824016
0002d0 c5 59 f8 3d eb aa 48 bd d1 f3 a4 bb 9b db d0 3d
       0.12126497 -0.048991125 -0.005033948 0.101981364
0002e0 4c 0f c0 3d 66 69 d3 3d f1 98 ca bd f6 a0 51 3d
       0.09377918 0.103228375 -0.098924525 0.051178895
0002f0 b5 fd ca 3d 16 14 84 3d d0 35 29 3d 72 b4 c0 3d
       0.09911672 0.064491436 0.041311085 0.09409417
000300 ce ab 91 3d a2 f4 8f 3d 15 b2 3f bc 3a 56 31 bc
       0.07112847 0.07029082 -0.011700173 -0.010823781
000310 e3 99 b7 bd 45 53 fc 3c 21 c7 3e bd 7c 34 47 bd
       -0.089648984 0.030801425 -0.046576623 -0.048634037
000320 7f 72 8b bc 35 73 42 bb 5d 5c 54 bd 12 ae b9 3d
       -0.01702237 -0.002967072 -0.051845897 0.090664044
000330 58 8a a2 3d ea 6e 1c bd de f7 cc 3c 55 9b 26 bd
       0.07936543 -0.038191713 0.025020536 -0.04067548
000340 e3 24 8a bd 3b 7b e2 bb 45 12 97 bd 71 c7 94 bd
       -0.06745317 -0.006911663 -0.073765315 -0.07264603
000350 af 88 d1 bc dd 73 a5 3d 97 50 f2 bd e7 71 61 bc
       -0.025577871 0.0807874 -0.118317775 -0.013760067
000360 bf 6b b2 bd 59 58 e4 3c bf dc 5f 3d 58 6b de bd
       -0.08711957 0.027874159 0.05465388 -0.10860318
000370 ac 38 29 bd e1 1b 92 bd b3 c3 17 be 52 ea 1f bd
       -0.041313812 -0.07134224 -0.14820747 -0.039041825
000380 b6 87 60 3d e5 50 45 3d b0 1b ae 3c b5 cb 36 bd
       0.054816924 0.04817285 0.021253437 -0.044627864
000390 54 2e 0f 3c d9 0c c1 bc f8 7e 77 bd 23 68 35 3c
       0.008739073 -0.023565697 -0.06042382 0.011072191
0003a0 d5 b0 8b 3d f2 b3 51 ba fa 9f 94 3d e1 4c 03 bb
       0.068208374 -0.0007999531 0.072570756 -0.0020034837
0003b0 ad bc 88 3d fb 45 37 3d a4 62 d6 bd f5 aa f5 3b
       0.06676612 0.044744473 -0.10468033 0.0074971863
0003c0 5e d6 11 3c da 21 92 3b 8b 99 63 bc 0b 09 51 3d
       0.008901207 0.004459602 -0.013891588 0.051034015
0003d0 b8 6e 23 bd d1 de 81 bc d7 6b 11 3d 29 cd 74 3d
       -0.03990051 -0.015853317 0.035503235 0.05976597
0003e0 6e 73 f4 bc d3 67 a9 bd fd aa 72 bd b1 17 c1 bc
       -0.029840197 -0.08271756 -0.0592451 -0.023570867
0003f0 5c 88 9b bd 02 cf b0 3d 0f a9 60 bd 19 2a 6f 3c
       -0.07594368 0.086332336 -0.054848727 0.014597439

conv_block.1.lin_l.weight f4 [128, 128]
000000 3f 05 03 bd 01 a0 bc 3d f5 b9 5f bd 79 e6 c6 bd
       -0.031987425 0.09210206 -0.0546207 -0.09711928
000010 d4 fb cf bb b2 99 27 bc f6 ae 30 3d cd 53 aa 3c
       -0.006347159 -0.010229515 0.043135606 0.020791912
000020 28 ba 98 3d 9e 47 ae 3d 63 89 8d bd 14 5b 9e bd
       0.074573815 0.08509754 -0.0691097 -0.077322155
000030 c4 e5 3e 3d af a2 1c 3d db cf 74 3d 1a 9a c3 3b
       0.04660584 0.038241085 0.05976854 0.005969298
000040 9b 95 1f 3c 61 cb 97 bb 2b 31 b2 bc 91 a2 b2 3d
       0.009740259 -0.004632399 -0.02175196 0.08722413
000050 f4 d2 83 bd 93 68 80 3d f7 10 95 bd f9 b3 87 3c
       -0.064367205 0.06269946 -0.072786264 0.01656531
000060 d7 a3 91 3d 0c 0f 17 bc 4b 76 b7 bd 3d 97 26 bd
       0.07111328 -0.009219896 -0.089581095 -0.040671576
000070 0a db 44 3d e9 5b 78 3d 9a c7 93 bd 99 4f b6 bd
       0.048060454 0.060634527 -0.07215805 -0.08901901
000080 d2 8f 31 bd 4c 36 06 3d a7 2a 95 3d 79 97 3e 3d
       -0.04335005 0.032766625 0.07283526 0.046531174
000090 04 f7 95 bd 12 7c 31 3d a6 b2 18 3d 30 29 54 3d
       -0.07322505 0.043331213 0.037279747 0.051797092
0000a0 69 b7 d5 bc 24 27 61 bc 70 12 a4 3b 43 4b 61 bd
       -0.026088433 -0.013742242 0.0050070807 -0.055003416
0000b0 c8 ed 0c bd 7f 83 33 bb 4f fe ae 3b 21 61 84 3d
       -0.034406453 -0.002739161 0.0053403745 0.06463838
0000c0 f7 1f 7e bb 2f 23 2e bd 95 15 a1 3d 6c ff 6a bd
       -0.0038776377 -0.042514022 0.078654446 -0.057372496
0000d0 f0 a4 89 b8 03 1e b1 3b 68 5a a8 3d 5f f2 99 bd
       -6.563391e-05 0.005405189 0.082203686 -0.07516932
0000e0 f9 16 ea 3c e6 a3 a7 3c 84 4a 67 3d 86 c8 89 be
       0.028575407 0.020463895 0.056467548 -0.269108
0000f0 aa 78 0b bd 83 0e aa bc c3 5f b5 3d f0 0e c7 bc
       -0.03405062 -0.020758873 0.08856156 -0.024299115
000100 8b 31 9c bd 34 34 7f 3c 24 2b 0e 3d 76 0b 81 3d
       -0.07626637 0.015576411 0.03470911 0.06301014
000110 c3 30 f3 bc 18 0a a3 bd c0 e3 ac bd 0f f1 d2 3d
       -0.029686337 -0.079609096 -0.08441877 0.102998845
000120 d6 44 70 bd 90 f7 14 bd a6 5d 1c bd da 0c 5a bd
       -0.058659397 -0.036368906 -0.038175248 -0.053234912
000130 28 52 9f 3d 67 1b e2 bc 00 00 cd ba 38 c5 1d be
       0.07779342 -0.027600957 -0.0015640259 -0.15407264
000140 0f 54 7c 3d f4 4f b7 bd 21 f2 aa bc 0a d3 cc bd
       0.061603602 -0.08950797 -0.02086741 -0.1000119
000150 b7 4e 72 3d 07 97 19 3d 21 1a 4e bd 25 9d 53 3d
       0.0591571 0.037497547 -0.050317887 0.051663537
000160 9b 42 f6 3c 7b 1e 69 3d 02 77 56 bc 55 06 98 3d
       0.030061057 0.056913834 -0.013089897 0.07423083
000170 aa cd d3 bc de 08 88 3d 08 00 2a 3c 5f c0 85 bd
       -0.025854904 0.06642316 0.010375984 -0.065308325
000180 e6 82 f8 bc d9 6d da bd 54 1e 0d 3a 23 bb 74 3c
       -0.030335855 -0.10665483 0.00053832424 0.014937195
000190 6b 4f 9f bd 17 33 98 3d c4 79 1f 3d 8b c8 92 bd
       -0.0777882 0.074316196 0.038934484 -0.07167157
0001a0 60 38 89 bd 80 f3 6a 3d 2c 7f 5e 3d f1 a9 9e 3c
       -0.06700206 0.057361126 0.0543205 0.019368144
0001b0 a7 8f 34 bd 1a 4b 94 bd 8c 15 02 3c 09 dd 83 3c
       -0.04408231 -0.07240887 0.0079397075 0.016096609
0001c0 8b 1d 98 bd 39 3f 78 3d 60 b5 75 3c 32 f1 9a bd
       -0.0742751 0.06060717 0.014996856 -0.075655356
0001d0 9d a9 87 3d 91 f3 9b bd df b6 1c 3a 6d 75 59 3d
       0.06624148 -0.07614816 0.00059781777 0.0530905
0001e0 aa a4 83 3d 58 3e 0c 3d f3 a4 52 bd d1 84 13 bd
       0.064278916 0.034239143 -0.05142684 -0.036015335
0001f0 7a 50 5e bd 6e 33 3e bd f7 f1 a0 3d b8 bd 92 3c
       -0.054275967 -0.046435766 0.07858651 0.01791273
000200 19 57 83 bd a8 32 e7 bb 38 2e 34 bc 2f a1 9f bc
       -0.06413097 -0.0070555992 -0.0109973475 -0.019486038
000210 ed af 83 bd 81 f4 06 bd 5f 72 21 3e 4e 03 1e 3d
       -0.064300396 -0.03294802 0.15766285 0.03857737
000220 bd 44 61 3e 68 7d 0e 3c d6 78 0c 3c 05 6c 25 bd
       0.21998878 0.008696891 0.008573731 -0.04038622
000230 a8 48 9f bd 81 72 c4 3d 34 3c ad bd dd 0c 7a bd
       -0.0777753 0.095921524 -0.084587485 -0.061047424
000240 02 13 a3 3d 2c 67 a0 3d 3b 81 7d 3d d6 3d 14 3e
       0.0796261 0.078321785 0.061890822 0.14476714
000250 f9 93 87 3c cd f8 9e 3d 5b 16 ca 3c 80 b2 3e 3e
       0.016550051 0.07762299 0.024668863 0.1862278
000260 b6 77 bb bd d5 9d 4d bd bb ae 4e 3c 4e 46 25 bd
       -0.091536924 -0.05019935 0.012614901 -0.04035025
000270 5d 46 59 bc 33 2b 79 3d 30 c2 41 3d 1e 7b 82 bd
       -0.013261405 0.060832214 0.047304332 -0.06371139
000280 82 f4 b2 3b ba 3f d1 3d 1f 86 47 3d 99 4d 32 3d
       0.0054612765 0.10217233 0.048711892 0.043531034
000290 1f ca 65 3c 60 02 e9 3d 4e b2 cf bc 1f ec e8 bc
       0.01402524 0.11377406 -0.025353577 -0.028432904
0002a0 86 89 e0 3c a3 5f 53 bd 04 31 09 bd 6b 75 3f bd
       0.027409326 -0.05160488 -0.03349401 -0.046742838
0002b0 8f e4 55 3d cf 1e e2 3c e3 91 9a 3d 02 b8 dc 3b
       0.052219924 0.027602581 0.07547357 0.0067358026
0002c0 19 0b 47 bd be fd e4 bd de 2c bd bd 93 5c 6e 3d
       -0.048594568 -0.1118121 -0.09237073 0.058193754
0002d0 73 68 cd bd 6e c5 47 bd f8 31 78 bc 22 44 9d bd
       -0.10029688 -0.048772268 -0.015148632 -0.07679011
0002e0 66 c2 77 bd ca c8 cc 3c 23 4e e5 bc d9 11 c9 3c
       -0.060488127 0.024998087 -0.02799136 0.024544643
0002f0 49 8c 83 be ea 5b b5 bd 31 f2 65 3d 7f df 80 3c
       -0.25692967 -0.08855422 0.056139175 0.015731571
000300 97 a8 d6 3b cc 04 95 bb 15 a1 ba 3b cd f2 8e 3d
       0.006550859 -0.004547691 0.005695472 0.06979904
000310 e6 b3 95 3c 7a 19 54 3d 40 a9 1b 3d 16 21 99 bc
       0.018274259 0.05178211 0.038003206 -0.018692534
000320 a4 27 a6 3d 65 2f 3a bd de 6d e9 3d 5b d3 75 bd
       0.081130296 -0.045455355 0.11397909 -0.060016017
000330 79 25 42 bb e0 1d 11 be e7 3d 9e 3c 35 a7 43 bc
       -0.0029624386 -0.14171553 0.019316627 -0.011941721
000340 49 1c b3 bd 1c b0 7f bc 42 5a ef bc 6b af 85 be
       -0.08745629 -0.015605953 -0.029217843 -0.26110396
000350 9d 71 25 3d 38 8f c0 bd 65 9c 0e 3d f7 87 aa bd
       0.040391553 -0.09402317 0.03481712 -0.083267145
000360 65 0e ba bd 23 eb a6 3d 17 84 96 3c 63 2e 75 3d
       -0.09084777 0.081503175 0.018373532 0.05985869
000370 28 b3 2a bd 49 16 ce 3d 21 bc 01 3e 21 08 69 3d
       -0.041674763 0.10062844 0.12669422 0.056892518
000380 c0 58 de bd a8 73 78 bd 16 0a 71 3d f6 df 2c 3e
       -0.108567715 -0.060657173 0.05884751 0.1688231
000390 5c 70 e3 bc a0 25 4f 3d dc b8 07 3d e1 67 93 3d
       -0.027763538 0.05057299 0.03313528 0.07197548
0003a0 29 be 8e 3c d8 a2 a4 bc 1c 99 d1 bd a9 c7 8b 3c
       0.01742466 -0.020097181 -0.102342814 0.017062979
0003b0 91 0b 65 3c bd c4 48 bc 09 8d 2a 3c e2 d5 96 3d
       0.013979808 -0.012253937 0.010409602 0.07365014
0003c0 55 b0 d9 bd 78 6e b1 3d d5 a7 8d 3d c3 91 c5 bd
       -0.10629336 0.08663648 0.06916777 -0.096469425
0003d0 4e 69 e3 bd 1e aa bb bd 3a 5a c3 3d 47 42 da bd
       -0.1110407 -0.09163307 0.09538694 -0.10657173
0003e0 da 53 9b 3c f0 27 84 bd fa 27 86 3d 10 75 50 3d
       0.018960882 -0.0645293 0.06550594 0.05089289
0003f0 52 0c 2a 3d 7e e5 f9 3b c0 71 0a 3d 8e 0a 55 3d
       0.041515656 0.0076262346 0.033799887 0.05201202

conv_block.1.lin_r.weight f4 [128, 128]
000000 84 0c be bd 9a 14 df b7 89 40 41 bd c5 ff 1b 3d
       -0.09279731 -2.6593265e-05 -0.047180686 0.038085718
000010 46 d1 9d bd ed 5d c6 3c 59 de 34 bd 13 6b 64 3d
       -0.07705931 0.02421471 -0.04415736 0.055766176
000020 6b 6a 47 3c 2a ad b0 3d da 4a a7 bc 2a 10 61 3d
       0.012171368 0.086267784 -0.020421434 0.054947056
000030 f1 bc b4 bd d5 7e 83 bd 4d 51 f7 bd f2 2b fb 3c
       -0.088251 -0.06420676 -0.12076054 0.030660603
000040 4b d8 93 bd 52 93 67 bc 23 80 bc 3c f2 df 64 bd
       -0.07218989 -0.014134245 0.02301032 -0.055877633
000050 ff a6 23 bc 7b 2e 7e 3d 7b 0a 96 3c 33 f1 0e bd
       -0.009988545 0.062056046 0.018315544 -0.034897994
000060 71 c7 5f 3d 19 b6 33 3c ea 4a 0f bd e4 dc 88 3d
       0.05463356 0.010968708 -0.034983553 0.066827565
000070 19 d1 23 3d 43 01 af 3b 40 15 46 3d 48 6b 48 3d
       0.039994333 0.0053407266 0.04836011 0.048930436
000080 6e 2a 5f 3d d5 44 ca bd de 1d b8 bd 55 09 af bc
       0.054483823 -0.0987641 -0.08990072 -0.021366755
000090 09 f2 2e bc 92 95 c1 3c cb f0 63 bc 4e b6 0d 3d
       -0.010677823 0.023630891 -0.01391239 0.034597687
0000a0 32 71 25 bd 2b 11 2a 3c 09 73 03 3d 26 07 b5 bd
       -0.040391155 0.01038007 0.032092128 -0.08839254
0000b0 2a 21 3d 3c 2b 77 1d bd a4 51 59 3d 4d 8a 08 3a
       0.011543551 -0.038443726 0.053056374 0.00052085967
0000c0 c0 fc c1 bd 7a cd a3 bd dd 7d a4 bd 8d 4a 40 3b
       -0.09472036 -0.07998176 -0.08031819 0.002934131
0000d0 94 49 70 3d 5c e4 1a 3d 53 5a b8 bd 01 7b 2f bd
       0.05866392 0.037815437 -0.09001603 -0.042841915
0000e0 e1 f8 ca 3b 2c b0 5a 3d 29 e1 40 bd e1 73 17 3d
       0.0061942195 0.053390667 -0.04708973 0.036975745
0000f0 ad 5f ac bd 1e 83 0f 3c 53 bd 59 3d 0b 15 d1 bc
       -0.08416686 0.008759288 0.05315907 -0.02552273
000100 57 07 67 bc 31 db 92 bd 69 2c 0c 3d c0 70 c1 bc
       -0.014100871 -0.07170714 0.03422204 -0.023613334
000110 43 2f 23 3c 49 3d f5 bc fc 05 ec 3c 3d fe a8 bc
       0.009959999 -0.02993645 0.028811447 -0.020629043
000120 62 40 8d 3a 46 dc 88 bd 78 ee 35 bc 7a 20 1b bc
       0.0010776634 -0.06682639 -0.011104219 -0.009468192
000130 4f 60 dd 3b f9 be 96 bd 9f 87 80 3d a5 92 2c be
       0.0067558656 -0.07360644 0.06275868 -0.16852815
000140 ed c1 b3 bd 6b 2f 66 3b 71 17 b6 bd c8 a8 91 bd
       -0.08777223 0.0035123478 -0.0889119 -0.071122706
000150 85 c6 59 3c 7d 05 4d bd 38 d0 b9 bd 93 db 88 3b
       0.01329196 -0.050054062 -0.09072918 0.004176566
000160 94 9f d2 bd f0 7f 6d 3d a5 71 68 bc c0 28 d2 bc
       -0.10284343 0.05798334 -0.014187251 -0.025654197
000170 b1 b8 bf bc c3 ae ea bc bd 20 02 3c 2a f5 ad 3c
       -0.023403497 -0.028647786 0.007942376 0.021235067
000180 90 db 56 3d b1 d8 98 bd 96 ac 90 bd e8 b1 9c bd
       0.052455485 -0.074632056 -0.07064168 -0.076511204
000190 d8 ab 8f bd d9 6c f1 bd aa 3d 9d bd 29 64 2c bd
       -0.070151985 -0.11788339 -0.07677777 -0.042087708
0001a0 4d f1 10 3d de 1f b0 bd 41 e4 b5 bd fb 68 67 ba
       0.035386372 -0.08599828 -0.088814266 -0.0008827594
0001b0 60 36 8b bd e0 18 a3 3d a2 4c b3 3d 99 53 95 3d
       -0.067974806 0.07963729 0.08754851 0.072913356
0001c0 5e a1 8e 3d f6 d0 fc 39 10 5b 62 bd 08 ed 71 bd
       0.06964372 0.00048220874 -0.055262625 -0.05906394
0001d0 cb e6 56 bd bc 0e 0e 3d 17 b1 22 be 20 64 8e bd
       -0.052466195 0.03468202 -0.15887867 -0.06952691
0001e0 3b f3 a4 bd d8 3f 89 bd d6 49 05 3c 51 f3 6d 3c
       -0.08054205 -0.0670163 0.00813528 0.014523343
0001f0 15 dd b8 bd 5e 54 b6 bb b2 e1 f1 3c eb a8 80 3d
       -0.09026543 -0.0055642566 0.029526565 0.062822185
000200 21 d1 cf bd e7 3a 07 be 14 8e 92 3d 3c 8f 8e 3a
       -0.1014731 -0.13206063 0.071560055 0.0010876427
000210 b0 c8 f4 3c 90 b1 4f be 4f a9 46 be 27 09 b3 3d
       0.029880852 -0.20282578 -0.19400524 0.0874198
000220 d7 64 65 bd 04 62 56 3d 86 5d 43 3a fe 38 af 3d
       -0.05600437 0.05233957 0.0007452596 0.08555792
000230 d6 a4 e0 bd e6 4e 1c 3d 5d 39 d7 bc 89 dd c8 bc
       -0.1096894 0.03816118 -0.02627247 -0.024519699
000240 a5 ec 2b 3d ac 11 9b bd d3 64 67 bc 7d c2 85 3d
       0.04197373 -0.0757173 -0.014123159 0.06531236
000250 a1 66 d0 3d f7 4f b2 3c 9d 60 05 3d 68 a0 51 3e
       0.10175825 0.021766646 0.03256284 0.20471346
000260 f9 e8 32 bd 83 75 dc ba aa fa c8 bd 25 42 c3 bd
       -0.04367921 -0.0016819689 -0.098134354 -0.095341004
000270 cf 9b e2 3b 7d 11 e6 bd 4c ef 54 bd 63 9c 7a 3d
       0.0069155465 -0.112338044 -0.051986024 0.0611843
000280 86 b2 b1 bd 20 e2 80 be 3d 4a e3 3c 5d de b3 bd
       -0.08676629 -0.2517252 0.02774536 -0.08782647
000290 14 56 89 3d 1e a5 0e bd 80 1e ae bd 7f cc ab 3d
       0.06705871 -0.034825437 -0.08501911 0.08388614
0002a0 98 dd 50 be fa c1 5e bd b8 57 f1 bc ab 7e 7d bd
       -0.20397031 -0.05438421 -0.029460773 -0.061888378
0002b0 51 8e 96 3c a3 be 87 3d 44 6f 1a bd 69 67 ba bd
       0.018378409 0.06628158 -0.037703767 -0.09101755
0002c0 f5 3d 64 bd 22 0e db 3d 96 58 63 bd 89 ad 1e 3e
       -0.05572315 0.10696055 -0.055504404 0.15495886
0002d0 48 22 9e bd 7e c9 49 3d a2 85 02 bc 21 9d 7b bc
       -0.077213824 0.049264424 -0.007966431 -0.015357287
0002e0 86 79 d5 bd b4 51 b3 3c 6d e7 6c bc c5 89 b3 bd
       -0.104235694 0.021889545 -0.014459473 -0.08766512
0002f0 b0 07 c9 be 93 7e 82 3d 47 64 52 3c b7 65 24 be
       -0.39263678 0.06371798 0.012841291 -0.16054426
000300 0f f1 8a bd 5c 86 ab 3b 42 6f 0f 3c a0 5d 8c bd
       -0.067842595 0.0052345227 0.008754553 -0.06853795
000310 a9 05 87 3d 20 3b b3 3c 75 bc 11 3d 67 ea c0 3c
       0.065928765 0.021878779 0.035580117 0.023549272
000320 25 f9 3b 3d 08 fc 7e bb 29 d6 c7 bd 94 80 83 3d
       0.0458919 -0.0038907547 -0.09757645 0.06421009
000330 bc 77 3d 3d f5 fd 8e 3d d5 5a c5 bd 4f de bc bb
       0.046256766 0.06982032 -0.096364655 -0.005763806
000340 ca 4e b8 bc 6e 27 c6 bc e2 7d c7 3c 83 85 99 be
       -0.022498507 -0.024188723 0.024352018 -0.29984674
000350 a1 fb e2 3c 63 b6 06 3d b1 ca 7a bd 9b 56 c8 bd
       0.027707877 0.03288878 -0.061228458 -0.09782144
000360 c3 31 5b be 34 84 d9 bc c0 8a d4 3d 03 22 9d 3d
       -0.21405701 -0.026552297 0.10378027 0.07672503
000370 15 e1 6e bd 31 e3 a4 3b c4 6c 34 bd 7f 79 73 bc
       -0.058320124 0.005031966 -0.04404904 -0.01486051
000380 1d 0f c0 ba 0b 4d 86 be 7c bf 8e bc a9 5c b9 bd
       -0.0014652942 -0.26230654 -0.017425291 -0.09050877
000390 2f 55 11 3e 2a f6 44 bc 5d a6 48 3d 71 2f be 3c
       0.14192651 -0.012021581 0.04898678 0.023215981
0003a0 d8 52 04 3d 04 3a 4e 3d be 41 14 3c 18 ae fb 3c
       0.03230557 0.050348297 0.009048877 0.030722663
0003b0 08 0a 72 bd fb 2c b5 bd 8b 27 4c 3d 67 19 14 bd
       -0.059091598 -0.0884647 0.0498424 -0.036157038
0003c0 86 19 92 bb 88 28 0e 3c 50 92 99 3d 9d f8 90 be
       -0.004458609 0.008676656 0.0749861 -0.28314677
0003d0 9e 67 d5 3d c6 b2 9a 3b f3 98 85 be 68 16 b6 be
       0.10420154 0.0047210185 -0.26093253 -0.3556397
0003e0 df a9 03 3e cd 81 90 bd 89 c1 57 3d 87 31 86 bc
       0.1285777 -0.070560075 0.052674804 -0.016381038
0003f0 09 70 e3 bb 4c 16 a2 bd 76 2d 7b bd 5d 90 8d be
       -0.006940846 -0.07914409 -0.06132265 -0.27649203

ts_layer.lins.0.weight f4 [128, 128]
000000 de c8 48 3d 7f 59 ee 3c 72 5b 76 bd b7 98 96 3d
       0.049019687 0.02909541 -0.060145803 0.07353347
000010 3f d1 05 be 5b b7 d6 bd a7 9c b4 bd fd 7b 4b bd
       -0.13068102 -0.10484191 -0.088189416 -0.04967879
000020 8e 04 61 3c 5d 79 73 bd 28 4f 27 3d bc e0 86 3d
       0.013733996 -0.059441913 0.040846974 0.065858334
000030 2b 86 29 bd 22 34 93 bd e2 4e a3 3d 74 08 3e 3b
       -0.04138772 -0.07187678 0.0797403 0.0028996738
000040 82 a0 a5 3d c4 4d b3 3d b6 b7 4a 3b 56 4c c1 3d
       0.08087255 0.08755067 0.0030932254 0.09438388
000050 eb 90 51 bd 33 9e 66 3d ba 4a e4 bd 01 9f 66 bd
       -0.051163595 0.056303214 -0.111470655 -0.05630398
000060 f3 5a 82 3b f7 61 cd 3d b9 7c 3a bd 28 18 38 bd
       0.003978127 0.10028451 -0.0455291 -0.044944912
000070 b1 05 2d bb 40 4c 9d bd 1b 44 cb 3c 4e 4f df 3d
       -0.0026401097 -0.07680559 0.024812749 0.10903798
000080 89 4b 90 3d d0 40 44 3d be 4b 44 3b f3 21 b2 3d
       0.07045657 0.047913373 0.0029952372 0.086978815
000090 06 c0 42 bd 1d f3 8e bd b7 0f 8e 3c c7 05 99 bd
       -0.04754641 -0.06979964 0.017341478 -0.07471805
0000a0 85 10 73 bd b8 b7 e9 3b 10 01 fb 3c f8 64 e2 bd
       -0.059341926 0.0071324967 0.030640155 -0.110544145
0000b0 43 57 47 3d 20 c8 0e be 7a dc a9 bd 82 2d 63 be
       0.048667204 -0.13943529 -0.08294006 -0.22185329
0000c0 62 5b 87 3d cb 2c 9c bd 74 00 a1 bd 3f 36 a6 bd
       0.06609227 -0.07625731 -0.078614146 -0.08115815
0000d0 e9 be e6 3d f6 02 8a bd 71 26 0a 3c 50 04 01 bc
       0.11266882 -0.06738846 0.008432017 -0.007874563
0000e0 52 e0 21 bd 05 b6 93 39 d2 43 1e be 47 5b 94 bd
       -0.03952057 0.0002817364 -0.15455559 -0.07243972
0000f0 65 c1 ac 3d 4c 3d 3b 3b eb 10 44 3d f0 83 d5 3c
       0.084353246 0.0028570471 0.047867697 0.02606389
000100 53 f7 2b bd c6 f7 a6 3d a7 14 4a 3d 2c 67 c0 bd
       -0.041983914 0.08152728 0.0493361 -0.093946785
000110 3d 8d 35 3d d1 10 5f 3b 4a 2d 61 3d 26 e3 1d bd
       0.04432415 0.0034037123 0.05497483 -0.038546704
000120 f6 0d 6d 3d 4b 48 18 3d 59 54 30 bb 85 a6 41 3c
       0.057874642 0.03717832 -0.0026905744 0.0118194865
000130 be 2e f4 3c 6d 66 92 3c 8a 1b 76 3d 13 7f 29 bd
       0.029807445 0.017871106 0.060084857 -0.041380953
000140 48 cd 59 3d 1a 7e ca 3c 09 68 77 3d ac c9 02 be
       0.053174287 0.024718333 0.06040195 -0.12772244
000150 bc 69 35 bd f6 81 54 bd 45 31 db bd 2a 44 46 3d
       -0.04429029 -0.051881753 -0.10702757 0.04840485
000160 50 3f 94 bd 2b 50 dd 3d fe 1d a1 3c 5f c9 6a 3d
       -0.072386384 0.108063065 0.019667622 0.05732095
000170 67 9e 90 3c cd 7f 94 bc 68 bd 89 bd 08 53 bb bc
       0.017653657 -0.018127346 -0.067255795 -0.02286674
000180 a3 ed 6a bd 15 64 2e bd 30 94 25 3e 6b 5c b8 bb
       -0.057355534 -0.042575914 0.1616981 -0.0056262515
000190 4c d9 1c bc 9d f9 84 3c c8 fa 4c 3d 8c 01 e1 bc
       -0.009573292 0.016232306 0.05004385 -0.027466558
0001a0 18 18 e7 bc 16 4b 8a 3d 14 5f 39 3e 43 62 db bd
       -0.028209731 0.06752603 0.18102676 -0.10712101
0001b0 20 2f 15 3d 23 6d 8d 3d a4 1b 27 bc 24 c8 3a 3c
       0.036421895 0.06905582 -0.010199461 0.011400256
0001c0 5b 4d 89 3d 52 ee c6 3a da 81 3f 3d ea a2 f7 bd
       0.067042075 0.0015177226 0.046754695 -0.1209162
0001d0 1e 1d ed 3b 57 1c d3 3d 3e a6 e6 bd 0d ca 4f 3d
       0.007236137 0.1030814 -0.11262177 0.0507298
0001e0 38 9b 08 3c 03 05 a0 3d 83 eb 0d bd 08 0a 87 bb
       0.008337788 0.07813456 -0.03464843 -0.004121069
0001f0 a6 3e 90 bd 89 ad 8b bd cb 9d 7d bd 68 da d4 bd
       -0.07043199 -0.068202086 -0.06191806 -0.1039322
000200 64 90 eb 3c bb b3 28 3e 1b 1c c1 bc 33 3e 30 3b
       0.028755374 0.16474812 -0.023572972 0.0026892542
000210 61 26 ab bd 74 80 13 bd 87 69 ec 3b 7d 1e 6e bd
       -0.083569296 -0.036011174 0.0072147283 -0.058134545
000220 42 ea 33 3e 8e 64 94 3d 04 54 ee 3b e9 d4 49 bd
       0.17569831 0.07245742 0.007273199 -0.049275313
000230 fd a8 03 bd 3e 22 c9 bd 04 db 6b 3d e4 c8 55 3d
       -0.03214358 -0.09820984 0.057581916 0.052193537
000240 3d 6f b2 bb f1 18 df b9 e6 a5 93 bd 09 cd 8b 3d
       -0.0054453895 -0.00042552457 -0.07209377 0.06826217
000250 2d 1c 9f bc 15 85 a7 3c c2 a5 1f bd 00 d1 51 3d
       -0.019422615 0.0204492 -0.03897644 0.05122471
000260 5b 82 91 bd ba a7 0c bd 44 61 b8 bc 4e 83 03 3e
       -0.071049415 -0.034339644 -0.022507317 0.12843058
000270 ca cf 31 3e 63 3f 84 3d 34 8e 88 3c 31 0b c5 3d
       0.17364421 0.064574026 0.01666937 0.09621275
000280 4e 7c 3a 3d 31 50 94 3c 42 f3 35 bd 2e 43 32 3e
       0.045528702 0.018104644 -0.04442144 0.1740844
000290 20 6c 54 bd 70 6d 88 3d 6d c2 ab bc 7d f4 99 bd
       -0.05186093 0.066614985 -0.020966733 -0.075173356
0002a0 04 50 85 bd 97 e8 08 bd 73 0f 41 3d 15 c5 bf bc
       -0.065094024 -0.03342494 0.047133874 -0.023409406
0002b0 84 c5 42 3d 59 32 bf 3c f4 79 ae bb 83 b3 be bc
       0.047551647 0.023339437 -0.0053245965 -0.023278957
0002c0 27 65 29 3c 96 43 df bd 60 2a b8 3d 4e 87 31 3c
       0.010339058 -0.10901563 0.089924574 0.010835482
0002d0 f5 df d7 3d db 4e 89 3d 7e a2 8b 3c f7 c6 92 bc
       0.10540763 0.067044936 0.017045256 -0.01791714
0002e0 69 44 9d bc 2c c3 86 3d bb 57 24 3e b2 2b 38 bd
       -0.01919766 0.06580195 0.16049092 -0.044963546
0002f0 5d a6 26 bd 03 bf 19 3e a6 26 90 3d ae b1 3b 3a
       -0.040686 0.15014271 0.070386216 0.000715996
000300 cb f8 e6 bb a3 c2 6c bd cb bb aa 3d 3d 4b 9e bd
       -0.0070487014 -0.057802808 0.083366 -0.07729194
000310 65 a9 32 3e c0 9e 81 3d bb 24 b1 3b 2e 1d 9e bc
       0.17447431 0.06329107 0.00540599 -0.019301023
000320 b8 5e bd bc e8 d6 5f bd af 23 45 3a cc 53 e8 3b
       -0.023116454 -0.05464831 0.0007520271 0.0070900675
000330 53 36 13 b8 2b 88 95 3d 54 15 dd bb f6 78 60 3d
       -3.5098124e-05 0.073013626 -0.0067469273 0.054802857
000340 0f 65 df bb 2d f3 26 3d 3d f7 96 bd fb 91 10 3d
       -0.006817467 0.040759254 -0.07371376 0.035295468
000350 49 12 c0 bb f9 94 93 bb 93 62 71 bd 3a 8c 97 3d
       -0.0058615548 -0.004503843 -0.0589319 0.07399793
000360 88 af 3c bd f8 44 2f 3d 8d 87 6e 3d 3b da 9e bd
       -0.046065837 0.042790383 0.05823474 -0.07756468
000370 c2 02 47 bc 88 68 33 bb 39 1a 56 bd 76 dc 37 bd
       -0.012146654 -0.0027375538 -0.0522711 -0.044887982
000380 f5 0b f3 3c 23 b6 96 bd 11 fc 11 3c df c2 39 3d
       0.029668787 -0.073589586 0.008910195 0.04535186
000390 f1 d2 89 bc ed b2 e2 3c aa a5 18 bd 13 fa 50 bd
       -0.016824218 0.02767321 -0.037267365 -0.05101974
0003a0 c0 2c aa 3d 7b 98 c0 3d 0f 0b 6a 3e f5 e8 0b bc
       0.08309317 0.09404083 0.22855781 -0.008539428
0003b0 b5 45 72 bd 4a ee d0 bd 02 f2 b4 bc 0d 96 30 3d
       -0.05914851 -0.102017 -0.022088055 0.04311185
0003c0 86 9c 09 3e 11 64 00 bd fe 4f 46 3e d7 85 e0 bb
       0.13438615 -0.03134543 0.19366452 -0.0068518925
0003d0 80 b6 64 3d 4a 91 c1 bd 68 43 4a 3e b6 2c 8d bd
       0.055838108 -0.0945154 0.19752276 -0.068932936
0003e0 30 f2 2c 3b 25 3d ef ba e9 47 18 3a d8 36 8f 3d
       0.0026389472 -0.0018252475 0.00058090553 0.069928825
0003f0 92 43 9a bd 97 3d 76 3d 62 93 83 bd 82 27 69 bd
       -0.07532419 0.06011733 -0.064245954 -0.056922443

ts_layer.lins.1.weight f4 [128, 128]
000000 ed 32 56 bd 9b df 9b bd 09 ca e7 bc 97 8e 55 3d
       -0.05229466 -0.07611009 -0.02829458 0.052137937
000010 6c c4 e3 bc b2 88 9f 3d e8 c4 e3 3c 10 53 a0 3d
       -0.027803622 0.077897444 0.027803853 0.07828343
000020 11 6d 8c bd 3c a6 99 3d 24 80 0f 3d 20 2a 4f 3d
       -0.0685674 0.0750241 0.035034314 0.050577283
000030 00 ab ae 3c 4d 5d 62 bc 48 a1 0c bc a3 80 42 bd
       0.021321774 -0.01381619 -0.008583374 -0.04748596
000040 4d 24 71 bd 1d 37 b2 3d ca db 65 3d 49 3d 44 3d
       -0.05887251 0.08701918 0.05611781 0.04791001
000050 e1 72 aa 3d 9a 02 0e bd 43 2b 77 3d 5d 7e 4e 3d
       0.08322693 -0.03467045 0.060343992 0.05041348
000060 6c 4f 06 bb 31 02 82 bd 9a 59 3e 3c d6 a9 2d 3c
       -0.0020494116 -0.06348074 0.011618042 0.010599574
000070 96 63 a7 bd f4 c2 4e bd 8f 53 09 bd dc 68 01 3d
       -0.081732914 -0.05047889 -0.033526953 0.031594142
000080 19 5c 95 3d 0d 14 68 bd 07 92 8a bd 05 40 b0 3d
       0.07292957 -0.056659747 -0.06766134 0.08605961
000090 5d f6 9e bd d5 d4 1d bd 0e 63 0c 3d aa b7 69 bd
       -0.07761834 -0.03853305 0.034274153 -0.05705992
0000a0 94 17 22 3d b0 d1 b2 3d e4 c7 13 bd b5 ac 2b 3d
       0.039573267 0.08731401 -0.036079302 0.041912753
0000b0 b0 33 e3 bb 10 16 68 3d 41 46 95 bd 06 9c 51 bd
       -0.006933652 0.056661665 -0.072887905 -0.051174186
0000c0 76 47 70 3d 63 1d ad 3b 36 06 50 3d 36 4c a1 bd
       0.0586619 0.005283044 0.050787173 -0.07875864
0000d0 49 fe 71 bd 78 16 29 3d fc d1 4b 3c 39 d0 81 3d
       -0.059080396 0.041281193 0.012440201 0.063385434
0000e0 79 31 b2 bd 8d e0 7a 3d e7 87 14 bd 72 3d ac bd
       -0.087008424 0.061249305 -0.03626242 -0.08410157
0000f0 e3 e7 8b 3c ae a5 23 bd 85 de 86 3b 37 03 93 bd
       0.017078346 -0.039952926 0.004115882 -0.071783476
000100 fc 02 82 bb 05 f1 66 bc 6a 13 ed 3b c1 0c c1 3c
       -0.003967641 -0.0140955495 0.0072349804 0.023565652
000110 f9 a4 93 3d 89 b2 3f 3d 69 80 a2 bd c2 51 48 bd
       0.072092004 0.046801124 -0.079346485 -0.048906095
000120 1c a4 90 3d 26 93 b1 3d f8 87 a4 bd bf f1 82 bd
       0.070625514 0.086706445 -0.080337465 -0.06393766
000130 07 87 2e 3c c2 54 9c bd 34 3d 88 3d 87 71 1b bd
       0.01065231 -0.07633354 0.066522986 -0.037950065
000140 85 7d 6a 3d 98 cf 56 3d a6 b4 d6 bb 88 8a 34 3c
       0.05724861 0.05244407 -0.0065522967 0.011019357
000150 0a 2d cd 3c 0e 39 13 bd 8d 79 8c 3d 58 a2 16 bd
       0.02504589 -0.035943083 0.068591215 -0.036775917
000160 c5 ea 9f 3d 32 48 b4 3c d0 2b b2 bc 3e ce 76 3d
       0.078084506 0.022007082 -0.021749407 0.06025528
000170 66 1b b5 bc 78 c0 2a bd 4a ef 63 3d 3b ec 7a bb
       -0.022107791 -0.04168746 0.055648126 -0.0038287777
000180 42 74 86 bd b1 9b a5 3d 8c c4 1f 3d 73 e1 32 bd
       -0.06565143 0.080863364 0.0390058 -0.043672036
000190 56 0b 48 3d a4 49 6b 3d f4 11 f2 bb 4f 26 9f 3d
       0.048838936 0.057443276 -0.007387394 0.07770979
0001a0 58 b2 16 bd 71 ec 54 bd 20 bf 1a bb 81 a4 99 3c
       -0.036791176 -0.0519833 -0.0023612455 0.0187552
0001b0 24 56 a1 3d 5c 36 a3 3d fe d0 ec 3c 80 23 4c 3d
       0.07877758 0.079693526 0.028908249 0.049838543
0001c0 e2 76 74 bc 87 ca 05 bc ee 99 8f bd ce 3e e2 bc
       -0.014920922 -0.008165962 -0.07011782 -0.027617838
0001d0 52 cf 27 bd 12 3e 74 3d df 3a e2 39 1f 2d 37 bd
       -0.0409692 0.059629507 0.00043149941 -0.044720765
0001e0 fb 6d 0a bd 3d e4 46 bd b5 3a fd 3c 4a 79 46 3c
       -0.03379629 -0.04855751 0.030911783 0.0121138785
0001f0 de 80 99 3d bc 74 5e bd 35 65 d6 bc cf 6b ad 3d
       0.074952826 -0.054310545 -0.026171306 0.084678285
000200 1a 1c e0 3c 86 1f 95 bd fb 40 5a 3d a4 75 a5 bd
       0.02735715 -0.07281403 0.053284626 -0.08079079
000210 1c c1 47 bd 3d 8f 6f bd 54 5f a3 bd f6 db 40 3b
       -0.048768148 -0.058486212 -0.07977167 0.0029427982
000220 29 76 f7 3c 23 86 9b 3d a0 de fd 3c 1f 5c ab bd
       0.03020771 0.07593944 0.030989945 -0.0836718
000230 68 63 84 bc 80 ab 8a 3c d8 ca 87 3d 00 54 70 3d
       -0.016160682 0.01692748 0.06630486 0.05867386
000240 73 eb 9b 3c 8a a6 36 bc 64 31 a1 bd 2f 71 b0 bd
       0.01903317 -0.011148104 -0.07870749 -0.08615338
000250 0b fb af 3d 8f dd 2e bd 7e 74 2f 3d ee 05 68 3d
       0.085928045 -0.042691763 0.042835705 0.05664628
000260 a5 ed 84 3d 28 8e a6 3d 66 f1 2d bd 97 7b 20 3d
       0.064906396 0.08132583 -0.042466544 0.039180364
000270 d3 6e 91 bd 01 7f 50 bd be a4 93 3d 1a 2f 95 3b
       -0.07101216 -0.05090237 0.072091565 0.004552734
000280 06 0b 83 bd 2c ea 8c 3d 0c 12 75 3c 03 32 bc ba
       -0.06398587 0.06880602 0.014957916 -0.0014358166
000290 7b 01 4e bd 3e 81 64 bd 80 74 6f bc fa 97 41 bd
       -0.05029438 -0.055787317 -0.014615178 -0.047264077
0002a0 71 c3 88 bd d7 ec 19 3d 7f 55 6b 3d 2e 19 00 3d
       -0.066779025 0.037579384 0.057454582 0.031274013
0002b0 50 25 50 3c 1e 74 44 3d b2 9d 9d bd 32 99 2d bd
       0.0127042085 0.0479623 -0.076960936 -0.042382427
0002c0 f2 e8 35 bc fa 7c 21 bd 33 c8 d7 3c d2 29 06 3d
       -0.011102902 -0.039425828 0.02634058 0.032754727
0002d0 1b de ad 3d 01 a2 1a bc 76 78 c0 bc 7c cd ac 3b
       0.08489629 -0.009438039 -0.02349494 0.005273519
0002e0 93 5c 61 bd ef a2 8d bd 76 5b 4c bd 5e 36 96 3d
       -0.055019926 -0.06915843 -0.04989191 0.073345885
0002f0 c1 87 3d 3d db a3 73 bc 2d 8e b2 bd d7 6a 2a bd
       0.046272043 -0.014870609 -0.08718524 -0.041605797
000300 42 35 6d 3d 12 81 4e bc 3b 82 11 bd 26 a5 5e bd
       0.05791212 -0.012604015 -0.035524588 -0.054356717
000310 5e 7f 48 bd 9b c8 55 bd 4c 17 16 bd cb 7f b8 bc
       -0.04894959 -0.052193265 -0.03664331 -0.022521874
000320 f9 0d 87 bd f0 06 a6 3d ae 01 89 bd 7a 13 d5 bc
       -0.06594462 0.08106792 -0.066897735 -0.026010264
000330 2a 06 9c bd 63 cc c4 bb d9 23 ab bc 05 35 59 bc
       -0.07618363 -0.00600581 -0.020891117 -0.01325727
000340 79 74 1c 3b cc 01 8f 3d 64 1f 04 bd 9f 3a 70 3d
       0.0023873134 0.069827646 -0.0322565 0.058649655
000350 8b e9 ce 3b 38 a2 9a 3d 60 0e aa 3d d9 b3 48 3d
       0.0063144616 0.07550472 0.08303523 0.04899964
000360 92 f1 4f bd 48 a5 a7 3d e4 74 25 3c 82 52 83 3b
       -0.05076749 0.08185822 0.01009867 0.0040076384
000370 40 cc a5 bd 74 93 1c bc 39 3a 64 bd 5f 9a 7e 3d
       -0.08095598 -0.00955664 -0.055719588 0.06215894
000380 82 ae 42 3d 21 f7 cb bc 50 e8 d1 bc f9 49 81 bd
       0.047529705 -0.024898114 -0.02562347 -0.06312937
000390 20 45 b0 3c 1f be 9b bd 6c 84 34 bd c8 ca 91 bd
       0.021517336 -0.07604622 -0.0440716 -0.071187556
0003a0 e1 cd 8c 3d 4b 1a 51 bd 0a 0b 41 3d 95 2e 26 bd
       0.06875206 -0.051050466 0.04712967 -0.040571768
0003b0 b3 bc aa 3c 3d 1b cb 3c e1 ce 71 bd c1 3d 3d bd
       0.020841932 0.024793262 -0.059035186 -0.04620147
0003c0 b8 b6 80 bd 22 e8 82 bd 1f 90 a3 3c 60 46 60 3c
       -0.06284851 -0.06391932 0.019966183 0.013688654
0003d0 4c 9a 06 3d 22 bd 1b bd 39 bc 1c 3d 0b 4c f3 bc
       0.032861993 -0.038022168 0.03826544 -0.029699346
0003e0 66 17 2d 3d ab e5 02 3d 03 56 91 3b 35 ff d1 bc
       0.042258643 0.03195731 0.004435302 -0.025634388
0003f0 f4 63 ff 3c de 0b bd 3c d5 e3 88 3d fd 7f 3d 3d
       0.031175591 0.023076948 0.066840805 0.046264637
