models/hyperparameter_optimization/initial_test/augment/Set15/architecture_pool_heads/input_architecture_pool_heads_3/GNN.pth (torch, 994184 bytes, 18 tensors)

input_layer.weight f4 [128, 8]
000000 a5 a7 77 3e ad f2 95 3e a3 a1 a9 bd 7c 6a 86 3e
       0.24185045 0.2928671 -0.08282783 0.26253116
000010 df a5 9e bd 0c 04 25 bb a6 42 30 be 79 9e 54 3e
       -0.07746481 -0.0025179414 -0.17212924 0.20763578
000020 d0 9d a6 3e 06 cd 84 be e0 66 3b 3e 29 ee 01 3e
       0.32542276 -0.2593767 0.18300962 0.12688507
000030 c2 62 7e 3e 75 83 16 bb 95 51 0c 3e 67 77 4c bd
       0.2484236 -0.0022966538 0.13702996 -0.04991856
000040 dc a1 8c 3e 27 b5 08 3d 9c 03 29 be e5 e0 d7 3d
       0.2746724 0.033375885 -0.16505283 0.10540942
000050 f2 cd 26 be 48 d4 29 bd 86 0b 13 be 7b 2a 70 3e
       -0.162895 -0.041462213 -0.14359865 0.23453705
000060 2a e4 8e be 50 e7 26 be 0e 76 cc bd 13 af 59 be
       -0.2790845 -0.16299176 -0.09983455 -0.21258192
000070 be c3 0a 3c fd c9 b2 be 79 65 b7 3e 2a c5 99 be
       0.00846952 -0.3491973 0.35819605 -0.30033237
000080 9c 8f 98 3e a2 df 8f 3c 77 1c eb bd 31 08 35 3e
       0.29797065 0.017562691 -0.114800386 0.17678906
000090 12 e1 c9 3c b5 03 4c 3e 5d 6b 86 3c c5 5a e4 bd
       0.024643455 0.19923289 0.016408617 -0.111501254
0000a0 ba 73 28 bb da 5a c4 bd 1d e8 91 3d ae d6 90 3e
       -0.0025703744 -0.09587641 0.0712435 0.28288788
0000b0 79 a6 47 3e fb 45 1e be 7c cf 2c 3e 72 8e 81 3d
       0.19497098 -0.15456383 0.16876024 0.063259974
0000c0 4c 5d b4 3c 16 aa 5c be 4c 31 b3 be a1 e0 0b be
       0.022017144 -0.21549258 -0.34998548 -0.13659908
0000d0 91 d8 8a be c5 ed 90 3e 39 ed db 3d 19 f6 15 3e
       -0.27118352 0.28306404 0.10738606 0.1464466
0000e0 90 ae 12 3e 57 89 c9 bb 69 f8 81 3e e0 9d 80 be
       0.14324403 -0.0061504054 0.25384834 -0.2512045
0000f0 29 8d 3c bb 1f 1b 77 be 76 cc 98 3d 02 5c f9 bd
       -0.0028770661 -0.2413144 0.07460873 -0.12175752
000100 db 75 bf 39 f8 da 96 bd 5c 78 93 3e bd 94 56 be
       0.00036518168 -0.07365984 0.28802764 -0.20955177
000110 4c eb 57 be a3 ee 57 be ca c4 cd 3e b1 4c f1 3d
       -0.21085852 -0.21087126 0.401892 0.11782206
000120 4c 16 a7 3e 16 64 95 be 7b 8c b3 be 7b 9f 8d be
       0.326342 -0.29177922 -0.35068116 -0.27660736
000130 1a 8a 73 be cd 31 71 3b 38 e8 63 3d d3 69 96 3e
       -0.2378315 0.0036803365 0.055641383 0.29377612
000140 49 f7 3a be 58 ce 76 be 82 60 08 3e 70 56 12 be
       -0.18258394 -0.24102151 0.13318065 -0.14290786
000150 98 c0 66 3e f2 d2 ab bd 48 52 5e 3e 6f a5 8c be
       0.22534406 -0.08389844 0.21711075 -0.27469966
000160 e6 b3 36 be 42 e1 b4 3d 31 4f 48 3d 1f 9c b8 bd
       -0.17842063 0.08832027 0.048903648 -0.09014153
000170 60 5b 63 3e 0c 57 4e 3e 39 45 83 be eb 47 41 be
       0.22202826 0.20150393 -0.2563875 -0.18875091
000180 4d 6f b9 3e c5 53 f4 bd 40 59 00 be 41 27 af be
       0.36217728 -0.1193004 -0.12534046 -0.34209636
000190 2a 54 4f be 85 95 3b b9 83 25 3f bd 3f 66 83 be
       -0.2024695 -0.0001788941 -0.046666633 -0.25663945
0001a0 36 bf b7 bb 4a 4d 77 be 82 93 99 be 75 5c 47 be
       -0.005607511 -0.24150577 -0.29995352 -0.19468863
0001b0 29 6e 9e be 18 86 66 be 3e 3c dc 3e 94 c2 88 3d
       -0.3094342 -0.2251209 0.4301471 0.06677738
0001c0 af c1 f6 3d 7a d5 a8 be 0b c7 6d be 6b 03 f1 bd
       0.12048661 -0.3297537 -0.2322046 -0.1176823
0001d0 78 05 a7 3c 64 48 9f be 22 fe 1b be bd bd 58 be
       0.02038835 -0.31109917 -0.15233663 -0.2116613
0001e0 12 e2 a3 bb 3b b7 06 be b4 b3 c8 bc 02 54 75 be
       -0.005001315 -0.13155834 -0.024499752 -0.23957828
0001f0 68 80 78 be c9 36 53 be 8d d9 f7 bd 07 e0 8e be
       -0.24267733 -0.20626368 -0.121020414 -0.27905294
000200 fa fa 69 3e 0c b4 8f bd 75 bd 96 3e 1a c3 c2 bb
       0.22849646 -0.07016763 0.2944142 -0.005943668
000210 60 49 99 be 3b cc 71 3e e3 39 c7 bd 63 c7 0a be
       -0.29938793 0.23613064 -0.09727838 -0.13552622
000220 41 42 96 be 59 f6 b3 be b8 6b 11 3d 96 2b 9e bd
       -0.29347423 -0.35148886 0.03550312 -0.07723157
000230 a9 a5 dc 3d 53 8e 94 be a7 7a 8d 3e bf e0 84 be
       0.10773785 -0.29014835 0.2763264 -0.25952718
000240 c6 0e 7a bd 50 cc 7e ba a3 b5 11 3e 6c e7 ff 3d
       -0.061049245 -0.0009719776 0.14229445 0.12495312
000250 d9 69 95 3e c4 88 8f be 40 2d 8c 3d e4 b8 1b be
       0.29182318 -0.2803403 0.06844568 -0.15207249
000260 1d b2 1e bd be 7d 87 be c1 2f a5 3e f6 db 84 be
       -0.03874408 -0.2646312 0.32262996 -0.25949067
000270 18 d2 24 3e b7 46 33 3e 82 72 36 3e 1e bc 43 be
       0.1609577 0.17507444 0.17817119 -0.1911473
000280 63 e7 9c 3e c0 59 6b 3d a7 8a 96 bb 2f 86 9f be
       0.30645284 0.05745864 -0.0045941654 -0.3115706
000290 a1 42 e4 3d c7 40 59 bd d4 db 25 be 66 7c 9b 3e
       0.11145521 -0.053040292 -0.16197139 0.30368346
0002a0 a0 13 51 3d b5 4e 48 be eb 3d 37 be ba 50 8a bc
       0.051044106 -0.19561274 -0.17894714 -0.016884197
0002b0 4c c1 51 3e b8 06 b9 bd f7 91 4e be 83 f4 f7 bd
       0.20483893 -0.090344846 -0.20172869 -0.12107184
0002c0 28 3c 87 be 28 7f 05 3d b2 b3 7e 3e 3d 6b aa be
       -0.26413083 0.03259197 0.24873236 -0.3328494
0002d0 eb 0f ec 3c 88 66 74 3e 0a d8 78 3d 4f ee 00 be
       0.028816184 0.23867238 0.060752906 -0.12590908
0002e0 e7 0b 0a 3e ef a0 38 3e 48 98 c7 3c c6 78 7e bd
       0.13481103 0.18030141 0.024364606 -0.062126897
0002f0 91 bc bf bd b0 8e 5f 3a 8d d2 7f bd 9b c6 d7 bd
       -0.09362138 0.0008528037 -0.062456656 -0.10535928
000300 14 7e 8e 3e 84 c2 a9 3e 0d 5d 0f bd 5f 1e a2 bd
       0.27830565 0.33156216 -0.03500085 -0.07915949
000310 ac 5e 0a bb fc ee ac bc cc b2 65 bc 2b e9 ca 3d
       -0.0021113558 -0.02111005 -0.014019679 0.099077545
000320 7b 69 a4 be 1e 9b 05 be e0 fe ae 3e f6 08 6c 3d
       -0.32111725 -0.13047454 0.3417883 0.057625733
000330 2e 0e 90 bc 73 46 5a be 42 7f 5d be b0 26 a2 be
       -0.017584886 -0.21315937 -0.21630576 -0.3167014
000340 a2 05 ec bd 88 71 5c bc eb 32 39 3e bc 42 1c 3e
       -0.11524512 -0.013454802 0.1808583 0.15259832
000350 ce 02 a0 be 6a b7 59 be fd 8a 64 bd e5 1b af 3e
       -0.3125214 -0.21261373 -0.055796612 0.3420097
000360 2c 75 0d 3d cd 83 bb bd 5e c0 3d 3e d3 e4 09 be
       0.034535572 -0.091559984 0.18530414 -0.13466196
000370 e2 54 6a be 60 43 9a 3e a0 9e 24 be 47 27 91 bd
       -0.22883943 0.30129528 -0.16076136 -0.0708757
000380 2d 14 b4 be 65 03 27 3e 18 44 61 3e 6e ab 80 3d
       -0.35171643 0.16309889 0.21998632 0.062826976
000390 b3 70 7c be bb a7 b2 be 25 05 93 be 75 fc 86 3e
       -0.24652366 -0.34893593 -0.28714862 0.26364484
0003a0 ac 0b f2 3d 36 42 8f 3e 56 6c af 3d 67 f6 96 3d
       0.118186325 0.27980202 0.08565585 0.07371216
0003b0 b3 e6 62 bb 92 aa 89 be a3 17 9b be f2 50 a9 be
       -0.003462237 -0.26887947 -0.3029147 -0.3306957
0003c0 77 d3 18 3e d8 bf 31 be f1 b8 91 bd eb 5a 50 be
       0.14924417 -0.17358339 -0.07115353 -0.20347182
0003d0 a7 f1 83 bd c1 d0 7e be ce 8f 6c be 2d 2f f0 3d
       -0.06442576 -0.24884321 -0.23101732 0.11727748
0003e0 73 31 d7 bd 80 b2 91 3e 55 4a e8 bd 34 ca 84 be
       -0.105074786 0.28456497 -0.11342303 -0.2593552
0003f0 c7 82 7f bd 4f 7f 2f be 7e 86 dd bd 61 54 ac be
       -0.06238058 -0.17138408 -0.10816668 -0.33658126

conv_block.0.lin_l.weight f4 [128, 128]
000000 8b e3 29 3d 05 19 9b bd 5b 09 b4 3d d7 95 f1 bb
       0.041476768 -0.075731315 0.08790847 -0.0073725986
000010 ca ce 95 3c 4c d2 8f 3c be 80 02 3e d2 b8 28 3c
       0.018287081 0.017556332 0.12744424 0.010297971
000020 f8 1d 9f bd c6 0c 8a bd 13 97 28 be 4b 3e c5 bd
       -0.07769388 -0.067407176 -0.1646388 -0.09631022
000030 29 42 d4 3d af 39 02 bd 3b 79 93 bd 80 d0 2a bc
       0.103641815 -0.031793293 -0.07200857 -0.010425687
000040 8e 5c 6f 3d 96 5e c8 bd d8 ec dd bd 28 cc 92 bd
       0.058437876 -0.09783666 -0.1083619 -0.07167846
000050 1d 5a 82 3d 79 bc ab bd d1 1d db 3d 97 32 ab 3c
       0.06364844 -0.08385558 0.106990464 0.020898147
000060 42 0c c7 3d b1 7a cd bd 78 8e 11 3d 60 cf 2b 3c
       0.09719135 -0.10033167 0.03553626 0.010486454
000070 f9 b3 88 3d 5a 97 6e bc a8 ea c9 bb fa 5f a4 bd
       0.06674952 -0.014562452 -0.0061620064 -0.080261186
000080 7d 3b fb bd 4b 77 29 bd 67 2d 7b bd 91 47 8f 3d
       -0.12267206 -0.041373532 -0.061322596 0.06996072
000090 25 92 24 3d a4 9b 8a 3b 59 62 d6 3d d6 3b 28 bd
       0.040178437 0.0042299796 0.10467977 -0.04107269
0000a0 24 e8 50 bd 54 75 f1 bd d5 56 3f 3d 9f d3 35 bd
       -0.051002637 -0.11789957 0.04671367 -0.04439127
0000b0 7d c4 c7 bd 47 86 dd bc 3c 43 4f bb 44 79 de bc
       -0.09754274 -0.027041567 -0.0031625768 -0.027157433
0000c0 7a 82 c3 bd a0 df 42 3c ca 08 15 3d 6d f0 d6 3b
       -0.09546371 0.011894137 0.036385335 0.0065594227
0000d0 cd e9 93 3d a6 e5 ae 3d c8 1b 10 bd 6e 25 c8 bc
       0.07222328 0.08539896 -0.035182744 -0.02443191
0000e0 a2 f4 be 3d 72 11 b7 bd 90 98 05 3d 98 42 5a ba
       0.09324004 -0.08938874 0.032616198 -0.0008325963
0000f0 58 8d b7 3d bc 55 b3 3c 74 ad 25 3d 91 5b 16 3d
       0.08962506 0.021891467 0.04044862 0.03670842
000100 1f 93 1a be 60 23 15 be d6 9c b3 3d f0 f3 c4 ba
       -0.15095185 -0.14564276 0.087701485 -0.0015026312
000110 1e a1 c7 bd 30 9d b3 bd ea 10 9c 3d 4d 40 c2 3d
       -0.097475275 -0.087702155 0.076204136 0.09484921
000120 8c d6 77 3b 69 74 03 bd f6 08 99 bd 5c 3b 79 bd
       0.003781709 -0.03209344 -0.07472412 -0.060847625
000130 72 04 5a 3d 4f cb 2b bd da e8 d9 bc 65 b3 0d 3d
       0.053226896 -0.041941937 -0.02660029 0.034594912
000140 33 97 af bc bc 99 4d bd 1c 11 d0 3a 4c 87 bb bd
       -0.021434402 -0.05019544 0.001587424 -0.09156665
000150 3c a2 41 bc 0b 34 02 3e 81 0e e6 3d 8d 85 9d 3b
       -0.011818465 0.12715165 0.11233235 0.0048071803
000160 fb 2d 7f 3d 93 63 c5 bd e5 dd 6c bd 50 e9 45 3d
       0.06229971 -0.09638133 -0.057828803 0.048318207
000170 43 5d 20 bd 79 9f c2 3d fa e2 98 3d d0 61 95 3d
       -0.03915144 0.09503073 0.07465167 0.07294047
000180 5a b5 44 3d b2 23 ef bd 0c 9d e1 3d b0 7c a3 bc
       0.048024513 -0.1167673 0.110162824 -0.019956917
000190 1a 30 d5 3c 11 30 b7 3d 31 5f 1f 3c 25 fd 6e bd
       0.026023913 0.08944715 0.009727285 -0.058346886
0001a0 45 e5 be bd 87 6b 3f 3d a1 b0 01 bc e9 fd 59 bb
       -0.093210734 0.046733405 -0.007915647 -0.0033262915
0001b0 e8 ef 33 bd 7a 91 39 3c 2e cc c6 bc 72 2f 13 3d
       -0.043929964 0.011326188 -0.024267282 0.03593392
0001c0 6f ab d3 3c e4 e3 01 3e b8 71 a5 3d 3c 75 28 be
       0.025838582 0.1268459 0.08078331 -0.16450971
0001d0 c2 48 85 bd 93 34 bb 3d 2a d2 d0 3d b1 53 a8 3d
       -0.06508018 0.09140887 0.101963356 0.08219088
0001e0 dd 8f e4 3d 0d 37 e5 bd a3 0e 92 3c c7 9f 97 bd
       0.11160252 -0.11192141 0.017829245 -0.07403522
0001f0 22 15 fd 3c e2 84 8e 3c 8c 24 c5 bb f6 a6 de bc
       0.030893866 0.017397348 -0.0060163196 -0.027179223
000200 42 d6 63 3c 66 4f 0b 3d b5 5b 8c bd 2c f6 ea bb
       0.0139060635 0.034011267 -0.06853429 -0.0071704593
000210 dd da 9e bc 97 31 4c 3d f6 39 96 bc 68 6c 75 bd
       -0.019391472 0.04985198 -0.018338185 -0.059917837
000220 f2 fe 2e 3d 30 47 36 bd 10 6a 8f bc 1e e9 14 bd
       0.042723604 -0.044501483 -0.01750663 -0.03635513
000230 51 3c 01 3d ff a5 05 bd ae 5b bd 3c 06 3c 5c bd
       0.031551663 -0.03262901 0.023115005 -0.05376818
000240 0c 3b 89 bc dd 2a 94 3d 21 07 7f bd 72 6a cb bc
       -0.016751789 0.07234738 -0.062262658 -0.02483103
000250 a7 4f 3e bc 3b b2 4e 3b 60 85 40 bd ae 3b cb 3c
       -0.01161567 0.003153934 -0.047002196 0.02480873
000260 a8 75 04 bd 86 c6 86 3b 4f 24 94 3d d9 58 90 3d
       -0.03233877 0.0041130213 0.07233488 0.07048196
000270 19 0d 11 bd 4a 96 69 bd 0b fd 70 bd c4 ca c4 bc
       -0.03541288 -0.057028092 -0.05883507 -0.024022467
000280 10 3d 2e bb 1a 03 91 3c c3 35 24 bd 8d 5b 2e 3d
       -0.002658669 0.017701674 -0.040090334 0.04256778
000290 0c 45 1f bc 53 88 43 3c 0c 0f 98 3d 40 8b fb bb
       -0.009721052 0.011934358 0.07424745 -0.007676512
0002a0 c4 ab e4 ba af 32 0a bd 66 37 5c 3d 37 06 b6 bd
       -0.001744621 -0.033739742 0.05376377 -0.08887904
0002b0 8f ce 4a bd d3 e5 c3 3a c9 d0 38 3d 81 8e cc bd
       -0.049513396 0.0014945812 0.045120988 -0.09988118
0002c0 e4 10 c5 bc 1c 03 32 3c 19 12 88 3d 1d 98 ef 3c
       -0.024055906 0.010864999 0.06644077 0.029247338
0002d0 76 f7 8c 3d 36 20 b5 bc 2c e3 c0 bd 2d 72 a9 b8
       0.06883137 -0.022110086 -0.094183296 -8.079815e-05
0002e0 b4 ef 5b 3d 33 15 07 bc bc 32 af 3b 0a 26 a6 3d
       0.053695396 -0.0082448 0.005346624 0.08112724
0002f0 71 db b3 bd 56 1d fa 3b d7 cd 96 3c 9d 0c 36 3c
       -0.087820895 0.0076328916 0.018408699 0.011111406
000300 42 92 00 bd 95 ed 42 bd ab 2e 2b 3d 2f 33 9e 3c
       -0.031389482 -0.047589857 0.041792553 0.019311516
000310 3a 8e 97 3c 20 e7 5e bc 7d 31 85 bd 7c e1 cd 3c
       0.018500436 -0.013604909 -0.0650358 0.025131933
000320 ef 7a 6e bd 07 1b 85 bd a4 38 59 bd 56 9a a7 bd
       -0.058222707 -0.06499296 -0.053032532 -0.08183734
000330 aa 63 a3 bd 41 9b 68 bc b6 be ba bd 05 81 68 3d
       -0.07977994 -0.014197172 -0.091184065 0.056763668
000340 cb 52 99 bd c2 53 af 3c d4 f5 0b 3d 75 14 2d bd
       -0.07486495 0.021402244 0.034169987 -0.042255837
000350 4f 96 4b 3c a6 a6 9e 3d 65 4f ba bd 7f 93 bc bb
       0.012425973 0.077466294 -0.090971746 -0.0057548876
000360 a6 6e 5b 3d 4f 11 9d 3d 55 87 79 3c 6e 44 83 3d
       0.05357232 0.07669317 0.01523002 0.06409536
000370 07 f4 61 bd 41 09 87 3d 6b 24 27 ba 3b 3b 93 bd
       -0.055164363 0.06593562 -0.0006375971 -0.07189032
000380 02 b9 32 3d b8 7c 76 3d 2c f7 b1 bd 15 75 28 3d
       0.04363347 0.060177535 -0.086897224 0.041127283
000390 9e 02 71 3c ab eb 8e 3d a3 68 bc bd f9 c2 09 3d
       0.014710097 0.06978544 -0.09199645 0.033633206
0003a0 b9 33 a7 3d 00 24 03 bd 1f 54 a3 3c 17 14 b0 bd
       0.08164162 -0.032016754 0.019937573 -0.08597582
0003b0 1d df 3a 3c 2a b9 92 bd 25 e4 be bd fc de e5 3c
       0.011405733 -0.071642235 -0.09320859 0.028060429
0003c0 57 37 14 3d 8c 6f 2a 3d 6d e8 73 3d 9c 5d 0c bd
       0.03618559 0.041610286 0.05954783 -0.03426896
0003d0 5e 0a 9a bd e1 7c 28 3d 08 5e 78 3d 5c 99 97 bd
       -0.07521509 0.04113472 0.06063655 -0.07402298
0003e0 13 51 b8 bd 30 e1 82 bd 09 f8 7b bd 37 32 45 3d
       -0.08999839 -0.06390607 -0.06151584 0.04814359
0003f0 e4 0c bf bd 77 22 d2 3c 79 9e 14 3b 90 df 91 bd
       -0.093286306 0.0256512 0.0022677465 -0.07122719

conv_block.0.lin_r.weight f4 [128, 128]
000000 47 4e 0f 3d e3 a7 a7 bd 86 e7 0c 3d ed de d2 3c
       0.03498676 -0.08186319 0.034400485 0.025741065
000010 f1 55 c2 3d ff 40 31 bd d4 02 5e 3d f0 8d 83 bc
       0.09489048 -0.043274876 0.054201916 -0.016058892
000020 a5 cb 11 be cb 10 f6 bc 18 1e 9c bd 55 0c c1 bd
       -0.1423784 -0.030037304 -0.076229274 -0.0942618
000030 1d ef c6 3d 97 43 5d bd 41 63 39 bc b3 38 5f bd
       0.09713576 -0.054019537 -0.011315168 -0.054497432
000040 c4 48 39 3d d1 65 be bd 46 75 98 bd e1 3e 0a bd
       0.04523541 -0.09296764 -0.07444243 -0.033751372
000050 5c 95 5a bd 53 e4 c5 bc 4d 11 a0 3d e7 55 a6 3d
       -0.053365096 -0.024156725 0.078158 0.08121853
000060 34 d8 bb 3c 92 ff c4 bd 4c 13 df ba b7 6a 4a bd
       0.022930242 -0.09619059 -0.0017019301 -0.049418177
000070 75 9a a6 bd c1 4f 26 bd 99 b0 c3 bc cc bb 2a 3d
       -0.08134929 -0.040603403 -0.02388792 0.041683003
000080 91 c1 b8 bd d3 cd 35 bc 69 c6 99 3c db a9 3e bd
       -0.09021295 -0.011096436 0.018771367 -0.046548706
000090 1d 76 95 bc 4b 9e 0f 3d 4a fc a7 bd ac 14 20 3d
       -0.018244797 0.03506307 -0.08202417 0.039082214
0000a0 37 d7 56 bd f1 22 09 be 6c eb 94 bb 14 86 2d bd
       -0.05245134 -0.13392235 -0.004544666 -0.042364195
0000b0 17 16 20 3c fe ad 20 bd 03 0c 65 bc 7d 75 b7 3c
       0.009770892 -0.039228432 -0.013979915 0.02239489
0000c0 9c a4 5b 3d 78 d3 ab bc 92 38 af 3c ff 1d 31 3d
       0.05362378 -0.02097486 0.02138928 0.043241497
0000d0 3e c1 3a 3a e2 44 be 3c 7c a3 0d 3d 5e b6 c4 bd
       0.0007124132 0.023226205 0.03457974 -0.09605096
0000e0 29 60 da bc f3 90 b4 3d 3d 2d 6d 37 4d 65 28 bb
       -0.02665718 0.08816709 1.4136834e-05 -0.0025695146
0000f0 03 76 e3 bd 64 f9 53 bd b3 b9 04 3c 67 20 15 3c
       -0.11106493 -0.05175151 0.008100915 0.009101964
000100 40 3a 63 3c e5 49 a6 bd e9 a8 b9 3c 0a 13 ac bd
       0.013868868 -0.08119563 0.02266355 -0.08402069
000110 12 a4 26 bd 7d e0 5f 3d cb a3 21 3d ba b1 c6 bd
       -0.040683813 0.054657448 0.039462846 -0.097018674
000120 24 1c 10 3d cd 1c d8 3c 61 d5 9d bd be 86 af bd
       0.035183087 0.02638092 -0.077067144 -0.08570622
000130 fd 6f 5c 3d fc fd 99 39 ed 03 fe 3b 40 7d 2c 3d
       0.053817738 0.00029371667 0.007751933 0.042111635
000140 5c 54 41 bd b8 39 c3 bd d1 c6 de bd 76 2f b1 bc
       -0.047199592 -0.09532493 -0.10877765 -0.021629076
000150 6e 79 07 3d f2 1f 1c 3c 08 f2 a7 bd 02 53 1f 3d
       0.03307479 0.009529101 -0.08200461 0.03889752
000160 1a 0e 4f 3c 5c 77 ad bd 2d dc 54 3d 4f e5 bd 3c
       0.012637639 -0.084700316 0.05196779 0.023180632
000170 e2 0b ad 3c ad 76 06 bd 89 07 15 3d 5f 03 92 3b
       0.02112383 -0.03282802 0.03638414 0.0044559683
000180 18 c5 87 3d 52 7e 5d 3d 74 25 51 bc 79 ef a7 3d
       0.066293895 0.054075547 -0.012765277 0.08199973
000190 26 22 44 bd 3f d4 c4 bc d4 b9 80 3c 4b ba c4 3b
       -0.04788413 -0.024026988 0.01571361 0.006003653
0001a0 1a 87 67 bc 42 de 87 3d 67 84 ac 3d 08 6e 97 3c
       -0.014131332 0.06634189 0.08423691 0.018485084
0001b0 aa 41 2a 3d 74 34 e4 bd a8 23 b9 bd a3 67 44 3c
       0.04156653 -0.11142817 -0.09040004 0.0119876
0001c0 6f 70 1a 3d a2 bc c5 3c 3f 28 3b 3d 1e f8 4e 3c
       0.03770488 0.024137799 0.04569268 0.012632398
0001d0 c6 3c 3c bd 0a 1e 39 bc 3f 9f 55 bd c2 3f bb bc
       -0.045956396 -0.011298666 -0.052153822 -0.02285755
0001e0 ed 8a 22 bd e8 42 da bd 08 27 a3 bc a5 ba f7 bd
       -0.03968327 -0.106572926 -0.019916072 -0.120961465
0001f0 03 09 4e 3d 11 4c a3 bd dd 75 9a bd 55 90 fb bc
       0.050301563 -0.07973493 -0.07542012 -0.030708471
000200 e8 6d aa bd 57 d0 17 bd 66 b0 7b 3d 07 b1 98 bd
       -0.08321744 -0.037063923 0.061447524 -0.0745564
000210 4b 17 5e 3d 33 d8 75 bd 11 cb ab bd fc 76 d7 3c
       0.054221433 -0.060020637 -0.08388341 0.026301853
000220 02 d6 88 3c 55 55 43 3d 61 3a ff 3c a6 ff 34 3d
       0.01670361 0.0476888 0.031155767 0.044189118
000230 b8 a1 b0 3c e0 34 45 bb ea 80 61 3d 32 36 97 bd
       0.021561489 -0.003009133 0.055054583 -0.07383384
000240 b6 60 c5 bd 8c 38 27 bd 52 c8 94 bd 32 1f 7f 3d
       -0.09637587 -0.04082541 -0.072647706 0.06228561
000250 f1 3f fc 3c 16 a0 a0 3d e6 4f 5b bd 64 99 8d 3d
       0.030792208 0.07843034 -0.053542994 0.069140226
000260 56 ae af bd 4f ec 7c bd 11 88 9d 3d 26 80 25 bc
       -0.08578174 -0.0617488 0.07691968 -0.010101354
000270 8d e2 f6 3b 09 d7 3b bd 12 46 90 3c 4f 04 cc bc
       0.007534331 -0.04585937 0.017611537 -0.024904398
000280 99 dc 79 3d 1e 17 20 3d 49 03 61 bc f4 02 0c bd
       0.061001394 0.039084546 -0.013733693 -0.034182504
000290 45 aa 8b bd f2 24 e5 3c db a4 22 3c 5f 59 9b bd
       -0.06819586 0.027971718 0.009927 -0.075854056
0002a0 45 1b 02 bd 73 04 c9 3a 1a 64 73 3d 16 f2 39 bd
       -0.031764288 0.0015336409 0.059421636 -0.045396887
0002b0 72 0f c9 bb 24 d7 76 bd ee cd 96 3d 04 49 40 bd
       -0.0061358744 -0.060263768 0.07363497 -0.046944633
0002c0 76 25 fe bc e1 d7 52 3d cd 00 76 3d 55 89 1e 3d
       -0.031023722 0.05147541 0.060059357 0.03870519
0002d0 18 fd a2 3d 2f 2d 94 bd eb 05 3e bd 60 ea a2 3d
       0.0795843 -0.072351806 -0.046392363 0.0795486
0002e0 7c 03 96 3d 47 33 9c 3d 48 64 9d bd 06 63 ca 3c
       0.07324883 0.07626968 -0.07685143 0.024705421
0002f0 4c ae 98 3d c3 91 15 3d ba 8e 62 3b 5c 29 83 3d
       0.074551195 0.036515962 0.0034569935 0.06404373
000300 6a 05 8d 3d 75 e9 41 3d 8e fe cd 3c 2c 12 af bd
       0.06885798 0.047341783 0.025145795 -0.08548388
000310 d6 a2 c3 bd cd 3b 9d 3c 10 82 a7 bd 50 da 8c 3b
       -0.09552543 0.019193554 -0.08179104 0.004298486
000320 47 56 1b bd 3b 36 b5 bb c1 fe 29 bd be 85 46 3d
       -0.037924077 -0.0055301464 -0.041502718 0.04846739
000330 fe c0 8a 3d f2 fe af bd eb e2 9d 3d 73 cb 9d bd
       0.067750916 -0.08593549 0.07709297 -0.077048205
000340 57 d9 87 bd db 57 e3 3c ee d2 c3 bc cd 68 a4 bd
       -0.06633251 0.027751854 -0.02390429 -0.08027802
000350 f0 7a 67 bd 40 df 9b 3d 73 d4 8c bd 05 3d 27 bd
       -0.056513727 0.07610941 -0.06876459 -0.040829677
000360 f6 77 7f bd a6 6e df 3c 7c 0b 42 3d 7e 69 11 bd
       -0.062370263 0.027274441 0.047374234 -0.035500996
000370 d0 85 94 bb b7 fe f3 ba 71 08 94 bd 1d b1 7b 3c
       -0.0045325533 -0.001861534 -0.072281726 0.015362051
000380 df f0 9c 3c 9e 64 76 3d c3 c2 ad 3d 5c b0 6d bd
       0.019157825 0.06015455 0.084844135 -0.058029518
000390 2f d0 fe bc 48 4e 10 bd 1e 61 8a bd 17 23 1f 3d
       -0.031105129 -0.035230905 -0.06756805 0.038851824
0003a0 ef f2 09 3d 6d cf d2 bc 6e 49 4f 3d 00 7b 6d bc
       0.033678945 -0.025733674 0.050607137 -0.0144946575
0003b0 92 1f 19 3d 38 d1 08 3d cf e6 bb bd 80 6d 28 bc
       0.037383623 0.03340265 -0.091748826 -0.010280013
0003c0 06 b6 1c 3d 24 59 01 bd b4 86 bf bc df 71 14 3d
       0.03825953 -0.03157915 -0.023379661 0.03624141
0003d0 e4 59 8b ba d3 8a 5b bd cf 70 70 3d 6d 4a 1a 3d
       -0.0010631648 -0.05359919 0.058701333 0.037668634
0003e0 b9 56 96 3c fa 0d 8d bd d7 11 8f bd 38 08 a6 bc
       0.0183519 -0.068874314 -0.069858246 -0.02026759
0003f0 40 bc 9f 3b 77 f7 79 3d 3c e8 66 3c 4b 17 d6 bb
       0.004874736 0.061027016 0.014093455 -0.0065335385

conv_block.1.lin_l.weight f4 [128, 128]
000000 a7 ef 86 bc 4d 67 b7 3d 72 13 67 bd 73 cd 96 bd
       -0.016471697 0.0895525 -0.05641503 -0.07363405
000010 28 c5 f1 3b 0b c2 91 3d 15 75 54 3d a9 a6 a1 3c
       0.007378239 0.07117089 0.05186947 0.01973279
000020 6f c8 c2 bc d0 5b b9 3d 49 5f 7c bd b4 03 24 be
       -0.023777215 0.09050715 -0.06161431 -0.16017038
000030 d3 db 2e bc c6 96 2d 3d 77 85 25 3d 9a 1e 0c 3d
       -0.010672527 0.042380117 0.040410485 0.03420887
000040 b0 a2 6f 3d da 69 ee bb 32 f2 85 bd d5 97 5b 3d
       0.05850476 -0.007275802 -0.06540336 0.053611595
000050 07 3a 9b bd 5b 1c 8f 3d f1 2f 05 be 14 64 4c bb
       -0.07579427 0.0698783 -0.1300657 -0.003118758
000060 69 74 a3 3d 39 a3 48 b9 bd b9 91 bd 62 24 3e bd
       0.07981188 -0.00019134292 -0.07115505 -0.046421416
000070 c4 3f 44 3d af 42 70 3d aa 72 6d bd b7 9a b5 bd
       0.047912374 0.058657344 -0.05797068 -0.088674
000080 50 ee 6e bd ed 8a 32 3d 25 e3 26 bb 79 97 3e 3d
       -0.05833274 0.04358952 -0.0025464979 0.046531174
000090 bd 07 e6 bd 8c 1d 43 3d 42 a8 fe 3c 6d 29 82 3d
       -0.11231945 0.0476356 0.031086091 0.063555576
0000a0 3a 69 15 bd d2 84 86 bc b4 a4 87 3d 31 63 35 bd
       -0.036477305 -0.016420756 0.066232115 -0.04428405
0000b0 f0 2c a3 ba 40 a2 fa 3b cc 29 af bb 52 93 0d bd
       -0.0012449306 0.0076487362 -0.0053455587 -0.034564324
0000c0 a7 24 c3 3b 39 92 52 bd bd 1c ae 3d 4b c2 31 bd
       0.005955297 -0.05140898 0.08501575 -0.043398183
0000d0 d6 9f 01 bc 14 9a 91 3c 29 25 b7 3d 93 49 24 be
       -0.007911643 0.017773665 0.089426346 -0.16043691
0000e0 7f 3e a3 3c 56 5d c6 3c 64 d2 ac 3d 54 d2 4c bc
       0.019927261 0.024214428 0.08438566 -0.012501318
0000f0 b6 48 f4 bc 86 7d a2 3c 20 f4 e4 3d c8 5f d3 bb
       -0.029819828 0.019835245 0.11179376 -0.006450627
000100 23 c0 94 bd 38 8a 9b 3c 24 2b 0e 3d 2d be 71 3d
       -0.0726321 0.018986806 0.03470911 0.059019256
000110 80 b8 d7 bb d0 70 a1 bd 3c ed ba bd 39 40 85 3d
       -0.0065832734 -0.078828454 -0.0912728 0.0650639
000120 c9 ab b4 bd 90 f7 14 bd 6f 82 a6 bd f3 70 ed bd
       -0.08821828 -0.036368906 -0.08130347 -0.11593809
000130 28 52 9f 3d 8a 1d e9 bc c0 8c ee 3b 57 b7 f6 3b
       0.07779342 -0.028456468 0.0072799623 0.00752918
000140 fc a1 1f 3d e5 97 c5 bd 48 5b 5a bd f9 6b d7 bd
       0.03897284 -0.09648112 -0.05330971 -0.10518641
000150 57 89 91 3d 18 c4 3e bd 76 8f 93 bd 05 7f 83 3d
       0.071062736 -0.04657373 -0.072050974 0.064207114
000160 98 6c 4d 3d 77 ca d5 bc dd fa 1f bc 66 1b 81 3d
       0.05015239 -0.02609752 -0.0097644 0.06304054
000170 d1 00 94 bc 31 e5 bb 3d f5 f4 94 3c b5 88 69 bd
       -0.018066796 0.09174574 0.01818321 -0.05701514
000180 f4 60 5b bd a9 99 60 bd c9 3c 8c bd ad 19 fd bd
       -0.05355926 -0.05483404 -0.06847531 -0.12358413
000190 bd ee e9 bc 51 a1 1f bd b5 d1 24 3d e2 3c b4 bd
       -0.028556222 -0.038972203 0.040239055 -0.08800675
0001a0 45 02 97 bd 74 eb 9b 3d 64 ad 66 3d 40 7c ee 3c
       -0.0737348 0.076132685 0.056317702 0.029111981
0001b0 e9 af 85 bd 88 11 31 bd ec 9e bc 3c 2d a0 26 3c
       -0.06527693 -0.04322961 0.023024999 0.010170025
0001c0 ca 65 09 be f4 73 08 3d ff 93 0f 3d da 16 38 be
       -0.13417736 0.033313707 0.03505325 -0.17977467
0001d0 56 8b f7 3c a8 d0 ff bd 0e a6 fc bc 01 ca 05 bc
       0.030217808 -0.1249097 -0.0308409 -0.008165837
0001e0 87 b0 9f 3c 2b 12 ad 3c 20 8e 8c bd c1 94 ef bc
       0.019493354 0.021126827 -0.06863046 -0.029245736
0001f0 2a e7 55 bd 22 dd a1 bd fe d5 89 3d 3a 8c 1f 3d
       -0.05222241 -0.07903506 0.06730269 0.03895209
000200 d1 da 2d 3d a7 b3 b5 bd cc 47 ae 3c 82 fe 23 3d
       0.042445008 -0.088721566 0.02127447 0.04003764
000210 bb a7 ac bd 01 2e b3 bd ba 54 99 3d 90 cc 7a 3d
       -0.084304295 -0.08749009 0.074868634 0.061230242
000220 41 c6 39 3d 69 d1 1f 3c 31 a3 ae 3c 53 23 61 bc
       0.045355085 0.009754517 0.02131805 -0.013741332
000230 95 ef 5b bd 2f d4 a6 3d ca 23 2f bc 2b 17 91 bd
       -0.05369528 0.081459396 -0.010689685 -0.07084497
000240 4b f2 27 be bd 56 67 3d 79 ff a9 3d 4c 60 9a 3c
       -0.16401021 0.056479204 0.08300681 0.018844746
000250 8c 39 38 3d ea ec 95 3d c6 87 4b 3c 2f 1a a6 3c
       0.044976756 0.073205784 0.012422508 0.020276157
000260 06 eb ac bd 2d 55 37 bd 35 61 04 3d 21 f1 17 bd
       -0.08443265 -0.044758964 0.032319266 -0.037095193
000270 5a 2f 3c bd 78 44 37 3d 33 ac 1b 3d 13 4d 60 bd
       -0.045943595 0.04474303 0.03800602 -0.054761004
000280 57 3e cd 3c 1b e3 86 3d 12 71 86 bd 99 4d 32 3d
       0.02505414 0.06586286 -0.06564535 0.043531034
000290 da 6d 00 3d 75 f3 7d 3d 12 7d 45 bc 91 fc 32 bd
       0.031354763 0.061999757 -0.012053745 -0.043697897
0002a0 3b 9f 2a 3d 79 a5 83 bd 8e 6a 27 3d 9d 58 a9 bb
       0.04165576 -0.06428046 0.040873103 -0.005168034
0002b0 1a 8d 10 3c 69 a5 80 3d e3 91 9a 3d 81 d1 84 bc
       0.008822704 0.062815495 0.07547357 -0.01621318
0002c0 9c 36 e1 bc 3c 7d cf bd 96 09 c7 bd e9 1d bd ba
       -0.02749186 -0.101313084 -0.09718625 -0.001442847
0002d0 fa 9c 66 bd 0e 38 85 bd cb 42 17 bd 61 38 a8 bd
       -0.05630205 -0.06504832 -0.036928933 -0.082138784
0002e0 4d e1 7b bd e9 08 7f 3d 39 03 25 3c 09 f9 48 39
       -0.06149416 0.062264357 0.010071569 0.00019166259
0002f0 68 99 93 bd f1 d9 a8 bc 79 03 00 3e d7 64 12 3d
       -0.07206994 -0.020611735 0.12501325 0.0357407
000300 a7 b2 41 3c 3d 1e ec 3a 15 a1 ba 3b d9 2b 68 3d
       0.011822379 0.0018014383 0.005695472 0.05668244
000310 cb 6a ea 3b fd d8 57 3d f3 af 50 3d 29 00 4d bb
       0.007153844 0.05269717 0.05094905 -0.0031280613
000320 bd 94 ad 3d 65 2f 3a bd ec 19 a3 3c e3 86 92 bd
       0.08475635 -0.045455355 0.019909821 -0.07154634
000330 79 25 42 bb 3a f8 a8 bd d8 95 eb 3c 28 a2 e9 bb
       -0.0029624386 -0.082504705 0.028757975 -0.0071299262
000340 b7 41 99 bd 9b b5 11 3d 0b 75 9c bb 4c 66 a1 bd
       -0.07483237 0.035573583 -0.004774695 -0.0788084
000350 c8 69 49 3d 8a 94 bc bd 90 14 6c 3d 23 77 b1 bb
       0.049173146 -0.09208019 0.057636797 -0.0054158135
000360 63 e1 96 bd db 5f 14 bc e3 61 1b 3d 65 f3 66 3d
       -0.07367208 -0.009056057 0.03793515 0.056384463
000370 a7 f1 77 bd ab 9b 79 3d cb 7e d5 3d ff 69 9a 3d
       -0.060533192 0.060939472 0.104245745 0.075397484
000380 e3 07 7a bd 0c c8 9c bd f9 37 a2 3d 65 10 bc 3d
       -0.061042678 -0.076553434 0.07920832 0.091828145
000390 2c 73 87 3d 61 e4 6d bd c4 13 a4 3d 7f 6f 97 3d
       0.06613764 -0.058079127 0.080115825 0.07394313
0003a0 6c 57 e5 3c 19 ab 35 3d be 54 40 bd 2c 1f cc 3c
       0.027995788 0.044352625 -0.046955816 0.024917208
0003b0 27 d0 70 bd 03 03 71 3d 89 fb 1e 3c 3d 4c b9 3d
       -0.05879226 0.058840763 0.009703525 0.090477444
0003c0 cb bf 1d bd 38 77 a0 3d 30 ee e4 3d 70 44 a1 bd
       -0.038512986 0.07835239 0.11178243 -0.078743815
0003d0 3d 8b 5f bd 4c aa 9d bd cd ee 1e bd c9 7b 84 bd
       -0.054576147 -0.07698497 -0.038801957 -0.06468923
0003e0 fb c1 3f bd 5c 3a 5a bd 9d 5b 84 3d 13 f1 5b 3d
       -0.046815854 -0.053278312 0.06462786 0.053696703
0003f0 8a 06 dc 3c fd a3 19 3d c7 8b 03 3d 8f 65 7b 3d
       0.026858587 0.037509907 0.032115724 0.06137615

conv_block.1.lin_r.weight f4 [128, 128]
000000 d4 69 22 be 8b 06 44 3d b2 21 c1 bd d5 16 1a 3d
       -0.15860683 0.047857802 -0.09430255 0.03761943
000010 c6 9c 44 bd cd 6c 33 3d ed 63 f9 3b 39 d3 83 3d
       -0.048001073 0.043804932 0.007610789 0.06436772
000020 25 c0 bf 3c 1d e8 48 3d cd 47 16 bd af ab c1 3d
       0.023407051 0.049049485 -0.03668957 0.09456574
000030 b7 05 a1 bd d4 c3 80 bd b1 b0 a0 bd 1f f7 12 3d
       -0.07862418 -0.06287351 -0.07846201 0.035880204
000040 f9 e5 b1 bd 8e f3 3b bc 2f 17 26 3c 50 76 88 bd
       -0.08686442 -0.011471642 0.010137363 -0.06663191
000050 0d 1d 30 bc ea bf 9a 3d a7 b3 2b 3d 41 a4 aa bc
       -0.010749114 0.07556136 0.041919377 -0.020830275
000060 5b 7f 27 3d 20 25 de bb 91 15 b5 bc 1a 82 5a 3d
       0.04089294 -0.006779328 -0.02210501 0.05334673
000070 55 60 82 3c 33 54 32 3c 75 22 8f 3d b8 81 62 3d
       0.015915075 0.0108843325 0.06988994 0.05529949
000080 5d ab 87 3d 23 b1 1a bd bc 50 f6 bd 55 09 af bc
       0.06624482 -0.037766587 -0.120271176 -0.021366755
000090 04 92 68 bc 5b 69 d5 3c c2 d8 7c bc 71 c1 85 3c
       -0.014194969 0.026051214 -0.015432538 0.016327592
0000a0 a5 cf a9 3a ce 84 c5 bc 9b f4 69 3d f8 de ab bd
       0.001295556 -0.024111178 0.05711804 -0.08392137
0000b0 56 cc 83 bc 41 56 77 bc 6f cd 3a 3d ed bc 1a 3d
       -0.016088646 -0.015096248 0.045606073 0.03777783
0000c0 0a 5c af bd c5 6f 58 bd 5e 7f b8 bd 38 4c 3c 3a
       -0.08562477 -0.052840967 -0.09008668 0.00071829883
0000d0 0c e1 53 3d 4d c4 9c 3c 76 81 9c bd 02 ef 8d bd
       0.051728293 0.019136572 -0.0764188 -0.06930353
0000e0 87 25 d0 bc 13 89 18 3d 54 73 b7 bc a5 8a 07 3d
       -0.02540852 0.0372401 -0.02239386 0.033091206
0000f0 c5 e8 1a 3d 92 62 67 3c 78 66 46 3d 3b 6a 4a bd
       0.037819643 0.014122622 0.048437566 -0.049417716
000100 a3 7b 0a bc 12 a4 a5 bd 69 2c 0c 3d 35 36 00 bd
       -0.008452329 -0.080879346 0.03422204 -0.031301696
000110 10 a1 83 3c 3e 9a 47 bd f0 a9 e6 3c be 09 65 bc
       0.016068012 -0.04873108 0.028157204 -0.0139793735
000120 bf 50 cc 3c 46 dc 88 bd 07 97 5e 3d 53 7c 56 bd
       0.024940846 -0.06682639 0.05434325 -0.05236466
000130 4f 60 dd 3b 55 6b ae bd 63 6d 10 3d af 7f b1 bd
       0.0067558656 -0.08516566 0.03526057 -0.08666932
000140 43 89 66 bd 46 7e 5a bb 69 39 d7 bd b5 eb a0 bc
       -0.056283247 -0.0033339425 -0.10508997 -0.019643644
000150 0b 96 45 3c 37 b7 e1 bc 06 e7 b1 bd 9e 0e 28 3d
       0.012059699 -0.027553184 -0.08686642 0.041029565
000160 0d 12 c4 bd b7 21 a1 3d 7e 0b 11 3b c0 28 d2 bc
       -0.095737554 0.07867759 0.0022132094 -0.025654197
000170 a8 12 26 bb 2c 80 16 bd ce bd 89 3c 75 09 9b 3c
       -0.002534071 -0.036743328 0.016814139 0.018925408
000180 21 65 a2 3d fb 82 ba bb 6d d2 b7 bd 25 da 1b bb
       0.07929445 -0.0056918836 -0.089756824 -0.0023781147
000190 a2 2b af bd e5 20 d3 bd 6f 0d 94 bd ff 2b 1d bd
       -0.08553244 -0.103090085 -0.07229125 -0.038372036
0001a0 d0 90 05 3d 44 b5 f3 bd 8c 3d ac bd 1c 7f f8 bc
       0.032608807 -0.11899808 -0.08410177 -0.030334048
0001b0 83 1d a5 bd 82 66 00 3e 80 19 88 3d e0 b1 8f 3d
       -0.080622695 0.12539104 0.06645489 0.07016349
0001c0 77 eb 63 3d 34 96 8b bb 6f cf 08 be 82 b6 48 bd
       0.05564448 -0.004259849 -0.1336038 -0.049002178
0001d0 80 54 51 bd 78 53 57 3c 1b 71 3e bd 2f 1f bf bd
       -0.051105976 0.013142459 -0.046494585 -0.0933212
0001e0 26 c7 99 bd 10 b5 82 bd 66 d2 67 3c 33 44 28 3d
       -0.07508688 -0.06382191 0.014149284 0.041080665
0001f0 93 80 a6 bd a6 71 77 3c 68 fd 07 3d 85 6b 35 3d
       -0.08129992 0.0151027795 0.03320065 0.04429199
000200 f1 cd 62 bd 73 f1 b8 bd 38 39 7d 3d d2 8a 39 bd
       -0.055372182 -0.09030428 0.061822146 -0.045298405
000210 af 6e 67 bb b5 c4 9b bd 55 ae a0 bd 58 db b2 3d
       -0.0035313775 -0.07605878 -0.07845751 0.08733243
000220 da ce f5 3c d0 bc 7a 3d 27 ce ac bd a3 ee cf 3d
       0.030005861 0.061215222 -0.08437758 0.10152938
000230 29 4b 80 bd 12 57 8f 3d 66 09 92 3d 18 47 c0 bc
       -0.06264336 0.06999029 0.07130699 -0.0234714
000240 4f 13 ac 3c 87 4b 6e bd f7 ad b3 bd e7 bd 99 3d
       0.0210053 -0.058177497 -0.087734155 0.07506924
000250 e0 2a a5 3d 54 be 41 3c 80 3a 28 3d b8 8d e6 3c
       0.080648184 0.011825163 0.041071415 0.028143749
000260 b5 98 0d bd 13 10 84 bc b0 6a 92 bd a6 fd 7d bd
       -0.03456946 -0.016120946 -0.07149255 -0.062009476
000270 a7 3f 00 bd 50 3f 4b bc 35 46 4e bd 96 35 bc 3d
       -0.031310704 -0.012405232 -0.050359923 0.09189908
000280 4e 26 16 bd 90 db 5d 3d 72 05 e9 3c 5d de b3 bd
       -0.036657624 0.05416447 0.02844498 -0.08782647
000290 8c b3 21 3c 6b b0 df bd 90 7f 9c bd ed 60 c1 3d
       0.0098694675 -0.10922321 -0.07641518 0.09442315
0002a0 ee 74 47 3b bb d9 9e bd 8d 9b 92 bc 3d 47 de bc
       0.0030434686 -0.077563725 -0.017896438 -0.027133578
0002b0 e4 6c 08 3d 65 e9 85 be e9 9a 10 bd 56 ce 18 3c
       0.03330697 -0.26154628 -0.035303984 0.009326538
0002c0 b7 e2 13 bd 53 6f 4e 3d 0d 24 01 be f4 a1 99 bc
       -0.036104884 0.050399136 -0.12611409 -0.018753983
0002d0 cb 22 cb bd 15 35 f1 3c ee 45 f4 bb ee b6 c1 bc
       -0.099187456 0.029444257 -0.0074546253 -0.023646798
0002e0 63 62 e7 bd 3d f4 17 bd 50 8c b4 3d 50 fb b3 bd
       -0.11298063 -0.03709816 0.08815825 -0.087881684
0002f0 ab 41 1b 3d d7 c3 ba ba 30 94 24 be c0 b7 07 be
       0.037904423 -0.0014249039 -0.16072154 -0.13253689
000300 51 de 74 bd 80 46 bc bb 42 6f 0f 3c 50 da 88 bd
       -0.05978233 -0.005745709 0.008754553 -0.06682265
000310 0b b2 0b 3d b3 91 a7 ba 77 54 1b 3d 04 a3 1c 3d
       0.034105342 -0.0012784511 0.03792235 0.0382414
000320 00 de 46 3d 08 fc 7e bb 2e c0 cb 3c e9 83 84 3d
       0.04855156 -0.0038907547 0.024871912 0.06470472
000330 bc 77 3d 3d 5c 5f 32 3d 9c c2 cc bd 87 9c a1 3c
       0.046256766 0.043547973 -0.09998056 0.019727958
000340 e2 79 94 bc 6c 53 8e 3c 78 05 65 3c a9 d9 8a bd
       -0.018124525 0.017373763 0.013978355 -0.06779797
000350 71 c5 3d 3d 83 a0 49 3d 41 82 87 bc 34 07 28 bc
       0.046330873 0.04922534 -0.016541602 -0.010255624
000360 16 6e ee bd 89 d1 33 bc 30 d0 b7 3d 03 22 9d 3d
       -0.11642091 -0.01097525 0.089752555 0.07672503
000370 6b 9c c7 bc b4 c1 47 3c 21 8f 62 bd f4 be cb bc
       -0.024366578 0.0121921785 -0.05531228 -0.024871327
000380 ac 5f 75 3d 61 40 31 3d 25 3d 35 3c d7 5a c8 3d
       0.059905693 0.043274287 0.011061941 0.09782951
000390 60 ef e2 bd 7c 63 41 3d ce f2 8d 3d 9a 79 db 3c
       -0.110808134 0.047214016 0.06931077 0.026791383
0003a0 b5 cc da 3c c3 a3 53 bc 88 22 ac 3d f1 33 08 3d
       0.02670894 -0.012917462 0.08405024 0.03325266
0003b0 7d a8 16 3c 9f a7 da bd dd e2 78 bb f9 f9 17 bd
       0.009195444 -0.106765024 -0.0037977018 -0.037103627
0003c0 06 6a 20 3c 2f fa 95 bc 6e c7 b3 3d b6 36 18 be
       0.009790903 -0.018307773 0.087782726 -0.1486462
0003d0 57 74 81 3c e5 92 21 bd bd 92 98 bd d0 4c b4 bd
       0.015802545 -0.03944673 -0.07449863 -0.08803713
0003e0 3e 77 ce 3d 23 60 79 bd 60 65 92 3c 95 5b 0a bc
       0.100813374 -0.0608827 0.017870605 -0.008444686
0003f0 f8 0e 43 3c 72 ca c1 bd ed e7 79 bd 37 d2 57 bd
       0.011905424 -0.094624415 -0.061012197 -0.05269071

conv_block.2.lin_l.weight f4 [128, 128]
000000 99 f2 4c 3d d7 5e f6 bc 6b 47 04 bd 89 a4 91 bd
       0.050036047 -0.03007452 -0.032294672 -0.07111461
000010 a8 b0 eb 3d b7 d0 10 3c b5 dd ce bd 7f 89 47 bd
       0.11508304 0.008838824 -0.10100881 -0.04871511
000020 56 7c 41 bd 95 ac 49 3d df b6 7d bd 8b f6 9e 3d
       -0.047237717 0.049236853 -0.061941978 0.07761868
000030 54 28 1c bd 8a 09 bc ba 63 9f ae bc 46 4c 3b 3e
       -0.038124397 -0.0014346105 -0.021316236 0.18290815
000040 0c 9f 50 bd 9e 1d a6 bd e7 1c 7a 3d 36 d6 ab 3d
       -0.05093293 -0.08111118 0.06106272 0.08390467
000050 17 4d 1b bd e2 d5 91 3d 4a 08 01 be ac 58 72 bc
       -0.037915315 0.07120873 -0.12600818 -0.014791649
000060 85 71 8e bd 18 ff f6 3c 90 18 7c bc e8 d9 a9 bd
       -0.06955246 0.030150935 -0.0153867155 -0.082935154
000070 4d 71 10 bd f0 83 52 3a e2 08 b0 bd 1e 8e 92 bd
       -0.035264302 0.00080305245 -0.08595444 -0.07156013
000080 ab b9 3e bd 67 36 c6 3c e6 94 ef bc 55 be 88 3c
       -0.046563786 0.024195863 -0.029245805 0.01669232
000090 27 56 1d bd a3 21 5d 3d 5e d8 8c bc d7 ef a8 bd
       -0.03841224 0.053987157 -0.017193016 -0.08248871
0000a0 17 8b 9b bd b2 d4 fd 3a be e3 91 3c 46 64 a9 bd
       -0.07594889 0.0019365756 0.017808791 -0.08271079
0000b0 d9 e4 a9 bc 0d fe 0f 3e 02 db 15 bd 55 86 cb 3c
       -0.020739006 0.14061756 -0.036585815 0.024844328
0000c0 dc 39 be bc 2a ab cc 3d b5 b3 3b bd d7 af 25 bd
       -0.023220949 0.099935845 -0.04582568 -0.040450897
0000d0 73 c4 83 bd 95 79 ae 3d e1 72 87 bd 24 05 7b bc
       -0.06433954 0.08519284 -0.06613708 -0.01532105
0000e0 06 ea df bd 7e 92 1e 3d 6b 4e 6f 3c f0 64 c2 bc
       -0.10933308 0.038713925 0.014606099 -0.023729771
0000f0 1c ed 95 bd 10 a8 e8 bc ed c7 b2 bd 78 5e 72 bd
       -0.07320616 -0.028400451 -0.08729539 -0.059172124
000100 18 bf b2 3d c1 06 23 3d 21 17 25 3d d0 d1 5c 3d
       0.087278545 0.039801363 0.04030526 0.05391103
000110 fa cd bc 3b 86 a7 4a 3c f8 a6 7e bd b4 df f3 bd
       0.005761859 0.012369042 -0.062170953 -0.11907902
000120 cc f3 ec bd 53 5f 44 3e c2 f7 c8 3d aa 3f e7 bd
       -0.11569938 0.19176988 0.09812881 -0.1129144
000130 75 bd cc 3c e5 bc 93 bd e6 c3 c9 bd ed 25 86 bc
       0.024992684 -0.07213763 -0.09851818 -0.016375506
000140 77 26 bc 3c 33 67 a9 3d 56 27 37 3d 42 ca d4 bd
       0.02296756 0.08271637 0.044715248 -0.1039014
000150 79 e8 91 bd 2d 9b cf 3c da ab 52 3d 43 cd 61 3d
       -0.07124419 0.025342548 0.05143342 0.055127393
000160 a6 4d da 3d 05 00 33 3d 30 05 64 bc 78 c7 25 bd
       0.106593415 0.04370119 -0.013917252 -0.04047343
000170 e2 4b a0 bd ca 41 6a bd fc 49 b2 bd e2 9a 87 3d
       -0.078269735 -0.057191648 -0.08705518 0.066213384
000180 6c 6b b1 bd 20 b7 3c bd 46 0c 8a bd 10 c9 f1 3c
       -0.08663067 -0.04607308 -0.06740622 0.02951482
000190 39 ac 9a 3d 02 01 5d bc c7 44 70 3c ab 7b c8 3b
       0.0755238 -0.01348901 0.014664835 0.006118258
0001a0 b5 ff 98 3d b6 d8 63 bc 90 39 fd bc 91 9d e4 3d
       0.07470647 -0.013906648 -0.030911237 0.11162866
0001b0 ff 7c 85 bd ff 08 23 3d 22 fb 0e 3c 49 7e 26 3d
       -0.06517982 0.0398035 0.008726867 0.04064778
0001c0 0a 1d 97 3d 5b ac 84 bd 81 7c 3c 3c 70 c0 5e 3c
       0.07378586 -0.06478187 0.011504293 0.013595685
0001d0 35 8d 4d 3d 86 f3 87 bc 5e 1e 7a bc 75 8d 55 bd
       0.050183494 -0.016595613 -0.015266029 -0.052136857
0001e0 df 28 9d 3c ad 09 bb bd 32 81 d5 bc 16 43 13 3c
       0.019184528 -0.09132705 -0.026062582 0.0089881625
0001f0 a3 38 05 be d4 4d 0d 3b 1f 21 75 bd e7 4b c6 3d
       -0.13009886 0.0021561282 -0.05984604 0.09682446
000200 9d d0 1d 3d 55 ad 0e 3e 31 a8 0a bd dc 9e 03 3d
       0.038529027 0.13933308 -0.033851806 0.032133922
000210 72 97 ac bd 02 e2 02 bd 09 2a 5a bd ea 12 c1 3d
       -0.084273234 -0.03195382 -0.053262744 0.09427436
000220 46 85 8f 3d 3b 71 f0 bd 98 db b2 bd d0 71 40 bd
       0.07007842 -0.11740347 -0.087332904 -0.04698354
000230 e0 7c 7a bd 0c fb 1a bd 10 bd d0 3d 9d 8a 97 3d
       -0.061154246 -0.037837073 0.10192311 0.07399485
000240 c0 f7 23 bb 24 94 ed bb d7 d9 36 3c 74 e9 3f bc
       -0.0025019497 -0.0072503258 0.0111603355 -0.011713374
000250 73 8e 57 bc a9 9f dd bd b5 3f 78 bd af bf 80 3d
       -0.013156521 -0.108214684 -0.06060763 0.06286561
000260 a1 52 29 bd 2b 1f 20 bd 88 10 e8 3d 48 fc 18 3d
       -0.041338567 -0.039092224 0.11331278 0.03734997
000270 b0 2c a3 bb a3 45 16 be 48 a8 b5 bb 0d 3d 92 3c
       -0.0049796924 -0.14675002 -0.0055437423 0.017851377
000280 45 31 af bd e1 f2 25 be 8b d3 cb bc 2a 3e 01 3e
       -0.08554319 -0.16205932 -0.024881145 0.1262137
000290 04 a0 b5 bd d1 b8 b4 bd 66 64 23 be 6a f8 c0 bd
       -0.08868411 -0.088243134 -0.15956268 -0.09422381
0002a0 5a ae 9d 3d 10 b6 0c 3e a4 47 63 bd b7 ab aa bd
       0.076992705 0.13741326 -0.055488244 -0.08333533
0002b0 9a 48 43 bd 1f 4e 1a be 5b 5b 59 bb 10 ef 88 3d
       -0.04767666 -0.15068863 -0.0033166024 0.066862226
0002c0 a3 5f 8c bd d8 a8 a1 3c 5e 79 46 bd 07 34 24 3e
       -0.06854179 0.019733831 -0.04845559 0.16035472
0002d0 22 37 40 3d 88 49 81 bd 2d ba b2 bd 7c 0f 58 bd
       0.04692758 -0.06312853 -0.087269165 -0.052749142
0002e0 8d 23 9a 3d 0b f7 13 3d eb c6 05 bd 7a 95 67 3d
       0.07526312 0.03612427 -0.032660406 0.056539036
0002f0 cd ad 85 bd 35 d4 f2 bd 5a 3b 4f 3d b2 94 30 3c
       -0.065272905 -0.118568815 0.05059371 0.010777639
000300 b8 7d a8 3a be f4 d4 bd 12 48 94 bd 20 80 63 bd
       0.001285485 -0.10398243 -0.07240309 -0.05554211
000310 46 35 5a bd ab 67 d0 bd 28 2a ae 3d 58 28 c9 bd
       -0.05327346 -0.10176023 0.085041344 -0.09822148
000320 d2 0b ef bd 0e 35 b7 bd 72 c2 74 3c 84 b3 f3 bd
       -0.116721764 -0.08945666 0.0149389375 -0.11899474
000330 5e d8 01 3e ef ea 08 39 14 63 34 3d 44 59 4f 3d
       0.12680194 0.0001305749 0.0440398 0.05062224
000340 97 10 88 3d ae 4d ee 3c 6e 2b 87 3d 14 0c ef bd
       0.06643789 0.029089775 0.066000804 -0.116722256
000350 d6 c4 a3 3d ea 1d 12 bd 8c e0 ef 3c 9d 26 82 3d
       0.07996528 -0.03567306 0.029281877 0.06355021
000360 c0 84 d9 bd 02 b4 23 bc e7 cd 5d bd 5c 4e 91 3c
       -0.10621023 -0.009991648 -0.054151442 0.01773756
000370 bd 16 37 bb 38 73 88 3d 28 d4 21 3d 5e 94 d7 3c
       -0.0027937137 0.06662601 0.03950897 0.026315864
000380 3e 28 45 bc 48 a7 8a 3d 02 79 e0 bc ad 08 47 bc
       -0.01203352 0.067701876 -0.027401451 -0.012148065
000390 35 d6 00 3e 37 79 03 bd 5f 4a 97 bc ab b5 89 bc
       0.12581713 -0.03209802 -0.01846808 -0.016810259
0003a0 ed c7 31 bd c7 c1 06 be c2 d4 a0 3a 1c 3f b8 3c
       -0.043403555 -0.13159858 0.0012270438 0.02249103
0003b0 84 6b 16 be ab d9 82 3d 71 55 28 be f2 d8 65 bc
       -0.14689451 0.06389173 -0.16438843 -0.014028775
0003c0 5b d9 ad bd 15 46 a5 bc 10 aa ca bd 8d 52 36 3e
       -0.08488723 -0.02017502 -0.09895718 0.17804928
0003d0 50 a5 83 bd b0 02 21 bc 15 40 ee 3c 46 90 d9 3d
       -0.06428015 -0.009827301 0.029083291 0.10623221
0003e0 f2 57 ec bd db c3 0e bd 2c 3b 3a bd 57 9e c7 bc
       -0.11540212 -0.03485475 -0.045466587 -0.024367495
0003f0 6f 93 87 ba 26 c5 26 3e 83 5b f2 bd 2f f8 ad 3d
       -0.0010343621 0.16286144 -0.11833861 0.08494603

conv_block.2.lin_r.weight f4 [128, 128]
000000 96 cf 6f 3c c8 87 49 3d 89 b3 03 bd ef 67 67 bb
       0.014636895 0.049201757 -0.03215364 -0.0035309752
000010 16 dc 40 3d fd b9 f5 bc e6 81 4d bd af 04 2d bb
       0.04708489 -0.029995913 -0.05017271 -0.0026400497
000020 b6 4c 91 3b 17 0d a3 bd 55 19 89 3b 1e 02 8f 3d
       0.0044341935 -0.07961481 0.004183928 0.06982826
000030 3a 99 0b 3d 3c c1 0a bd 73 c0 b5 3d 2d 38 b1 bc
       0.034081675 -0.03387569 0.088745974 -0.021633232
000040 71 68 51 3b ab 84 ac bb b5 2c 16 3d ef 24 82 3d
       0.003195312 -0.0052648387 0.03666373 0.06354701
000050 32 5b 70 bc 08 5d 06 be ad 26 92 bd 8d 15 bb 3d
       -0.01467018 -0.13121426 -0.07136283 0.0913497
000060 0c ac 98 bd bf 65 d2 bd a0 90 04 bd 8a c5 57 bd
       -0.0745469 -0.10273313 -0.032364488 -0.052678622
000070 01 91 60 3d 0f f5 1c bd 26 45 bb bb 0b 1e c3 bc
       0.054825787 -0.038319644 -0.0057150302 -0.023818037
000080 fc c9 d2 bb b9 c6 2e bd fd ef a7 3d 04 b7 de bd
       -0.00643277 -0.042669985 0.08200071 -0.10874751
000090 62 82 fb bc d7 b2 14 bd d7 07 13 bc 2f cf 8c bd
       -0.03070182 -0.036303367 -0.008974037 -0.06875455
0000a0 07 20 a6 bd 6a bd a3 bd c2 9f 73 3d 12 9a 4f bd
       -0.081115775 -0.07995112 0.05947853 -0.050684042
0000b0 ac 58 31 bd c3 4b 2e bc 32 ee 97 3d 7d b7 f6 bc
       -0.043297455 -0.01063818 0.07418479 -0.03011679
0000c0 54 dd 21 3b 76 ec 8f 3d 84 bd f9 3a 25 33 01 3d
       0.0024698572 0.07027523 0.0019053672 0.031542916
0000d0 9c bb 59 3d cf 4d 94 bb 68 4d de bd e9 0b 94 3d
       0.053157434 -0.004525877 -0.10854608 0.07228834
0000e0 ad b8 35 bd 43 c1 23 bc ca 03 1b bd 6a 2a 40 bc
       -0.044365574 -0.009994808 -0.03784541 -0.011728862
0000f0 94 42 f5 bd 7e b4 03 bd e6 49 ab 3d d6 4f 9b bc
       -0.119755894 -0.032154553 0.083637044 -0.018958967
000100 5a dc aa bd a1 3a 40 bd 00 71 83 3d 80 ef 56 bd
       -0.0834281 -0.046930913 0.064180374 -0.0524745
000110 db 2d 6b bd 45 97 bc bd d0 91 76 bd da cc 39 bd
       -0.057416778 -0.0920854 -0.06019765 -0.045361377
000120 96 7e 35 be 10 2a ad bd c2 62 3c 3d 05 52 8b bd
       -0.1772407 -0.084552884 0.04599262 -0.06802753
000130 1e b7 bd 3b d7 0e 92 3d d4 53 8d bd 7f 16 92 bc
       0.0057896515 0.07131737 -0.069007546 -0.017832993
000140 22 9c 78 bd 67 e1 6a bd 2f e5 b3 bd 27 a5 f3 bd
       -0.060695775 -0.057343867 -0.08783948 -0.11896735
000150 36 7c 0e 3d 10 21 a2 3d 18 48 0b bd a3 9a e6 bc
       0.034786426 0.079164624 -0.0340043 -0.028149908
000160 78 b7 24 be eb 2a 21 3d 70 aa a4 3d 80 4c b1 bd
       -0.16085613 0.03934757 0.08040321 -0.08657169
000170 3e 5d 7e 3d ff ae b8 bd dd 01 84 3d c5 d2 47 bd
       0.06210064 -0.09017753 0.06445668 -0.04878499
000180 78 a4 f5 bc 6d ad af 3d eb 70 23 3b 12 4a bc 3c
       -0.029985651 0.08578 0.002493913 0.022984538
000190 63 50 85 3d 49 a4 67 3c 02 cb 08 3d 59 71 b4 bc
       0.06509473 0.01413829 0.03339673 -0.022026705
0001a0 57 30 12 3d 4f 7a 53 3d 19 7d 09 bd 2c 72 0c 3e
       0.03569063 0.051630314 -0.033566568 0.13715428
0001b0 58 e2 1c bd a4 65 0b 3d 6e 3a 16 bd 3c a3 90 3d
       -0.038301796 0.03403248 -0.036676817 0.070623845
0001c0 dd 53 49 bc 5e b2 02 3c 86 73 b8 bd 85 b5 5b bb
       -0.012288061 0.007977096 -0.09006409 -0.0033524942
0001d0 2b b1 41 bd 39 ac 86 bd 0c 85 d2 3c 1e b6 c4 3d
       -0.0472881 -0.065758176 0.025698207 0.096050486
0001e0 09 09 7f bb 7a 87 78 3d 38 41 91 bd a2 27 f5 3c
       -0.0038915297 0.060676076 -0.070925176 0.029926125
0001f0 ff 0e c1 3c 1c f4 86 3d f6 0c 0a 3d 1b b0 28 3c
       0.023566721 0.06589529 0.033703767 0.010295893
000200 f5 4b 6d 3c c3 9d 83 bd 3e 1d e4 3c a5 73 33 3d
       0.014483442 -0.06426575 0.027845975 0.04381146
000210 d1 45 51 bd 87 54 c9 bd 87 7a 64 bc 0f b5 d8 bc
       -0.051091973 -0.098305754 -0.013945228 -0.026453523
000220 d8 70 63 3b 68 33 32 bc 78 90 95 bd 0e 7c 1a 3d
       0.0034704711 -0.010876514 -0.07302946 0.037715964
000230 16 f5 71 3c ba 14 99 bd 5b 1f 72 bb 30 db a1 bd
       0.014767906 -0.074746564 -0.003694496 -0.07903135
000240 60 49 c1 bc 73 7c 2f bd aa cf d0 bd b6 e8 59 ba
       -0.023594558 -0.042843293 -0.10195859 -0.00083125697
000250 44 90 6a 3d ff 56 0a be 9f af f7 bd bd 2f 8f bb
       0.05726649 -0.13509749 -0.12094044 -0.0043697045
000260 06 e6 82 3b 9d 8a d8 3d 5e d6 d4 3d 88 ee 11 be
       0.003994706 0.105733134 0.1039245 -0.14251149
000270 72 7b 45 3d 8e 62 0b 3e 0b dd 74 bd f1 46 6c bd
       0.04821343 0.13611814 -0.059781116 -0.057684842
000280 65 cf 98 3c 07 d4 a9 3e 5f 7a 8d 3c 9e 9f 1c bb
       0.01865358 0.33169577 0.017270265 -0.002389885
000290 cf 0d c2 bd 34 df 89 bd b7 2a d3 3d 3c 9f 25 3d
       -0.0947529 -0.06732026 0.103108816 0.04043506
0002a0 1c 90 e1 bd eb 3c b5 bd 87 bd b0 bd eb 12 a1 3c
       -0.11013815 -0.0884951 -0.086298995 0.019662341
0002b0 fe 7f d1 bd 4e d5 be bc 97 ce 07 3e c8 bf 07 be
       -0.10229491 -0.023295071 0.13262402 -0.13256752
0002c0 fd e4 cc bd fa a4 54 3d 9f e1 c1 3b cb e1 9f bd
       -0.100046135 0.051915146 0.0059167887 -0.078067385
0002d0 ed 0a 79 3d af 39 82 3d fb 1e 55 bb 33 dd dc bc
       0.060801435 0.063586585 -0.0032519687 -0.026960945
0002e0 18 3c d3 3d bd 30 40 ba 50 50 34 3e 9a ea cb bd
       0.10314196 -0.00073314813 0.17608762 -0.09956856
0002f0 f1 6e cc 3d 5f 33 15 3e 09 21 f6 be 21 88 52 be
       0.09982098 0.14570378 -0.4807208 -0.20559742
000300 7c b5 11 3e 58 d4 69 3d 56 5f 94 3c 56 18 2c bd
       0.14229387 0.057087272 0.018111866 -0.042015396
000310 ac c5 b6 3d 48 cd 1c 3c 63 1e bf 3c 48 31 dd 3c
       0.08924422 0.009570427 0.02332992 0.027001038
000320 c6 4c aa bd ab 10 20 3e 9f 88 57 bd e4 28 66 bc
       -0.083154246 0.15631358 -0.052620526 -0.014047835
000330 ac aa b8 bd 43 41 86 3d b5 5c 89 bc 8c 2c 8c bd
       -0.09016928 0.065554164 -0.016767839 -0.06844434
000340 d4 17 8f 3d c4 b9 31 be 21 83 df 3d bc 93 a4 bd
       0.06986967 -0.1735602 0.10913683 -0.080359906
000350 a7 de 63 3d a8 cf 11 3e 79 e9 17 bd cd c9 c1 bd
       0.05563226 0.14239371 -0.03708789 -0.094623186
000360 00 fc ad bd a8 a3 4a bd 3a f3 1b bd b2 37 9d 3d
       -0.08495331 -0.04947248 -0.038073756 0.07676639
000370 05 bd 50 bc 52 71 3e bd 97 1d fa bd 35 e1 80 bd
       -0.012740378 -0.04649479 -0.12212675 -0.06292955
000380 57 8d 09 bd 45 20 b0 3d 85 36 9c bd 59 4f 06 bd
       -0.033582058 0.08599905 -0.07627586 -0.032790516
000390 e1 dd fb 3c f8 0e 66 3d 7e d9 be bd 3f 16 68 3c
       0.030745449 0.05616662 -0.09318827 0.01416546
0003a0 fd c4 67 3d 67 2d be bd 28 a7 99 3d 70 07 0e 3d
       0.056584347 -0.092860036 0.07502586 0.03467506
0003b0 d3 f7 0a bd c8 85 9a bd 4f 8a ab 3d b0 c0 2a 3d
       -0.03392775 -0.07545048 0.0837599 0.041687667
0003c0 51 81 38 bd a5 55 d4 3d d6 ca 8f 3d fa ac a8 ba
       -0.0450452 0.10367898 0.0702111 -0.0012868934
0003d0 1b 48 fb 3d 25 66 1e 3d ab 46 03 be c3 9a bc 3a
       0.122696124 0.03867163 -0.12819926 0.0014389384
0003e0 6c bb 74 be 30 6b e0 bc 9f 27 c5 3c 74 98 22 be
       -0.23899621 -0.027394861 0.024066744 -0.15878469
0003f0 5e cb 94 3d da 5b 98 bd 62 c4 21 bd 3d c1 12 3b
       0.07265352 -0.07439394 -0.039493926 0.002239301
