models/hyperparameter_optimization/initial_test/augment/Set15/architecture_pool_heads/input_architecture_pool_heads_0/GNN.pth (torch, 994184 bytes, 18 tensors)

input_layer.weight f4 [128, 8]
00000000: 5fbc 753e 6616 963e a3a1 a9bd 61cf 6f3e
00000010: dfa5 9ebd 48e4 98bb a642 30be 799e 543e
00000020: 780e be3e 06cd 84be 677e 8c3e 89eb bc3d
00000030: 2825 5e3e a7b3 b9b9 023c 6d3e 6777 4cbd
00000040: 0ae4 993e a8ce 083d 9c03 29be c76a 983d
00000050: f2cd 26be 48d4 29bd 860b 13be 7b2a 703e
00000060: 2ae4 8ebe 50e7 26be 0e76 ccbd 13af 59be
00000070: 6055 91bb fdc9 b2be e425 c43e 2ac5 99be
00000080: 22b0 8d3e 04a1 ae3c 771c ebbd 18dd 353e
00000090: 9796 b03b 04a5 463e b088 f13d c55a e4bd
000000a0: e4c3 6f3d da5a c4bd f6bf e43d d2dd 9e3e
000000b0: ea0a 283e fb45 1ebe 4db0 433e 728e 813d
000000c0: 60b0 2f3d 16aa 5cbe 4c31 b3be a1e0 0bbe
000000d0: 91d8 8abe 280d 933e 2b97 8f3d 19f6 153e
000000e0: 5554 063e 5789 c9bb b41f 7a3e e09d 80be
000000f0: d106 2fbb 1f1b 77be 58df a33d 025c f9bd
00000100: 1c09 0cbb f8da 96bd 552d 943e bd94 56be
00000110: 4ceb 57be a3ee 57be fea5 c63e b14c f13d
00000120: 8930 b53e 1664 95be 7b8c b3be 7b9f 8dbe
00000130: 1a8a 73be 0dac 45ba 6f6d cd3d d369 963e
00000140: 49f7 3abe 58ce 76be 2483 073e 7056 12be
00000150: 0c2d 383e f2d2 abbd 2e13 4a3e 6fa5 8cbe
00000160: e6b3 36be b489 003d 104d 703d 1f9c b8bd
00000170: 9da9 5a3e 53ed 6d3e 3945 83be eb47 41be
00000180: 7d02 c03e c553 f4bd 4059 00be 4127 afbe
00000190: 2a54 4fbe ba06 333c 8325 3fbd 3f66 83be
000001a0: 25bf b7bb 4a4d 77be 8293 99be 755c 47be
000001b0: 296e 9ebe 1886 66be 8564 de3e 94c2 883d
000001c0: 88ec 0c3e 7ad5 a8be 0bc7 6dbe 6b03 f1bd
000001d0: 6d91 b23c 6448 9fbe 22fe 1bbe bdbd 58be
000001e0: 12e2 a3bb 3bb7 06be b4b3 c8bc 0254 75be
000001f0: 6880 78be c936 53be 8dd9 f7bd 07e0 8ebe
00000200: 8bfb 563e 0cb4 8fbd 1172 983e 9814 c8ba
00000210: 6049 99be c8d5 713e e339 c7bd 63c7 0abe
00000220: 4142 96be 59f6 b3be 9e7e 803d 962b 9ebd
00000230: 1804 b73d 538e 94be 3baf 593e bfe0 84be
00000240: c60e 7abd eee9 47bb 87fb 133e 8873 253e
00000250: 2770 953e c488 8fbe 6356 dd3d e4b8 1bbe
00000260: 1db2 1ebd be7d 87be 1457 ab3e f6db 84be
00000270: 4ad1 003e f624 273e a2bf 263e 1ebc 43be
00000280: a892 ae3e a111 7e3d 3f20 3abb 2f86 9fbe
00000290: 00a3 933d c740 59bd d4db 25be 667c 9b3e
000002a0: 4ad5 833d b54e 48be eb3d 37be ba50 8abc
000002b0: 4778 5e3e b806 b9bd f791 4ebe 83f4 f7bd
000002c0: 283c 87be 5648 fe3c d255 8f3e 3d6b aabe
000002d0: 414b 393c 6a9b 683e fc76 a43c 4fee 00be
000002e0: 223c 243e c802 543e 5052 a23c c678 7ebd
000002f0: 91bc bfbd 2f9b c1ba 8dd2 7fbd 9bc6 d7bd
00000300: f56b 933e ccdc bc3e 0d5d 0fbd 5f1e a2bd
00000310: ac5e 0abb fcee acbc 06ae 57bc 2be9 ca3d
00000320: 7b69 a4be 1e9b 05be cc12 ad3e 9d58 023e
00000330: 2e0e 90bc 7346 5abe 427f 5dbe b026 a2be
00000340: a205 ecbd d23b f2bb 32bb 203e 6fb0 283e
00000350: ce02 a0be 6ab7 59be fd8a 64bd e51b af3e
00000360: 0ad7 023d cd83 bbbd dec7 3a3e d3e4 09be
00000370: e254 6abe 3e0f 9d3e a09e 24be 4727 91bd
00000380: 2d14 b4be 6628 153e 629e 6d3e 3bb5 563d
00000390: b370 7cbe bba7 b2be 2505 93be 75fc 863e
000003a0: 83f7 da3d b985 963e 1dc7 f43d 2365 743d
000003b0: b3e6 62bb 92aa 89be a317 9bbe f250 a9be
000003c0: 630c 263e d8bf 31be f1b8 91bd eb5a 50be
000003d0: a7f1 83bd c1d0 7ebe ce8f 6cbe 2d2f f03d
000003e0: 7331 d7bd f6d4 923e 554a e8bd 34ca 84be
000003f0: c782 7fbd 4f7f 2fbe 7e86 ddbd 6154 acbe
0.23997639 0.29313964 -0.08282783 0.23418953 -0.07746481 -0.004665885 -0.17212924 0.20763578
0.37120414 -0.2593767 0.27440187 0.09224612 0.21693861 -0.000354198 0.23167422 -0.04991856
0.30056792 0.033400208 -0.16505283 0.07442241 -0.162895 -0.041462213 -0.14359865 0.23453705
-0.2790845 -0.16299176 -0.09983455 -0.21258192 -0.0044352263 -0.3491973 0.38310158 -0.30033237
0.2767344 0.021317013 -0.114800386 0.17760122 0.0053890455 0.19398886 0.11793649 -0.111501254
0.058536425 -0.09587641 0.11169426 0.3102861 0.16410413 -0.15456383 0.19110222 0.063259974
0.042892814 -0.21549258 -0.34998548 -0.13659908 -0.27118352 0.28720975 0.07011255 0.1464466
0.13118108 -0.0061504054 0.24426156 -0.2512045 -0.0026706944 -0.2413144 0.08001584 -0.12175752
-0.0021367734 -0.07365984 0.28940836 -0.20955177 -0.21085852 -0.21087126 0.38798517 0.11782206
0.35388592 -0.29177922 -0.35068116 -0.27660736 -0.2378315 -0.0007540591 0.100306384 0.29377612
-0.18258394 -0.24102151 0.1323362 -0.14290786 0.17985934 -0.08389844 0.19733879 -0.27469966
-0.17842063 0.031381324 0.058667243 -0.09014153 0.21353765 0.23235063 -0.2563875 -0.18875091
0.37501898 -0.1193004 -0.12534046 -0.34209636 -0.2024695 0.010926897 -0.046666633 -0.25663945
-0.005607503 -0.24150577 -0.29995352 -0.19468863 -0.3094342 -0.2251209 0.43436065 0.06677738
0.13762105 -0.3297537 -0.2322046 -0.1176823 0.02179786 -0.31109917 -0.15233663 -0.2116613
-0.005001315 -0.13155834 -0.024499752 -0.23957828 -0.24267733 -0.20626368 -0.121020414 -0.27905294
0.20994394 -0.07016763 0.29774526 -0.0015264926 -0.29938793 0.23616707 -0.09727838 -0.13552622
-0.29347423 -0.35148886 0.0627415 -0.07723157 0.08936328 -0.29014835 0.21258251 -0.25952718
-0.061049245 -0.0030504423 0.14451419 0.16157353 0.29187128 -0.2803403 0.108074926 -0.15207249
-0.03874408 -0.2646312 0.33464873 -0.25949067 0.12579837 0.16322693 0.1628404 -0.1911473
0.34096265 0.06202853 -0.0028400568 -0.3115706 0.07208824 -0.053040292 -0.16197139 0.30368346
0.06437166 -0.19561274 -0.17894714 -0.016884197 0.2172557 -0.090344846 -0.20172869 -0.12107184
-0.26413083 0.031040352 0.27995163 -0.3328494 0.011309446 0.22715536 0.020076267 -0.12590908
0.16038564 0.20704186 0.01981464 -0.062126897 -0.09362138 -0.001477098 -0.062456656 -0.10535928
0.28793302 0.36887205 -0.03500085 -0.07915949 -0.0021113558 -0.02111005 -0.013164049 0.099077545
-0.32111725 -0.13047454 0.33803403 0.12729116 -0.017584886 -0.21315937 -0.21630576 -0.3167014
-0.11524512 -0.007392385 0.1569641 0.16473554 -0.3125214 -0.21261373 -0.055796612 0.3420097
0.03194336 -0.091559984 0.18240306 -0.13466196 -0.22883943 0.3067569 -0.16076136 -0.0708757
-0.35171643 0.14566192 0.2320495 0.05241893 -0.24652366 -0.34893593 -0.28714862 0.26364484
0.1069174 0.29398897 0.1195204 0.059666764 -0.003462237 -0.26887947 -0.3029147 -0.3306957
0.16215663 -0.17358339 -0.07115353 -0.20347182 -0.06442576 -0.24884321 -0.23101732 0.11727748
-0.105074786 0.286781 -0.11342303 -0.2593552 -0.06238058 -0.17138408 -0.10816668 -0.33658126

conv_block.0.lin_l.weight f4 [128, 128]
00000000: e2b0 093c 1f55 56bd b136 4c3d 1de0 163b
00000010: 6b41 7ebc 9557 453d 65ab 583d 2fe1 103c
00000020: 41d2 32bd 7c61 b7bd 1c52 7dbd fc5c bfbd
00000030: c3b3 a03d 4289 afbc e84d adbd 7fd0 2abc
00000040: 0ebf 9f3c 20aa 07bd f0a6 e5bc 00c5 6abd
00000050: a99c 813d 24cf ff3b 5356 8d3d dd53 853a
00000060: 6b22 873d 7ac8 b0bd 3873 983b 420c 7ebd
00000070: 91e7 823d ef1d 37bd 6641 33bd a491 d0bd
00000080: 833a b1bd 54b4 89bd 657b 8dbd 9147 8f3d
00000090: 0bf0 fa3b f65b 40bb 342b a83d 925a 65bd
000000a0: 35e3 45bd 0e3b a8bd 9c86 d03c 819c afbd
000000b0: ac60 92bd 9ffc c3bc 9b09 07bc e66d 493d
000000c0: 8b32 0bbd 5f8e fbbb 7ae1 10bd c3ff 063d
000000d0: 1474 433d ac14 843d 6cc6 ffbd 3e5b 0e3d
000000e0: f2c8 5c3d 3d13 bbbd 9239 103d 324a 2ebd
000000f0: f52f 773d 5b05 243c 322d ce3b 39bf 433b
00000100: 4403 86bd b4d7 98bd 1007 a03c 5785 ccbd
00000110: e7c8 91bd 8c2b a6bd 37bd 2c3d e990 243d
00000120: 1619 893d 485f 63bd 2153 86bd 9de4 abbd
00000130: 3089 db3c 3805 15be 7544 b7bd 68c0 8d3a
00000140: 7084 13bd 2f9e 2d3d 5dbe 49bd 3879 88bb
00000150: b361 62bd a012 873d 2b41 723d ea44 fc3b
00000160: a1df c43c e259 c5bd 7a32 93bd f3f8 0cbc
00000170: e2e3 71bc 46f6 d93c 5ec8 c63c 2170 12bc
00000180: a3d8 ff3a 4a9f eabc 1f8e 2c3d cf14 21bd
00000190: 9ffe fbbc 4de2 893d a762 19bc 0d0c 1d3d
000001a0: b949 07be 431a 953c 229f 03bd f295 4ebc
000001b0: c1c8 3dbd d4f0 5b3d 5487 3abd 20b7 f13c
000001c0: 3c2d 233d 7d63 c33d eff0 803d 3d2b 7fbd
000001d0: 4fb5 593c 2ece 873d 0f0d 9e3c 3619 853d
000001e0: 3cf8 ca3c bebd c1bd 58a0 cb3c 3b91 753d
000001f0: fead 1d3d 86de adbc e007 06bc 44de 8ebd
00000200: 41d6 633c 654f 0b3d b55b 8cbd 2df6 eabb
00000210: deda 9ebc 9731 4c3d f739 96bc 696c 75bd
00000220: f0fe 2e3d 3047 36bd 106a 8fbc 1fe9 14bd
00000230: 503c 013d 00a6 05bd aa5b bd3c 063c 5cbd
00000240: 0c3b 89bc dd2a 943d 2107 7fbd 726a cbbc
00000250: a74f 3ebc 34b2 4e3b 6085 40bd ae3b cb3c
00000260: a875 04bd 81c6 863b 4f24 943d d958 903d
00000270: 1a0d 11bd 4a96 69bd 0bfd 70bd c4ca c4bc
00000280: 173d 2ebb 1a03 913c c335 24bd 8d5b 2e3d
00000290: 0c45 1fbc 5388 433c 0c0f 983d 418b fbbb
000002a0: deab e4ba af32 0abd 6737 5c3d 3706 b6bd
000002b0: 90ce 4abd d5e5 c33a c9d0 383d 818e ccbd
000002c0: e410 c5bc 1d03 323c 1912 883d 1d98 ef3c
000002d0: 76f7 8c3d 3620 b5bc 2ce3 c0bd 8272 a9b8
000002e0: b4ef 5b3d 3315 07bc bb32 af3b 0926 a63d
000002f0: 71db b3bd 561d fa3b d7cd 963c 9d0c 363c
00000300: 4392 00bd 95ed 42bd ab2e 2b3d 2e33 9e3c
00000310: 3a8e 973c 20e7 5ebc 7d31 85bd 7be1 cd3c
00000320: f07a 6ebd 071b 85bd a538 59bd 569a a7bd
00000330: aa63 a3bd 449b 68bc b6be babd 0581 683d
00000340: cb52 99bd c253 af3c d1f5 0b3d 7514 2dbd
00000350: 4a96 4b3c a6a6 9e3d 684f babd 8193 bcbb
00000360: a66e 5b3d 4f11 9d3d 5287 793c 6d44 833d
00000370: 08f4 61bd 4109 873d 4624 27ba 3c3b 93bd
00000380: 02b9 323d b87c 763d 2cf7 b1bd 1575 283d
00000390: 9c02 713c abeb 8e3d a368 bcbd f9c2 093d
000003a0: b933 a73d 0024 03bd 1f54 a33c 1714 b0bd
000003b0: 1ddf 3a3c 2ab9 92bd 25e4 bebd fbde e53c
000003c0: 5737 143d 8b6f 2a3d 6de8 733d 9d5d 0cbd
000003d0: 5e0a 9abd e17c 283d 085e 783d 5c99 97bd
000003e0: 1351 b8bd 30e1 82bd 09f8 7bbd 3732 453d
000003f0: e40c bfbd 7522 d23c 6a9e 143b 90df 91bd
0.008403989 -0.05232727 0.049856845 0.0023021766 -0.015518527 0.048179228 0.05289783 0.00884275
-0.043657545 -0.089541405 -0.061845884 -0.09343907 0.07846787 -0.021427754 -0.08462125 -0.010425686
0.019500282 -0.03312123 -0.028033704 -0.05731678 0.06328709 0.0078066755 0.06901231 0.0010172088
0.065983616 -0.08631988 0.004652407 -0.06202341 0.06391824 -0.04470628 -0.04376354 -0.10184029
-0.08653738 -0.06723848 -0.06908301 0.06996072 0.00765801 -0.0029351688 0.08211365 -0.055994578
-0.048312385 -0.08214389 0.025454812 -0.085747726 -0.07147345 -0.02392417 -0.008242036 0.049177073
-0.03398375 -0.007676884 -0.03537128 0.032958757 0.047718123 0.06449255 -0.12489018 0.034754984
0.053902574 -0.09134529 0.035211153 -0.042551227 0.06034847 0.0100110425 0.006292009 0.0029868616
-0.065435916 -0.07463017 0.019534618 -0.0998637 -0.07118397 -0.08113775 0.042172637 0.04017726
0.06694238 -0.05551079 -0.06558824 -0.08393214 0.026798815 -0.14552772 -0.08948604 0.0010814788
-0.036014974 0.042387184 -0.04925381 -0.004164841 -0.055268954 0.06595349 0.05914418 0.007698645
0.024032416 -0.096362844 -0.07187362 -0.008604276 -0.014763804 0.02660669 0.024265464 -0.008937866
0.0019519519 -0.028640408 0.042127725 -0.039326485 -0.030761061 0.067326166 -0.009361899 0.03834157
-0.13211717 0.018201 -0.032134183 -0.012608992 -0.046334032 0.05369647 -0.045539215 0.029506266
0.03983806 0.0954046 0.062959544 -0.062297095 0.013287856 0.066311225 0.019293336 0.06498949
0.02477657 -0.094600186 0.024856731 0.059952956 0.03849601 -0.021224272 -0.0081805885 -0.069759876
0.013906063 0.034011263 -0.06853429 -0.0071704597 -0.019391473 0.04985198 -0.018338187 -0.05991784
0.042723596 -0.044501483 -0.01750663 -0.036355134 0.03155166 -0.032629013 0.023114998 -0.05376818
-0.016751789 0.07234738 -0.062262658 -0.02483103 -0.01161567 0.0031539323 -0.047002196 0.02480873
-0.03233877 0.004113019 0.07233488 0.07048196 -0.035412885 -0.057028092 -0.05883507 -0.024022467
-0.0026586705 0.017701674 -0.040090334 0.04256778 -0.009721052 0.011934358 0.07424745 -0.0076765125
-0.001744624 -0.033739742 0.053763773 -0.08887904 -0.0495134 0.0014945815 0.045120988 -0.09988118
-0.024055906 0.010865 0.06644077 0.029247338 0.06883137 -0.022110086 -0.094183296 -8.079877e-05
0.053695396 -0.0082448 0.0053466237 0.081127234 -0.087820895 0.0076328916 0.018408699 0.011111406
-0.031389486 -0.047589857 0.041792553 0.019311514 0.018500436 -0.013604909 -0.0650358 0.025131932
-0.05822271 -0.06499296 -0.053032536 -0.08183734 -0.07977994 -0.014197174 -0.091184065 0.056763668
-0.07486495 0.021402244 0.034169976 -0.042255837 0.012425968 0.077466294 -0.09097177 -0.0057548885
0.05357232 0.07669317 0.015230017 0.064095356 -0.055164367 0.06593562 -0.00063759496 -0.071890324
0.04363347 0.060177535 -0.086897224 0.041127283 0.014710095 0.06978544 -0.09199645 0.033633206
0.08164162 -0.032016754 0.019937573 -0.08597582 0.011405733 -0.071642235 -0.09320859 0.028060427
0.03618559 0.041610282 0.05954783 -0.034268964 -0.07521509 0.04113472 0.06063655 -0.07402298
-0.08999839 -0.06390607 -0.06151584 0.04814359 -0.093286306 0.025651196 0.002267743 -0.07122719

conv_block.0.lin_r.weight f4 [128, 128]
00000000: c06c 233c ce1e b2bd ca45 33bc 6906 8d3d
00000010: a00a a93d 0431 bcba c2ba 733d e3f2 3bbd
00000020: 5831 e6bd 2339 8ebd 70fb 2dbd 9849 b5bd
00000030: fd35 593d 40c9 c4bc 01a6 35bd b338 5fbd
00000040: 6da9 603c 598e 54bd 3811 2ebd cc1f 83bc
00000050: eace b5bd 4411 aebc df81 a63d ac1a 3f3d
00000060: 5495 90bc cc87 f6bd 4598 41bb 7f67 56bd
00000070: d442 dbbd 54a6 94bd fb93 87bd 2230 673c
00000080: 2f7e a4bd c4d0 34bd 0e7e 3bbc dba9 3ebd
00000090: 6d96 74bd 5e65 f63c d58b c5bd 29a9 283d
000000a0: 3c64 9fbd f3ce 10be ca50 01bd 9790 aabc
000000b0: 08c8 38bc 78c5 f9bc b71a 0dbd f300 863c
000000c0: a6ae 1a3d 5dfa 81bd 634e 59bb a0f9 843d
000000d0: 3ac0 edbc 8c8d 9fbc 6075 aa3c 2140 c5bd
000000e0: 715c 84bd 26b6 813d 1a0f 163c e6c5 f1bc
000000f0: fda0 0cbe e0b9 b4bd c053 d3bc e39a 3cbd
00000100: 2255 033d 96da a9bd f101 fa3c 69af b9bd
00000110: d505 22bd a42b 523d 119b d23a dec0 80bd
00000120: 1abd d13c 702d 8d3c aba5 71bd 0f3b edbd
00000130: 743c f93c ca0f 71bb 6f6a 323d dc26 ca3b
00000140: cca6 68bd 1f01 9cbd 5618 85bd d3ca 9bbc
00000150: 00bc b1ba cab3 e8bb b6a9 40bd 0f28 7c3c
00000160: 3f67 5b3c 6a63 8dbd c274 583d 0198 313d
00000170: 0290 843d f8df e0bc e59f 243d 0504 583c
00000180: b6c6 2e3d a981 653d ae7c d33a 0ad9 3d3d
00000190: 9b81 62bd f33f 32bd 43bf 753c f4a2 243d
000001a0: b915 a1bc fa2c d63c fc19 7e3d b04e 0b3d
000001b0: 8908 993c 4ae9 a8bd 468c 92bd 90f1 b93b
000001c0: 6274 683d 3f0f 22bc 6cba 473c c81f e33c
000001d0: c63c 3cbd 1b05 1fbd c615 78bd 6483 8dbd
000001e0: 8acc f6bc 1300 53bd 2e3c 03bd db8d b0bd
000001f0: 7284 5e3d 5244 c8bd 286a 45bd 45da 3fbd
00000200: e86d aabd 58d0 17bd 66b0 7b3d 07b1 98bd
00000210: 4a17 5e3d 33d8 75bd 11cb abbd fc76 d73c
00000220: 02d6 883c 5555 433d 613a ff3c a6ff 343d
00000230: b8a1 b03c db34 45bb ea80 613d 3236 97bd
00000240: b560 c5bd 8c38 27bd 53c8 94bd 321f 7f3d
00000250: f13f fc3c 16a0 a03d e64f 5bbd 6499 8d3d
00000260: 56ae afbd 4fec 7cbd 1188 9d3d 2880 25bc
00000270: 8fe2 f63b 08d7 3bbd 1346 903c 5004 ccbc
00000280: 99dc 793d 1d17 203d 4b03 61bc f402 0cbd
00000290: 45aa 8bbd f224 e53c d9a4 223c 5f59 9bbd
000002a0: 451b 02bd 7504 c93a 1a64 733d 16f2 39bd
000002b0: 740f c9bb 24d7 76bd eecd 963d 0449 40bd
000002c0: 7625 febc e2d7 523d cb00 763d 5589 1e3d
000002d0: 18fd a23d 2f2d 94bd eb05 3ebd 5fea a23d
000002e0: 7b03 963d 4733 9c3d 4764 9dbd 0663 ca3c
000002f0: 4bae 983d c491 153d ba8e 623b 5c29 833d
00000300: 6a05 8d3d 74e9 413d 8efe cd3c 2c12 afbd
00000310: d6a2 c3bd cb3b 9d3c 1082 a7bd 50da 8c3b
00000320: 4756 1bbd 3b36 b5bb c1fe 29bd be85 463d
00000330: fec0 8a3d f2fe afbd ebe2 9d3d 74cb 9dbd
00000340: 57d9 87bd db57 e33c eed2 c3bc cd68 a4bd
00000350: f07a 67bd 40df 9b3d 73d4 8cbd 053d 27bd
00000360: f677 7fbd a66e df3c 7c0b 423d 7e69 11bd
00000370: d285 94bb b7fe f3ba 7108 94bd 1db1 7b3c
00000380: def0 9c3c 9e64 763d c3c2 ad3d 5bb0 6dbd
00000390: 2fd0 febc 484e 10bd 1e61 8abd 1723 1f3d
000003a0: eef2 093d 6dcf d2bc 6e49 4f3d 007b 6dbc
000003b0: 911f 193d 38d1 083d cfe6 bbbd 806d 28bc
000003c0: 06b6 1c3d 2559 01bd b586 bfbc de71 143d
000003d0: e459 8bba d38a 5bbd cf70 703d 6d4a 1a3d
000003e0: b956 963c fa0d 8dbd d711 8fbd 3808 a6bc
000003f0: 40bc 9f3b 77f7 793d 3be8 663c 4c17 d6bb
0.0099746585 -0.08697282 -0.010941932 0.06885988 0.0825398 -0.001435787 0.059504278 -0.04588593
-0.1123988 -0.06944492 -0.042476118 -0.088519275 0.053030003 -0.024021745 -0.044347767 -0.054497432
0.013712269 -0.051893566 -0.04249689 -0.016006373 -0.08877356 -0.021248467 0.0813024 0.046656296
-0.01764933 -0.1203762 -0.0029540223 -0.052344795 -0.10706106 -0.07258287 -0.06620022 0.014110597
-0.0803188 -0.044144407 -0.011443628 -0.046548706 -0.05971377 0.030077633 -0.096458115 0.04117695
-0.0778279 -0.14141445 -0.031571187 -0.020820899 -0.01127816 -0.030489668 -0.034449305 0.016357874
0.037764214 -0.06346581 -0.0033158294 0.06492925 -0.029022325 -0.019476674 0.020807922 -0.09631372
-0.06462944 0.0633357 0.009158874 -0.02951331 -0.13733287 -0.08824515 -0.025796771 -0.04604615
0.03206361 -0.08293645 0.030518504 -0.0906666 -0.039556343 0.05131115 0.0016067942 -0.062867865
0.025602866 0.01723358 -0.058995884 -0.1158353 0.030424334 -0.0036783093 0.043558534 0.006169183
-0.056799695 -0.07617401 -0.06498782 -0.019017613 -0.0013560057 -0.0071015107 -0.04703685 0.01539041
0.013391315 -0.06903727 0.052845724 0.043357853 0.0647278 -0.027450547 0.04019155 0.013184552
0.042669974 0.056031857 0.001613518 0.046349563 -0.055299383 -0.043518018 0.014999214 0.040194467
-0.019663678 0.026144493 0.0620365 0.03401059 0.018680828 -0.08247621 -0.07155661 0.0056745484
0.056751616 -0.00989133 0.0121904425 0.027725115 -0.045956396 -0.03882323 -0.06056764 -0.069098264
-0.030126829 -0.051513743 -0.032039814 -0.08620807 0.05432553 -0.09778656 -0.04819694 -0.046839017
-0.08321744 -0.037063926 0.061447524 -0.0745564 0.05422143 -0.060020637 -0.08388341 0.026301853
0.01670361 0.0476888 0.031155767 0.044189118 0.021561489 -0.0030091319 0.055054583 -0.07383384
-0.09637586 -0.04082541 -0.07264771 0.06228561 0.030792208 0.07843034 -0.053542994 0.069140226
-0.08578174 -0.0617488 0.07691968 -0.010101356 0.007534332 -0.045859367 0.017611539 -0.0249044
0.061001394 0.039084543 -0.013733695 -0.034182504 -0.06819586 0.027971718 0.009926998 -0.075854056
-0.031764288 0.0015336411 0.059421636 -0.045396887 -0.0061358754 -0.060263768 0.07363497 -0.046944633
-0.031023722 0.051475413 0.06005935 0.03870519 0.0795843 -0.072351806 -0.046392363 0.07954859
0.073248826 0.07626968 -0.07685142 0.024705421 0.07455119 0.036515966 0.0034569935 0.06404373
0.06885798 0.04734178 0.025145795 -0.08548388 -0.09552543 0.01919355 -0.08179104 0.004298486
-0.037924077 -0.0055301464 -0.041502718 0.04846739 0.067750916 -0.08593549 0.07709297 -0.07704821
-0.06633251 0.027751854 -0.02390429 -0.08027802 -0.056513727 0.07610941 -0.06876459 -0.040829677
-0.062370263 0.027274441 0.047374234 -0.035500996 -0.004532554 -0.001861534 -0.072281726 0.015362051
0.019157823 0.06015455 0.084844135 -0.058029514 -0.031105129 -0.035230905 -0.06756805 0.038851824
0.03367894 -0.025733674 0.050607137 -0.0144946575 0.03738362 0.03340265 -0.091748826 -0.010280013
0.03825953 -0.031579155 -0.023379663 0.036241405 -0.0010631648 -0.05359919 0.058701333 0.037668634
0.0183519 -0.068874314 -0.069858246 -0.02026759 0.004874736 0.061027016 0.014093454 -0.006533539

conv_block.1.lin_l.weight f4 [128, 128]
00000000: 319f f9bb 4d67 b73d 52ce 2cbd 2d96 90bd
00000010: bb84 c3bd 39cc 623d 1f28 983d 142d 903c
00000020: 5e62 473c ba5a c73d 4969 31bd 2688 79be
00000030: 1f6f 2d3d 436c 193d 7785 253d 0b2a 4e3d
00000040: 44db b6bb d769 eebb ab66 a0bc 7ee2 843d
00000050: e611 97bd 5b1c 8f3d 8b6e f2bd 2464 4cbb
00000060: c532 8d3d 5529 20bb 6a5d ccbd 9c99 6cbd
00000070: de2d 833d 9064 a03d cf5d 8cbd aaf6 b5bd
00000080: b0af 96bd cd7b 9e3d 3161 143d 7997 3e3d
00000090: 0229 33be bd8a 923d 45a8 fe3c 2594 bcbc
000000a0: a806 1ebd 245e 42bb ff3f 253d 6ff2 08be
000000b0: 1a49 d5bc 10c8 b6bc 3f0d b0bb c251 9abd
000000c0: bb44 a63b ea2f 79bd b492 0e3e 4bc2 31bd
000000d0: 442a 45bd 266f fa3c 23f7 b43d b8b0 80be
000000e0: f792 2dbc ca54 de3c e2c3 cc3d 2ba1 16bd
000000f0: 0fcd 79bc 2420 a33c fc8d ad3d 1abf 983c
00000100: 23c0 94bd a1bd 4c3c 242b 0e3d a18c 7d3d
00000110: b35b 3abb 70b9 abbd 3ded babd 472a 2d3d
00000120: 5e46 9abd 90f7 14bd 61ab a4bd e2f7 dcbd
00000130: 2852 9f3d 0914 0cbd 3c89 a4bb 8130 b4bb
00000140: b989 a53d 9453 9abd 6131 59bd 6412 3abe
00000150: 5789 913d df19 9abd 50a9 94bd 057f 833d
00000160: 94dc 413d e858 21bd 1788 40bc 661b 813d
00000170: 86cb 28bc 98d0 e23d 88b2 8abb b588 69bd
00000180: cea1 16bd e8db cbbd c72d 04be 3358 04be
00000190: 6db4 abbc 9bc2 b8bc b5d1 243d 29f8 81bd
000001a0: 4502 97bd 3047 9c3d 64ad 663d 131c 0f3d
000001b0: 8464 1abd b064 10be e710 023c 5565 2b3c
000001c0: 55cc 02be 84d8 c7bc 31a0 993d cdc5 bcbd
000001d0: 4043 f03c 499e b6bd 0642 113b 28d4 583c
000001e0: 6918 bbba dca6 883c 1ffb 9abd c194 efbc
000001f0: 7eb2 97bc e3bf 07bd 1664 933d 5654 3b3d
00000200: 16c1 54bd a7b3 b5bd 81e8 f93b c0e4 583c
00000210: a3e7 4dbd b58d 19be 5a16 a93d 0e55 693d
00000220: 29ba c03d df68 4dbc 2e27 243d 6f41 15be
00000230: 9a46 aebc 3c87 8f3d ca23 2fbc a050 84bb
00000240: 6d9b 10be bd56 673d aeea 8e3d b6d0 633b
00000250: d651 3e3d ebec 953d 2804 cc3b 2f1a a63c
00000260: 364f adbd 79f8 3ebd 3561 043d 2884 0abd
00000270: 0729 2cbd bfdc 233d 769a 503d 6d24 57bd
00000280: ab11 603b 58f5 453d ebcf 47bd 994d 323d
00000290: 2c0d 4e3d 2121 ae3d 147d 45bc 7d53 9bbd
000002a0: 696f cc3b 9da7 8bbd 0318 ca3c 57ed 68bd
000002b0: 37d3 20bd d8ab 2c3d e391 9a3d 1afa 79bd
000002c0: 3074 e0bc 8835 5fbe bd2b 98bd ed1d bdba
000002d0: 44c0 1dbc 0e2a 55bd 2796 27bd 7ac6 7cbd
000002e0: 7d5d 6fbd ddfd 6b3d 9dfd 973d 2ec0 593c
000002f0: fa10 4abd 0b0f aabc 06f8 ab3d 1fad ba3c
00000300: a7b2 413c 841e b4bc 15a1 ba3b 53f5 8b3d
00000310: ceac 0d3c 713f 653d f3af 503d 14f4 d7bc
00000320: adb5 a63d 652f 3abd 97e1 993c ed63 99bd
00000330: 7925 42bb 16ac 88bd c976 6a3d c9fa a4b9
00000340: a14d 99bd f14a dd3c c834 1fbd d1c2 94bd
00000350: c869 493d 1c6d 9dbd c8ea db3c 2077 b1bb
00000360: b7e8 9abd db11 3bbd aaa7 5c3d 65f3 663d
00000370: bc69 473d e17a ec3d 7b87 c23d 1fea 973d
00000380: e5d0 82bd 3d73 87bd 90f8 3d3b 8761 043e
00000390: 7a89 c13d 16db 12bd c413 a43d d41c 803d
000003a0: 6b57 e53c ef49 433c bf54 40bd c5ab a13d
000003b0: 0b1a 99bd 8fd4 143d b9dc 893c 7bc4 a93d
000003c0: ddd5 fd3b 0ba2 bd3d e28d 323e b2a1 85bd
000003d0: 77a2 8abd b8cd 97bd 5875 373c e540 fbbb
000003e0: 384e 82bd 2927 afbd c7a9 293d 8fed 5b3d
000003f0: df36 2f3d 8d18 993d 618b 033d b4b0 2cbd
-0.007617854 0.0895525 -0.04218895 -0.07059894 -0.09546801 0.055370543 0.074295275 0.01759962
0.012169449 0.097341016 -0.0433133 -0.24368343 0.0423423 0.037456762 0.040410485 0.050333064
-0.0055803377 -0.0072758007 -0.019580206 0.064885125 -0.07376461 0.0698783 -0.11837491 -0.0031187618
0.06894449 -0.0024438698 -0.09978755 -0.05776368 0.06405233 0.07831681 -0.0685383 -0.08884938
-0.073577285 0.07738457 0.0362255 0.046531174 -0.17496112 0.071553685 0.031086097 -0.02301986
-0.038580567 -0.0029658163 0.040344235 -0.13373731 -0.026035834 -0.022312194 -0.005372673 -0.07535125
0.0050741113 -0.06083671 0.1392315 -0.043398183 -0.04813601 0.030570578 0.088362 -0.25134826
-0.010594121 0.02714004 0.09998299 -0.036774796 -0.015246644 0.019912787 0.08474347 0.018645812
-0.0726321 0.012496383 0.03470911 0.061901692 -0.0028436005 -0.08384979 -0.09127281 0.042276647
-0.07532953 -0.036368906 -0.080405004 -0.107894674 0.07779342 -0.034198795 -0.0050212424 -0.005498946
0.08082909 -0.075354725 -0.053025607 -0.18171078 0.071062736 -0.07524466 -0.07258856 0.064207114
0.0473295 -0.03939143 -0.011751196 0.06304054 -0.01030243 0.11074942 -0.0042327084 -0.05701514
-0.036775403 -0.09954053 -0.12908088 -0.1292427 -0.020960057 -0.022553733 0.040239055 -0.06346161
-0.0737348 0.076307654 0.056317702 0.034938883 -0.037693515 -0.14100909 0.0079386 0.010461171
-0.12773259 -0.024395235 0.07501257 -0.09217415 0.029328942 -0.08916909 0.0022164597 0.013234176
-0.0014274243 0.016681127 -0.07567429 -0.029245736 -0.018517729 -0.03314198 0.07196824 0.045734726
-0.051941954 -0.088721566 0.0076265936 0.013238132 -0.050269734 -0.14995463 0.08256216 0.05696588
0.09410507 -0.01253721 0.040076427 -0.14575742 -0.0212739 0.07008216 -0.010689685 -0.0040379316
-0.1412179 0.056479204 0.06978355 0.0034761853 0.046464764 0.07320579 0.0062260814 0.020276157
-0.08462374 -0.04662368 0.032319266 -0.03381744 -0.042031314 0.04000544 0.050928555 -0.052524973
0.0034190218 0.04832968 -0.04878227 0.043531034 0.05030553 0.085024126 -0.012053747 -0.075842835
0.006238867 -0.06819079 0.024669653 -0.05686697 -0.03926393 0.04215607 0.07547357 -0.06102953
-0.027399153 -0.21797764 -0.074302174 -0.0014428474 -0.009628359 -0.05204206 -0.04091468 -0.06171272
-0.058438767 0.05761515 0.0742142 0.013290448 -0.049332596 -0.020759126 0.08396916 0.022787629
0.011822379 -0.021987207 0.005695472 0.06833901 0.008647157 0.055968706 0.05094905 -0.026361503
0.08140121 -0.045455355 0.018784327 -0.074897625 -0.0029624386 -0.06673448 0.05724219 -0.00031467367
-0.0748551 0.027013274 -0.038868695 -0.07263721 0.049173146 -0.076868266 0.02684535 -0.005415812
-0.07563918 -0.045671325 0.053870834 0.056384463 0.04868482 0.11546875 0.09498497 0.07417702
-0.063875 -0.06613777 0.0028987266 0.12927829 0.0945005 -0.035853468 0.080115825 0.062554985
0.027995786 0.011919483 -0.04695582 0.078940906 -0.074756704 0.036335524 0.016828882 0.08289429
0.0077464418 0.09259423 0.17436936 -0.065249816 -0.06769269 -0.074122846 0.0111974105 -0.007667648
-0.06362575 -0.08552391 0.041421678 0.05369335 0.04277694 0.07475386 0.032115344 -0.042160705

conv_block.1.lin_r.weight f4 [128, 128]
00000000: 2abf 01be 8b06 443d 8f7c a6bd 3718 3b3d
00000010: 81ea aebd e50a 0b3d 4c3e b8bb 9576 863d
00000020: f264 1dbc 427d 783d bfce 83bc 68eb 283d
00000030: a3ab b2bd 778a 84bd b2b0 a0bd edd3 fa3c
00000040: 39a2 b0bd 8ef3 3bbc beab 0abb 1a25 4fbd
00000050: a65e 8cbc eabf 9a3d de32 6a3c 42a4 aabc
00000060: b7ed 513d 34f5 b5bb 9115 b5bc 2968 4c3d
00000070: ad88 7d3c b221 203c 5b87 393d 646a 843d
00000080: 6840 983d ef40 15bd 856c cebd 5509 afbc
00000090: 0a0a 233a eceb 5e3c c1d8 7cbc 009d f63c
000000a0: 1f90 3bbc fe7a 07bc 3eaf 9e3c ac99 b1bd
000000b0: 5b1d d0bc 104b cdbb 6fcd 3a3d 8cc1 f53c
000000c0: 90e4 b1bd 4a94 49bd 8bed 21be 3c4c 3c3a
000000d0: 32b3 fa3c 57d5 fa3c 0421 b4bd b9e1 42bc
000000e0: 4313 afbc e8de 123d 1234 23bd 2d61 d63b
000000f0: d223 7b3c 9362 673c 4fa3 423d 97fe 5cbd
00000100: a17b 0abc df13 8abd 692c 0c3d d3ad fcbc
00000110: 90e9 d93b 0fce 7dbd f0a9 e63c 37fe 39bb
00000120: f7e9 cf3c 46dc 88bd 9a0d 883d 5858 50bd
00000130: 4f60 dd3b c4f7 99bd b5b7 8f3c d398 debd
00000140: 53f0 7fbd 8c78 fabb dd90 d3bd e255 12bd
00000150: 1396 453c d24b 0dbd b83c a8bd 9f0e 283d
00000160: 8eee b1bd 07ae 7f3d 3d13 fabb c028 d2bc
00000170: 460c 04bb 248b 1dbd ccc8 8c3b 7509 9b3c
00000180: 3c47 b33d 99eb 81bd 3934 07be 8d56 453c
00000190: 22be edbd c78b b1bd 6f0d 94bd 1d4f 22bd
000001a0: d090 053d cbd3 c6bd 8c3d acbd 5f7a 97bc
000001b0: 9459 97bd 90f3 d93d 53ac 313d e0b1 8f3d
000001c0: cc90 763d 65c9 353c 9836 4cbd 436a 0ebe
000001d0: 2ba0 a0bd fd44 c93c d0ef d4bc dfe7 e6bd
000001e0: cc09 95bd 7de0 8bbd 4215 593c 3244 283d
000001f0: 75ec 99bd f518 bebd 69fd 073d 2960 6c3d
00000200: 5558 cbbd 74f1 b8bd 1d07 993d 3e7d 1fbd
00000210: 5b0f 7abc 8285 adbd 5e81 d0bd e6ea 9f3d
00000220: e071 7dbc bcf2 8b3d 6d2d cdbd f741 b73d
00000230: dabd 26be 43e9 8f3d 6609 923d 2f80 aa3b
00000240: 8aff 47bb 874b 6ebd 5d76 34bd 3702 883d
00000250: 7d5c 8f3d 54be 413c b6a9 4c3d b88d e63c
00000260: 142b 00bd fd59 0f3d bcf5 92bd 698c 49bd
00000270: 805c b2bc 12a9 a4bb 3052 58bd cfdf 8d3d
00000280: e840 31bd d48f a93d 9237 003d 5dde b3bd
00000290: 03f0 1b3d 734f 23be 907f 9cbd 5729 a23d
000002a0: 8c12 043d 67a3 a6bd 152c e6bc 4c56 6bbd
000002b0: af0f 913d 4752 0fbe 5592 10bd 130d b1bb
000002c0: 78db 13bd 9d1a 243d 0183 f2bd f4a1 99bc
000002d0: 8dfd abbd 50b5 fa3c 3e82 ad38 bfe2 0abb
000002e0: bea5 82bd e7a1 10bd 85aa 453d 1a7e c6bd
000002f0: c584 1e3d 260a d6ba 9c68 47be 7ceb 87bd
00000300: 51de 74bd a1ad 433c 426f 0f3c 14cd 86bd
00000310: c02a 433d d088 4eba 7554 1b3d 1fa5 433d
00000320: 9826 6c3d 08fc 7ebb 229c 083c a05f 6d3d
00000330: bc77 3d3d ddbe 243d 0463 24be 0fbe 373c
00000340: da39 3dbd 56a7 e43c ed1b 1f3d 4638 09be
00000350: 71c5 3d3d 27c4 463d c777 eebc 3307 28bc
00000360: b45e debd 69d5 53bd 96a8 913d 0322 9d3d
00000370: e7ed 21bd ab11 17bb 5777 cbbc 40e3 77bc
00000380: 0f54 6e3d 663b 51bd 4901 9abb f788 2d3e
00000390: 0410 eabd 7521 873d cef2 8d3d ae6b ae3c
000003a0: b5cc da3c 3cd9 86bc 8822 ac3d 3e04 e23c
000003b0: 77fb e6ba 52bd cbbd 6067 30bb f9f9 17bd
000003c0: 7033 deba 7e08 ccbc 6eca aa3d 2e0d 0fbe
000003d0: e78e 733c 632f 27bc 4eb5 cebd f1c1 2fbe
000003e0: 22ce aa3d be1b 8fbd 9f85 823d 935b 0abc
000003f0: d8ce 97bc 9dd6 0abe 1a07 7dbd c91b b7bd
-0.1267058 0.047857802 -0.081292264 0.04567739 -0.08540822 0.033945937 -0.0056226607 0.065655865
-0.009606587 0.06066633 -0.016089795 0.041240126 -0.08724143 -0.064717226 -0.07846202 0.030618632
-0.086246915 -0.011471642 -0.0021159495 -0.050572492 -0.017134976 0.07556136 0.014294354 -0.020830277
0.051252093 -0.005552912 -0.02210501 0.049904022 0.015474481 0.009773659 0.0452951 0.06465605
0.074341595 -0.03643888 -0.10079292 -0.021366755 0.00062194525 0.013606053 -0.0154325375 0.03010416
-0.011447935 -0.00826907 0.019370671 -0.08671889 -0.025404623 -0.0062650517 0.045606073 0.029999517
-0.08686173 -0.049213685 -0.15813272 0.00071829907 0.030603025 0.030619306 -0.0879536 -0.011894637
-0.02137149 0.03585711 -0.03984458 0.006542346 0.015328364 0.014122623 0.047519024 -0.053953733
-0.008452327 -0.06742071 0.03422204 -0.030844605 0.0066501573 -0.06196409 0.028157204 -0.0028380284
0.025380118 -0.06682639 0.06643219 -0.0508655 0.0067558656 -0.07517961 0.017543653 -0.10868993
-0.06248505 -0.007643765 -0.10330365 -0.035726435 0.012059706 -0.034496136 -0.08214706 0.04102957
-0.08688079 0.062421825 -0.007631688 -0.025654197 -0.0020148917 -0.038462773 0.004296398 0.018925408
0.08753821 -0.06343765 -0.13203515 0.012044561 -0.116085306 -0.086692385 -0.07229125 -0.03962623
0.032608807 -0.09708365 -0.08410177 -0.018490968 -0.073901325 0.10642159 0.04337723 0.07016349
0.060196683 0.0110953795 -0.049856752 -0.13907723 -0.078430496 0.024569029 -0.025993258 -0.11274695
-0.07277259 -0.06829927 0.013249697 0.04108066 -0.07515804 -0.09282104 0.033200655 0.057708893
-0.099289574 -0.090304285 0.0747206 -0.0389378 -0.01526245 -0.0847273 -0.10180925 0.07808475
-0.015469044 0.06833407 -0.1001843 0.08948129 -0.1628336 0.07026913 0.07130699 0.005203269
-0.0030517303 -0.058177497 -0.044058193 0.066410474 0.070000626 0.011825163 0.049966536 0.028143749
-0.031291083 0.03499793 -0.07175776 -0.04920617 -0.021772623 -0.0050250376 -0.052812755 0.06927454
-0.04327479 0.08279386 0.031302996 -0.08782647 0.03807069 -0.15948276 -0.07641518 0.07918041
0.03224425 -0.08136635 -0.028097192 -0.057455346 0.070830695 -0.1399623 -0.035295803 -0.00540317
-0.036097974 0.040064443 -0.11841393 -0.018753983 -0.0839797 0.030604035 8.273542e-05 -0.002119228
-0.06379269 -0.035310652 0.048258323 -0.09692021 0.038700838 -0.0016329929 -0.19473499 -0.06636712
-0.05978233 0.011943252 0.008754553 -0.06582084 0.04764819 -0.0007878663 0.03792234 0.047764894
0.057653993 -0.0038907547 0.008338006 0.057952523 0.046256766 0.040221084 -0.16053396 0.011214747
-0.04619775 0.027911823 0.03884499 -0.13400373 0.046330873 0.04852691 -0.029109849 -0.010255623
-0.10857907 -0.051717196 0.07112233 0.07672503 -0.039533522 -0.0023051302 -0.02483718 -0.015129864
0.058185633 -0.051082037 -0.0046998602 0.16946779 -0.11428836 0.06598178 0.06931077 0.02129158
0.02670894 -0.016461007 0.08405024 0.027589913 -0.001762255 -0.09948219 -0.0026917085 -0.037103627
-0.0016952585 -0.024906393 0.08339392 -0.13969871 0.014865614 -0.010204169 -0.10093175 -0.17163827
0.08340098 -0.06987713 0.063731425 -0.008444685 -0.018531248 -0.13558431 -0.06177435 -0.089408465

conv_block.2.lin_l.weight f4 [128, 128]
00000000: 28f7 0c3e 0c52 64bc a893 83bc f5d9 90bd
00000010: 14e3 843d b46f 373d b2ab cfbd b828 82bd
00000020: dda1 6ebd 1270 b43d 4206 85bd 9a30 d93d
00000030: bccd ebbb 80c5 203d 7586 3cbd e24c 6c3c
00000040: 160c 96bd 0dd1 bfbd d418 2a3d 558d 923d
00000050: e106 43bd c78d e13d aa94 aabd 8a5d 9f3d
00000060: 497f 81bd 1523 90bb a524 a8bb 1f60 44bd
00000070: 6749 74bd f460 0fbc b5ac 76bd 77fe 7abd
00000080: 34e4 32bc bd00 c53d 9cb2 69bd 3e39 20bd
00000090: 2f34 83bc 6db1 7c3d 005c 8bbd 837d 96bd
000000a0: d80c c5bc f874 433c 3651 313c 3f80 86bd
000000b0: 44a6 083c 8932 f63d 82fd 15bd 2bc7 4e3b
000000c0: 7f82 f83b 9f66 023e c847 4abd b5a2 fbbd
000000d0: 2d4e 94bd 8d91 533d 546e ef3c 8e8d d7bc
000000e0: b9b1 b9bd fc00 123d 0367 e6bc 16ad 81bd
000000f0: bb48 51bd 63a0 6d3b a7b3 d9bd a73c 7e3c
00000100: 11c0 9fbc 5008 e83c e14c f93c 1184 013e
00000110: b7db 66bd e32a 6e3d 8407 a1bd cd62 71bd
00000120: 16e9 393c ce89 863d e989 a03c eb6d 5abd
00000130: 6e48 583c ecc3 97bd 5a2b d8bd 1a59 0fbd
00000140: ad48 2c3d 9dd9 ad3d 0034 023d 3ca7 08be
00000150: 3408 40bd 9a22 dc3d 5d4a 0a3d 034f 713d
00000160: 9252 d63d 851a 083e af2b 6dbd 5cdb 44bd
00000170: 7070 aebd 776e 56bd 3e36 89bd ddb2 4dbd
00000180: bd90 2d3d edd2 65bd bd7c 86bd c570 993d
00000190: 0129 523d 6ba8 57bc f88b e33b cf3d a43c
000001a0: 9f1f 4e3d 8b58 2bbd dff7 09bc 2418 26bd
000001b0: 9e5a 77bd 362b 013d 3d03 aa3d fe64 63bd
000001c0: f0a4 153e a699 c0bd 5a3a 9abb c88f e73c
000001d0: 69d7 cc3d c43a 0cbd 0887 f2bc 38a7 88bd
000001e0: 5997 11bd b5eb b7bd 41b6 b03d f8f2 013c
000001f0: 8a31 e6bc 7b2e 93bc 2dfd 29be 1321 68bd
00000200: c5cf 2cbd 4317 233e 75e1 8dbd 7430 b63d
00000210: e723 d0bd 4ff1 7bbd 3dd8 8cbc 0469 063e
00000220: 9ae8 093d c44a d8bd cbfe b9bb 0d0c dfbc
00000230: b960 1bbd 7b24 acbd 3ff8 4c3e f4f1 783d
00000240: 8c6f 183c 7cb2 2abc 82c1 de3b e5ec b7bd
00000250: 6169 4bbb 4dd6 6b3d 3f0d 64bc bf7b bb3d
00000260: 61cb a8bc 7f0f 66bc a636 063e a9cb 883d
00000270: 3a39 df3d 3e21 16be f5b7 2fbd 5170 eb3d
00000280: 785c bebd b6e9 92bd 7840 86bd 3b17 173d
00000290: 4790 1dbd 7732 a5bd e2df f63a 82b2 9ebc
000002a0: e5d1 903d a131 f8bb 4b94 5cbd 5e95 98bd
000002b0: b5a1 04bd 00a0 c5bd 7616 30be c144 8a3d
000002c0: 2b58 ecbd 6899 ac3d 0780 a7b9 7a75 1b3e
000002d0: 694e 833d b07b 81bc 7d6c 063e dded a3bd
000002e0: 7512 d53c 572e be3c 6ab1 12be f730 293d
000002f0: c003 e4bd afdd f0bd d85f 8bbd a907 d3bc
00000300: e6a2 30bd afd1 4cbc 16c9 9bbd 97b4 a53c
00000310: 43f4 b9bc f1e2 90bd 7437 953d 5933 a1bd
00000320: dd73 e73c c5e6 89bd c784 c5bc c785 873d
00000330: 3b7d f23d 45af 143d 34c1 4c3d 8c75 26bd
00000340: d93a 643d 6b14 053c d368 3c3e 8dbe 45be
00000350: 379d 373e fff5 c23b c020 c2bd e825 4c3d
00000360: ea66 9bbd a874 33bd 5d56 3f3e 6ba7 d43c
00000370: 2aec 813c b60a 043d d3bf 433e a708 bd3d
00000380: 3b99 123d 888c 8c3d cdf7 0abd 1f52 8ebc
00000390: d4a9 c73d 47e2 a6bd dbbe c4bd 48c9 5fbd
000003a0: d9fd 233d 310c 96bd b39f 96bd 26df ac3d
000003b0: 3f99 71bd 8acc 733d 7e1c 19be ada4 e13d
000003c0: 773c eebd bdfa 1cbc 7dbe 3abe 4760 f03d
000003d0: 37f3 fdbc 25e3 3bbd e9c5 83bd 677d 203e
000003e0: 4b87 ccbd 6c37 70bb 3601 1e3d 2bc8 a1bd
000003f0: e567 113d 9f36 0f3c 4a47 78be b79b 093e
0.13766158 -0.013935577 -0.016061619 -0.07072822 0.06488624 0.044784263 -0.1014017 -0.06355423
-0.058259834 0.08810438 -0.06495334 0.10604973 -0.0071961563 0.03925085 -0.046026666 0.014422627
-0.07326524 -0.09366045 0.041527584 0.07155863 -0.047613982 0.1101337 -0.08329137 0.07781513
-0.06323106 -0.0043987134 -0.0051313215 -0.04794323 -0.059640314 -0.008751143 -0.0602233 -0.061277833
-0.010918666 0.096192814 -0.0570551 -0.03911709 -0.016016094 0.061692644 -0.06804657 -0.07348158
-0.024053976 0.011929743 0.010822585 -0.0656743 0.008340422 0.120213576 -0.036618717 0.0031551819
0.0075839157 0.1273446 -0.049384862 -0.12286893 -0.07241473 0.05165248 0.029227413 -0.026312616
-0.09067101 0.03564547 -0.028125292 -0.06331842 -0.05109475 0.0036258928 -0.10629969 0.01551739
-0.019500764 0.028324276 0.030432167 0.12648036 -0.05636188 0.05814637 -0.078627616 -0.058932114
0.011347076 0.06569253 0.01959701 -0.053327482 0.013200862 -0.07410416 -0.10555144 -0.034997083
0.042061497 0.08488772 0.031787872 -0.13345045 -0.046882823 0.10748787 0.033762325 0.058913242
0.10464968 0.13291366 -0.057902988 -0.04806076 -0.085175395 -0.05235144 -0.06699799 -0.050219405
0.04237436 -0.056109358 -0.06566761 0.07492212 0.051308636 -0.013162713 0.006944176 0.020049004
0.050323125 -0.041832488 -0.0084209135 -0.040550366 -0.060389154 0.03153535 0.08301399 -0.055516236
0.146137 -0.09404306 -0.004706663 0.028266802 0.10002024 -0.03423573 -0.029605404 -0.066725194
-0.035544727 -0.089805044 0.08628512 0.007931463 -0.028099794 -0.0179665 -0.16600485 -0.056672167
-0.042190332 0.15926842 -0.06927768 0.088959605 -0.10163098 -0.061509427 -0.017192954 0.13125998
0.03366909 -0.105611354 -0.0056761256 -0.027227426 -0.03793404 -0.084053956 0.20016573 0.06077762
0.009303939 -0.010418531 0.0067979703 -0.08980731 -0.0031038153 0.05757742 -0.013919174 0.09154462
-0.020604791 -0.0140417805 0.13106784 0.0667947 0.10899587 -0.14661118 -0.042900044 0.11496032
-0.09294981 -0.07173483 -0.06555265 0.03688739 -0.03846767 -0.08066266 0.0018835033 -0.019372229
0.07071284 -0.0075742756 -0.05385236 -0.074503645 -0.03238078 -0.09649658 -0.17196068 0.06751395
-0.11540254 0.084276974 -0.0003194811 0.15181533 0.0641144 -0.01580605 0.13127322 -0.08004353
0.026009778 0.023215456 -0.1432549 0.041306462 -0.11133528 -0.11761033 -0.0680539 -0.025760489
-0.043124102 -0.012501164 -0.076067135 0.020227714 -0.02269948 -0.07074536 0.072859675 -0.07871122
0.02825349 -0.06733469 -0.024111165 0.06617313 0.11840292 0.036299963 0.04998894 -0.040639445
0.055720184 0.008122544 0.18399362 -0.1931097 0.17931066 0.005949735 -0.09478903 0.049840838
-0.07587989 -0.043812424 0.18685289 0.025958737 0.015859682 0.032236777 0.19116144 0.09230166
0.035790663 0.06862742 -0.033927727 -0.017373143 0.09749189 -0.08148628 -0.09606715 -0.054635316
0.04003701 -0.07326544 -0.07354679 0.08441 -0.058984037 0.059521236 -0.14952275 0.110177375
-0.116326265 -0.009581265 -0.18236728 0.117371134 -0.030999763 -0.04587092 -0.06434233 0.15672837
-0.099867426 -0.0036654128 0.038575374 -0.07899507 0.035499472 0.00874105 -0.24245945 0.13438307

conv_block.2.lin_r.weight f4 [128, 128]
00000000: 3ac3 893d 8f66 c53d d519 aabc c7e6 10bd
00000010: 5883 52bd 5920 223c cd2c 67bd 1aa3 883c
00000020: 10de a6bc 5ccb bbbd 8631 dabc 2b25 4a3d
00000030: cd9d 6bbb 4364 3cbd 9892 453d 4c84 123e
00000040: a8c4 a03c 8ede f8bc 4573 e23c 22f2 823c
00000050: d2ec b2bc dd85 25ba 4b43 6abd 07d3 443d
00000060: 3d54 99bd e3ad d8bd 74ec 203c 2118 c13c
00000070: 99f7 503d 96f8 8ebd fdba cd3b c71d 84bd
00000080: 2df2 ccbc 0296 9dbd 6e6a 353d cae4 32bd
00000090: b459 e0bd c8be e9bc d8aa b7bd c494 47be
000000a0: 23c8 debd 434c b4bd f4d4 683d 29ca 50bd
000000b0: 2cc4 86bd 8b2b 5ebd 9a7f 073e 8e8c cdbc
000000c0: 880a ffbc 1ce1 f03c 1372 7ebc e070 243e
000000d0: 02b9 113d 5057 ea3c f050 90bd baa3 933d
000000e0: b904 a8bc 52b5 9b3b 402a 68bc 669b cbbd
000000f0: 133c ecbd b74b a8bd 6c3f 123d 33c3 86bb
00000100: 2daa 2bbd 4e2e 81bd 1bc2 3b3c b699 bcbd
00000110: 16ce 0cbe 58db b3bd caf3 6abd ac2e 5f3c
00000120: 44ef 3cbd d8c9 fbbd 3d7b 073d 2bda f6bc
00000130: 7aec 463b 5bc5 8b3d 3458 a9bd bc8d aabb
00000140: 074c 3cbd f585 43bd 96dc 80bd 32de e9bd
00000150: 4b09 613e 1a48 af3c 661f abbc d13e d4bc
00000160: 60e3 e8bd 5de9 75bc 0795 033c 5a17 203b
00000170: 29a7 403d afcc e1bd 25a7 ad3d c177 173c
00000180: 409e ef3c c6f3 963d a0c1 f13b df6d 803d
00000190: c389 e13d 81ef a83c 035e b93d 8ea1 80bc
000001a0: 8d4c d53c 5f11 203d eaa7 39bd 7853 293e
000001b0: 557b 3ebd 06c9 1c3d 5566 9bbd 48a8 893d
000001c0: 170b a2bd 3d69 02bd 850f 08be 725d d8bc
000001d0: ad19 4dbe ddde e23c acf7 b33c e54b 2d3d
000001e0: fed5 e43c 9cd7 7d3d d484 8c3c bfce 1d3d
000001f0: c951 983d a5c3 b43b e357 a2bc cfb9 1d3e
00000200: c285 023c dc44 82bd 3820 19bd ff1b 283e
00000210: 07f3 3dbe f9c0 15be 530e 103c 34c6 28bd
00000220: c927 85bc 8b1a 13bb 8044 04bd a909 cc3c
00000230: 67a5 c53c e6de 27bd ece0 9abc 6787 1dbe
00000240: 6d1f 68bd 26fb 39bd 665d a0bd edcf 2abe
00000250: 8456 683d 9524 18bd e702 c2bd ff23 233b
00000260: c963 cabc 43a1 9b3d e5fd 363d 7408 bfbd
00000270: b0d6 8c3d 1740 973d 3154 3ebc 3bd7 a6bd
00000280: 6242 d23c 1fc8 163d f8b8 0c3b 76f6 27bd
00000290: b8e2 e4bd c22f e5bc ce39 b9bd 85cb 5bbd
000002a0: 4b21 d0bd ae80 80ba a9fa 66bd c19b 5e3d
000002b0: 1621 9bbd 61b8 033c 616f 94bd 0633 b2bd
000002c0: 6f71 94bd d996 8c3e 829f 5dbc b07d bebd
000002d0: 04e3 50bb 23d3 a13d 70ac a73c e0f9 783c
000002e0: 0dd4 d53b b708 993d e2b2 803d 2107 67bd
000002f0: 4571 983d 0fc6 ce3d 72db a9bd f466 b1bb
00000300: 79fd 0a3e 8cc1 a23c 4dd9 a4bc cdef 1f3e
00000310: 2fcb a13d 049b 253c 07b6 c3bd cd70 253c
00000320: f23b 67bd b48b 123e 7cc2 0ebd 2b6e 9dbe
00000330: 78b4 0abd f686 963c c519 a83c 374a fb3b
00000340: d95a c13c 9a99 2ebd 1fef 3a3e e848 39bd
00000350: 213f 083d 12fa 223e 69e7 54bd 8038 6fbd
00000360: 079e 3ebd d9e0 a33d 6e36 b83d 9d94 813d
00000370: 98a7 833c 70e2 c5bc f253 bfbd acf2 39be
00000380: 82c5 783c e824 bb3d 3ade a6bd 61e1 e8bd
00000390: ba58 a33d 92d7 7d3d 00ec 89bd 3e16 683c
000003a0: ec96 193d a26e ecbd c8da 0a3b 3fe5 4ebe
000003b0: 55ff b0bc 9d24 d4bc 43b2 873e ef50 513d
000003c0: fa32 10bd a5b9 8a3d 2562 b43d 1a25 3f3c
000003d0: de5a 143e 6941 27bd 3ebf 49be e22f 0fbd
000003e0: 3655 c3bd 42ca 1a3b d990 f63d a14d 87bd
000003f0: 7a1d 1abd fa23 d2bd 2b83 a3be dbe5 efbc
0.0672669 0.09638702 -0.02076427 -0.035376336 -0.05139479 0.009895408 -0.05643921 0.016679335
-0.02036956 -0.09169647 -0.026634943 0.049351852 -0.003595221 -0.045994055 0.048235506 0.1430828
0.019625023 -0.03037956 0.027642855 0.015984599 -0.02184144 -0.00063141977 -0.05719308 0.048052814
-0.0748677 -0.10580041 0.009822 0.023571076 0.051017378 -0.06981008 0.0062783943 -0.06450992
-0.025017822 -0.07694627 0.044290952 -0.04367522 -0.109546095 -0.028533354 -0.08968133 -0.19490343
-0.10878017 -0.08803608 0.056843713 -0.050974045 -0.065803856 -0.054240745 0.1323227 -0.025091436
-0.031132951 0.029404216 -0.015530127 0.16058683 0.035576828 0.028606087 -0.070466876 0.07208963
-0.020510064 0.0047518397 -0.014170229 -0.09941749 -0.11534896 -0.082175665 0.035705015 -0.004112625
-0.04191034 -0.0630766 0.011459853 -0.092090055 -0.1375049 -0.08782071 -0.0573614 0.013621967
-0.04612662 -0.12294358 0.033076514 -0.030133327 0.0030353353 0.06824752 -0.082687765 -0.0052048843
-0.045970943 -0.047735173 -0.062920734 -0.114193335 0.21976201 0.021396685 -0.020888995 -0.02590886
-0.11371493 -0.015009251 0.008031136 0.002442798 0.047034416 -0.110253684 0.08479146 0.00924486
0.029250264 0.07370715 0.007377818 0.06270956 0.11012604 0.020622017 0.090511344 -0.015702035
0.026037479 0.039079066 -0.04532615 0.16535747 -0.046504337 0.03827765 -0.07587878 0.0672155
-0.079122715 -0.031838644 -0.1328717 -0.026411746 -0.20029326 0.02769416 0.021968685 0.042308707
0.02793407 0.0619732 0.017153181 0.038527247 0.07437474 0.0055164867 -0.019817298 0.15402912
0.007966461 -0.0636079 -0.03738424 0.1641693 -0.18549739 -0.14624394 0.008792478 -0.041204646
-0.016254323 -0.002244624 -0.03229189 0.02490695 0.024126722 -0.040984057 -0.01890608 -0.15383683
-0.056670595 -0.04540553 -0.07830314 -0.1668088 0.056723133 -0.037144262 -0.0947321 0.0024893282
-0.024705784 0.075991176 0.044675726 -0.09327784 0.06876886 0.07385271 -0.0116167525 -0.08146521
0.02566642 0.036811944 0.0021472555 -0.041006528 -0.11176056 -0.027976874 -0.090442285 -0.05366089
-0.101626 -0.0009803975 -0.056391392 0.054347757 -0.0757467 0.008039565 -0.07247806 -0.08701138
-0.07248198 0.27458838 -0.013526799 -0.09301317 -0.0031873593 0.07901599 0.020467967 0.015196294
0.0065255226 0.07472365 0.06284119 -0.056403283 0.074434794 0.100963704 -0.08293809 -0.0054138843
0.13573255 0.019867681 -0.020123148 0.1561882 0.07900082 0.010107759 -0.09556203 0.010097695
-0.056453653 0.14311105 -0.034853444 -0.30748114 -0.033863515 0.018374901 0.0205201 0.007668759
0.02360289 -0.042626955 0.1825528 -0.045235544 0.03326333 0.15915707 -0.051978502 -0.058403492
-0.046537425 0.08001871 0.08994757 0.06327174 0.016071126 -0.024155825 -0.09342183 -0.18158978
0.015183808 0.09137899 -0.08147855 -0.113711126 0.079759076 0.061973162 -0.067344666 0.014165459
0.037497446 -0.11544539 0.0021187533 -0.20204638 -0.021606127 -0.025896365 0.2650319 0.051102575
-0.035204865 0.0677369 0.08807782 0.011666561 0.14487788 -0.040833864 -0.1970186 -0.034957774
-0.09537737 0.002361909 0.12039346 -0.066066034 -0.037625767 -0.10260768 -0.3193601 -0.029284408
