models/test_training/batch_size/relaxed/BatchSize1/GNN.pth (torch, 993672 bytes, 18 tensors)

input_layer.weight f4 [128, 7]
0	0x3e1e7f3b	0.15478222
1	0xbea8039d	-0.32815257
2	0x3da0d061	0.07852245
3	0x3cc09d1d	0.023512417
4	0x3dafb496	0.08579366
5	0x3c928936	0.017887693
6	0xbb1a5627	-0.0023549886
7	0xbe3a30a3	-0.18182616
8	0xbd461233	-0.0483572
9	0x3f052d00	0.5202179
10	0x3eb6a0b8	0.35669494
11	0xbc68a52f	-0.014199539
12	0xbeb6026d	-0.35548726
13	0xba99cbad	-0.0011733674
14	0xbe83c7cf	-0.2573838
15	0x3e179f21	0.14806797
16	0xbe6af6e5	-0.22945745
17	0xbcdf8e87	-0.027289642
18	0xbdabcca7	-0.08388644
19	0x3d0087c8	0.03137949
20	0x3e9995ff	0.2999725
21	0xba7e79f6	-0.00097075047
22	0x3dee5b42	0.116385
23	0x3e956b15	0.2918326
24	0x3e827cc7	0.25485823
25	0xbe05a9cf	-0.13053058
26	0xbdad204d	-0.084534265
27	0x3df4b75a	0.11949034
28	0xbdd33812	-0.10313429
29	0x3e323699	0.1740364
30	0xbda91c0d	-0.082573034
31	0xbe834100	-0.2563553
32	0x3e0ede1d	0.13951917
33	0x3d8fe68d	0.07026396
34	0x3dbf77da	0.09349032
35	0x3df63a85	0.120228805
36	0x3da32c45	0.07967428
37	0x3e935800	0.28778076
38	0x3d3e6107	0.04647925
39	0xbea67769	-0.32512978
40	0xbe87c20d	-0.26515236
41	0xbe706a97	-0.23478161
42	0xbeaa8989	-0.33308056
43	0xbe42002a	-0.18945375
44	0xbeb22571	-0.3479419
45	0xbeb28ae0	-0.34871578
46	0xbe674660	-0.2258544
47	0xbebec6c3	-0.37261018
48	0xbe6d9139	-0.2319993
49	0xba18bb3f	-0.00058262417
50	0x3eb044e5	0.34427562
51	0xbde641e6	-0.11243038
52	0xbde12930	-0.10994184
53	0x3e1153f6	0.14192185
54	0xbe3ef3bd	-0.18647666
55	0xbe3700c7	-0.1787139
56	0x3d6e77c1	0.058219675
57	0xbea89cc5	-0.32932106
58	0x3c946059	0.018112348
59	0x3dcab84a	0.098984316
60	0x3d991105	0.07473949
61	0x3db67936	0.08909838
62	0xbe6167f7	-0.22012316
63	0xbbaadf57	-0.0052146125
64	0xbc2a203d	-0.010383663
65	0x3cd88db6	0.02643476
66	0x3e2b415e	0.16724154
67	0x3eca0e82	0.39464194
68	0xbe93b648	-0.28850007
69	0xba9b7a6e	-0.0011862048
70	0xbe416086	-0.18884477
71	0xbe9915bf	-0.29899403
72	0xbcf7f176	-0.030266505
73	0xbeaa576d	-0.33269826
74	0x3e8659a5	0.26240268
75	0x3d20326b	0.039110582
76	0xbe509891	-0.203707
77	0x3e3f8570	0.18703246
78	0xbeb72692	-0.35771614
79	0xbe15b480	-0.14619637
80	0xbd96cdb7	-0.07363456
81	0xbea4711b	-0.32117543
82	0xbe761c87	-0.2403432
83	0xbd7caf88	-0.061690837
84	0x3dd0e2ef	0.10199534
85	0x3e73fc28	0.23826659
86	0x3e360d0b	0.17778413
87	0xbe671bb6	-0.22569165
88	0xbe7d34f7	-0.24727236
89	0x3e999356	0.2999522
90	0xbb19598f	-0.0023399328
91	0xbad83ed1	-0.0016498213
92	0x3d91fb39	0.07127995
93	0xbe9b8796	-0.3037688
94	0xbe0139be	-0.12619683
95	0x3ec0a9e7	0.37629625
96	0xbdbee931	-0.093218215
97	0xbc9b5286	-0.018960249
98	0xbea0af11	-0.31383565
99	0xbe5882af	-0.21143602
100	0xbbfce64a	-0.0077178823
101	0xbe70692c	-0.2347762
102	0xbd3ffc0b	-0.046871226
103	0x3e1e84bd	0.15480323
104	0xbebd4b73	-0.36971626
105	0xb8af9446	-8.372268e-05
106	0xbe7fe93e	-0.24991319
107	0xbe3ce4a5	-0.18446596
108	0x3e2cbfca	0.16870037
109	0x3ea43bf5	0.32076994
110	0xbdd38f73	-0.10330095
111	0xbe1ee7a4	-0.15518051
112	0xbeaefc59	-0.341769
113	0xbe4793f0	-0.19490027
114	0xbea9738b	-0.33095965
115	0xbdb1297e	-0.08650492
116	0x3e054a32	0.13016585
117	0xbeb54d58	-0.3541057
118	0x3eef89f4	0.46784937
119	0x3e548c5e	0.20756671
120	0xbebd7186	-0.37000674
121	0xbe38dc69	-0.1805283
122	0x3d8e5fbe	0.06951855
123	0xbd9f0a55	-0.077656426
124	0xbd28b60c	-0.04118924
125	0xbe2ec0ad	-0.17065687
126	0x3c99772e	0.018733587
127	0xbe585a2b	-0.21128146
128	0x3e7d864c	0.24758261
129	0xbb33ae55	-0.0027417142
130	0x3d68cf2b	0.056838196
131	0x3e94cd76	0.29063004
132	0xbd7f14a3	-0.06227554
133	0xbe5c5b2c	-0.21519154
134	0xbd7a633b	-0.06112979
135	0x3e980abe	0.29695696
136	0xbe8f9678	-0.28044486
137	0x3e2a37e1	0.16622879
138	0xbebe3009	-0.37146023
139	0x3ebd965e	0.37028784
140	0x3d597253	0.053087544
141	0xba4078dd	-0.0007342229
142	0x3e0a1a55	0.13486607
143	0xbb993c5c	-0.004676385
144	0x3e3ec4b9	0.18629731
145	0xbe993152	-0.2992044
146	0xbd63593d	-0.055505026
147	0x3cfcce8d	0.03086021
148	0x3e81fbd5	0.25387445
149	0x3e38901d	0.18023725
150	0xbe8cb8a0	-0.27484608
151	0x3e8767ba	0.26446325
152	0xbdac9dd5	-0.084285416
153	0xbda54680	-0.080700874
154	0xbeafe3e5	-0.34353557
155	0xbd73b325	-0.059497017
156	0x3eaf7dea	0.34275752
157	0x3de2296e	0.11043058
158	0xbe616e31	-0.22014691
159	0x3e234c39	0.15947045
160	0xbdf8339b	-0.12119218
161	0x3e886d24	0.26645768
162	0xbea7f6f5	-0.328056
163	0xbdf4829a	-0.11938973
164	0xbebadb0e	-0.3649525
165	0xbe186d22	-0.14885381
166	0x3db861a6	0.09003
167	0x3e77d25f	0.24201344
168	0xbae93b5c	-0.001779418
169	0x3ec68fa3	0.3878146
170	0x3d80ae30	0.06283224
171	0x3dffe001	0.12493897
172	0x3e891461	0.2677336
173	0x3ea254d9	0.3170536
174	0xbe58a20e	-0.21155569
175	0x3e890234	0.26759493
176	0x3ddc6624	0.10761669
177	0xbe34f840	-0.17672825
178	0xbe38b1d8	-0.18036592
179	0xbea24ff4	-0.31701624
180	0x3dbdca66	0.0926712
181	0xbe9cdb10	-0.3063588
182	0xbb8728d0	-0.0041247383
183	0x3dec2926	0.11531286
184	0xbea820f2	-0.32837635
185	0xbaf665e0	-0.0018798672
186	0xbcfbd290	-0.030740052
187	0x3e21bbc1	0.15794279
188	0x3d81da01	0.06340409
189	0xbec06280	-0.3757515
190	0x3ec32bda	0.38119394
191	0x3e8feb37	0.28109142
192	0x3ce22afb	0.027608385
193	0xbeb0de24	-0.3454448
194	0xbe0a41d5	-0.13501675
195	0xbde0552c	-0.10953745
196	0xbdc6ef49	-0.09713609
197	0x3d81d1a7	0.06338816
198	0x3d8f4897	0.06996267
199	0x3e7abf6d	0.24487086
200	0xbe10f42c	-0.14155644
201	0x3e0ad0ef	0.13556264
202	0x3db3c4f0	0.08777797
203	0xbea11f04	-0.31468976
204	0xbebbb753	-0.36663303
205	0xbe48d41c	-0.19612163
206	0x3ec4a9c1	0.38410762
207	0xbeb63070	-0.3558383
208	0xbea871c7	-0.32899305
209	0x3ec42f29	0.3831723
210	0xbba54929	-0.0050441218
211	0x3d197e8f	0.03747421
212	0xbe921816	-0.28534
213	0xbe8da2b9	-0.2766321
214	0x3e49c802	0.19705203
215	0x3ea3519b	0.31898198
216	0x3dbd3534	0.09238663
217	0xbb54c82d	-0.0032467947
218	0x3e3f0d9c	0.18657535
219	0x3eb1ab2c	0.34700906
220	0xbe79b790	-0.2438643
221	0xbe2fb7ff	-0.17160033
222	0x3e8f0e64	0.27940667
223	0xbe84699d	-0.25861827
224	0xbe556a93	-0.20841436
225	0x3e56bafe	0.2096977
226	0x3c840d5b	0.01611965
227	0x3d64fa13	0.05590255
228	0xbe240a95	-0.16019662
229	0xbbaaebd0	-0.0052160993
230	0x3e391dde	0.180778
231	0xbe684e7a	-0.22686186
232	0xbb7f28d1	-0.003893424
233	0x3e1ccee7	0.15313302
234	0xbe8598a2	-0.26093012
235	0x3ecc7a69	0.39937142
236	0xbe415df9	-0.18883504
237	0xbdb9e1e4	-0.09076288
238	0xbdd170d0	-0.102265954
239	0xbe7c3717	-0.2463039
240	0xbebde465	-0.37088314
241	0x3e8d47ad	0.27593747
242	0x3dda534f	0.10660421
243	0xbeb53fba	-0.35400182
244	0xbe791b43	-0.24326806
245	0x3eab567f	0.3346443
246	0xbbf2a79b	-0.007405234
247	0x3dc18fd9	0.09451265
248	0xbe67900b	-0.22613542
249	0xbe29acc6	-0.16569814
250	0xbd69b2d0	-0.057055295
251	0xbd8d8fe5	-0.06912211
252	0xbe849b96	-0.25899953
253	0xbbecafa5	-0.007223087
254	0xba065141	-0.0005123802
255	0xbd440701	-0.047858242

conv_block.0.lin_l.weight f4 [128, 128]
0	0xbc8756fb	-0.016520968
1	0xbdb9f13e	-0.090792164
2	0xbd55a1a1	-0.052156094
3	0x3b4ae233	0.003095758
4	0xbd344fc7	-0.044021394
5	0xbd8a201e	-0.06744407
6	0xbd4ab4d8	-0.049488872
7	0x3dc6d701	0.097089775
8	0xbc779f85	-0.015113716
9	0xbbf23f67	-0.007392812
10	0xbda208a9	-0.07911808
11	0xbd08b6c4	-0.033377424
12	0x3d8b59d8	0.06804246
13	0x3d52b16a	0.051438726
14	0xbb40a69e	-0.0029396187
15	0xbdd839fb	-0.10557934
16	0x3d66b224	0.056322232
17	0xbd8ab714	-0.06773201
18	0xbd6de65d	-0.05808102
19	0x3cf0fba6	0.02941687
20	0x3b167e6b	0.0022963535
21	0xbc451443	-0.012028757
22	0x3d02bb6b	0.031917017
23	0x3d00f36d	0.03148215
24	0x3db1675d	0.08662293
25	0x3db98a3b	0.090595685
26	0x3cfc18f9	0.030773627
27	0x3de96e4d	0.11397991
28	0xbdb2c1ab	-0.087283455
29	0xbec8f6c0	-0.39250755
30	0xbd8902bb	-0.06689974
31	0xbcb2f849	-0.021846907
32	0x3e25f004	0.1620484
33	0xbc550a55	-0.013002952
34	0xbd1381f9	-0.036012623
35	0xbc3bfe52	-0.011474209
36	0xbd4c4031	-0.049865905
37	0xbd646053	-0.055755924
38	0x3d9439ad	0.07237563
39	0xbdb708f2	-0.08937253
40	0x39fefc48	0.0004863462
41	0xbb885ebc	-0.004161684
42	0x3dca97e0	0.09892249
43	0xbd0ead77	-0.034833398
44	0xbec0b62c	-0.37638986
45	0x3e01c7e3	0.12673907
46	0xbd4523f2	-0.048129983
47	0xbd8d491d	-0.06898711
48	0xbd898ba1	-0.06716085
49	0xbcd9c502	-0.026583198
50	0xbcbb962e	-0.02289876
51	0x3ccbae01	0.024863245
52	0x3cab945f	0.020944772
53	0xbd55aee3	-0.052168738
54	0xbdbeee60	-0.0932281
55	0xbdc93aee	-0.09825693
56	0x3ca7e735	0.02049599
57	0x3c28fa27	0.010313547
58	0x3d6dda64	0.0580696
59	0x3db19044	0.086700946
60	0x3dc1eddf	0.094691984
61	0x3dfc460a	0.123180464
62	0x3d77e052	0.060516663
63	0xbbc5e5c2	-0.006039352
64	0x3cc0e791	0.02354792
65	0xbcf92a4b	-0.030415675
66	0xbd93c2c4	-0.07214883
67	0x3e0a3472	0.13496569
68	0x3db3da5f	0.08781885
69	0xbeffa4c1	-0.49930385
70	0x3d915020	0.07095361
71	0xbd64eaf2	-0.055888124
72	0xbd9e9a86	-0.07744317
73	0x3da08753	0.07838311
74	0xbd970100	-0.073732376
75	0x3d43866f	0.047735628
76	0x3d276ecb	0.040877145
77	0x3d365697	0.044516172
78	0xbcda8d30	-0.026678652
79	0xbd9aefd5	-0.075652756
80	0x3dda731a	0.10666485
81	0xbd4ddcaa	-0.05025927
82	0x3d45f826	0.048332356
83	0xbca7f4a9	-0.020502405
84	0xbd2ccf2a	-0.042189755
85	0xbdb387b9	-0.087661214
86	0x3db2cc12	0.087303296
87	0xbdc029cb	-0.093829714
88	0xbdb28cd8	-0.0871827
89	0x3d6d0ff3	0.05787654
90	0x3a8fe8e7	0.0010979444
91	0xbc9bf02c	-0.019035421
92	0xbd8554f1	-0.06510342
93	0xbddfb568	-0.10923272
94	0xbcfaf748	-0.030635491
95	0x3ccfb1c3	0.025353318
96	0x3d0b933e	0.034075968
97	0x3d077bed	0.03307717
98	0x3d6c23b9	0.057651255
99	0x3cd480ef	0.025940387
100	0xbd52a404	-0.05142595
101	0xbda9da7a	-0.08293624
102	0x3d6d9032	0.057998843
103	0x3ccb3cbd	0.024809236
104	0x3c8ca989	0.017170684
105	0x3d7ec1d2	0.06219656
106	0x3dde0a26	0.108417794
107	0x3beac45f	0.0071645225
108	0xbda8d5e2	-0.0824392
109	0xbd3aad34	-0.045575336
110	0x3d3a8cf4	0.04554458
111	0x3d6d1d1b	0.057889085
112	0xbd03e418	-0.03219995
113	0xbda62347	-0.08112197
114	0x3cbfdeca	0.023421664
115	0xbcd02a33	-0.025410747
116	0xbd70a32a	-0.058749355
117	0x3d5c2251	0.053743664
118	0xbd10f972	-0.03539414
119	0x3d838196	0.06421201
120	0xbd2cd339	-0.042193625
121	0x3d4ad65c	0.049520835
122	0xbc3cf877	-0.011533848
123	0xbd483db2	-0.048886962
124	0x3d27d20f	0.04097181
125	0xbdc674d2	-0.096902505
126	0xbc18ffc6	-0.009338325
127	0xbca3b4c8	-0.019983664
128	0xbd45eba7	-0.04832044
129	0xbb205cbf	-0.0024469343
130	0xbd521ade	-0.051295154
131	0x3da3fbdc	0.08007023
132	0xbd207342	-0.03917242
133	0xbd24eea6	-0.040266655
134	0xbd07109b	-0.03297482
135	0xbdc944fd	-0.098276116
136	0xbab8796a	-0.001407427
137	0xbdb716c7	-0.08939891
138	0xbd2e3c53	-0.042538
139	0x3c6ad3a5	0.014332687
140	0x3d3728f8	0.044716805
141	0xbdb795a8	-0.089640915
142	0xbb2c4b21	-0.0026289898
143	0xbda4fce8	-0.080560505
144	0x3d72093b	0.059090834
145	0x3d6f04c6	0.05835416
146	0x3d01b22d	0.031664062
147	0xbbcfcb53	-0.006341377
148	0xbdbeb551	-0.09311927
149	0xbdad1c83	-0.08452704
150	0xbbba232e	-0.0056804633
151	0x3c20da31	0.009817646
152	0xbd48a259	-0.04898295
153	0x3d4d84a7	0.050175335
154	0xbdf50ff3	-0.11965933
155	0x3c261d07	0.010138757
156	0xbdc4ea83	-0.09615042
157	0xbd1ccc5a	-0.038280822
158	0xbdc81518	-0.09769648
159	0xb9a744fb	-0.00031904117
160	0xbdb04799	-0.08607406
161	0xbcbc05a0	-0.022951901
162	0xbd5c9f58	-0.0538629
163	0xbd9b10ef	-0.07571589
164	0x3d5826d0	0.05277139
165	0xbd9d8082	-0.076905265
166	0xbdf816ba	-0.1211371
167	0x3db291d3	0.0871922
168	0xbdbe967c	-0.09306046
169	0xbcd6e8ce	-0.026234057
170	0xbd714900	-0.05890751
171	0x3c81a4f9	0.015825735
172	0x3da006d1	0.078138
173	0xbd4584b8	-0.048222274
174	0xbd0ce4b5	-0.0343978
175	0xbdb94af2	-0.09047498
176	0xbd8559cd	-0.06511269
177	0x3c896fe3	0.016776985
178	0xbd75e175	-0.060029466
179	0xbd76425c	-0.06012188
180	0x3d1c5f84	0.03817703
181	0xbdef9a18	-0.11699313
182	0xbd05090a	-0.032479323
183	0xbd023b5c	-0.03179489
184	0x3b6f4afd	0.0036513202
185	0xbd82d31e	-0.06387924
186	0x3d8c582e	0.068527564
187	0x3c85edd1	0.016348751
188	0xbdbf03c1	-0.09326888
189	0x3ca64fe1	0.020301761
190	0xbbce0f51	-0.006288447
191	0xbd088af8	-0.033335656
192	0xbd38c6f4	-0.04511161
193	0x3b3bc9b6	0.0028654165
194	0xbb8b44dc	-0.004250152
195	0xbd328088	-0.04357961
196	0xbd3584c4	-0.04431607
197	0x3e0c84b6	0.137225
198	0xbddd94d2	-0.10819401
199	0x3c2df6fd	0.010617969
200	0xbd3ff166	-0.046861075
201	0xbdaf8b4a	-0.08571489
202	0x3c13d32b	0.009022514
203	0xbc947d35	-0.01812611
204	0xbcfea612	-0.031085048
205	0xbaacf4e5	-0.0013195543
206	0xbd15fee8	-0.03662005
207	0x3cf6822a	0.030091364
208	0xbd5709cd	-0.05249958
209	0x3cbaac10	0.022787124
210	0xbd59dc8c	-0.053188846
211	0x3c66b53a	0.014081294
212	0xbdd96893	-0.10615649
213	0xbd09b019	-0.033615205
214	0xbd8385fc	-0.0642204
215	0xbbbf6549	-0.0058409316
216	0xbd3c9615	-0.046041567
217	0xbde290a7	-0.110627465
218	0x3d01cbb7	0.03168842
219	0xbd077d8d	-0.03307872
220	0xbdc2c4c3	-0.095101856
221	0xbdb03789	-0.086043425
222	0xbcc3882b	-0.02386864
223	0x3d0494a9	0.032368336
224	0x3d19e7f5	0.037574727
225	0xbdad9eb1	-0.084775336
226	0x3cd2f712	0.025752578
227	0x3c7c66e7	0.015405393
228	0x3c82c485	0.015962848
229	0xbd53037e	-0.051517002
230	0xbdc18f0e	-0.09451114
231	0xbd66a794	-0.05631216
232	0xbda1d066	-0.07901077
233	0x3cb25353	0.021768248
234	0x3c86b100	0.016441822
235	0x3d8566bb	0.06513735
236	0xbd734e6c	-0.05940096
237	0xbd9814be	-0.07425831
238	0xbcae50c5	-0.021278748
239	0xbd019cd9	-0.031643722
240	0x3d6b0c45	0.057384748
241	0xbdabf2bc	-0.08395907
242	0x3cb9494f	0.022617964
243	0xbcec1ef3	-0.028823351
244	0x3dc1c790	0.09461892
245	0xbd48c19f	-0.049012776
246	0x3caf6341	0.021409633
247	0xbc440906	-0.011965042
248	0xbda2fd8e	-0.07958518
249	0xbdd28d88	-0.10280901
250	0x3ca98477	0.020693047
251	0x3c147d0f	0.009063019
252	0x3d4a903d	0.049453963
253	0x3c156677	0.009118668
254	0xbcdfb5b9	-0.027308332
255	0x3d4dccc3	0.050244104

conv_block.0.lin_r.weight f4 [128, 128]
0	0xbd814bcf	-0.063132875
1	0x3d039801	0.032127384
2	0xbd220d09	-0.039563213
3	0x3d087d70	0.03332275
4	0x3d06fa17	0.032953348
5	0x3d563bc9	0.05230311
6	0xbbed744a	-0.0072465288
7	0xbd425532	-0.04744453
8	0x3ae5b5ba	0.0017525472
9	0xbd23dfc7	-0.040008333
10	0x3ce0b6cb	0.027430912
11	0xbdc35702	-0.0953808
12	0xbc84f8bc	-0.016231887
13	0x3d9b1acf	0.07573473
14	0xbd97252e	-0.07380138
15	0x3d884ad1	0.06654895
16	0x3ccbf9a6	0.024899315
17	0xbe20a910	-0.15689492
18	0x3d7ba19c	0.06143342
19	0xbd1696e2	-0.036764987
20	0xbd9c5be5	-0.07634715
21	0xbcf178a8	-0.029476479
22	0xbb0b8430	-0.0021288507
23	0xbdc6b108	-0.09701735
24	0xb950c62a	-0.00019910248
25	0x3cce5931	0.025189014
26	0xbdaf4991	-0.085589536
27	0x3d0e10e6	0.034684084
28	0x3c97fdb9	0.018553602
29	0xbcff203c	-0.0311433
30	0x3da0e4ad	0.078561164
31	0xbcb6da72	-0.02232096
32	0xbd19783b	-0.037468176
33	0xbdc0b37f	-0.09409236
34	0xbd3e3a6b	-0.04644243
35	0x3b71b9cf	0.0036884432
36	0x3d4d7503	0.05016042
37	0x3d856dfe	0.0651512
38	0x3d059e09	0.032621417
39	0xbc83700e	-0.016044643
40	0x3c8a7be4	0.016904779
41	0x3d2c084d	0.042000104
42	0x3d7146ad	0.058905292
43	0x3d4c333f	0.04985356
44	0xbe247b35	-0.16062625
45	0xbd1a6137	-0.037690368
46	0xbc9e713b	-0.019341102
47	0xbc4be07e	-0.01244366
48	0xbdc28c09	-0.09499366
49	0x3d824e26	0.06362562
50	0x3d53c593	0.051702093
51	0x3d8bfbf6	0.06835167
52	0x3d007045	0.03135707
53	0x3d9d38fd	0.07676885
54	0xbcf26e04	-0.029593475
55	0xbcc354ad	-0.023844087
56	0xbc031101	-0.0079996595
57	0x3c900a5d	0.017583067
58	0xbd997171	-0.0749234
59	0xbd3921ea	-0.04519836
60	0xbc27584e	-0.010213925
61	0xbd8ff836	-0.07029764
62	0xbda52d4b	-0.080652796
63	0x3ce40e70	0.027838916
64	0xbc1b80b9	-0.009491139
65	0xbdb9907d	-0.09060762
66	0xbcc76e8c	-0.024344705
67	0xbcde4b49	-0.027135508
68	0xbc503a64	-0.012709234
69	0xbd93d24b	-0.072178446
70	0xbd80c7f6	-0.062881395
71	0x3cf892fe	0.030343529
72	0x3c72198b	0.014776598
73	0xbd9a127a	-0.075230554
74	0xbd21a5ac	-0.039464638
75	0xbb374ce7	-0.0027969421
76	0x3d0ddf88	0.034637004
77	0xbd30ac38	-0.04313299
78	0x3c30ba5b	0.010786618
79	0x3ce932f8	0.028466687
80	0xbda9b1d4	-0.08285871
81	0xbca169d2	-0.01970378
82	0x3c709196	0.014683148
83	0x3d0d7f09	0.03454498
84	0x3b61d67a	0.0034460113
85	0xbd3b562b	-0.045736473
86	0xbd33e32c	-0.04391782
87	0x3cfd98e5	0.030956695
88	0x3cd8b94b	0.026455542
89	0xbcb6f00e	-0.022331264
90	0x3da16f34	0.078825384
91	0x3c05faf1	0.008177505
92	0xbd91e784	-0.07124236
93	0xbc00e9d2	-0.007868247
94	0xbba46306	-0.0050166873
95	0xbd01f9fb	-0.03173254
96	0x3b604cf5	0.0034225557
97	0xbd35a584	-0.0443473
98	0xbd6086c5	-0.054816026
99	0x3d3dcaf1	0.046336118
100	0x3d4c5d7c	0.04989384
101	0xbd720fae	-0.059096985
102	0x3b4b62b6	0.0031034178
103	0x3ccb6364	0.024827667
104	0xbc00a3e5	-0.0078515755
105	0xbc276958	-0.010217987
106	0xbcf8330a	-0.030297775
107	0xbc5aa678	-0.013345353
108	0xbda306a8	-0.07960254
109	0x3da05f54	0.078306824
110	0x3d9e10d4	0.077180535
111	0x3d29c2c3	0.041445505
112	0xbd1b4f0b	-0.037917178
113	0xbcf789e8	-0.030217126
114	0x3c57d0c1	0.013172329
115	0x3d25ece2	0.040509112
116	0xbcc0eda3	-0.023550814
117	0xbccbae50	-0.024863392
118	0xbdace84f	-0.08442747
119	0xbda06bb2	-0.07833041
120	0xba963eaa	-0.0011462767
121	0xbc6f891c	-0.014620092
122	0xbc837e2d	-0.016051376
123	0x3da35e15	0.07976929
124	0x3c4263ce	0.011864616
125	0xbd90f973	-0.07078829
126	0xbd8d34f3	-0.06894865
127	0x3cc8654b	0.024462363
128	0x3d5c80ba	0.0538337
129	0xbe0f58ce	-0.1399872
130	0xbc5fbbf3	-0.01365565
131	0xbdeb5a35	-0.11491815
132	0x3c0393d8	0.008030854
133	0xbda25f01	-0.07928277
134	0x3d9837e7	0.074325375
135	0x3d508e13	0.050916743
136	0xbd75365f	-0.059866305
137	0xbdbec9b6	-0.09315817
138	0x3ce53b66	0.027982425
139	0x3dc9619b	0.0983307
140	0x3b1bfb3e	0.0023800875
141	0xbd6d4f0c	-0.057936713
142	0x3d8df357	0.06931179
143	0xbd828df5	-0.063747324
144	0x3d34b3f8	0.044116944
145	0xbb8dadb7	-0.004323687
146	0xbc30c5e4	-0.010789368
147	0xbd571eb8	-0.05251953
148	0xbc881dee	-0.016615834
149	0xbd738610	-0.059454024
150	0xbb9cae01	-0.004781485
151	0x3cfa226b	0.03053399
152	0xbc888784	-0.016666181
153	0x3d9710d7	0.07376259
154	0xbd06073c	-0.032721743
155	0xbe00771f	-0.12545441
156	0xbdf5058f	-0.11963951
157	0x3da97b44	0.08275464
158	0xbdd127fd	-0.10212705
159	0x3c55ab43	0.01304132
160	0xbde44a78	-0.11147016
161	0xbd9983c4	-0.074958354
162	0x3c1d5875	0.009603609
163	0x3d7470ef	0.059678014
164	0xbde2028d	-0.11035643
165	0x3d709dd6	0.058744274
166	0xbdf1d220	-0.11807656
167	0xbd85d80d	-0.06535349
168	0xbd00e5cb	-0.031469148
169	0xbdd091b2	-0.10184039
170	0xbe10c63d	-0.14138122
171	0xbd830161	-0.063967474
172	0xbd5ec67c	-0.05438851
173	0xbd31aaa2	-0.04337562
174	0xbd312382	-0.043246754
175	0xbd447133	-0.047959518
176	0xbd3df2de	-0.046374194
177	0x3d3275fa	0.043569542
178	0xbd6fc2cf	-0.058535393
179	0x3d32ff35	0.043700416
180	0x3bd15b04	0.0063890237
181	0xbd7c37aa	-0.061576523
182	0xba7c5d21	-0.00096269144
183	0xbddbb296	-0.10727422
184	0x3c42abcd	0.011881781
185	0xbd3c2b89	-0.045939956
186	0x3d4f7d13	0.05065639
187	0x3d0fa672	0.035070844
188	0x3d68a064	0.056793585
189	0xbd9eea1a	-0.07759495
190	0xbba3e6e0	-0.0050018877
191	0x3da2bd5b	0.07946273
192	0xbc0d2eca	-0.008617112
193	0x3c35b1c4	0.011089746
194	0xbcabcc2a	-0.020971376
195	0xbdc71d4f	-0.09722387
196	0x3da0fa0c	0.07860193
197	0xbd5d3e96	-0.054014765
198	0x3c88d37c	0.016702406
199	0x3d174c42	0.03693796
200	0x3d516067	0.051117327
201	0xbd8ca79c	-0.068679065
202	0x3d10792c	0.03527181
203	0x3d601ac8	0.05471304
204	0xbcbd0302	-0.023072723
205	0xbdba5360	-0.09097934
206	0xbce61639	-0.028086768
207	0xb9f9ae36	-0.00047622778
208	0xbe29787d	-0.16549869
209	0xbc156c2e	-0.00912003
210	0xbd718589	-0.05896524
211	0xbdaef5c9	-0.085429735
212	0x3cf36344	0.02971042
213	0x3cec5010	0.02884677
214	0xbda2ce87	-0.07949548
215	0x3d6a6424	0.057224408
216	0xbc129962	-0.008947702
217	0xbc98dce0	-0.018660009
218	0xbc946948	-0.018116608
219	0xbdd6bf56	-0.10485713
220	0xbda7651e	-0.081735834
221	0xbcd9ec9c	-0.026602082
222	0xbdd9d35f	-0.10636019
223	0x3d171863	0.03688849
224	0x3b19d622	0.002347358
225	0x3ccbd907	0.02488376
226	0x3dad1d98	0.0845291
227	0xbd8aac5e	-0.06771158
228	0xbca9abc0	-0.02071178
229	0xbde6c549	-0.11268098
230	0xbe07ef43	-0.13274865
231	0x3d1e30d7	0.038620796
232	0x3d3344af	0.043766674
233	0xbad291ac	-0.0016065142
234	0xbde4ba86	-0.11168389
235	0x3d73ca61	0.059519175
236	0xbdcdea82	-0.100544944
237	0xbdb942fa	-0.09045978
238	0x3d34f9cb	0.044183534
239	0xbc8ec9ff	-0.017430304
240	0xbdada30a	-0.08478363
241	0xbd8635e3	-0.06553247
242	0xbd69c22b	-0.05706994
243	0x3d0bba5a	0.034113266
244	0xbd7edafc	-0.06222056
245	0xbda284e8	-0.07935506
246	0xbd156f3e	-0.036483042
247	0x3c2f2032	0.010688828
248	0x3c6f623b	0.014610822
249	0x3adf840c	0.0017052903
250	0xbdebca7a	-0.11513229
251	0xbdcb357c	-0.09922311
252	0xbd3bffee	-0.04589837
253	0xbcd778c7	-0.026302708
254	0xbd85526a	-0.0650986
255	0xbcfe999d	-0.031079108

conv_block.1.lin_l.weight f4 [128, 128]
0	0x3d67e5ed	0.05661576
1	0x3ca95765	0.020671556
2	0xbdbe60c8	-0.09295803
3	0xbcd66501	-0.02617121
4	0x3e0f44b4	0.13991052
5	0xbd99d5b3	-0.07511463
6	0xbd27a531	-0.040929023
7	0x3e029215	0.12751038
8	0x3db42b8b	0.08797368
9	0x3c6ed3a9	0.014576831
10	0xbdab4d8b	-0.083643995
11	0x3bdde9c3	0.0067722513
12	0xbd483521	-0.048878793
13	0x3d4fed8d	0.050763655
14	0xbd7cf166	-0.061753653
15	0xbc8cb5a6	-0.01717646
16	0xbd96ce40	-0.07363558
17	0xbdc4a94b	-0.096026026
18	0x3d33d29f	0.043902036
19	0xbd4f2713	-0.050574373
20	0xbcd53ebf	-0.026030896
21	0x3e2f16c1	0.17098524
22	0x3d2c1729	0.042014275
23	0x3e39809c	0.18115467
24	0x3cf062e8	0.029344037
25	0xbd0d29d0	-0.034463704
26	0xbda473a3	-0.080298685
27	0xbd858f1a	-0.06521435
28	0x3d97693b	0.07393118
29	0x3d442560	0.047887206
30	0xbe5fcf85	-0.21856506
31	0x3d8c537d	0.068518616
32	0xbd860ee1	-0.06545807
33	0xbd991541	-0.07474757
34	0x3e28262f	0.16420816
35	0xbd2b8162	-0.041871436
36	0xbdd09d58	-0.10186261
37	0x3d355a63	0.044275653
38	0x3b49443b	0.0030710835
39	0xbdbdea27	-0.09273177
40	0x3ca1739c	0.019708447
41	0xbd9cdde7	-0.07659512
42	0xbbe3fa48	-0.006957326
43	0x3db1661a	0.086620525
44	0xbdd9087e	-0.10597323
45	0x3cd6b2c2	0.026208285
46	0xbced221a	-0.028946925
47	0xbd738c3d	-0.059459914
48	0xbad3ba31	-0.0016153512
49	0xbd8c52dc	-0.06851742
50	0xbd8eeafe	-0.06978415
51	0x3d1eb984	0.03875114
52	0xbd72bc3e	-0.059261553
53	0xbc9bc46e	-0.019014563
54	0x3e0e867b	0.13918488
55	0xbd8db11d	-0.06918547
56	0x3d3bfecf	0.0458973
57	0x3c0a1887	0.008428699
58	0x3da70e99	0.08157081
59	0x3d12fb83	0.03588439
60	0xbc2bad54	-0.010478336
61	0xbe13b647	-0.14425002
62	0x3d998662	0.074963346
63	0xbde9681d	-0.11396811
64	0xbc815255	-0.01578633
65	0xbd72f6f0	-0.05931753
66	0x3cc67a54	0.024228252
67	0xbda278d0	-0.079331994
68	0xbd495ae2	-0.04915894
69	0x3cff06b3	0.031131124
70	0xbd9cb30d	-0.07651339
71	0x3c5227a7	0.012826837
72	0xbd6df479	-0.058094475
73	0xbd5516c3	-0.05202366
74	0x3c7f005d	0.015564051
75	0xbda02eca	-0.07821424
76	0x3d169550	0.03676349
77	0x3d17737c	0.03697537
78	0xbd9dcfc5	-0.077056445
79	0x3e027baf	0.12742494
80	0x3b3d7f77	0.0028915086
81	0xbc9a4578	-0.018831953
82	0xbda1ceff	-0.079008095
83	0xbd3693e8	-0.04457465
84	0xbdb6fa63	-0.08934476
85	0x3c9ec0a9	0.019378977
86	0xbdc04a5e	-0.093891844
87	0xbacf8ebc	-0.0015835385
88	0xbcb05e54	-0.021529354
89	0xbdd58d8b	-0.10427388
90	0x3d2c7318	0.04210195
91	0xbc8cd683	-0.01719213
92	0x3d096263	0.033541095
93	0xbd419a3f	-0.04726624
94	0xbb9549d9	-0.0045559225
95	0xbe0f0d9d	-0.13970037
96	0xbd83b8ce	-0.06431733
97	0x3ca9f844	0.020748265
98	0xbcc00cac	-0.023443542
99	0xbd22fc20	-0.039791226
100	0x3d28599d	0.041101087
101	0xbb642a61	-0.00348153
102	0x3d800fcc	0.06253013
103	0x3d9965a9	0.07490093
104	0x3da1da85	0.079030074
105	0xbd68d5de	-0.056844585
106	0xbdb4adc5	-0.088222064
107	0x3c951a57	0.018201036
108	0xbd4d50cb	-0.05012588
109	0x3d8563d1	0.06513179
110	0x3db5198a	0.08842762
111	0x3c712a2a	0.014719525
112	0x3d843a47	0.06456428
113	0x3b7b1b0c	0.0038315682
114	0xbda48d07	-0.08034711
115	0xbd2b89bb	-0.041879397
116	0x3e07a595	0.13246758
117	0x3d667713	0.0562659
118	0x3d8ea761	0.06965519
119	0x3dda0285	0.10645012
120	0x3da7e647	0.08198219
121	0x3d04f430	0.032459438
122	0xbcaa0a87	-0.020756973
123	0x3d9af91b	0.07567044
124	0xbb97fa0d	-0.0046379627
125	0x3cf449c2	0.029820327
126	0xbd40b5b8	-0.0470483
127	0x3c55fc01	0.013060571
128	0xbd8fd83c	-0.07023665
129	0xbda1057d	-0.07862375
130	0xbd559488	-0.052143604
131	0xbd06a083	-0.03286792
132	0xbdfc67df	-0.12324499
133	0xbd694063	-0.05694617
134	0xbd6bf5f0	-0.05760759
135	0x3d383593	0.044972967
136	0x3ce7a82c	0.028278433
137	0xbdc801a7	-0.0976594
138	0xbb1a7c11	-0.0023572484
139	0x3cf7119a	0.03015976
140	0xbd559443	-0.052143347
141	0x3d0269a4	0.031839028
142	0x3dbe2b74	0.09285632
143	0x3d44aabe	0.048014395
144	0x3d9bedc8	0.076137125
145	0xbd7ab765	-0.061210055
146	0xbd62e890	-0.05539757
147	0x3d86dc58	0.06584996
148	0x3c53e492	0.012932913
149	0x3d240bd6	0.04005035
150	0x3d1bbb29	0.038020287
151	0x3d81ab40	0.063314915
152	0x3d8624af	0.065499656
153	0xbdf257f3	-0.11833181
154	0x3d79a2f7	0.06094643
155	0xbd81731f	-0.06320786
156	0xbdc212b7	-0.09476226
157	0xbb9eaf7e	-0.0048426976
158	0x3d72e684	0.059301868
159	0xbe1204ce	-0.14259645
160	0x3e2353e1	0.15949966
161	0xbd1c1660	-0.038107276
162	0xbc9847bf	-0.018588899
163	0x3d49be0b	0.049253505
164	0xbd5392e4	-0.051653758
165	0xbc435ae0	-0.011923522
166	0x3b2a72dd	0.0026008405
167	0x3d8de697	0.06928747
168	0x3bdd8792	0.006760546
169	0xbd22a5f4	-0.039709046
170	0xbdaf9bf2	-0.08574666
171	0x3dd28f95	0.10281292
172	0x3e7e7743	0.24850182
173	0xbc507147	-0.01272232
174	0x3c751730	0.014959142
175	0xbcf5baea	-0.029996354
176	0x3d243505	0.040089626
177	0x3d0b668c	0.034033343
178	0xbd26832e	-0.040652446
179	0xbab7193e	-0.0013969315
180	0xbd0e4501	-0.034733776
181	0x3d860bf2	0.06545247
182	0xbd3e8082	-0.046509273
183	0x3ce938f3	0.028469538
184	0x3e40fa41	0.18845464
185	0xbd999216	-0.07498567
186	0xbb826514	-0.0039793346
187	0xbc9f3d7b	-0.019438496
188	0x3c97e529	0.01854189
189	0x3c0136c0	0.007886589
190	0x3d9cb400	0.0765152
191	0x3c435cdc	0.011923995
192	0xbdb7c2ac	-0.089726776
193	0xbd4944c8	-0.04913786
194	0xba98fc45	-0.0011671862
195	0xbd3da5c0	-0.04630065
196	0x3c888073	0.016662812
197	0xbe0d631c	-0.13807338
198	0x3d52dfe5	0.051483054
199	0xbdb3f7dd	-0.087875105
200	0xbc7c7d58	-0.015410744
201	0xbbc3b26e	-0.005972198
202	0x3d881b38	0.066458166
203	0x3e036297	0.12830578
204	0xbd1d8358	-0.038455337
205	0x3d8a8ddb	0.06765338
206	0xbbcfe038	-0.0063438676
207	0x3d87030e	0.065923795
208	0x3d8ca0a1	0.06866575
209	0x3cf1a5d1	0.029498013
210	0xbc485395	-0.012226959
211	0xbd2067d2	-0.03916151
212	0xbe0265f4	-0.12734205
213	0xbc4ed782	-0.012624623
214	0x3d359049	0.044327054
215	0xbd9a98e5	-0.075486936
216	0x3d51c67d	0.051214684
217	0x3d886c94	0.06661335
218	0xbc77ef68	-0.0151327625
219	0xbd50fcde	-0.051022403
220	0x3d54fd5b	0.05199943
221	0xbd104950	-0.035226166
222	0xbd75214e	-0.059846215
223	0x3d85be6e	0.06530462
224	0xbdfc13fc	-0.12308499
225	0xbdc1becd	-0.094602205
226	0xbc180850	-0.009279326
227	0x3d838598	0.06421965
228	0x3d4eac0e	0.050457053
229	0x3d8e9b67	0.069632344
230	0x3d9fd04d	0.07803402
231	0xbd02df10	-0.03195101
232	0x39f70781	0.00047117102
233	0x3d17b36b	0.03703634
234	0xbca0a622	-0.019610468
235	0x3d2b701d	0.041854966
236	0x3dcfc10c	0.10144243
237	0xbd37be3c	-0.044859156
238	0xbd18ba60	-0.037287116
239	0x3d2cdf68	0.042205244
240	0xbd867ce3	-0.06566789
241	0x3d946a46	0.072468325
242	0xbc1c9cf7	-0.009558908
243	0x3d3b053f	0.0456593
244	0xba0d4059	-0.00053883117
245	0x3d84f443	0.06491902
246	0xbca0739f	-0.019586382
247	0x3d85122c	0.06497607
248	0xbd8070ab	-0.0627149
249	0xbd441dc4	-0.04787995
250	0xbda63d1d	-0.08117125
251	0xbd79c37a	-0.060977437
252	0xbd5a3850	-0.05327636
253	0xbe1c2faf	-0.15252565
254	0xbbc6fe9d	-0.0060728327
255	0xbd19cbbf	-0.037547823

conv_block.1.lin_r.weight f4 [128, 128]
0	0xbd468a1f	-0.048471566
1	0x3df94092	0.12170519
2	0x3cd0fa63	0.025510019
3	0xbce985c2	-0.028506164
4	0x3c97e056	0.018539589
5	0xbd9feb97	-0.07808607
6	0x3c003b08	0.007826574
7	0x3d106dd8	0.035261005
8	0xbc705598	-0.014668845
9	0xbc55559f	-0.013020902
10	0xbdb4dac8	-0.08830792
11	0x3da2d837	0.07951396
12	0xbdfc10bf	-0.123078816
13	0x3d1e6e90	0.03867966
14	0xbda83d6e	-0.08214842
15	0x3d1075e2	0.03526867
16	0xbd93c83a	-0.072159246
17	0xbab360d8	-0.0013685478
18	0x3da0c5e1	0.078502424
19	0xbdb27317	-0.08713358
20	0xbd52d814	-0.0514756
21	0x3dbe0c80	0.09279728
22	0xbd33f05d	-0.0439304
23	0xbc25191e	-0.010076789
24	0x3dfce52a	0.12348397
25	0xbde53e17	-0.11193483
26	0xbd7a6bc3	-0.061137926
27	0xbca5ab79	-0.020223366
28	0xbde0b8f4	-0.10972777
29	0xbc785c5d	-0.01515874
30	0xbcd3e984	-0.025868185
31	0x3e43cbd2	0.1912072
32	0xbea1abe8	-0.31576467
33	0xbd9a7640	-0.07542086
34	0x3da077f0	0.07835376
35	0x3cc643d1	0.02420226
36	0x3d91a52c	0.07111582
37	0x3d396aa7	0.045267727
38	0x3c0a0ea0	0.008426338
39	0xbc214082	-0.00984204
40	0x3c3308d7	0.010927401
41	0xbda5b511	-0.08091176
42	0x3d0c93bb	0.034320574
43	0x3d811a06	0.06303792
44	0xbe66851d	-0.22511716
45	0x3d1e602a	0.038665928
46	0xbcc501a8	-0.024048641
47	0xbe9fa498	-0.31180263
48	0xbd85595a	-0.06511183
49	0xbc322284	-0.010872487
50	0xbd169549	-0.036763463
51	0x3dc22680	0.094799995
52	0x3c935bea	0.017988164
53	0xbd0f64a3	-0.035008084
54	0x3e41582f	0.18881296
55	0xbd83cf00	-0.064359665
56	0x3df5cfa8	0.12002498
57	0x3d81ee09	0.0634423
58	0xbd8d5381	-0.06900693
59	0xbc846150	-0.016159683
60	0x3daaae67	0.08334046
61	0x3d673392	0.056445666
62	0x3d5ee6cd	0.054419328
63	0xbd4c1f39	-0.049834464
64	0xbdc78c0b	-0.09743508
65	0xbd39dd07	-0.045376804
66	0x3d689dc0	0.056791067
67	0xbb9affa2	-0.004730181
68	0xbbb84802	-0.0056238184
69	0xbdd70a53	-0.10500016
70	0xbdb50d41	-0.088404186
71	0x3bcc0630	0.0062263235
72	0x3d9ab875	0.07554714
73	0xbc40c218	-0.011765026
74	0xba8374fb	-0.001002937
75	0xbd8edc81	-0.069756515
76	0x3d52dbca	0.05147914
77	0x3da2a931	0.07942427
78	0xbdf398e9	-0.118944
79	0xbcba4bbf	-0.022741197
80	0x3ab37bcb	0.0013693509
81	0x3caad082	0.020851377
82	0xbda7592d	-0.08171306
83	0xbd9841fe	-0.07434462
84	0x3dd5b975	0.10435764
85	0xbac540e0	-0.0015049241
86	0xbdb92e85	-0.09042076
87	0xbc82b14d	-0.015953684
88	0xbced71bc	-0.028984897
89	0xbde861bc	-0.11346766
90	0xbd2a589f	-0.041588422
91	0x3d6264c4	0.05527188
92	0x3d320834	0.043464854
93	0xbd665a0c	-0.05623822
94	0x3d142bce	0.036174588
95	0xbd8c1795	-0.068404354
96	0xbdc2eabd	-0.09517429
97	0x3e51cb11	0.2048762
98	0x3d073d5e	0.03301751
99	0x3d609838	0.054832667
100	0x3cc15f86	0.02360512
101	0x3d0cf997	0.034417715
102	0xbdb7d308	-0.08975798
103	0x3ce1dad9	0.027570175
104	0xbdaf96e5	-0.08573703
105	0xbda214c3	-0.07914116
106	0x3d9e0477	0.07715695
107	0xbd1b719c	-0.037950143
108	0x3bc7c64f	0.0060966383
109	0x3c9c0115	0.019043485
110	0xba1503b7	-0.00056844525
111	0xbda00ce1	-0.078149565
112	0xbd96808a	-0.07348736
113	0xbb31dab3	-0.0027138412
114	0xbba91541	-0.0051600044
115	0x3d8049e8	0.062640965
116	0x3e3bf535	0.18355258
117	0x3d5210a2	0.051285394
118	0xbc874f90	-0.01651743
119	0x3d3e0752	0.0463937
120	0x3d3edf17	0.046599474
121	0xbe59c306	-0.21265802
122	0x3d8a9283	0.06766226
123	0x3d98d768	0.074629605
124	0xbdb750c8	-0.08950955
125	0x3dd7b1db	0.1053197
126	0xbb9ca363	-0.0047802194
127	0x3d97637f	0.07392024
128	0x3bab7c7c	0.0052333456
129	0xbd676871	-0.056496087
130	0x3d846f6c	0.064665645
131	0xbdaaa45e	-0.08332132
132	0x3d2c383d	0.04204582
133	0x3d485a15	0.048914034
134	0xbc85406f	-0.016266076
135	0x3d932210	0.07184231
136	0x3d0fe810	0.03513342
137	0xbddf9c40	-0.10918474
138	0xbdf70793	-0.120619915
139	0xbd12dbdd	-0.03585421
140	0x3d123ae7	0.035700705
141	0xbd504d63	-0.05085505
142	0xbd9c6e76	-0.07638256
143	0xbd2843b9	-0.04108021
144	0xbbeb3a02	-0.007178546
145	0xbdb57615	-0.08860413
146	0x3b4141f4	0.0029488774
147	0xbd62c3de	-0.055362575
148	0xbdde7c62	-0.10863568
149	0xbd520af6	-0.051279984
150	0xbc7e91d1	-0.015537695
151	0x3c82405f	0.015899835
152	0x3cd18f49	0.025581019
153	0x3d951076	0.0727853
154	0x3c99f7fe	0.01879501
155	0x3c52b98e	0.0128616225
156	0xbda528ce	-0.080644235
157	0x3cc1f957	0.023678465
158	0x3c99c6db	0.01877158
159	0x3d84e356	0.064886734
160	0xbdd47353	-0.10373559
161	0x3c841abc	0.01612603
162	0x3d77dc89	0.060513053
163	0xbc165948	-0.00917656
164	0xbda7b8ca	-0.081895426
165	0xbda30554	-0.07960001
166	0xbda427b0	-0.08015382
167	0x3d6c4e6a	0.05769197
168	0x3d33299c	0.043740854
169	0x3d6b2aea	0.057413973
170	0x3cd36094	0.025802888
171	0x3d33c597	0.04388961
172	0xbe15f797	-0.1464523
173	0x3d175d91	0.036954466
174	0xbd036c59	-0.03208575
175	0xbdbb3d14	-0.09142509
176	0x3d77368f	0.060354766
177	0x3d8446e1	0.064588316
178	0xbd2c264e	-0.042028718
179	0x3c7784f6	0.015107384
180	0xbb556cdd	-0.0032566108
181	0x3cf7a4c7	0.03022994
182	0x3dff73e5	0.12473277
183	0xbbae6f7e	-0.0053233495
184	0xbd877c18	-0.06615466
185	0x3d8c4552	0.06849159
186	0xbca31fe8	-0.019912675
187	0xbd465b8c	-0.04842715
188	0xbd69d1da	-0.057084896
189	0xbd8c7891	-0.06858934
190	0xbd8ee4d5	-0.0697724
191	0x3d8c41c7	0.068484835
192	0xbdf7c4bd	-0.12098072
193	0xbd40d03d	-0.04707359
194	0xbd2b85d5	-0.04187568
195	0xbd742fce	-0.059615903
196	0xbc83e0c6	-0.016098391
197	0xbdc0feba	-0.09423585
198	0x3d891681	0.066937454
199	0xbabbd84a	-0.0014331427
200	0x3d7409b8	0.05957958
201	0xbd585453	-0.052814793
202	0xbd88df88	-0.0668326
203	0xbd06a1a3	-0.032868993
204	0x3c1c5dd1	0.009543852
205	0x3dd7d61f	0.10538887
206	0x3c9cc4d6	0.019136827
207	0x3b387f65	0.0028152105
208	0xbd0bf1ac	-0.034166023
209	0x3c9870f4	0.018608548
210	0x3cdcef19	0.02696948
211	0x3db64520	0.08899903
212	0x3c1f331f	0.009716778
213	0xbd012c16	-0.031536184
214	0xbd91a7d3	-0.07112088
215	0x3d531ef0	0.051543176
216	0xbb4533fd	-0.0030090802
217	0xbc3fafda	-0.011699641
218	0x3b8c514a	0.0042821513
219	0xbd9846b0	-0.074353576
220	0x3d57b203	0.05266
221	0xba76a260	-0.0009408351
222	0x3db58969	0.088640995
223	0x3d52db26	0.051478527
224	0xbd93ff1c	-0.072263926
225	0xbb40e5ab	-0.0029433768
226	0xbdbf75ff	-0.09348678
227	0xbdae4aa1	-0.08510328
228	0xbd817ce7	-0.06322651
229	0xbdabd2e8	-0.083898365
230	0xbd8ab80c	-0.067733854
231	0x3ce46803	0.027881628
232	0x3d11eac4	0.03562428
233	0x3d218ac7	0.03943899
234	0x3d9bea02	0.07612993
235	0x3d85f3d7	0.065406494
236	0x3c41a7ee	0.011819823
237	0xbd3c906f	-0.04603618
238	0xbddef0d2	-0.108857766
239	0xbd8d1a52	-0.06889786
240	0xbd489ce3	-0.048977744
241	0xbcd8e18c	-0.026474737
242	0xbd21574c	-0.039389893
243	0x3d2af818	0.041740507
244	0xbd28fbc7	-0.04125574
245	0x3ce0ab81	0.02742553
246	0x3d722331	0.059115592
247	0xbc86292d	-0.016377056
248	0x3dad1d56	0.08452861
249	0xbbec36fb	-0.0072087026
250	0xbb5ee8c1	-0.0034013244
251	0x3b142cdc	0.0022609746
252	0xbd18803f	-0.03723168
253	0xbdc616e9	-0.096723385
254	0x3c7b0c32	0.015322732
255	0xbd8a26c2	-0.06745674

conv_block.2.lin_l.weight f4 [128, 128]
0	0xbd959276	-0.07303326
1	0x3c7b97d3	0.015356022
2	0xbd89f1b0	-0.06735551
3	0xbc6055b1	-0.013692305
4	0xbd76ebbd	-0.06028341
5	0x3d0b8a01	0.034067158
6	0xbdb99334	-0.0906128
7	0xbcf65e74	-0.030074336
8	0xbd984975	-0.07435886
9	0x3d1d6881	0.03842974
10	0x3d4b8129	0.049683724
11	0xbd8c5ddd	-0.068538405
12	0xbc807eb3	-0.015685415
13	0xbdb51421	-0.0884173
14	0xbdcc405a	-0.099732116
15	0x3d4ea38a	0.05044893
16	0x3c4b475c	0.01240715
17	0xbc8c3c93	-0.017118728
18	0x3b247332	0.0025093076
19	0x3c8e2c33	0.01735506
20	0xbd8d0472	-0.068856135
21	0xbcae91bf	-0.021309732
22	0x3caf3808	0.021389022
23	0xbdb9c862	-0.09071423
24	0xbd8df2b5	-0.06931058
25	0xbd99daa2	-0.07512404
26	0x3c55edd9	0.013057196
27	0x3c46ac69	0.012126067
28	0xbdba7cdd	-0.09105847
29	0x3d6529c8	0.05594805
30	0xbd4bd4a8	-0.04976335
31	0xbdca0447	-0.09864097
32	0xbc4b6396	-0.01241388
33	0xbd98ea77	-0.074665956
34	0xbcaaa8ad	-0.020832384
35	0xbd4aab83	-0.049479973
36	0xbd781850	-0.06057006
37	0xbd9fe717	-0.07807749
38	0xbd45a23b	-0.04825042
39	0xbd0f91be	-0.0350511
40	0xbdfc5036	-0.123199865
41	0xbdc8ce0e	-0.09804927
42	0xbd38bf28	-0.045104176
43	0xbce4693c	-0.02788221
44	0xbdb4b186	-0.088229224
45	0xbd906626	-0.07050733
46	0xbd778fa7	-0.060439732
47	0x3d086b80	0.033305645
48	0xbd2cae4e	-0.042158417
49	0xbdcc678e	-0.09980689
50	0x3be1fb8e	0.0068964427
51	0xbcf401d7	-0.029786034
52	0xbd9546c6	-0.072888896
53	0x3d1dc7cf	0.03852063
54	0xbd9cc8f0	-0.07655513
55	0xbdc84830	-0.09779394
56	0xbda4580c	-0.08024606
57	0xbdb4acf6	-0.08822052
58	0x3c621380	0.0137985945
59	0x3d4d3ca7	0.05010667
60	0x3d9bc1e8	0.07605344
61	0x3cceea30	0.025258154
62	0x3d50979a	0.05092583
63	0xbd8e6d45	-0.06954435
64	0xbdfecb45	-0.12441114
65	0x3c34dca5	0.011038934
66	0xbde0adbd	-0.10970638
67	0xbda677f9	-0.08128352
68	0xbda94e83	-0.08266928
69	0xbdd34005	-0.10314945
70	0x3cd56b40	0.026052117
71	0xbd9b97a7	-0.07597285
72	0xbd841365	-0.06449012
73	0xbd99d8db	-0.07512065
74	0xbd1c1e7c	-0.03811501
75	0x3d5594b7	0.05214378
76	0xbd0e45da	-0.034734584
77	0xbdb12697	-0.086499386
78	0xbdb8cda0	-0.09023595
79	0xbde9debc	-0.11419436
80	0xbbef4801	-0.0073022847
81	0x3c47e1bb	0.012199814
82	0xbdafc257	-0.08581989
83	0xbd91d775	-0.07121173
84	0xbc05c1a7	-0.008163846
85	0x3c2feadc	0.010737147
86	0xbdb0bada	-0.08629389
87	0xbbefef09	-0.0073221964
88	0xbda6d7bf	-0.08146619
89	0x3d8f40ee	0.06994806
90	0xbdacdeac	-0.08440909
91	0xbd9f2a40	-0.077717304
92	0xbdab4f90	-0.08364785
93	0x3d456b49	0.04819802
94	0xbd6b8bd0	-0.057506382
95	0x3ce9b6e8	0.0285296
96	0xbc0d1b26	-0.00861243
97	0xbd0e6511	-0.034764353
98	0x3d8d4f2f	0.06899869
99	0xba857128	-0.0010180818
100	0xbd287ffb	-0.041137677
101	0xbbfbc115	-0.0076829293
102	0xbdaf4500	-0.085580826
103	0xbdb57218	-0.08859652
104	0xbddf8d53	-0.10915627
105	0x3d3bc142	0.045838602
106	0x3ae05b65	0.0017117081
107	0x3d583ab4	0.05279036
108	0xbcb1dcba	-0.021711696
109	0xbdb883b0	-0.090094924
110	0x3d5261be	0.051362745
111	0xbccf3005	-0.025291452
112	0x3d167b66	0.036738776
113	0xbd93d628	-0.072185814
114	0x3d90f7e9	0.07078535
115	0xbdcf7d97	-0.10131376
116	0x3d9b9eb3	0.07598629
117	0xbdce11f0	-0.10062015
118	0x3cf55769	0.029948907
119	0xbdae5284	-0.08511832
120	0xbd1a2be1	-0.037639502
121	0x3bcfced4	0.0063417945
122	0x3cb649b0	0.022251934
123	0x3d8503df	0.06494879
124	0x3cce02a3	0.025147742
125	0xbd0ea1a4	-0.03482212
126	0x3d2ead27	0.0426456
127	0xbd3ec696	-0.046576105
128	0xbe0fd313	-0.14045362
129	0xbe96559a	-0.29362184
130	0x3d7d4822	0.06183637
131	0x3d13f83b	0.036125403
132	0xbcccae8c	-0.024985574
133	0x3cbc9ffb	0.023025503
134	0xbdf07128	-0.11740333
135	0x3e99ed0d	0.30063668
136	0x39a997a5	0.00032347176
137	0x3d98ed55	0.074671425
138	0xbe9a6cca	-0.30161124
139	0x3db46a61	0.08809353
140	0x3c996976	0.018727046
141	0xbd956b0e	-0.0729581
142	0x3c8de958	0.017323181
143	0xbd3e365a	-0.046438552
144	0xbca93c2d	-0.020658577
145	0x3d0ac203	0.03387643
146	0x3d868c0b	0.0656968
147	0xbec3c7d2	-0.38238388
148	0x3e4087eb	0.18801849
149	0x3d6c899c	0.057748422
150	0xbd68fd15	-0.056881983
151	0x3db0df05	0.086362876
152	0x3d8f55e6	0.06998806
153	0xbdabcd57	-0.08388775
154	0xbd6d6a7c	-0.05796288
155	0xbcde7e72	-0.027159903
156	0xbcad053f	-0.021120666
157	0xbc51a48f	-0.0127955815
158	0xbc793d81	-0.015212418
159	0x3cb636a4	0.022242852
160	0xbe5319cd	-0.20615311
161	0xbae72985	-0.0017636275
162	0xbce9d93f	-0.028545974
163	0xbd872cfb	-0.06600376
164	0xbd6fa1bd	-0.058503855
165	0x3d1aced7	0.037794914
166	0xbadd7a03	-0.0016897324
167	0xbca1318b	-0.019676944
168	0xbb739fac	-0.003717403
169	0x3d66950e	0.056294493
170	0x3dc567a1	0.09638906
171	0x3d86a832	0.065750495
172	0xbd851c70	-0.06499565
173	0xbd97bc5b	-0.07408973
174	0x3d41834c	0.047244355
175	0xbd953aa7	-0.07286578
176	0x3e845209	0.25843838
177	0x3c90f844	0.017696507
178	0x3cb1eeda	0.021720339
179	0xbdb48646	-0.08814673
180	0xbcc0d075	-0.0235369
181	0xbe04f49c	-0.12983936
182	0xbd0a6e8f	-0.033796843
183	0xbdadbc13	-0.08483138
184	0x3d8144d5	0.06311957
185	0x3d352116	0.044221006
186	0x3df8294c	0.12117252
187	0x3d424a70	0.04743427
188	0x3e68a535	0.22719271
189	0xbcc203f0	-0.023683518
190	0xbdc6baa8	-0.097035706
191	0x3a82cf89	0.0009980063
192	0x3d378402	0.044803627
193	0xbd40cd62	-0.04707087
194	0xbdff5d2a	-0.124689415
195	0xbbb4c048	-0.005516086
196	0xbd896273	-0.06708231
197	0xbc4d09ab	-0.012514512
198	0xbdc5bce8	-0.09655172
199	0x3d2d5326	0.042315625
200	0xbcdf02e4	-0.027223058
201	0xbd45c0bc	-0.04827951
202	0x3ba881e0	0.0051424354
203	0xbca24db8	-0.01981245
204	0x3e01dd8d	0.12682171
205	0x3d7245b7	0.059148517
206	0xbdad43ec	-0.08460221
207	0xbd9b71cd	-0.07590065
208	0xbc192c36	-0.00934892
209	0xb8a236cc	-7.734969e-05
210	0xbde99f5a	-0.11407347
211	0xbde54da9	-0.11196453
212	0xbc799707	-0.015233762
213	0xbdb52fa9	-0.08846981
214	0xbcb2d247	-0.021828784
215	0x3d92a17b	0.07159706
216	0xbea214ff	-0.31656644
217	0x3d4e0092	0.050293513
218	0x3c0c83b7	0.008576325
219	0xbedfc40b	-0.43704256
220	0xbd2ba1b5	-0.041902263
221	0x3d8a8cf1	0.06765164
222	0xbdb5cffd	-0.08877561
223	0x3d1c25dc	0.038122043
224	0x3e1fa778	0.15591228
225	0xbd0615b1	-0.03273553
226	0xbd7b9c82	-0.061428554
227	0x3d9fddd6	0.07805984
228	0x3d6ba7d1	0.05753309
229	0x3d0ec78b	0.034858268
230	0xbd2f53d7	-0.042804565
231	0xbda399e7	-0.07988339
232	0xbdab3fa5	-0.083617486
233	0x3c301b8e	0.010748757
234	0xbd399d99	-0.045316312
235	0xbd9f034b	-0.077643
236	0xbcef26c9	-0.029193299
237	0xbe524042	-0.20532325
238	0xbbf1cf7c	-0.0073794704
239	0x3c1fe2a9	0.00975863
240	0xbd8556fb	-0.06510731
241	0xbd8ca001	-0.06866456
242	0xbd0dfe6a	-0.034666456
243	0x3d847954	0.06468454
244	0xbd5c0e13	-0.05372436
245	0x3dc03d78	0.09386724
246	0xbd51332c	-0.051074192
247	0x3da73511	0.081644185
248	0xbe2d0003	-0.16894536
249	0x3d3bfebb	0.045897227
250	0xbdc0ff0c	-0.09423646
251	0x3d044702	0.03229428
252	0xbd084560	-0.033269286
253	0x3e21601d	0.1575932
254	0x3c87ed93	0.016592776
255	0xbddfe249	-0.10931832

conv_block.2.lin_r.weight f4 [128, 128]
0	0x3bab71d2	0.0052320743
1	0xbd9367ea	-0.071975544
2	0x3d10f341	0.035388235
3	0xbd76af47	-0.06022575
4	0x3967eaed	0.00022117393
5	0x3c0c5930	0.008566186
6	0x3d78d70e	0.060751967
7	0x3da321e1	0.07965446
8	0x3abcefa9	0.0014414686
9	0x3bbbb5f4	0.0057284776
10	0xbceaf007	-0.028678907
11	0xbd5371c3	-0.051622164
12	0xbd30d4e4	-0.04317178
13	0xbdbd2499	-0.09235496
14	0x3c894804	0.016757973
15	0xbb9ef01d	-0.004850401
16	0x3cfa66c9	0.03056659
17	0x3d5ff29c	0.05467473
18	0x3d2b5d59	0.04183707
19	0x3b344ced	0.0027511672
20	0x3d197ef3	0.037474584
21	0x3cc4b749	0.024013178
22	0x3ddf0570	0.10889709
23	0x3d39dc9f	0.045376416
24	0x3d1d03b7	0.03833362
25	0xbcd05609	-0.02543165
26	0xbdbed702	-0.09318353
27	0xbce772fa	-0.028253067
28	0xbca23dd1	-0.019804867
29	0x3caa982e	0.020824518
30	0x3d21ddda	0.039518215
31	0xbd97397b	-0.073840104
32	0xbbc04e79	-0.0058687297
33	0xbcfd8237	-0.03094588
34	0x3cad38cf	0.021145253
35	0xbda42774	-0.080153376
36	0x3d40fddf	0.04711711
37	0x3cc16cf3	0.023611521
38	0xbcf0e679	-0.029406773
39	0xbd700603	-0.058599483
40	0x3c2b526b	0.010456662
41	0xbe02e180	-0.12781334
42	0x3d383df2	0.04498095
43	0x3b05c88a	0.002041372
44	0xbdcf5edd	-0.101255156
45	0xbd972caf	-0.073815696
46	0x3d857569	0.06516535
47	0xbc0c097c	-0.008547183
48	0xbd436108	-0.047699958
49	0x3d85f7c6	0.065414
50	0x3cceaff1	0.02523038
51	0x3d29da8a	0.04146818
52	0xbd76088a	-0.060066737
53	0x3c28bc8f	0.010298862
54	0xbda0dcde	-0.07854627
55	0xbcf16d46	-0.029471051
56	0x3d465fdb	0.04843126
57	0x3cb54c56	0.022131126
58	0xba4143af	-0.00073724514
59	0x3da1f624	0.07908276
60	0x399b54db	0.00029627126
61	0x3d0646b6	0.03278228
62	0x3d15d659	0.03658137
63	0xbd550adc	-0.05201231
64	0x3d486361	0.0489229
65	0xbd39f9d5	-0.045404274
66	0x3d2b431a	0.04181204
67	0xb915ba8f	-0.00014279246
68	0x3d7309d8	0.05933556
69	0xbd471dc1	-0.04861236
70	0x3cc5d273	0.024148202
71	0x3d723228	0.059129864
72	0xbdaa3f6d	-0.08312879
73	0x3d174890	0.036934435
74	0x3cd8e993	0.026478564
75	0x3cbc1163	0.02295751
76	0xbdefeef9	-0.11715502
77	0xbce2934d	-0.02765813
78	0xbe01a88e	-0.12661955
79	0xbc42b061	-0.011882872
80	0x3c8ec3a6	0.017427277
81	0x3c57929a	0.013157511
82	0x3d0c3605	0.034231205
83	0x3d8085e0	0.06275535
84	0x3d9fc36e	0.07800947
85	0xbdb4354d	-0.08799229
86	0x3d30827d	0.043093193
87	0xbd2c7b53	-0.0421098
88	0x3d614f8c	0.055007502
89	0xbd9e93ee	-0.07743059
90	0xbd2b6e3c	-0.041853175
91	0xbd22b64c	-0.039724633
92	0x3d423d16	0.047421537
93	0xbc8784bc	-0.016542785
94	0xbccd8f39	-0.025092708
95	0xbd92f282	-0.07175161
96	0xbd755c71	-0.059902612
97	0xbb1137b9	-0.0022158457
98	0x3d39ded8	0.045378536
99	0xbd36d47f	-0.044636246
100	0xbd1b8f04	-0.037978187
101	0xbdaed3dd	-0.085365035
102	0xbd88a091	-0.066712506
103	0x3d8c8290	0.0686084
104	0xbd449087	-0.047989395
105	0xbc7b399c	-0.015333559
106	0xbdcd1787	-0.10014253
107	0x3d13fbe3	0.03612889
108	0x3d33a401	0.04385758
109	0x3cb156dd	0.021647865
110	0x3d8f2ad5	0.069905914
111	0x3c5dbaf5	0.013533344
112	0xbcc1a6ae	-0.02363905
113	0xbdbce4ac	-0.09223303
114	0x3d9b4647	0.07581764
115	0x3cc87218	0.024468467
116	0x3d740a12	0.059579916
117	0xbdc56364	-0.09638098
118	0x3c83a1fd	0.016068453
119	0x3d1a7730	0.037711322
120	0xbd970db7	-0.07375663
121	0xbdb958cb	-0.09050139
122	0xbde40005	-0.11132816
123	0xbd97e617	-0.07416933
124	0x3d866eb5	0.065640844
125	0xbbf229fc	-0.007390259
126	0x3d0bb0b6	0.03410407
127	0xbc98e91c	-0.018665843
128	0xbecaa2f6	-0.39577454
129	0xbdc08aed	-0.09401498
130	0xbbf791a1	-0.007555202
131	0xbb6e6468	-0.0036375765
132	0xbc011076	-0.00787746
133	0x3d340e53	0.043958973
134	0xbdb81766	-0.08988838
135	0x3e8267c4	0.25469792
136	0x3de1725a	0.11008139
137	0x3ca59dde	0.020216879
138	0xbd9a406b	-0.07531818
139	0x3d76ad55	0.060223896
140	0xbc2c68a6	-0.010522997
141	0x3d95d340	0.07315683
142	0x3ce3f5a9	0.0278271
143	0xbd80a194	-0.062808186
144	0x3d6eee92	0.058332987
145	0x3d8fae6f	0.070156924
146	0x3d93d131	0.072176345
147	0xbe54d9ac	-0.2078616
148	0x3d2d13f6	0.042255364
149	0x3d67bdd8	0.056577533
150	0x3d5c644b	0.053806584
151	0x3d4ae9c8	0.049539357
152	0xbc377cb4	-0.011199165
153	0xbd033464	-0.032032385
154	0x3d03b740	0.032157183
155	0x3d5b9c74	0.053616002
156	0xbde5fb2a	-0.11229546
157	0xbce8da47	-0.028424395
158	0x3b9f6798	0.0048646443
159	0xbd363611	-0.044485155
160	0xbdcfccd5	-0.101464905
161	0x3ca652e9	0.020303207
162	0x3dc69a33	0.0969738
163	0xbdb1980e	-0.0867158
164	0xbd824445	-0.06360678
165	0x3d93d95e	0.07219194
166	0x3cc0397d	0.023464913
167	0x3d84631c	0.06464216
168	0x3d14d8cd	0.03633957
169	0x3df03842	0.1172948
170	0xbd99c059	-0.075073905
171	0x3d36f9ce	0.044671826
172	0x3c32ab42	0.010905089
173	0xbb4659d6	-0.0030265949
174	0xbd4c9651	-0.04994804
175	0x3d3bca8b	0.045847457
176	0x3cd4246f	0.02589628
177	0xbcca9acc	-0.024732016
178	0x3d71a776	0.058997594
179	0xbd636de6	-0.05552473
180	0x3dac2967	0.08406334
181	0x3dae7ca5	0.08519868
182	0xbd891ccf	-0.06694948
183	0xbbcfb332	-0.0063385004
184	0x3d7b9ee4	0.061430827
185	0xbce76cc1	-0.0282501
186	0x3b7f59c7	0.0038963424
187	0x3d107a02	0.035272606
188	0x3e18e2c5	0.14930256
189	0xbd839380	-0.06424618
190	0xbce44c9f	-0.027868567
191	0x3d94bfd4	0.07263151
192	0x3d45c186	0.04828026
193	0x3b812c4c	0.003942048
194	0xbe156bc9	-0.14591898
195	0xbcf94b9d	-0.030431563
196	0x3bb073f1	0.005384915
197	0xbdb0291f	-0.08601593
198	0x3deeda88	0.11662775
199	0x3c5569aa	0.013025681
200	0x3d09e6b4	0.03366728
201	0xbdd8eabb	-0.10591646
202	0x3d687968	0.056756407
203	0x3c5966ae	0.01326911
204	0x3d6fc697	0.058539
205	0xbd938fd1	-0.07205165
206	0xba4c14b7	-0.0007785069
207	0x3dae246f	0.08503043
208	0x3d5e7b49	0.054316793
209	0x3cb8c6e4	0.022555776
210	0x3bbaf7a3	0.00570579
211	0x3ce6eec9	0.028190034
212	0xbe4cc722	-0.19997838
213	0xbd06b3a5	-0.032886166
214	0x3d8fd80d	0.0702363
215	0x3c879f8f	0.016555576
216	0x3dab1ba3	0.08354881
217	0x3a1f21c5	0.00060704007
218	0xbdc32a6b	-0.09529575
219	0xbe36d4bf	-0.17854594
220	0x3d4de723	0.050269257
221	0xbd2b57da	-0.04183183
222	0x3d089d7c	0.033353314
223	0xbd510c89	-0.051037345
224	0x3e559fef	0.20861791
225	0xbd477980	-0.048699856
226	0x3c6ebcc1	0.01457137
227	0xbcb6c3f3	-0.022310233
228	0x3dca1b11	0.09868444
229	0x3d0dc594	0.034612253
230	0xbd5f4798	-0.054511636
231	0x3d7b278b	0.061317008
232	0xbcb4a33d	-0.022050494
233	0xbcb7a900	-0.022419453
234	0x3d8b8f92	0.06814493
235	0x3ce0f459	0.027460264
236	0x3c946446	0.01811422
237	0xbd79e340	-0.061007738
238	0x3d804b54	0.06264368
239	0xbde92498	-0.11383933
240	0x3da02bed	0.07820878
241	0x3d1d6f73	0.038436364
242	0xbd897077	-0.06710904
243	0xbd937081	-0.07199193
244	0x3c36c175	0.011154522
245	0x3d999a3a	0.075001195
246	0xbd4ba972	-0.049722143
247	0xba1d0380	-0.0005989596
248	0xbe463920	-0.19357729
249	0xbdb2c8fa	-0.087297395
250	0xbcf9d5dd	-0.030497486
251	0x3cf74cc1	0.030187966
252	0x3b9cda10	0.0047867373
253	0x3cdbbb4d	0.02682271
254	0x3d09f479	0.033680413
255	0x3b9aef09	0.0047282022
