models/hyperparameter_optimization/initial_test/initial/Set2/train_lr0/input_train_lr0_0_001/GNN.pth (torch, 994184 bytes, 18 tensors)

input_layer.weight f4 [128, 8]
0	0x3e62ee9f	0.22161339
1	0x3e979ed6	0.2961337
2	0xbda9a1a3	-0.08282783
3	0x3e6b2d8d	0.22966595
4	0xbd9ea5df	-0.07746481
5	0x3d49ac03	0.04923631
6	0xbe3042a6	-0.17212924
7	0x3e549e79	0.20763578
8	0x3ea86581	0.3288994
9	0xbe84cd06	-0.2593767
10	0x3e929324	0.28627884
11	0xbaead144	-0.0017915149
12	0x3e636763	0.22207408
13	0x3d39b0f7	0.045334782
14	0x3e18e488	0.14930928
15	0xbd4c7767	-0.04991856
16	0x3e95d4be	0.29263872
17	0x3d6d3586	0.057912372
18	0xbe29039c	-0.16505283
19	0x3d34483e	0.044014208
20	0xbe26cdf2	-0.162895
21	0xbd29d448	-0.041462213
22	0xbe130b86	-0.14359865
23	0x3e702a7b	0.23453705
24	0xbe8ee42a	-0.2790845
25	0xbe26e750	-0.16299176
26	0xbdcc760e	-0.09983455
27	0xbe59af13	-0.21258192
28	0x3abdad0c	0.0014471128
29	0xbeb2c9fd	-0.3491973
30	0x3ec7b158	0.3900249
31	0xbe99c52a	-0.30033237
32	0x3e812731	0.25225213
33	0x3d1f8808	0.03894809
34	0xbdeb1c77	-0.114800386
35	0x3e6299fd	0.22129054
36	0x3c9e9827	0.019359661
37	0x3e88ce86	0.26720065
38	0x3d1ac768	0.037787825
39	0xbde45ac5	-0.111501254
40	0xbc3629cf	-0.011118366
41	0xbdc45ada	-0.09587641
42	0x3e0f9c4b	0.14024465
43	0x3e9937b0	0.299253
44	0x3e365a18	0.17807806
45	0xbe1e45fb	-0.15456383
46	0x3e8960a2	0.26831537
47	0x3d818e72	0.063259974
48	0x3e34007e	0.17578313
49	0xbe5caa16	-0.21549258
50	0xbeb3314c	-0.34998548
51	0xbe0be0a1	-0.13659908
52	0xbe8ad891	-0.27118352
53	0x3e8e04ff	0.27738187
54	0x3df35030	0.11880529
55	0x3e15f619	0.1464466
56	0x3dadee1d	0.08492682
57	0xbbc98957	-0.0061504054
58	0x3e8cbb0e	0.2748646
59	0xbe809de0	-0.2512045
60	0xbb2cf199	-0.002638912
61	0xbe771b1f	-0.2413144
62	0x3cfba92c	0.030720316
63	0xbdf95c02	-0.12175752
64	0x3d706502	0.05869008
65	0xbd96daf8	-0.07365984
66	0x3e9b7190	0.3036008
67	0xbe5694bd	-0.20955177
68	0xbe57eb4c	-0.21085852
69	0xbe57eea3	-0.21087126
70	0x3eb7d016	0.35900944
71	0x3df14cb1	0.11782206
72	0x3ea0eb28	0.3142941
73	0xbe956416	-0.29177922
74	0xbeb38c7b	-0.35068116
75	0xbe8d9f7b	-0.27660736
76	0xbe738a1a	-0.2378315
77	0x3ddf7c5b	0.10912391
78	0x3e156834	0.14590532
79	0x3e9669d3	0.29377612
80	0xbe3af749	-0.18258394
81	0xbe76ce58	-0.24102151
82	0x3e32982a	0.17440858
83	0xbe125670	-0.14290786
84	0x3e2d62cd	0.16932221
85	0xbdabd2f2	-0.08389844
86	0x3e580985	0.21097381
87	0xbe8ca56f	-0.27469966
88	0xbe36b3e6	-0.17842063
89	0x3e074d91	0.13213183
90	0x3d6bbb43	0.057551634
91	0xbdb89c1f	-0.09014153
92	0x3e44df8f	0.19225906
93	0x3e7878fb	0.242649
94	0xbe834539	-0.2563875
95	0xbe4147eb	-0.18875091
96	0x3ea56f19	0.32311323
97	0xbdf453c5	-0.1193004
98	0xbe005940	-0.12534046
99	0xbeaf2741	-0.34209636
100	0xbe4f542a	-0.2024695
101	0x3d9666f6	0.07343857
102	0xbd3f2583	-0.046666633
103	0xbe83663f	-0.25663945
104	0x3c1343d5	0.00898834
105	0xbe774d4a	-0.24150577
106	0xbe999382	-0.29995352
107	0xbe475c75	-0.19468863
108	0xbe9e6e29	-0.3094342
109	0xbe668618	-0.2251209
110	0x3ed6aba6	0.41927832
111	0x3d88c294	0.06677738
112	0x3e01c273	0.12671833
113	0xbea8d57a	-0.3297537
114	0xbe6dc70b	-0.2322046
115	0xbdf1036b	-0.1176823
116	0x3d89ca8f	0.06728088
117	0xbe9f4864	-0.31109917
118	0xbe1bfe22	-0.15233663
119	0xbe58bdbd	-0.2116613
120	0xbba3e205	-0.005001309
121	0xbe06b73b	-0.13155834
122	0xbcc8b3b4	-0.024499752
123	0xbe755402	-0.23957828
124	0xbe788068	-0.24267733
125	0xbe5336c9	-0.20626368
126	0xbdf7d98d	-0.121020414
127	0xbe8ee007	-0.27905294
128	0x3e48a447	0.19593917
129	0xbd8fb40c	-0.07016763
130	0x3e9daf70	0.3079791
131	0x3d9314f7	0.07181733
132	0xbe994960	-0.29938793
133	0x3e73f99a	0.23825684
134	0xbdc739e3	-0.09727838
135	0xbe0ac763	-0.13552622
136	0xbe964241	-0.29347423
137	0xbeb3f659	-0.35148886
138	0x3d907dc1	0.07055236
139	0xbd9e2b96	-0.07723157
140	0x3df0c859	0.11756963
141	0xbe948e53	-0.29014835
142	0x3e4c160a	0.19930282
143	0xbe84e0bf	-0.25952718
144	0xbd7a0ec6	-0.061049245
145	0x3be5bfa2	0.00701137
146	0x3e253f51	0.16137435
147	0x3e93209d	0.2873582
148	0x3e97b230	0.29628134
149	0xbe8f88c4	-0.2803403
150	0x3d5054b1	0.050862018
151	0xbe1bb8e4	-0.15207249
152	0xbd1eb21d	-0.03874408
153	0xbe877dbe	-0.2646312
154	0x3e9c9025	0.30578724
155	0xbe84dbf6	-0.25949067
156	0x3e2c9783	0.16854672
157	0x3e01385f	0.1261916
158	0x3d91adc6	0.07113223
159	0xbe43bc1e	-0.1911473
160	0x3ebbcd4e	0.36680073
161	0x3d043545	0.032277364
162	0x3c72fd6e	0.01483093
163	0xbe9f862f	-0.3115706
164	0x3e037e76	0.1284121
165	0xbd5940c7	-0.053040292
166	0xbe25dbd4	-0.16197139
167	0x3e9b7c66	0.30368346
168	0x3d706c5b	0.058697086
169	0xbe484eb5	-0.19561274
170	0xbe373deb	-0.17894714
171	0xbc8a50ba	-0.016884197
172	0x3e59718f	0.21234725
173	0xbdb906b8	-0.090344846
174	0xbe4e91f7	-0.20172869
175	0xbdf7f483	-0.12107184
176	0xbe873c28	-0.26413083
177	0x3ded267b	0.11579605
178	0x3e5e1cf0	0.21690726
179	0xbeaa6b3d	-0.3328494
180	0x3d98b249	0.0745588
181	0x3e322363	0.17396311
182	0x3d03cd45	0.032178182
183	0xbe00ee4f	-0.12590908
184	0x3e0c5926	0.13705882
185	0x3dfc6f1d	0.12325881
186	0x3deae800	0.11470032
187	0xbd7e78c6	-0.062126897
188	0xbdbfbc91	-0.09362138
189	0x3ca868d9	0.020557808
190	0xbd7fd28d	-0.062456656
191	0xbdd7c69b	-0.10535928
192	0x3e5a7f1b	0.2133755
193	0x3ea94c24	0.33065903
194	0xbd0f5d0d	-0.03500085
195	0xbda21e5f	-0.07915949
196	0xbb352087	-0.0027637796
197	0xbcaceefc	-0.02111005
198	0xbc1de1d1	-0.009636358
199	0x3dcae92b	0.099077545
200	0xbea4697b	-0.32111725
201	0xbe059b1e	-0.13047454
202	0x3e93f812	0.289002
203	0x3e2fcbd4	0.17167598
204	0xbc900e2e	-0.017584886
205	0xbe5a4673	-0.21315937
206	0xbe5d7f42	-0.21630576
207	0xbea226b0	-0.3167014
208	0xbdec05a2	-0.11524512
209	0x3d92a20b	0.071598135
210	0x3e50bbfd	0.20384212
211	0x3e478788	0.19485295
212	0xbea002ce	-0.3125214
213	0xbe59b76a	-0.21261373
214	0xbd648afd	-0.055796612
215	0x3eaf1be5	0.3420097
216	0x3d5e0619	0.054205034
217	0xbdbb83cd	-0.091559984
218	0x3e0d1fa3	0.137816
219	0xbe09e4d3	-0.13466196
220	0xbe6a54e2	-0.22883943
221	0x3e823ebd	0.2543849
222	0xbe249ea0	-0.16076136
223	0xbd912747	-0.0708757
224	0xbeb4142d	-0.35171643
225	0x3e902649	0.2815421
226	0x3e681701	0.22665025
227	0x3d4f6e85	0.05064251
228	0xbe7c70b3	-0.24652366
229	0xbeb2a7bb	-0.34893593
230	0xbe930525	-0.28714862
231	0x3e86fc75	0.26364484
232	0x3e06db9e	0.13169715
233	0x3e95188f	0.291203
234	0x3e2c3f64	0.16821057
235	0x3dd8740b	0.105690084
236	0xbb62e6b3	-0.003462237
237	0xbe89aa92	-0.26887947
238	0xbe9b17a3	-0.3029147
239	0xbea950f2	-0.3306957
240	0x3e2fd968	0.17172778
241	0xbe31bfd8	-0.17358339
242	0xbd91b8f1	-0.07115353
243	0xbe505aeb	-0.20347182
244	0xbd83f1a7	-0.06442576
245	0xbe7ed0c1	-0.24884321
246	0xbe6c8fce	-0.23101732
247	0x3df02f2d	0.11727748
248	0xbdd73173	-0.105074786
249	0x3e84f99e	0.25971693
250	0xbde84a55	-0.11342303
251	0xbe84ca34	-0.2593552
252	0xbd7f82c7	-0.06238058
253	0xbe2f7f4f	-0.17138408
254	0xbddd867e	-0.10816668
255	0xbeac5461	-0.33658126

conv_block.0.lin_l.weight f4 [128, 128]
0	0x3c4dda40	0.012564242
1	0xbd430309	-0.047610316
2	0x3cfac2c6	0.030610453
3	0xbbef243a	-0.0072980197
4	0xbc4eace4	-0.0126144625
5	0x3d5bf847	0.053703573
6	0x3d58a182	0.0528884
7	0x3aeccbea	0.0018066142
8	0xbdc52658	-0.09626454
9	0xbdb48906	-0.08815198
10	0xbd6fde0c	-0.05856137
11	0xbdbb22ea	-0.09137519
12	0x3da0206b	0.07818683
13	0xbd6e2d39	-0.058148596
14	0xbda0e852	-0.078568116
15	0xbc2ae533	-0.010430622
16	0x3cbbf9ec	0.02294632
17	0xbcfd49b2	-0.03091893
18	0xbcbd60d1	-0.023117455
19	0xbd6025e2	-0.054723628
20	0x3d8c5539	0.068521924
21	0x3c454cf0	0.012042269
22	0x3d911272	0.07083596
23	0xbb519ddd	-0.0031984963
24	0x3d46f7ec	0.04857628
25	0xbdc64133	-0.096804045
26	0x3b917f79	0.0044402448
27	0xbd77a46d	-0.060459543
28	0x3d744adb	0.0596417
29	0xbd8dec11	-0.06929792
30	0xbd85bdf3	-0.065303706
31	0xbd9f7fe3	-0.07788064
32	0xbda8eb21	-0.08247972
33	0xbdca70ed	-0.0988482
34	0xbd9491d2	-0.072543755
35	0x3d8f4791	0.06996072
36	0xbc9f8745	-0.019473681
37	0x3b6539d3	0.0034977093
38	0x3d8a3046	0.06747489
39	0xbd5c897d	-0.053842057
40	0xbd753fe9	-0.059875403
41	0xbdf3d0ce	-0.11905061
42	0x3d48cda5	0.049024243
43	0xbdaa9d21	-0.08330751
44	0xbd8857d6	-0.066573784
45	0xbcadde79	-0.021224247
46	0xbc9a193d	-0.018810863
47	0x3d5aa43f	0.053379294
48	0xbcf6cc3d	-0.030126685
49	0xbc83046c	-0.01599332
50	0x3c084567	0.008317328
51	0x3d0fc25c	0.035097465
52	0x3d925972	0.071459666
53	0x3d80e27c	0.062931985
54	0xbdbc2a86	-0.09187798
55	0x3d214633	0.039373588
56	0x3d4e6b65	0.05039539
57	0xbdbb2de6	-0.09139614
58	0x3d1761d3	0.036958527
59	0xbd7d5f0a	-0.061858214
60	0x3ce07b8e	0.027402665
61	0x3c73b461	0.014874549
62	0xbc816293	-0.015794074
63	0xbc8e7d67	-0.01739378
64	0xbd7f6ff4	-0.062362626
65	0xbd909ea1	-0.07061506
66	0x3ca1e612	0.019763026
67	0xbd5b3ce2	-0.05352486
68	0xbd854765	-0.06507758
69	0xbda39000	-0.0798645
70	0x3cabd13a	0.02097379
71	0x3d1ad1e0	0.03779781
72	0x3d90e7fd	0.07075498
73	0xbd6b019f	-0.057374593
74	0xbde4ade2	-0.11165978
75	0xbd72f902	-0.059319504
76	0x3ceeb7b5	0.029140333
77	0xbe093331	-0.13398434
78	0xbdafa457	-0.08576267
79	0xbca9e0df	-0.02073711
80	0xbd8e3bf4	-0.06945029
81	0x3d3f478e	0.0466991
82	0xbd28cbb1	-0.04120988
83	0xb8aaf737	-8.152279e-05
84	0xbd947095	-0.07248036
85	0x3d8af03a	0.06784101
86	0x3d7afc0a	0.06127552
87	0x3c689acf	0.0141970655
88	0x3cf14f75	0.029456833
89	0xbdb4eb60	-0.08833957
90	0xbd8d9e86	-0.069150016
91	0xbc018536	-0.007905295
92	0xbc2a03b7	-0.010376862
93	0x3ce1cafa	0.027562607
94	0x3cd9d70c	0.0265918
95	0xbc11c8d7	-0.008897982
96	0x3b744d35	0.0037277464
97	0xbccc221f	-0.024918614
98	0x3d33db18	0.043910116
99	0xbd80f6c3	-0.06297066
100	0xbca88ec0	-0.020575881
101	0x3d8f8e06	0.07009511
102	0xbbdbaa05	-0.0067036175
103	0x3d28718f	0.041123923
104	0xbe15837a	-0.14600936
105	0xbc2d89d3	-0.010591942
106	0xbcfe8a3b	-0.031071773
107	0xbc465232	-0.012104558
108	0xbd1d3110	-0.038376868
109	0x3d64a3c1	0.05582023
110	0xbd32ba25	-0.043634553
111	0x3c5986aa	0.013276735
112	0x3d29c604	0.041448608
113	0x3d8f8826	0.0700839
114	0x3d8610fd	0.06546209
115	0xbd6ee928	-0.058327824
116	0x3c6c133b	0.014408882
117	0x3d75b620	0.05998814
118	0x3ca2d962	0.019879047
119	0x3d072b51	0.033000294
120	0x3ccc1c5e	0.02491587
121	0xbdbcf30d	-0.09226046
122	0x3d036c91	0.03208596
123	0x3d83ac1c	0.06429312
124	0x3d264cd8	0.040600628
125	0xbd332d61	-0.04374445
126	0xbd00b7e9	-0.03142539
127	0xbd866fa6	-0.06564264
128	0x3c3a5d88	0.011374839
129	0x3cf50387	0.029908909
130	0xbd9665f8	-0.07343668
131	0x3bb2df42	0.0054587433
132	0xbcc4050b	-0.023928186
133	0x3d4341ac	0.04767005
134	0xbcbef99b	-0.02331238
135	0xbd82a5fd	-0.06379316
136	0x3d22459c	0.039617166
137	0xbd4c5187	-0.049882438
138	0xbc2064d5	-0.009789665
139	0xbd0cd158	-0.034379333
140	0x3cd50aee	0.026006188
141	0xbcc0c634	-0.02353201
142	0x3c94ab94	0.018148221
143	0xbd869b9f	-0.06572651
144	0xbcb1bd19	-0.021696614
145	0x3da7091b	0.081560336
146	0xbd7e32f3	-0.062060308
147	0xbcb042da	-0.021516252
148	0xbc828110	-0.015930682
149	0xb8da59fb	-0.0001041181
150	0xbd34c824	-0.04413618
151	0x3cb83370	0.022485465
152	0xbd0af210	-0.033922255
153	0x3a72b822	0.00092590053
154	0x3d96832f	0.0734924
155	0x3d8a08aa	0.06739934
156	0xbd06fc9a	-0.032955743
157	0xbd6da07a	-0.05801437
158	0xbd841459	-0.064491935
159	0xbca650b8	-0.020302162
160	0xbbc965c2	-0.0061461637
161	0x3c93f28b	0.01805999
162	0xbd2a0ad9	-0.04151425
163	0x3d2e5b8d	0.04256778
164	0xbc784f43	-0.015155616
165	0x3cbd6476	0.023119193
166	0x3d9f42b7	0.07776397
167	0xbbc725cd	-0.0060775043
168	0xbbc6c681	-0.006066144
169	0xbd08ea3d	-0.033426512
170	0x3d6b6c01	0.057476047
171	0xbdb146fd	-0.08656118
172	0xbd55dcda	-0.052212574
173	0x3c42c033	0.011886644
174	0x3d2a167a	0.04152534
175	0xbdc559f8	-0.09636301
176	0xbca6e70a	-0.02037384
177	0x3c01010b	0.007873784
178	0x3d8f5a21	0.069996126
179	0x3cfbf343	0.030755645
180	0x3d94950b	0.0725499
181	0xbcd9f7ae	-0.02660736
182	0xbdbda057	-0.09259098
183	0x3accb8c7	0.0015619033
184	0x3d45d798	0.04830131
185	0xbb91c4d3	-0.004448512
186	0x3b81f933	0.0039664744
187	0x3d9a9c7e	0.0754938
188	0xbdbe4ae8	-0.09291631
189	0x3bb4dc2f	0.005519412
190	0x3c9748fb	0.018467417
191	0x3bf463b8	0.0074581765
192	0xbd08491a	-0.03327284
193	0xbd3b345f	-0.04570424
194	0x3d251c4a	0.04031018
195	0x3c515bdc	0.012778249
196	0x3c69bd3a	0.014266307
197	0xbc2523de	-0.010079352
198	0xbd889446	-0.06668906
199	0x3d168a34	0.036752895
200	0xbd603d7b	-0.054746132
201	0xbd85eaa8	-0.06538898
202	0xbd3899b4	-0.045068458
203	0xbd9ffdfc	-0.078121156
204	0xbda685c0	-0.081309795
205	0xbca58bda	-0.020208288
206	0xbdc471c5	-0.09592012
207	0x3d663557	0.056203213
208	0xbda0cca5	-0.07851533
209	0x3ce42dda	0.027853895
210	0x3ce0a019	0.02742009
211	0xbd3a1a30	-0.04543513
212	0x3c0aff0b	0.008483659
213	0x3d94f136	0.0727257
214	0xbdbc9c25	-0.0920947
215	0xbc00c373	-0.007859099
216	0x3d488cae	0.048962288
217	0x3d94177c	0.07231042
218	0x3c875892	0.016521726
219	0x3d8a9032	0.06765784
220	0xbd580123	-0.05273546
221	0x3d8fa564	0.07013968
222	0x3b247b06	0.0025097742
223	0xbd74a62e	-0.059728794
224	0x3d3e4efc	0.046462044
225	0x3d80c437	0.06287425
226	0xbdab8f6b	-0.08376964
227	0x3d136304	0.0359831
228	0x3c8240ac	0.015899979
229	0x3d84eb2c	0.06490168
230	0xbdbf6326	-0.09345083
231	0x3d17322b	0.03691308
232	0x3d9d9af3	0.0769557
233	0xbd19a169	-0.03750745
234	0x3c9e26fd	0.0193057
235	0xbdb55903	-0.08854868
236	0x3c692030	0.0142288655
237	0xbd95d2a5	-0.07315568
238	0xbdc15bc5	-0.09441332
239	0x3d03d840	0.032188654
240	0x3d428572	0.047490545
241	0x3d254cf2	0.040356584
242	0x3d66a713	0.05631168
243	0xbd0495ff	-0.03236961
244	0xbd96f6fa	-0.07371326
245	0x3d3724d3	0.044712853
246	0x3d834c92	0.06411089
247	0xbd9d4220	-0.07678628
248	0xbda019ac	-0.078173965
249	0xbd85577f	-0.06510829
250	0xbd776534	-0.06039925
251	0x3d640916	0.055672728
252	0xbdbb1e4a	-0.091366366
253	0x3ca5caa8	0.020238236
254	0x3b8d1050	0.004304923
255	0xbd909ad4	-0.07060781

conv_block.0.lin_r.weight f4 [128, 128]
0	0x3c88fbaa	0.016721565
1	0xbdae1ce4	-0.08501604
2	0xbc81872a	-0.015811522
3	0x3da39c8e	0.07988845
4	0x3da588f5	0.08082763
5	0x3b391d99	0.0028246401
6	0x3d67b35b	0.05656753
7	0xbd37c1ac	-0.044862434
8	0xbdb348bd	-0.08754108
9	0xbd94d35c	-0.07266876
10	0xbd1eb9e6	-0.038751505
11	0xbdb4f3ea	-0.088355854
12	0x3d46aa89	0.04850248
13	0xbad0c5ad	-0.0015928053
14	0xbd2ef4fb	-0.0427141
15	0xbd5f38b3	-0.054497432
16	0x3c27d60b	0.010243903
17	0xbd410faa	-0.04713408
18	0xbd1f353a	-0.03886912
19	0xbc827654	-0.015925564
20	0xbda5ccd5	-0.08095709
21	0xbc962252	-0.018326912
22	0x3da3ba12	0.079944745
23	0x3d621f5b	0.055205684
24	0xbc58f5f2	-0.013242232
25	0xbda378aa	-0.07981999
26	0xbb881fbe	-0.0041541746
27	0xbd6362dd	-0.055514205
28	0xbdd4d303	-0.1039181
29	0xbd8df24b	-0.06930979
30	0xbd85c563	-0.06531789
31	0x3c99adcd	0.018759632
32	0xbd9d695b	-0.076861106
33	0xbd2197a3	-0.039451253
34	0xbb60d9ee	-0.0034309584
35	0xbd3ea9db	-0.046548706
36	0xbd40e381	-0.047091965
37	0x3d0db917	0.034600344
38	0xbdb50269	-0.0883835
39	0x3d2c1047	0.04200771
40	0xbd1c3095	-0.03813227
41	0xbdb0f5c2	-0.086406246
42	0xbce4a86f	-0.027912347
43	0xbcbba53e	-0.022905942
44	0xbb2b34a9	-0.0026123917
45	0xbcf70bad	-0.030156935
46	0xbbd38c39	-0.006455925
47	0x3cd85b91	0.02641085
48	0x3d52b1b3	0.051439
49	0xbd6ccafc	-0.05781077
50	0x3b127f25	0.0022353616
51	0x3d85e6e6	0.06538181
52	0xbcd37e04	-0.025816925
53	0xbc41fd8c	-0.011840235
54	0x3cc9d214	0.024636306
55	0xbdaf6ac4	-0.08565286
56	0xbd8b005d	-0.06787179
57	0x3d9124a2	0.07087065
58	0x3c0a0150	0.0084231645
59	0xbc78d783	-0.015188101
60	0xbdd36656	-0.103222534
61	0xbd9c4772	-0.076308146
62	0xbcadbb41	-0.021207454
63	0xbd38dc66	-0.045132063
64	0x3d10d74b	0.03536157
65	0xbd944e6f	-0.072415225
66	0x3ce91326	0.028451513
67	0xbd813b53	-0.06310143
68	0xbd11d451	-0.03560287
69	0x3d6cbb28	0.057795674
70	0x3bafc642	0.0053642103
71	0xbd82b54f	-0.06382238
72	0x3d1a62c4	0.037691846
73	0x3c9bc2f8	0.019013867
74	0xbce3611d	-0.027756268
75	0xbde5cabb	-0.112203084
76	0x3d0a0cc3	0.033703577
77	0x3d15863a	0.03650496
78	0x3d28b4f9	0.041188214
79	0x3c171525	0.00922135
80	0xbb7a32e4	-0.0038177306
81	0xbd96f5ab	-0.07371076
82	0xbd89aa93	-0.067219876
83	0xbc847c7e	-0.016172644
84	0xba5888b3	-0.0008260116
85	0xbc29b33c	-0.010357674
86	0xbd4be85a	-0.049782135
87	0x3cf52771	0.029926034
88	0x3c2ba71b	0.010476853
89	0xbd88ac7a	-0.06673522
90	0x3d75469a	0.059881784
91	0x3d2904a2	0.041264184
92	0x3d870b62	0.06593968
93	0xbcf756a9	-0.03019269
94	0x3d190a41	0.037363295
95	0x3c30c591	0.010789291
96	0x3d3e7cd9	0.046505783
97	0x3d7267cb	0.059181016
98	0xbaae1488	-0.0013281265
99	0x3d42ba44	0.047540918
100	0xbd4f2f1c	-0.050582036
101	0xbd37dea0	-0.044890046
102	0x3c89cbbd	0.016820783
103	0x3d33e54b	0.043919843
104	0x3d19ab63	0.037516963
105	0x3d25c629	0.040472183
106	0x3d8e5de6	0.069515035
107	0x3d387ea6	0.045042656
108	0x3cdc2650	0.026873738
109	0xbda1ff35	-0.07910005
110	0xbd935cab	-0.071954094
111	0x3c498017	0.012298605
112	0x3d6abae7	0.05730715
113	0xbb4b13b3	-0.0030987083
114	0x3c6230ad	0.0138055505
115	0x3d07794c	0.033074662
116	0xbd3c3cc6	-0.045956396
117	0xbd110770	-0.035407484
118	0xbd7d37f4	-0.06182094
119	0xbd82d216	-0.06387727
120	0xbd069b88	-0.03286317
121	0xbd3ddd80	-0.046353817
122	0xbc8400da	-0.016113687
123	0xbdaa59ab	-0.08317884
124	0x3d527442	0.051380403
125	0xbdad386b	-0.084580265
126	0xbd218ca4	-0.039440766
127	0xbd241533	-0.04005928
128	0xbdae1b99	-0.085013576
129	0xbd07812d	-0.033082176
130	0x3d856b04	0.06514552
131	0xbdafdfa4	-0.08587578
132	0x3d6d01b7	0.057862964
133	0xbd65e805	-0.056129474
134	0xbda4022e	-0.08008228
135	0x3cf61440	0.030038953
136	0x3c9d9ef5	0.019240836
137	0x3d532276	0.051546536
138	0x3d0ede65	0.03488006
139	0x3d296088	0.041351825
140	0x3cd0f10f	0.02550557
141	0xbc51fa30	-0.012815997
142	0x3d71f0bd	0.059067477
143	0xbd97369c	-0.07383463
144	0xbdbd4bc0	-0.09242964
145	0xbd3027ac	-0.043006584
146	0xbd97b81e	-0.074081644
147	0x3d8823f0	0.066474795
148	0x3d0d31ae	0.034471206
149	0x3da8f1a5	0.08249215
150	0xbd6e4163	-0.058167826
151	0x3d8a6c7a	0.067589715
152	0xbdb4f317	-0.08835428
153	0xbd7cec4f	-0.0617488
154	0x3d934122	0.071901575
155	0xbbc950be	-0.0061436584
156	0x3b2a9600	0.0026029348
157	0xbd48a0d1	-0.04898149
158	0x3cb09162	0.021553699
159	0xbcf4cbff	-0.02988243
160	0x3d84f2e6	0.06491642
161	0x3d0f7a44	0.03502871
162	0xbc85ea76	-0.016347151
163	0xbd0c02f4	-0.034182504
164	0xbd83cdfa	-0.06435771
165	0x3d028000	0.03186035
166	0x3b8b25aa	0.0042464333
167	0xbda13f16	-0.07873361
168	0xbd021b45	-0.031764288
169	0xbc05cc9a	-0.008166457
170	0x3d5e5f49	0.05429009
171	0xbd61abfa	-0.05509565
172	0xbbcb904b	-0.0062122694
173	0xbd656e7e	-0.056013577
174	0x3d873299	0.066014476
175	0xbd4d3b08	-0.050105125
176	0xbd108cb6	-0.035290442
177	0x3d4f5395	0.05061682
178	0x3d615c94	0.05501993
179	0x3d107ec9	0.03527716
180	0x3d98fbdc	0.07469913
181	0xbd8ce3c4	-0.0687938
182	0xbd52f63a	-0.05150435
183	0x3d9bd600	0.07609177
184	0x3d9dee68	0.07711488
185	0x3d914b8b	0.07094487
186	0xbd955d4d	-0.07293186
187	0x3ceab645	0.028651366
188	0x3da026e1	0.078199156
189	0x3d0f53b1	0.034991924
190	0xb9a2c4f1	-0.0003104578
191	0x3d8319f8	0.064014375
192	0x3d9513fa	0.07279201
193	0x3d3147f5	0.043281514
194	0x3cb74999	0.022373961
195	0xbdb7b176	-0.08969395
196	0xbdbb2aab	-0.09138998
197	0x3c6cfc3f	0.014464437
198	0xbdac9f2d	-0.08428798
199	0xbbb0628d	-0.005382842
200	0xbd2abe1c	-0.04168521
201	0xbc108d24	-0.008822713
202	0xbd5a3364	-0.053271666
203	0x3d31d482	0.043415554
204	0x3d858b23	0.06520679
205	0xbda7e2bf	-0.08197545
206	0x3d9de2eb	0.07709297
207	0xbda4e2c1	-0.080510624
208	0xbd80efcd	-0.06295738
209	0x3d02f416	0.03197106
210	0xbcc3d2ee	-0.02390429
211	0xbd9b8812	-0.07594313
212	0xbd65ed80	-0.0561347
213	0x3da3d5fa	0.07999797
214	0xbd868e57	-0.06570118
215	0xbd2bb1b4	-0.041917518
216	0xbd6f480a	-0.05841831
217	0x3d0038e1	0.031304244
218	0x3d2b942f	0.041889366
219	0xbd3909c2	-0.04517532
220	0xb9a1d743	-0.00030868695
221	0xbc3d7c01	-0.011565209
222	0xbd8a6315	-0.0675718
223	0x3bbaaa3c	0.005696563
224	0x3c66dfe4	0.014091466
225	0x3d623719	0.055228326
226	0x3dadc2c3	0.084844135
227	0xbd5d8bf1	-0.054088537
228	0xbd14f5b4	-0.036367133
229	0xbd0073b8	-0.031360358
230	0xbd8e10a8	-0.06936771
231	0x3d1377d5	0.036002953
232	0x3cc4cb99	0.024022864
233	0xbcb38453	-0.021913683
234	0x3d41ddfa	0.047330834
235	0xbc773143	-0.0150874285
236	0x3d04dde7	0.032438185
237	0x3d15ef71	0.036605302
238	0xbdbe721b	-0.09299108
239	0xbc8bd075	-0.017067173
240	0x3d2b5898	0.041832536
241	0xbd0d0890	-0.034431994
242	0xbcbf093a	-0.02331983
243	0x3d0fa164	0.035066023
244	0xba8b59e4	-0.0010631648
245	0xbd6fe909	-0.05857185
246	0x3d5acc3e	0.053417437
247	0x3d160bd4	0.036632374
248	0x3b96f0a5	0.004606324
249	0xbd87dcff	-0.066339485
250	0xbd99192c	-0.07475504
251	0xbc84733c	-0.01616823
252	0x3b9fbc40	0.004874736
253	0x3d851126	0.064974114
254	0x3b9203f3	0.004456037
255	0xbc3935a2	-0.011304291

conv_block.1.lin_l.weight f4 [128, 128]
0	0xbd023d97	-0.031797018
1	0x3da5773b	0.08079382
2	0xbdbd174c	-0.09232959
3	0xbda262ce	-0.07929002
4	0xbc382dc1	-0.011241377
5	0x3d1f7689	0.038931403
6	0x3c86240d	0.016374612
7	0x3d2dde31	0.042448226
8	0xbd969c4b	-0.07354029
9	0x3d8f9444	0.07010701
10	0xbd832610	-0.06403744
11	0x3a2a55bc	0.0006497761
12	0x3d8c1fdf	0.068420164
13	0x3d1a5b2e	0.037684612
14	0xbd515474	-0.05110593
15	0x3c3612a2	0.011112841
16	0x3d596e13	0.05308349
17	0x3a01c12a	0.0004949743
18	0xbca6b5c7	-0.02035035
19	0x3d445588	0.04793313
20	0xbcf271cb	-0.029595276
21	0x3d6c2908	0.057656318
22	0xbd8afa05	-0.06785969
23	0x3d811635	0.06303064
24	0x3ddb6c7c	0.10714051
25	0xba6f3120	-0.00091244467
26	0xbdc33c0d	-0.09532938
27	0xbccc96fd	-0.02497434
28	0x3db6c6e3	0.089246534
29	0x3d9de854	0.07710329
30	0xbda1e97c	-0.07905862
31	0xbdff51fd	-0.1246681
32	0xbd1042fe	-0.03522014
33	0x3d2c0010	0.041992247
34	0x3d1b4633	0.037908744
35	0x3d3e9779	0.046531174
36	0xbe500486	-0.20314226
37	0x3ce59651	0.028025778
38	0xbd2412aa	-0.040056862
39	0x3da0cce6	0.07851581
40	0xbd08e2de	-0.033419482
41	0x3b91eeaa	0.0044535
42	0x3d26523e	0.040605776
43	0xbcb1857f	-0.021670101
44	0xbd075c3c	-0.033046946
45	0xbd78c342	-0.060733087
46	0x3c3a4e8e	0.011371268
47	0x3d68903b	0.056778174
48	0x3b422eb5	0.002962989
49	0xbd479565	-0.048726458
50	0x3d84e996	0.064898655
51	0x3d236e71	0.039900247
52	0x3c513317	0.012768528
53	0x3ce3661e	0.027758654
54	0x3d957150	0.07297003
55	0xbd9449d3	-0.07240643
56	0x3c50fcff	0.0127556315
57	0x3ccca416	0.024980586
58	0x3d8fb5c0	0.07017088
59	0xbd68bdb5	-0.056821544
60	0xbd4ab086	-0.049484752
61	0x3b9eaf01	0.0048426394
62	0xbd4c5201	-0.049882893
63	0xbbe75bad	-0.007060489
64	0xbd97e2b9	-0.07416291
65	0x3c6e34fd	0.014539001
66	0x3d0e2b24	0.03470911
67	0x3d9cf57a	0.076640084
68	0xbd5e039c	-0.05420266
69	0xbdb17853	-0.08665528
70	0xbdb523b2	-0.08844699
71	0x3d94bc72	0.072625056
72	0xbd14aa26	-0.03629508
73	0xbd14f790	-0.036368906
74	0xbd588ba3	-0.052867543
75	0x3d10af03	0.035323154
76	0x3d9f5228	0.07779342
77	0xbd994604	-0.074840575
78	0x3d319fd1	0.043365303
79	0xbd1320a1	-0.03591979
80	0x3dc9d402	0.098548904
81	0xbd7e88de	-0.062142245
82	0xbbf0ae22	-0.007344977
83	0xbdb20489	-0.08692271
84	0x3d986891	0.074418195
85	0x3d1a0757	0.037604656
86	0xbd4589b8	-0.048227042
87	0x3d85ec1f	0.06539177
88	0xbc75b761	-0.014997334
89	0x3b13a301	0.0022527578
90	0x3c2aa208	0.010414608
91	0x3da3201b	0.07965108
92	0xbcb758f1	-0.022381278
93	0x3d21d9d9	0.039514396
94	0x3c8e5619	0.017375039
95	0xbd86d1ed	-0.06583009
96	0x3c1839ea	0.009291152
97	0xbe4ed456	-0.20198187
98	0x3d91f5f3	0.07126989
99	0xbe1966ee	-0.14980671
100	0xbd592348	-0.053012162
101	0xbe2f8112	-0.1713908
102	0x3d1d31fc	0.038377747
103	0xbda65b0a	-0.08122833
104	0xbd9a497e	-0.07533549
105	0x3d50d4dc	0.05098425
106	0x3d78f6b7	0.06078216
107	0x3c562187	0.013069517
108	0xbd10d241	-0.035356764
109	0xbdb4c4db	-0.0882661
110	0x3bd0e5e0	0.0063750595
111	0x3a31ba16	0.0006779743
112	0xbd830e3c	-0.06399199
113	0x3d79648c	0.060886905
114	0xbd9ad10b	-0.07559403
115	0xbc84783d	-0.016170615
116	0x3d956720	0.0729506
117	0xbde9db76	-0.11418812
118	0xbe37ba5f	-0.17942189
119	0x3d999ab5	0.07500211
120	0x3db4d959	0.08830518
121	0x3d1b1826	0.037864827
122	0xbe25960e	-0.16170523
123	0xbd0a0edd	-0.03370558
124	0xbd52ddd8	-0.051481098
125	0xbd6650ae	-0.056229286
126	0x3db8d891	0.09025682
127	0xbc72b5c9	-0.014813849
128	0xbd59459d	-0.053044904
129	0xbda1dd70	-0.07903564
130	0xbcc2ddb9	-0.023787366
131	0x3c3e120c	0.011600982
132	0xbd27e5df	-0.040990707
133	0xbe095dde	-0.13414714
134	0x3d0a83f2	0.03381724
135	0x3d5dfb3a	0.054194666
136	0x3d075769	0.033042345
137	0xbcd017aa	-0.025401909
138	0xb89fce8d	-7.620184e-05
139	0xbd8efa92	-0.06981386
140	0xbd23050a	-0.039799727
141	0x3da61032	0.08108558
142	0x3c942936	0.018086057
143	0xbd9244df	-0.07142042
144	0xbd138056	-0.036011063
145	0x3d682e1b	0.056684595
146	0x3d805639	0.06266446
147	0x3d35c77b	0.044379693
148	0x3c88504d	0.016639853
149	0x3d8dbc98	0.06920737
150	0xba3bfc3d	-0.00071710703
151	0x3cf6552b	0.030069908
152	0xbdb7fb57	-0.08983486
153	0xbd61c8d9	-0.055123184
154	0x3d08f4d3	0.033436608
155	0xbd25924a	-0.040422715
156	0xbd4bf2ca	-0.04979209
157	0x3d4e30e7	0.050339606
158	0x3d5141be	0.051088087
159	0xbd7f49fe	-0.062326424
160	0xbce2fd56	-0.02770869
161	0x3d337d90	0.043820918
162	0xbbd84544	-0.006600054
163	0x3d324d99	0.043531034
164	0x3d22c789	0.039741073
165	0x3d20e506	0.039280914
166	0xbd762277	-0.060091462
167	0xbdb261fb	-0.087100945
168	0x3cc4a258	0.024003193
169	0xbd7d71f1	-0.06187624
170	0x3d1ab0b1	0.037766162
171	0xbd049a1e	-0.03237354
172	0xbda79e18	-0.08184451
173	0x3d26e5fe	0.04074668
174	0x3db2efc4	0.08737138
175	0x3c045c94	0.008078713
176	0xbce16e72	-0.027518485
177	0xbc3573ec	-0.011075001
178	0xbde95d33	-0.113947295
179	0xbd54413c	-0.051820025
180	0xbd56c023	-0.05242933
181	0xbd8bee45	-0.06832556
182	0xbd6f5db9	-0.05843899
183	0xbd9e8c6e	-0.077416286
184	0xbda0a2be	-0.078435406
185	0x3d40b4d8	0.047047466
186	0x3c9a1c46	0.01881231
187	0xbd891c84	-0.06694892
188	0xbd6edf26	-0.05831828
189	0xbca920ed	-0.020645583
190	0x3dae9e43	0.0852628
191	0x3cf6c9d6	0.03012554
192	0x3c3f847e	0.011689303
193	0x3be95d00	0.007121682
194	0x3bbaa115	0.005695472
195	0x3d4e2253	0.050325703
196	0x3ce7e732	0.028308485
197	0x3d67ba68	0.056574255
198	0x3d4e8b61	0.05042589
199	0xbce377b5	-0.027767042
200	0x3d938a1d	0.072040774
201	0xbd3a2f65	-0.045455355
202	0x3a840cde	0.0010074636
203	0xbde5239d	-0.11188433
204	0xbb422579	-0.0029624386
205	0xbdd70def	-0.105007045
206	0xbc995f62	-0.01872224
207	0xbcd44645	-0.025912413
208	0xbd896f4e	-0.06710683
209	0x3d00cb35	0.031443793
210	0xbd2ca7dc	-0.04215227
211	0xbd676c38	-0.05649969
212	0x3d4b9c58	0.049709648
213	0xbddd522d	-0.108066894
214	0x3d2c4d52	0.042065926
215	0xbba1234b	-0.0049175373
216	0xbd7d5468	-0.061848074
217	0xbe051bc5	-0.12998874
218	0x3d22fa7d	0.039789665
219	0x3cde0b18	0.0271049
220	0x3e12d10d	0.14337559
221	0x3c973bd3	0.018461144
222	0x3da6872e	0.08131252
223	0x3d982a46	0.07429938
224	0xbccd5997	-0.025067134
225	0xbd758763	-0.059943568
226	0xbc018c83	-0.007907036
227	0x3d97052a	0.07374032
228	0xbda87dab	-0.08227094
229	0xbdea39b0	-0.11436784
230	0x3da384c4	0.079843074
231	0x3dcab57a	0.09897895
232	0x3ce4f332	0.027947996
233	0xbc21a1fd	-0.009865281
234	0xbddfda92	-0.10930361
235	0x3c6ca4d7	0.014443598
236	0xbd98664a	-0.07441385
237	0xbcca9079	-0.024727093
238	0xbd3781bc	-0.04480146
239	0x3da99a92	0.08281435
240	0xbda6f1b3	-0.08151569
241	0x3da703ac	0.08154997
242	0xbbee8492	-0.007278987
243	0xbcb6bbc5	-0.022306332
244	0xbce55ced	-0.027998412
245	0xbd9900cc	-0.07470855
246	0x3d02559e	0.031819932
247	0xbdc934b7	-0.09824508
248	0xbe025e01	-0.12731172
249	0xbd57fbb2	-0.05273027
250	0x3d9e7695	0.077374615
251	0x3d5d0ff2	0.053970285
252	0x3d29f406	0.041492485
253	0x3d30af5c	0.043135986
254	0x3b41bbec	0.0029561473
255	0xbd00c83e	-0.031440966

conv_block.1.lin_r.weight f4 [128, 128]
0	0xbdb70e6b	-0.08938297
1	0x3d57dc69	0.052700434
2	0x3cb76d8c	0.022391103
3	0x3d719499	0.058979604
4	0xbc0814de	-0.008305756
5	0x3ca38d66	0.019964885
6	0x3b2db32a	0.0026504495
7	0x3d6dee2e	0.058088474
8	0x3c743a1e	0.014906434
9	0x3deb8c35	0.11501352
10	0x3ca3b789	0.019984977
11	0x3dac64fc	0.08417699
12	0xbda57a18	-0.08079928
13	0xbd7d50ce	-0.06184464
14	0xbdc41688	-0.0957461
15	0x3c330236	0.01092582
16	0xbdf4a531	-0.1194557
17	0xbccf6835	-0.025318244
18	0x3c9d6246	0.0192119
19	0xbd7a5800	-0.06111908
20	0x3bff0db4	0.007783616
21	0x3d823dce	0.063594446
22	0x3d5e93f1	0.054340307
23	0xbc7c9efc	-0.015418764
24	0x3d3a27cd	0.045448113
25	0x3d5e081c	0.054206952
26	0xbda8fac9	-0.082509585
27	0x3dc4ef21	0.09615923
28	0x3ca58ba1	0.020208182
29	0x3c9ee676	0.019397002
30	0x3d50f0ee	0.05101102
31	0x3d6dd6d2	0.058066197
32	0x3d7952f7	0.060870137
33	0xbcf2b9f9	-0.029629694
34	0xbdc89937	-0.097948484
35	0xbcaf0955	-0.021366755
36	0x3d0a6474	0.033787206
37	0x3d2c1545	0.04201247
38	0xbcae3346	-0.021264683
39	0x3d9b3547	0.07578521
40	0xbcf8280e	-0.030292537
41	0x3d5fa384	0.0545993
42	0x3cf90420	0.030397475
43	0xbd8b1c2d	-0.067924835
44	0xbc2ea29e	-0.010658888
45	0xbc95bf54	-0.018279709
46	0x3d3acd6f	0.045606073
47	0x3b778183	0.0037766404
48	0xbd896661	-0.0670898
49	0xbdc1a5e8	-0.09455472
50	0xbe053170	-0.1300714
51	0x3ce284eb	0.02765127
52	0x3daa3d4b	0.08312472
53	0x3d252a96	0.040323816
54	0xbdc29e2c	-0.09502825
55	0xbd708a5d	-0.058725704
56	0x3d2b19c5	0.041772623
57	0x3da44e65	0.08022765
58	0xbd67f05e	-0.056625716
59	0x3d455b87	0.04818299
60	0x3d1d2a3b	0.038370352
61	0x3ca37334	0.019952394
62	0x3d07dbd8	0.033168644
63	0xbc27833a	-0.010224158
64	0xbbc167c6	-0.0059022633
65	0xbd867d7c	-0.06566903
66	0x3d0c2c69	0.03422204
67	0x3920b681	0.00015326777
68	0xbc57a274	-0.01316129
69	0xbd169476	-0.036762677
70	0x3d15dcf1	0.03658766
71	0xbc29afb0	-0.010356829
72	0x3c6dddc8	0.014518209
73	0xbd88dc46	-0.06682639
74	0x3d513e70	0.051084936
75	0x3b74e28c	0.0037366478
76	0x3bdd604f	0.0067558656
77	0xbddf7882	-0.10911657
78	0x3dedfa77	0.11620038
79	0x3bd31cd7	0.006442647
80	0xbd938990	-0.07203972
81	0x3d0ce2b9	0.034395907
82	0xbda3ab85	-0.07991699
83	0xbd27bebf	-0.040953394
84	0x3c2b753a	0.010464961
85	0xbd747d22	-0.05968965
86	0xbd8dd8f3	-0.069261454
87	0x3d229276	0.039690457
88	0xbda0304d	-0.07821713
89	0x3d4dcc2f	0.050243553
90	0xbbdca6c8	-0.006733749
91	0xbcd228c0	-0.025654197
92	0xbd38c74b	-0.045111936
93	0xbd949fa0	-0.072570086
94	0x3c8e0459	0.017336057
95	0x3ce01fd5	0.027358929
96	0x3d324c0e	0.043529563
97	0xbda2e752	-0.07954277
98	0xbcdf1649	-0.027232306
99	0xbc86188d	-0.016369129
100	0xbd9cc62e	-0.07654987
101	0xbded482e	-0.11586033
102	0xbd99fb3d	-0.07518623
103	0xbda9100e	-0.08255015
104	0x3d2122f5	0.03933998
105	0xbda4ca55	-0.08046404
106	0xbdbf0757	-0.09327572
107	0x3c66a3f1	0.014077173
108	0xbd5c2576	-0.053746663
109	0x3d95d465	0.07315902
110	0x3de562c3	0.11200478
111	0x3d884d36	0.06655352
112	0x3da391ae	0.079867706
113	0x3d0b8e2a	0.034071125
114	0xbc085396	-0.00832071
115	0xbdaf5292	-0.08560671
116	0xbda4b59d	-0.080424525
117	0x3d045a8e	0.032312922
118	0xbd551cf4	-0.052029565
119	0xbca809fd	-0.020512575
120	0xbdb126bb	-0.086499654
121	0xbd8ee05d	-0.06976388
122	0xbb89dd5c	-0.0042072963
123	0x3d1e28e5	0.03861322
124	0xbda7311f	-0.08163666
125	0xbd059d8a	-0.032620944
126	0x3c24bd47	0.010054893
127	0x3e0ee2f2	0.1395376
128	0xbd6e6b07	-0.058207538
129	0xbda9d121	-0.08291841
130	0x3b1791d0	0.0023127683
131	0xbd2a3381	-0.041553024
132	0x3add0450	0.0016862247
133	0xbd96d59a	-0.0736496
134	0xbdb5f1f5	-0.0888404
135	0x3d9b73eb	0.07590469
136	0x3d47fccd	0.048825074
137	0x3d694957	0.056954708
138	0xbd77566f	-0.060385164
139	0x3daaab79	0.08333487
140	0xbd723e87	-0.059141662
141	0x3d8f0dad	0.0698503
142	0x3dae02ad	0.08496604
143	0xbcb51f78	-0.022109732
144	0x3cb29baa	0.021802742
145	0xbd6de109	-0.05807594
146	0xbd0cfcb6	-0.03442069
147	0x3d5d3604	0.05400659
148	0x3dbaed93	0.09127345
149	0x3c42289e	0.011850504
150	0x3dc462e7	0.095891766
151	0x3df40380	0.1191473
152	0xbd78a379	-0.060702775
153	0xbc43e60b	-0.011956702
154	0xbdace7f6	-0.084426805
155	0xbd9ac7df	-0.07557654
156	0xbd1c5b1e	-0.038172834
157	0xbd538ebc	-0.051649794
158	0xbd57a653	-0.052648854
159	0x3d8b4b40	0.06801462
160	0xbd3a81f3	-0.045534085
161	0x3d3ee0de	0.04660117
162	0x3d14389c	0.0361868
163	0xbdb3de5d	-0.08782647
164	0x3d57a966	0.052651785
165	0xbdf0df41	-0.11761332
166	0xbe28f9ec	-0.16501588
167	0x3d9c30ff	0.07626533
168	0xbd854efa	-0.06509204
169	0xbe2e3ba1	-0.17014934
170	0xbd10fdba	-0.035398223
171	0xbd942d04	-0.072351485
172	0x3d5642c5	0.05230977
173	0xbda3e6ad	-0.08002982
174	0xbd2221b5	-0.039582927
175	0xbdcfb745	-0.10142378
176	0xbd1493b4	-0.036273673
177	0xbd60f8d3	-0.054924797
178	0xbd39d27f	-0.04536676
179	0x3d533ff6	0.05157467
180	0xbd455940	-0.04818082
181	0x3d0d32dd	0.034472335
182	0xbc187e8c	-0.009307515
183	0xbce08bda	-0.027410436
184	0xbdc0cb3b	-0.09413763
185	0xbd16bb45	-0.036799688
186	0x3d5c3d1b	0.053769212
187	0x3d29cf1c	0.04145728
188	0x3d2c7a39	0.042108748
189	0x3c02e1ea	0.007988432
190	0xbe135e1e	-0.14391372
191	0xbd76a7c6	-0.060218595
192	0xbd745ad4	-0.059656933
193	0x3c950b99	0.018194007
194	0x3c0f6f42	0.008754553
195	0xbd72130e	-0.059100203
196	0x3d6dfae6	0.058100604
197	0xbb950b32	-0.0045484537
198	0x3d1899d5	0.03725608
199	0x3d8dc966	0.06923179
200	0x3d330a8c	0.04371123
201	0xbb7efc08	-0.0038907547
202	0xbc2c8ac0	-0.010531127
203	0x3dba5a22	0.09099223
204	0x3d3d77bc	0.046256766
205	0x3d03ad96	0.032147966
206	0xbe264d90	-0.16240525
207	0x3cbcc849	0.023044722
208	0xbcd135cc	-0.025538348
209	0x3c9aaa1a	0.018879939
210	0x3c6303cb	0.013855885
211	0xbde4f0cd	-0.111787416
212	0x3d3d3d9b	0.04620133
213	0x3da0e507	0.078561835
214	0xbb51d07b	-0.0032015133
215	0xbc246ab1	-0.010035203
216	0xbe1208f4	-0.14261228
217	0x3c4e77a0	0.012601763
218	0x3dc61caf	0.0967344
219	0x3dd6d818	0.10490435
220	0xbc82603e	-0.015915032
221	0x3ba49035	0.0050220736
222	0xbd5f62e8	-0.054537684
223	0xbc340532	-0.010987567
224	0x3d0c6678	0.03427741
225	0xbe14b96e	-0.14523861
226	0x3ca5ded0	0.020247847
227	0x3d8b9081	0.06814671
228	0x3e10e8a4	0.14151245
229	0x3cba4450	0.022737652
230	0x3d8e08fb	0.06935307
231	0x3cf632f9	0.030053603
232	0x3ccb4d57	0.024817152
233	0x3d4e3a04	0.050348297
234	0x3df24ac9	0.118306704
235	0x3d325c45	0.043545026
236	0x39bd8bbf	0.00036153008
237	0xbda9bc5c	-0.0828788
238	0xbd195feb	-0.03744499
239	0xbd2215c0	-0.039571524
240	0xbc968f49	-0.01837887
241	0xbc064d2d	-0.008197111
242	0x3dcc682a	0.09980805
243	0xbdc9ee26	-0.09859876
244	0x3d3e8288	0.046511203
245	0xbb4d26c3	-0.0031303621
246	0xbe031e04	-0.12804419
247	0xbe06ada1	-0.13152172
248	0x3dd7a6e1	0.105298765
249	0xbd482b62	-0.048869498
250	0xbdb44129	-0.08801491
251	0xbc09dab0	-0.008413956
252	0xbbcfdddb	-0.006343586
253	0xbdd8e5af	-0.10590684
254	0xbd59966c	-0.05312197
255	0xbce9deec	-0.02854868

conv_block.2.lin_l.weight f4 [128, 128]
0	0x3c990ba9	0.018682318
1	0xbb5f9b9b	-0.0034119848
2	0xbc8d8bf4	-0.017278649
3	0xbd8d34ec	-0.0689486
4	0x3caf2770	0.02138111
5	0xbc14af19	-0.00907495
6	0xbdbd511a	-0.092439845
7	0xbd3a1ff3	-0.045440625
8	0xbd140124	-0.0361339
9	0x3d21ab95	0.039470274
10	0xbdf12ca0	-0.1177609
11	0x3d91c801	0.07118226
12	0x3a6dcd17	0.0009071393
13	0xbbce40ba	-0.006294337
14	0xbcb44d90	-0.022009641
15	0x3d90a3a2	0.070624605
16	0xbd8e2977	-0.069415025
17	0xbdcd7a03	-0.100330375
18	0x3d5a7ca1	0.05334151
19	0x3db35ec5	0.0875831
20	0xbcab8f02	-0.020942215
21	0x3d4a38ad	0.049370456
22	0xbdb224f9	-0.08698458
23	0xbd72e205	-0.05929758
24	0xbd97a2fb	-0.07404133
25	0x3cf88864	0.030338474
26	0xbc268414	-0.010163326
27	0xbd78cf7d	-0.06074475
28	0xbd840697	-0.064465694
29	0xbba45987	-0.0050155553
30	0xbda13034	-0.07870522
31	0xbc84512d	-0.016151989
32	0xbd5e9fb5	-0.054351527
33	0x3d793362	0.060840018
34	0xbd11c017	-0.03558358
35	0xbdc1d75a	-0.09464903
36	0xbd116041	-0.035492186
37	0x3d7d94f9	0.06190965
38	0xbdabbc0b	-0.08385476
39	0xbd9dead4	-0.077108055
40	0xbd4d7d56	-0.050168358
41	0x3aaa6b32	0.0013001917
42	0x3c3630af	0.0111200055
43	0xbda67315	-0.08127419
44	0xbc3b3005	-0.011425023
45	0x3c69164d	0.014226508
46	0xbcbf46d5	-0.023349205
47	0x3c36ab0e	0.011149181
48	0xbc178a16	-0.009249231
49	0x3d9415f7	0.07230752
50	0xbd10399d	-0.035211194
51	0xbd1af03b	-0.037826758
52	0xbda66a21	-0.08125711
53	0x3d87156f	0.06595885
54	0xbcfa7dba	-0.03057753
55	0xbd46ac22	-0.048504002
56	0xbda76a8f	-0.08174621
57	0x3c84a07d	0.016189808
58	0x3ceabe2d	0.028655136
59	0xbd119b9f	-0.035548802
60	0xbdb8d027	-0.09024077
61	0xbb1272aa	-0.0022346177
62	0xbd975293	-0.07388797
63	0x3d37e884	0.04489948
64	0xbdb2d636	-0.08732264
65	0x3d395714	0.04524906
66	0x3d21be61	0.0394882
67	0x3d512170	0.05105728
68	0xbd05f408	-0.03270343
69	0x3d634aac	0.055491135
70	0xbd9187f2	-0.07106008
71	0xbd6cd4b2	-0.05782003
72	0x3d77e857	0.06052431
73	0x3de1f818	0.11033648
74	0x3d4effb4	0.050536826
75	0xbd584a81	-0.052805427
76	0x3ceba756	0.028766315
77	0xbd87a640	-0.066235065
78	0xbdc09e94	-0.094052464
79	0xbcfce28a	-0.030869741
80	0x3d87d0eb	0.06631645
81	0x3dbc9e5d	0.09209893
82	0x3d169433	0.036762428
83	0xbd6b819c	-0.057496652
84	0xbd783a61	-0.06060255
85	0x3e126dfe	0.14299771
86	0x3d37ab74	0.044841245
87	0x3d7ced68	0.061749846
88	0xbd182351	-0.037143055
89	0x3d58f21a	0.05296526
90	0xbca26631	-0.01982412
91	0xbdb6f418	-0.08933276
92	0xbda3f529	-0.08005745
93	0xbd597714	-0.053092077
94	0xbdb86424	-0.09003475
95	0x3d37de66	0.04488983
96	0xbdb012e3	-0.08597352
97	0xbd7d3ca3	-0.061825406
98	0xbd8062cc	-0.06268844
99	0x3ca6c807	0.020359052
100	0x3d66bd15	0.056332666
101	0xbb8b00de	-0.0042420467
102	0x3ca96d17	0.0206819
103	0xbca9e4fd	-0.020739073
104	0x3db20315	0.08691994
105	0xbc047f42	-0.008086981
106	0xbc9f7341	-0.019464137
107	0x3dac751d	0.08420775
108	0xbd42d7a5	-0.047568936
109	0x3d1b9fbb	0.037994128
110	0x3aa6a178	0.0012712916
111	0xbcfbb85a	-0.030727554
112	0x3d971d0a	0.07378586
113	0xbd9c7fc5	-0.076415576
114	0x3c95100a	0.018196125
115	0x3cf4b9c2	0.029873732
116	0x3d33598c	0.04378657
117	0xbd1717fd	-0.03688811
118	0xbc8707ee	-0.016483273
119	0xbd47f31e	-0.04881584
120	0x3c13801a	0.00900271
121	0xbdb23e79	-0.08703322
122	0x3d9bf8ce	0.07615815
123	0x3c48a7c8	0.012247033
124	0xbcf7bc59	-0.030241178
125	0xb9f22010	-0.00046181725
126	0xbd80db0c	-0.0629178
127	0x3b73535e	0.0037128548
128	0x3d83e6e1	0.06440521
129	0x3e3f4d5d	0.18681855
130	0xbc11cda5	-0.008899127
131	0x3d36f08e	0.044663005
132	0xbd013075	-0.031540353
133	0xbd80f6ff	-0.06297111
134	0xbd4364b2	-0.047703452
135	0x3b06d20d	0.0020571977
136	0x3e0792be	0.13239571
137	0xbd712c5a	-0.058880188
138	0xbe16f75a	-0.14742795
139	0xbc085e4c	-0.008323263
140	0x3c278ddb	0.010226692
141	0xbe102dc5	-0.1407996
142	0x3dbd910b	0.092561804
143	0x3d1a9a94	0.037745073
144	0x3d844c6d	0.064598896
145	0x3a75cd8a	0.0009376636
146	0x3c278473	0.010224449
147	0xbdc57237	-0.096409254
148	0xbd0f0297	-0.03491458
149	0xbd969bbc	-0.07353923
150	0x3c630fb8	0.013858728
151	0xbd0af680	-0.033926487
152	0x3dd75d8a	0.10515888
153	0xbd69e679	-0.05710456
154	0x3d9b5ab2	0.07585658
155	0x3db941ab	0.09045728
156	0x3da654fb	0.081216775
157	0xbd32b1cc	-0.04362659
158	0xbe0ef3fd	-0.13960262
159	0x3d6419e2	0.055688746
160	0x3b581443	0.0032971061
161	0xbd4b5944	-0.049645677
162	0xbe54c5a3	-0.20778517
163	0x3cd0683d	0.02544033
164	0xbd136ac4	-0.03599049
165	0xbdb2430c	-0.087041944
166	0xbd847d7e	-0.06469248
167	0xbd16fd5b	-0.036862712
168	0x3d99e442	0.0751424
169	0x3c4f9b58	0.012671314
170	0xbd54714e	-0.05186587
171	0xbca02a97	-0.019551558
172	0x3d63ab29	0.055583153
173	0xbdb467e8	-0.08808881
174	0x3d051b44	0.032496706
175	0x3d017dc6	0.031614088
176	0xbdadc5a0	-0.084849596
177	0x3d14f074	0.036362126
178	0xbd238b67	-0.039927866
179	0x3d9b0244	0.075687915
180	0x3c53dbb7	0.012930802
181	0x3d20da65	0.039270777
182	0xbd9f07dc	-0.07765171
183	0xbd8599fe	-0.06523512
184	0x3b0cc787	0.0021481232
185	0xbbb8957b	-0.005633054
186	0xbd25643d	-0.040378798
187	0x3d6de31f	0.058077928
188	0xbc7723d3	-0.015084225
189	0xbce3a9e3	-0.02779097
190	0xbd24fce7	-0.04028025
191	0xbd85b1cf	-0.06528055
192	0x3d1b9326	0.03798213
193	0x3c998874	0.018741824
194	0xbda4d881	-0.08049107
195	0xbd55b155	-0.05217107
196	0x3cb80af7	0.022466166
197	0xbd441070	-0.04786724
198	0x3dad7421	0.084694155
199	0x3cc09919	0.023510503
200	0x3ddfc807	0.10926824
201	0x3c34867b	0.011018391
202	0xbb3a515e	-0.0028429846
203	0x3d2d22c3	0.04226948
204	0x3ddd3297	0.10800665
205	0x3ce7c5e7	0.02829261
206	0x3d7958bb	0.060875636
207	0xbd1461dd	-0.036226142
208	0x3de60d79	0.112330385
209	0x3d7bf12d	0.0615093
210	0x3d894ef8	0.06704515
211	0xbdc69940	-0.09697199
212	0x3e466ac9	0.19376673
213	0xbcab87a8	-0.02093871
214	0x3da11d3a	0.07866903
215	0x3dec44f4	0.11536589
216	0xbe0862f2	-0.13318995
217	0x3d64da94	0.055872515
218	0x3daabcb6	0.08336775
219	0x3da596ea	0.08085425
220	0x3c2dad86	0.010600453
221	0x3d23f2fd	0.040026654
222	0x3d8d37f3	0.06895437
223	0x3d3c502a	0.045974888
224	0x3da435cc	0.080180734
225	0x3e1f0594	0.15529472
226	0x3d73f421	0.05955899
227	0xbd3c93ab	-0.046039265
228	0x3d57aa4d	0.052652646
229	0xbc81d6a9	-0.015849428
230	0x3cc43cc2	0.023954753
231	0xbd4c551b	-0.04988585
232	0xbc673ecf	-0.014114096
233	0xbd34349e	-0.043995492
234	0xbdc74151	-0.09729255
235	0xbc9ffbed	-0.019529307
236	0xbd807b18	-0.06273478
237	0x3d1b0648	0.037847787
238	0xbe482f00	-0.19549179
239	0x3d361f61	0.04446352
240	0xbd8acdd4	-0.0677754
241	0x3d0691c1	0.032853846
242	0xbde25ce9	-0.110528775
243	0x3ca5e73e	0.020251866
244	0xbda3f313	-0.08005347
245	0x3d56b2ed	0.05241673
246	0x3d35c332	0.044375606
247	0x3d8289dd	0.063739516
248	0xbc8ca879	-0.017170178
249	0xbd0e6c04	-0.03477098
250	0x3d34109f	0.043961164
251	0xbd20b86c	-0.03923838
252	0x3cb7f7df	0.022457061
253	0x3bf1fcf3	0.00738489
254	0xbe1c9be9	-0.1529385
255	0xbce4866f	-0.027896134

conv_block.2.lin_r.weight f4 [128, 128]
0	0x3d10f8ab	0.0353934
1	0x3d8d7afc	0.06908223
2	0xbc4d04c7	-0.012513346
3	0x3c8b7f85	0.01702858
4	0x3d27c144	0.040955797
5	0xbc761aec	-0.015021067
6	0xbd3f0525	-0.046635766
7	0xba3aa9d1	-0.00071206415
8	0x3ca8578d	0.02054956
9	0xbd790c6a	-0.060802855
10	0xbc37bb3a	-0.011214072
11	0x3da7b1b7	0.08188193
12	0x3cd9603f	0.026535152
13	0xbd052495	-0.03250559
14	0x3dbd4b88	0.09242922
15	0xbc8ab4d1	-0.016931923
16	0x3c5c8985	0.013460522
17	0xbc5e9c1a	-0.013587022
18	0x3d1959f7	0.037439313
19	0x3d829a6b	0.06377109
20	0x3b60b2b0	0.0034286194
21	0xbcade171	-0.021225663
22	0xbd651b0c	-0.055933997
23	0x3db590a6	0.0886548
24	0xbd965510	-0.07340443
25	0xbd9374b1	-0.071999915
26	0x3c923792	0.017848764
27	0x3caa1e1b	0.020766309
28	0x3db77c41	0.089592464
29	0xbd25727f	-0.040392395
30	0x3cd9a6a2	0.026568715
31	0xbc289ec0	-0.010291755
32	0xbc3ac52e	-0.01139955
33	0xbc9f5cdd	-0.01945346
34	0x3cf9b080	0.03047967
35	0xbc353256	-0.011059364
36	0xbce2c9e6	-0.027684163
37	0xbd0d1aec	-0.034449503
38	0xbc9ff623	-0.019526547
39	0xbd253496	-0.040333353
40	0xbd9da487	-0.07697397
41	0xbd62a567	-0.05533352
42	0x3d88201e	0.06646751
43	0xbd6be673	-0.05759282
44	0xbd02dfb3	-0.031951617
45	0xbd0bd42f	-0.0341379
46	0x3d884ffb	0.0665588
47	0xbb950094	-0.004547188
48	0x3ba1c730	0.004937075
49	0x3d6c261b	0.057653528
50	0xb98a94a8	-0.0002643217
51	0x3d7655d5	0.06014045
52	0x3d7e2b61	0.062053088
53	0x3d31b73d	0.04338764
54	0xbd21931e	-0.039446943
55	0x3da15b82	0.07878782
56	0xbd2637df	-0.040580627
57	0x3b044c1e	0.002018697
58	0xbc8ad0be	-0.01694524
59	0xbc90c9b8	-0.017674312
60	0xbda3523b	-0.079746686
61	0xbcbb4be6	-0.02286334
62	0x3d63cef8	0.055617303
63	0x3c177e7a	0.009246463
64	0xbd37ec91	-0.04490334
65	0xbd4c2209	-0.049837146
66	0x3d513d89	0.051084075
67	0xbd4390c9	-0.0477455
68	0xbd8d817e	-0.06909464
69	0xbd9f746a	-0.07785876
70	0xbd5681e1	-0.052369956
71	0x3d1c0c79	0.038097832
72	0xbd2d32de	-0.04228484
73	0xbd9d0061	-0.07666088
74	0x3da1864d	0.07886944
75	0xbd202d23	-0.039105546
76	0x3b1244d7	0.0022318864
77	0x3d9b2e54	0.07577196
78	0xbd9aad74	-0.07552615
79	0xbcb9cff8	-0.022682175
80	0xbd2bbdb0	-0.041928947
81	0xbd494d2a	-0.049145855
82	0xbd80272d	-0.06257472
83	0xbdb20a4d	-0.08693371
84	0x3d8e1610	0.06937802
85	0x3db971ad	0.09054885
86	0xbd187231	-0.037218276
87	0xbca0ab30	-0.019612879
88	0xbca01282	-0.019540075
89	0x3d2f0c9b	0.04273663
90	0x3d9a9f4c	0.07549915
91	0xbd38f1fc	-0.04515265
92	0x3d90d8b3	0.07072582
93	0xbdc12581	-0.094309814
94	0x3d874aca	0.06606062
95	0xbd820881	-0.06349278
96	0xbcf2b5ed	-0.029627765
97	0x3d676fc7	0.056503084
98	0x3b4613e1	0.003022425
99	0x3d97d26c	0.07413182
100	0x3d8c54c6	0.06852107
101	0x3d27d275	0.04097219
102	0x3d77f40f	0.060535487
103	0xbcbadb78	-0.022809729
104	0x3d7d7ba1	0.06188548
105	0x3d25f028	0.040512234
106	0xbd34deb5	-0.044157702
107	0x3d606e52	0.05479271
108	0xbd1296a0	-0.03578818
109	0x3d38c210	0.045106947
110	0xbcb36ca3	-0.021902388
111	0x3d0d4f8e	0.034499697
112	0xbc4953dd	-0.012288061
113	0xba250f9a	-0.00062965753
114	0xbdb0531f	-0.08609604
115	0x3d26527c	0.040606007
116	0xbdc3b292	-0.09555544
117	0xbc1182c3	-0.008881274
118	0x3cbd9e08	0.023146644
119	0x3d74dd8c	0.059781596
120	0x3d42ebe5	0.047588248
121	0x3d89777f	0.06712245
122	0x3d0d6c2e	0.034526996
123	0x3d02a652	0.031896897
124	0x3d9851c9	0.07437474
125	0x3d9464a8	0.07245761
126	0x3d9b87f4	0.075942904
127	0x3c655fed	0.013999921
128	0x3d220ec4	0.039564863
129	0x3d8bdca1	0.06829191
130	0x3d06faf6	0.03295418
131	0x3c14cab1	0.0090815285
132	0xbc8f37df	-0.017482696
133	0x3d24e321	0.04025567
134	0xbc6a0844	-0.014284197
135	0xbe0037e0	-0.12521315
136	0x3d3abccd	0.04559021
137	0xbdbb6350	-0.09149802
138	0xbe1bb1a4	-0.15204483
139	0x3da9964f	0.08280622
140	0x3c329897	0.010900638
141	0x3d021092	0.031754084
142	0xbd8229fe	-0.063556656
143	0xbda1d234	-0.07901421
144	0x3cb6c1d5	0.022309223
145	0x3c853a2c	0.01626309
146	0xbd9caf7c	-0.076506585
147	0xbe30129d	-0.171946
148	0x3db2c021	0.08728052
149	0xbd685619	-0.056722734
150	0x3bc605e3	0.006043182
151	0xbccbacce	-0.024862673
152	0xbda3a94b	-0.079912744
153	0x3e06bb42	0.1315737
154	0xbd18770b	-0.037222903
155	0x3cd6da5a	0.026227165
156	0x3d8eaf90	0.0696708
157	0x3ccccf33	0.025001144
158	0xbcd6d0e4	-0.026222654
159	0xbd0bc46e	-0.034122877
160	0x3e13ac56	0.1442121
161	0xbcb0b509	-0.0215707
162	0xbe2c69cb	-0.16837232
163	0xbd26de3c	-0.040739283
164	0xbdd799bb	-0.10527369
165	0xbd9485b2	-0.07252063
166	0xbd102096	-0.035187326
167	0xbc75e6ff	-0.015008687
168	0xbd9cb0f6	-0.0765094
169	0x3d10905f	0.035293933
170	0xbd8b53d2	-0.06803097
171	0x3d9cc201	0.07654191
172	0xbe0ac107	-0.13550197
173	0x3d41d2d2	0.047320195
174	0x3e342aa1	0.17594387
175	0xbd4b84e4	-0.04968728
176	0xbe267634	-0.16256028
177	0x3db386a0	0.08765912
178	0x3cb23b42	0.021756772
179	0xbdac3561	-0.08408619
180	0x3d255ddb	0.04037271
181	0x3d3989b4	0.04529734
182	0xbdcf425f	-0.10120081
183	0x3d52c1a9	0.05145422
184	0xbd99b68b	-0.075055204
185	0x3cdd781a	0.027034808
186	0x3de1c3c9	0.11023671
187	0xbe0cf48d	-0.13765164
188	0x3d6cea2d	0.057840515
189	0x3de83966	0.11339073
190	0xbe2b4ce6	-0.16728553
191	0xbdbfba69	-0.09361727
192	0x3db22911	0.08699239
193	0x3c7f9327	0.015599049
194	0xbde8b14f	-0.11361944
195	0xbd9f4474	-0.07776728
196	0xbbeea766	-0.007283139
197	0x3cd2f048	0.02574934
198	0x3de5e0ba	0.11224504
199	0x3e1c3001	0.15252687
200	0xbcb66896	-0.022266667
201	0x3e0d4821	0.13797046
202	0xbdc9fa15	-0.098621525
203	0xbd2692fa	-0.04066751
204	0xbd584510	-0.052800238
205	0x3cf02704	0.02931548
206	0x3c8ac742	0.016940717
207	0xbd8303c5	-0.06397203
208	0x3d2e1c85	0.042507667
209	0xbd1d4431	-0.03839511
210	0x3dea27b2	0.114333525
211	0xbde75687	-0.11295801
212	0xbca4435b	-0.020051649
213	0x3dbb4ddd	0.091457106
214	0x3caa29c5	0.02077187
215	0xbd5d9144	-0.054093614
216	0xbe235bac	-0.15952939
217	0xbd912d4d	-0.070887186
218	0x3cf45be8	0.02982898
219	0x3d6b7f63	0.057494532
220	0xbc1a96ff	-0.009435414
221	0xbd6737e3	-0.056449782
222	0xbd9cf7df	-0.07664465
223	0x3dc69132	0.096956626
224	0x3de4e25e	0.111759886
225	0xbd7d351a	-0.06181822
226	0xbdc66d73	-0.096888445
227	0xbd0e0bc7	-0.0346792
228	0x3d3cf8f8	0.046135873
229	0x3d4a289a	0.049355127
230	0x3d8a8d5d	0.06765244
231	0x3dca9141	0.09890986
232	0x3da4a5da	0.08039446
233	0xbd3035df	-0.043020125
234	0xbd8b1671	-0.0679139
235	0xbd114193	-0.035462927
236	0xbdeb6fa5	-0.11495904
237	0xbd820d89	-0.06350238
238	0xbd7105fc	-0.058843598
239	0x3d3d002e	0.04614275
240	0xbce4c774	-0.027927138
241	0x3dd69d84	0.104792625
242	0x3d6c621f	0.057710763
243	0x3d89cddf	0.0672872
244	0x3c4712ab	0.012150447
245	0x3dbff615	0.09373108
246	0xbdd2857a	-0.10279365
247	0xbd66691b	-0.05625258
248	0xbdb09e8c	-0.086239904
249	0xbcc9677a	-0.024585474
250	0x3d7b29a9	0.061319027
251	0xbbadcda7	-0.0053040567
252	0x3d067df5	0.032834966
253	0x3d93dd96	0.072199985
254	0xbc9f5d35	-0.019453624
255	0x3d0d17f4	0.03444667
