models/hyperparameter_optimization/augment/Set2/train_lr0/input_train_lr0_1e-05/GNN.pth (torch, 994184 bytes, 18 tensors)

input_layer.weight f4 [128, 8]
000000 af bc 8d 3e cb d0 9a 3e a3 a1 a9 bd 64 83 a1 3e
       0.27683017 0.3023742 -0.08282783 0.31545556
000010 df a5 9e bd da 97 90 3d a6 42 30 be 79 9e 54 3e
       -0.07746481 0.070602134 -0.17212924 0.20763578
000020 aa 41 9f 3e 06 cd 84 be b8 d4 9c 3e ba a1 66 3d
       0.31104785 -0.2593767 0.30631042 0.05630658
000030 99 c7 85 3e c8 0d 43 3d 13 e8 39 3e 67 77 4c bd
       0.26128843 0.047620565 0.18154936 -0.04991856
000040 85 15 8e 3e 4d c5 6b 3d 9c 03 29 be 74 e5 99 3d
       0.27750793 0.057561208 -0.16505283 0.07514468
000050 f2 cd 26 be 48 d4 29 bd 86 0b 13 be 7b 2a 70 3e
       -0.162895 -0.041462213 -0.14359865 0.23453705
000060 2a e4 8e be 50 e7 26 be 0e 76 cc bd 13 af 59 be
       -0.2790845 -0.16299176 -0.09983455 -0.21258192
000070 53 76 09 3d fd c9 b2 be d2 38 a9 3e 2a c5 99 be
       0.03356011 -0.3491973 0.33051163 -0.30033237
000080 19 fb 8d 3e 59 7f 63 3d 77 1c eb bd 8b 8e 70 3e
       0.27730635 0.05554137 -0.114800386 0.23491876
000090 bb 37 60 3d 4b 73 92 3e 2c 6b 7e 3d c5 5a e4 bd
       0.05474065 0.28603587 0.062113926 -0.111501254
0000a0 ad 34 bb 3d da 5a c4 bd c3 64 18 3e 2c 3b aa 3e
       0.091409065 -0.09587641 0.14882188 0.3324827
0000b0 8c e6 50 3e fb 45 1e be 11 de 65 3e 72 8e 81 3d
       0.20400447 -0.15456383 0.22447993 0.063259974
0000c0 20 f9 37 3e 16 aa 5c be 4c 31 b3 be a1 e0 0b be
       0.17966127 -0.21549258 -0.34998548 -0.13659908
0000d0 91 d8 8a be 5b 42 94 3e c8 a7 f0 3d 19 f6 15 3e
       -0.27118352 0.28956875 0.11750752 0.1464466
0000e0 60 4d e9 3d 57 89 c9 bb 05 25 8d 3e e0 9d 80 be
       0.11391711 -0.0061504054 0.27567306 -0.2512045
0000f0 62 a8 b4 3c 1f 1b 77 be 9c e5 cd 3d 02 5c f9 bd
       0.022052947 -0.2413144 0.1005356 -0.12175752
000100 fc 53 dd 3d f8 da 96 bd 1f 93 96 3e bd 94 56 be
       0.108070344 -0.07365984 0.2940912 -0.20955177
000110 4c eb 57 be a3 ee 57 be c5 f1 ab 3e b1 4c f1 3d
       -0.21085852 -0.21087126 0.33582893 0.11782206
000120 5b 33 b3 3e 16 64 95 be 7b 8c b3 be 7b 9f 8d be
       0.3500012 -0.29177922 -0.35068116 -0.27660736
000130 1a 8a 73 be 1c 83 11 3e b6 8c f9 3d d3 69 96 3e
       -0.2378315 0.1421017 0.121850416 0.29377612
000140 49 f7 3a be 58 ce 76 be 92 9e 40 3e 70 56 12 be
       -0.18258394 -0.24102151 0.1881049 -0.14290786
000150 d5 9a 5b 3e f2 d2 ab bd 77 6a 61 3e 6f a5 8c be
       0.21445782 -0.08389844 0.2201327 -0.27469966
000160 e6 b3 36 be 49 ef eb 3d ad 36 97 3d 1f 9c b8 bd
       -0.17842063 0.115202494 0.073834755 -0.09014153
000170 50 b6 58 3e 60 a0 75 3e 39 45 83 be eb 47 41 be
       0.21163297 0.2398696 -0.2563875 -0.18875091
000180 26 2b a6 3e c5 53 f4 bd 40 59 00 be 41 27 af be
       0.32454795 -0.1193004 -0.12534046 -0.34209636
000190 2a 54 4f be f6 54 b4 3d 83 25 3f bd 3f 66 83 be
       -0.2024695 0.088052675 -0.046666633 -0.25663945
0001a0 0e 23 81 3b 4a 4d 77 be 82 93 99 be 75 5c 47 be
       0.0039409464 -0.24150577 -0.29995352 -0.19468863
0001b0 29 6e 9e be 18 86 66 be 84 1e bc 3e 94 c2 88 3d
       -0.3094342 -0.2251209 0.36742032 0.06677738
0001c0 23 10 e6 3d 7a d5 a8 be 0b c7 6d be 6b 03 f1 bd
       0.112335466 -0.3297537 -0.2322046 -0.1176823
0001d0 c8 d3 62 3d 64 48 9f be 22 fe 1b be bd bd 58 be
       0.05537775 -0.31109917 -0.15233663 -0.2116613
0001e0 73 05 12 b7 3b b7 06 be b4 b3 c8 bc 02 54 75 be
       -8.703547e-06 -0.13155834 -0.024499752 -0.23957828
0001f0 68 80 78 be c9 36 53 be 8d d9 f7 bd 07 e0 8e be
       -0.24267733 -0.20626368 -0.121020414 -0.27905294
000200 96 54 94 3e 0c b4 8f bd 43 eb 9b 3e 1f d2 d9 3d
       0.28970784 -0.07016763 0.30452928 0.106357805
000210 60 49 99 be c6 bd 7c 3e e3 39 c7 bd 63 c7 0a be
       -0.29938793 0.24681768 -0.09727838 -0.13552622
000220 41 42 96 be 59 f6 b3 be 08 48 cc 3d 96 2b 9e bd
       -0.29347423 -0.35148886 0.09974676 -0.07723157
000230 d6 e8 0c 3e 53 8e 94 be a4 84 83 3e bf e0 84 be
       0.13760695 -0.29014835 0.25687134 -0.25952718
000240 c6 0e 7a bd 8a 65 9b 3d 1d 5f 39 3e 87 a0 89 3e
       -0.061049245 0.075877264 0.18102689 0.26880285
000250 38 0b a5 3e c4 88 8f be 6d f8 b2 3d e4 b8 1b be
       0.32235122 -0.2803403 0.0873879 -0.15207249
000260 1d b2 1e bd be 7d 87 be 29 08 a5 3e f6 db 84 be
       -0.03874408 -0.2646312 0.32232788 -0.25949067
000270 f5 68 42 3e d8 3f 00 3e 0e 6d 10 3e 1e bc 43 be
       0.1898535 0.12524354 0.14104101 -0.1911473
000280 43 f5 a8 3e be 0a a9 3d 74 ad 38 3d 2f 86 9f be
       0.3299962 0.08254002 0.045087293 -0.3115706
000290 6e 09 17 3e c7 40 59 bd d4 db 25 be 66 7c 9b 3e
       0.14749691 -0.053040292 -0.16197139 0.30368346
0002a0 52 21 a4 3d b5 4e 48 be eb 3d 37 be ba 50 8a bc
       0.08014168 -0.19561274 -0.17894714 -0.016884197
0002b0 a3 27 49 3e b8 06 b9 bd f7 91 4e be 83 f4 f7 bd
       0.19644026 -0.090344846 -0.20172869 -0.12107184
0002c0 28 3c 87 be 28 c8 ed 3d 9b 5b 8c 3e 3d 6b aa be
       -0.26413083 0.116104424 0.2741364 -0.3328494
0002d0 cd 28 a7 3d 07 71 3c 3e 1c c5 89 3d 4f ee 00 be
       0.08162079 0.18402492 0.06727049 -0.12590908
0002e0 3a bd 3b 3e 05 5e 3d 3e fb 1c 08 3e c6 78 7e bd
       0.18333903 0.18492897 0.13292305 -0.062126897
0002f0 91 bc bf bd 55 7a 1c 3d 8d d2 7f bd 9b c6 d7 bd
       -0.09362138 0.038202602 -0.062456656 -0.10535928
000300 16 92 71 3e 59 b2 9f 3e 0d 5d 0f bd 5f 1e a2 bd
       0.23590884 0.31190756 -0.03500085 -0.07915949
000310 72 f9 9f 3b fc ee ac bc 2e c6 b4 3d 2b e9 ca 3d
       0.004882031 -0.02111005 0.08826862 0.099077545
000320 7b 69 a4 be 1e 9b 05 be 06 b5 98 3e 67 2a 16 3e
       -0.32111725 -0.13047454 0.2982561 0.14664613
000330 2e 0e 90 bc 73 46 5a be 42 7f 5d be b0 26 a2 be
       -0.017584886 -0.21315937 -0.21630576 -0.3167014
000340 a2 05 ec bd f5 ec fc 3d df b5 66 3e 50 95 3b 3e
       -0.11524512 0.123498835 0.22530316 0.18318677
000350 ce 02 a0 be 6a b7 59 be fd 8a 64 bd e5 1b af 3e
       -0.3125214 -0.21261373 -0.055796612 0.3420097
000360 ae 74 33 3d cd 83 bb bd c0 cf 16 3e d3 e4 09 be
       0.043812446 -0.091559984 0.14727688 -0.13466196
000370 e2 54 6a be 58 2d 84 3e a0 9e 24 be 47 27 91 bd
       -0.22883943 0.25815845 -0.16076136 -0.0708757
000380 2d 14 b4 be 8d ca 80 3e 69 e0 88 3e 12 12 ec 3d
       -0.35171643 0.25154534 0.2673371 0.11526884
000390 b3 70 7c be bb a7 b2 be 25 05 93 be 75 fc 86 3e
       -0.24652366 -0.34893593 -0.28714862 0.26364484
0003a0 8e c2 2d 3e 8d 14 9a 3e ef 98 3d 3e cc 0b 97 3d
       0.16968748 0.30093804 0.18515371 0.07375297
0003b0 b3 e6 62 bb 92 aa 89 be a3 17 9b be f2 50 a9 be
       -0.003462237 -0.26887947 -0.3029147 -0.3306957
0003c0 24 cb 12 3e d8 bf 31 be f1 b8 91 bd eb 5a 50 be
       0.14335304 -0.17358339 -0.07115353 -0.20347182
0003d0 a7 f1 83 bd c1 d0 7e be ce 8f 6c be 2d 2f f0 3d
       -0.06442576 -0.24884321 -0.23101732 0.11727748
0003e0 73 31 d7 bd ee 93 5e 3e 55 4a e8 bd 34 ca 84 be
       -0.105074786 0.21736118 -0.11342303 -0.2593552
0003f0 c7 82 7f bd 4f 7f 2f be 7e 86 dd bd 61 54 ac be
       -0.06238058 -0.17138408 -0.10816668 -0.33658126

conv_block.0.lin_l.weight f4 [128, 128]
000000 6c 47 9e 3c 21 a1 25 bd 1e ba 19 3d bc f6 85 3b
       0.019321166 -0.040436868 0.03753101 0.004088251
000010 21 b0 ee bb a6 a7 78 3d 0a ea 6a 3d e0 83 05 3c
       -0.00728418 0.060706757 0.057352103 0.008149117
000020 46 3a 8c bd d8 b5 a9 bd 96 22 55 bd 57 0d af bd
       -0.06847052 -0.08286637 -0.052034937 -0.08547466
000030 b6 03 ab 3d 1a a7 64 bb 4a 56 92 bd 7d e5 77 bc
       0.08350317 -0.003488964 -0.071453646 -0.015130398
000040 75 13 dc 3c aa 57 c4 bc c2 f4 89 bc 5a 73 47 bd
       0.026864747 -0.023967583 -0.016840342 -0.048693992
000050 c7 5a 9c 3d 20 f8 98 3c 72 7e 9b 3d 54 fc 11 3a
       0.07634502 0.018673003 0.07592477 0.0005568911
000060 b2 cd 61 3d 55 a4 b0 bd 36 d1 b9 3c b7 4b 68 bd
       0.055127807 -0.08625094 0.022682767 -0.056712832
000070 1c c6 71 3d e5 04 76 bd 4b e2 72 bd cf 7b 83 bd
       0.059026822 -0.06006326 -0.05929784 -0.06420099
000080 04 21 9b bd 25 a5 a0 bd b3 d1 8a bd 91 47 8f 3d
       -0.075746566 -0.07843999 -0.06778278 0.06996072
000090 77 0c 13 bc b2 b0 14 3c 30 a8 ab 3d ba 98 45 bd
       -0.00897514 0.009075331 0.083816886 -0.048241355
0000a0 45 67 25 bd fa 1f aa bd 2b a4 7f 3d cc 62 a2 bd
       -0.04038169 -0.0830688 0.062412422 -0.07929
0000b0 e5 f9 74 bd 0c dc 71 bc 06 f5 a0 ba 4a 92 75 3d
       -0.05980863 -0.014761936 -0.0012280054 0.059953965
0000c0 8c 60 c4 bc cb fe 1c bc f3 c0 e1 3c b4 d6 29 3d
       -0.023971818 -0.009582232 0.027557826 0.041464522
0000d0 ef fc ac 3d 32 a6 8d 3d 5e 67 99 bd 7d 99 3a 3d
       0.08446681 0.06916465 -0.07490419 0.045556534
0000e0 7d 22 6a 3d fd 7b b1 bd d9 99 31 3d 76 33 55 bd
       0.057161797 -0.08666227 0.04335961 -0.05205103
0000f0 ba ae 42 3d cd 03 c4 3c db 18 cb bb 8b ff 3c bc
       0.047529913 0.023927594 -0.0061980314 -0.011535536
000100 09 1a 64 bd 51 cd 82 bd e6 5e c5 3c c2 aa d1 bb
       -0.05568889 -0.06386817 0.024093103 -0.0063985297
000110 9a b9 6e bd 99 1b 96 bd 4a 8b e0 3c 5b e0 31 3d
       -0.058282472 -0.073294826 0.027410168 0.043426853
000120 bd ad 9d 3d 29 75 55 bd 21 6e 4f bd 85 48 3e bd
       0.076991536 -0.052113686 -0.050642136 -0.04645588
000130 32 b0 08 3d fe 41 c5 bd ea 8e a6 bd 99 e3 5f bc
       0.033371158 -0.09631728 -0.081327274 -0.013665103
000140 cd 7e 35 bd 02 6d 58 3d 91 c7 13 bd d5 08 dc 3b
       -0.04431038 0.052838333 -0.036078993 0.00671492
000150 3f 22 73 bd b3 d1 93 3d eb a0 87 3d d1 16 b2 3c
       -0.05935883 0.07217731 0.066224895 0.021739395
000160 59 08 09 3d 7c 1a a7 bd b7 82 82 bd 8e cd 63 bb
       0.033455227 -0.08159348 -0.06372588 -0.0034759971
000170 e3 a8 72 bb 18 49 01 3d a9 48 f3 3c a8 bc 9a bb
       -0.0037026934 0.03156385 0.029697733 -0.0047221966
000180 db ef d3 3c ac 5b 89 bc 32 20 43 3d 6d 51 80 bd
       0.025871208 -0.016767345 0.047638126 -0.06265531
000190 90 da 13 3d 96 98 9e 3d eb 4d 76 ba 0c eb 44 3d
       0.03609711 0.07743947 -0.0009395766 0.04807572
0001a0 51 f8 9b bd 67 b6 37 3b d5 3b d7 bc 56 d4 d8 ba
       -0.07615722 0.0028032304 -0.026273647 -0.0016542773
0001b0 7e 01 0a bd ef b2 81 3d 21 9c 18 bd d6 f0 e1 3c
       -0.03369283 0.06332957 -0.03725827 0.02758066
0001c0 78 b5 44 3d 46 31 a4 3d 2a 13 8e 3d 0c 66 56 bd
       0.048024625 0.08017211 0.06937249 -0.052343413
0001d0 87 82 87 bc 27 37 6b 3d 4e f8 c1 3c c2 58 47 3d
       -0.016541732 0.057425644 0.023677971 0.04866863
0001e0 0e 1b ee 3c 07 8e ac bd d0 d2 22 3d 14 c3 90 3d
       0.029065635 -0.08425527 0.039751828 0.07068458
0001f0 58 7a 2c 3d 9d df 0d bd 4c ad a2 bc 97 70 3f bd
       0.042108864 -0.034637082 -0.019858025 -0.046738233
000200 93 a2 d2 3c 1d 52 31 3d b5 58 6f bd 68 22 3d 3a
       0.025712287 0.0432912 -0.058434207 0.0007214905
000210 73 e0 52 bc 91 11 83 3d 47 1d 64 bc 36 d3 5f bd
       -0.012870896 0.06399835 -0.013922996 -0.054644786
000220 ca 9a 3e 3d e9 c8 1e bd 37 be 90 bb f9 a5 cd bc
       0.046534337 -0.03876582 -0.0044172066 -0.025103556
000230 86 8b 1b 3d 4c 10 cf bc bb eb 0b 3d 25 2d 73 bd
       0.037974857 -0.025276326 0.034160357 -0.059369225
000240 52 cc 43 bc 43 dc ad 3d 28 14 35 bd 77 a6 7c bc
       -0.011950569 0.08489277 -0.044208676 -0.015420548
000250 99 47 c4 b7 53 6f a0 3c 21 d2 17 bd d3 8e 11 3d
       -2.3398361e-05 0.019584334 -0.03706563 0.0355366
000260 fd 36 9a bc 31 f3 15 39 a1 0f ae 3d ec a3 9a 3d
       -0.018825049 0.00014300343 0.08499075 0.07550797
000270 64 6f ab bc e2 65 32 bd f3 dc 4d bd 61 51 d9 bb
       -0.020927139 -0.043554194 -0.05025954 -0.0066320156
000280 38 2c 1c 3c 19 c4 05 3d bb 70 f5 bc 8d 5b 2e 3d
       0.009532027 0.032657716 -0.02996098 0.04256778
000290 f3 cf ad ba 05 f4 06 3d 5b 21 b7 3d fc bf 31 3b
       -0.0013260826 0.03294756 0.08941909 0.0027122488
0002a0 48 33 64 bb 2b ec 1f bd 64 c2 91 3d 58 9a a9 bd
       -0.0034820605 -0.039043587 0.07117155 -0.08281392
0002b0 aa f1 0f bd 2a fa 59 3c 32 95 35 3d b1 a0 a6 bd
       -0.03514258 0.013304273 0.044331737 -0.08136118
0002c0 90 ed 85 bb 1e 7b ac 3c 36 fe aa 3d a0 08 30 3d
       -0.0040871575 0.0210548 0.08349268 0.042976975
0002d0 ca ab b0 3d ee ad 6f bc 69 50 9f bd 4c de a6 3c
       0.08626516 -0.01462887 -0.07779009 0.020369671
0002e0 ae 96 76 3d 25 27 aa 3b 89 f2 74 3c b2 0a b9 3d
       0.060202293 0.0051926547 0.014950403 0.09035243
0002f0 48 6e a2 bd 57 41 ac 3c da b8 08 3d 29 c7 b8 3c
       -0.07931191 0.02102725 0.033379413 0.022555904
000300 bb 96 73 bc ba 34 e3 bc bf 97 47 3d 6f ab e6 3c
       -0.01486748 -0.027735103 0.0487287 0.028157918
000310 60 bb fb 3c fb c0 de 3a b5 dc 52 bd 6d 7e 10 3d
       0.030728996 0.0016994769 -0.051480014 0.03527682
000320 ec 4c 19 bd e6 dd 60 bd 2d 36 3a bd 45 f3 83 bd
       -0.037426874 -0.05489912 -0.045461822 -0.06442884
000330 db a0 91 bd 1b 8f 84 bb ed 7e b1 bd a2 1d 92 3d
       -0.07110759 -0.00404538 -0.08666787 0.07134558
000340 32 2c 8f bd 1a 86 09 3d 4b 0c 1b 3d ae d2 ee bc
       -0.069908515 0.033575155 0.03785352 -0.029153194
000350 9b 55 c5 3c 3a db a9 3d 1f 24 ab bd b6 8d 1b 3c
       0.024088671 0.08293767 -0.08356499 0.009494236
000360 08 ce 70 3d ea 7f b1 3d b4 97 d7 3c ce de 96 3d
       0.058790237 0.08666976 0.026317455 0.07366715
000370 5c cd 36 bd 34 2d 9c 3d 27 74 05 3c fe 6d 75 bd
       -0.04462944 0.07625809 0.008145369 -0.05991935
000380 1f 6f 75 3d 7b 26 9d 3d 2d b0 9c bd c9 c7 41 3d
       0.059920426 0.07673355 -0.0765079 0.04730967
000390 1c 68 fd 3c 6f 35 9d 3d ac a5 a7 bd c4 de 3e 3d
       0.030933432 0.07676207 -0.08185896 0.046599165
0003a0 3d fc b2 3d 12 03 c3 bc f7 b0 fb 3c 88 d1 98 bd
       0.08739517 -0.023805175 0.030724032 -0.0746184
0003b0 95 90 db 3c cd 7f 6a bd f8 4c aa bd 1e ee 26 3d
       0.02680234 -0.057250787 -0.08315462 0.04075443
0003c0 9b 6f 43 3d 17 0e 64 3d 87 ce 89 3d 79 ec 3f bc
       0.047713857 0.0556775 0.06728845 -0.011714094
0003d0 97 1c af bd 90 a8 6b 3d 08 4e 90 3d 3e ad 81 bd
       -0.08550375 0.0575338 0.07046133 -0.063318714
0003e0 f6 b2 9f bd b4 5a 57 bd f1 99 3e bd d7 eb 8d 3d
       -0.07797806 -0.052576736 -0.04653353 0.069297485
0003f0 17 2f ba bd e1 2d 0f 3d 8f 7d 2a 39 1b 48 70 bd
       -0.09091013 0.034955863 0.00016259238 -0.058662515

conv_block.0.lin_r.weight f4 [128, 128]
000000 ee 20 06 3d cd c3 a6 bd 07 60 3b 3c 0f 09 a9 3d
       0.032746248 -0.08142815 0.011436469 0.08253681
000010 92 c9 b1 3d b4 fa c8 3b cc 95 7d 3d 22 7e 31 bd
       0.086810246 0.0061334018 0.061910436 -0.04333318
000020 9f 4b a7 bd 06 ff 89 bd 97 a4 13 bd a2 a9 a8 bd
       -0.081687205 -0.06738095 -0.036045637 -0.0823548
000030 00 52 5d 3d 44 89 8b 3b 66 fa 25 bd b3 38 5f bd
       0.05403328 0.0042583067 -0.040522 -0.054497432
000040 9d 0c 80 3c 3d 9d 36 bd fc 6f 11 bd f6 d3 39 bc
       0.015631014 -0.044583548 -0.035507187 -0.011342039
000050 82 c2 9d bd 14 9d 7e bc 30 73 b1 3d 4f ff 8b 3d
       -0.07703115 -0.01554038 0.086645484 0.068358056
000060 13 45 20 3c 80 c1 8e bd c4 fc c3 3c 5c ef 4d bd
       0.009782094 -0.06970501 0.023924239 -0.0502771
000070 2f b9 9b bd 26 96 2c bd 63 c5 85 bd 6c 36 3b 3d
       -0.0760368 -0.04213538 -0.06531789 0.045706198
000080 dd 45 98 bd ae 3f 50 bc 45 93 27 3c db a9 3e bd
       -0.074352 -0.012710495 0.010227983 -0.046548706
000090 e4 e3 28 bd 47 c3 1a 3d b7 3a 8c bd 3a b0 44 3d
       -0.04123296 0.037783887 -0.068471365 0.048019625
0000a0 0a b8 e4 bc aa 88 96 bd 10 5a 75 ba b7 b0 8f bc
       -0.027919788 -0.07350285 -0.00093594287 -0.017540319
0000b0 13 d9 2f 3b 52 f9 d1 bc fb 15 42 3c 0e 13 00 3d
       0.0026832267 -0.02563158 0.011846061 0.031268172
0000c0 d2 b8 6f 3d 5b 58 2f bd e0 96 ea 3c 71 96 8f 3d
       0.058525868 -0.04280887 0.028636396 0.07011116
0000d0 6d a9 51 3a 7f ba bb bb e6 b0 53 3d c4 8b a4 bd
       0.00079979637 -0.005729019 0.051682375 -0.08034471
0000e0 05 a2 80 bd 0d 66 b0 3d fb f8 59 3c 84 cc 9f bb
       -0.06280903 0.08613215 0.0133039905 -0.004876675
0000f0 59 3f b7 bd d6 9c 81 bd ce 36 b0 3b c4 69 99 bc
       -0.089476295 -0.06328742 0.005377627 -0.01872719
000100 28 8c 1b 3d 35 16 89 bd e8 e9 0a 3d 3d 87 47 bd
       0.03797546 -0.06693689 0.033914477 -0.048712958
000110 cc ad 03 bd e1 0a 85 3d 3e a9 04 3d b9 07 71 bd
       -0.032148167 0.064962156 0.032387964 -0.058845256
000120 e9 93 30 3d 7d 31 d6 3c ed 18 cc bc 75 06 ae bd
       0.043109808 0.026146645 -0.02491423 -0.08497325
000130 4f 3c 2d 3d db 5d 3f 3d 7d 56 3e 3d e1 2c 13 3d
       0.042293843 0.046720367 0.0464692 0.03593147
000140 d5 2c f1 3b f7 86 90 bd 19 dc 7a bd e5 fd 5a bc
       0.0073600807 -0.070569925 -0.061245058 -0.013366197
000150 3f 78 e6 3c 5c f2 a1 bb 66 b6 34 bd 96 7e 18 3d
       0.02813351 -0.0049422216 -0.04411926 0.037230097
000160 57 9c 82 3c ae 2c 82 bd 86 ef 8e 3d 7d 6d 3e 3d
       0.01594369 -0.06356178 0.06979279 0.046491135
000170 55 52 90 3d e9 b5 cc bc 78 18 2d 3d a3 0c 81 3c
       0.070469536 -0.024989085 0.042259663 0.015753096
000180 22 2e 97 3d 1f ee 84 3d 6f b4 7b 3b 44 ba 42 3d
       0.07381846 0.064907305 0.0038407107 0.047540918
000190 3c a3 b8 bc d9 86 21 bd 4f 13 c4 3c 0e 2f 41 3d
       -0.022538774 -0.03943524 0.023934988 0.047164015
0001a0 d7 b8 45 3d 7e d5 3d 3d 73 1e a5 3d ee df 57 3d
       0.04827198 0.04634618 0.08062448 0.05270379
0001b0 a3 52 3e 3d 8b 02 9b bd 10 e5 86 bd 74 2b ee 3c
       0.046465527 -0.075688444 -0.06586659 0.029073454
0001c0 63 c1 7c 3d 1d 96 9d 3c 3f a5 af 3c 6e 6f 16 3d
       0.061707865 0.019236619 0.0214411 0.03672736
0001d0 c6 3c 3c bd 4a 13 f9 bb 06 c5 60 bd 4e 29 1d bd
       -0.045956396 -0.0076011764 -0.054875396 -0.03836947
0001e0 4e 96 e2 bc 44 ce 30 bd 5b cf ce bb ab 6f a4 bd
       -0.027659561 -0.04316546 -0.00631134 -0.080291115
0001f0 4d c5 67 3d b8 91 98 bd c1 6e 0a bd 51 13 59 bc
       0.056584645 -0.07449669 -0.03379703 -0.013249234
000200 3f 25 8f bd 72 4d dd bc e6 a0 9a 3d cf 42 a7 bd
       -0.06989526 -0.027014468 0.0755022 -0.081670396
000210 41 25 89 3d 7c 63 4f bd 47 96 95 bd 47 f4 15 3d
       0.06696559 -0.050631985 -0.07304054 0.036609914
000220 4e 6e c3 3c 1c 48 71 3d 87 1d 23 3d 67 f1 5b 3d
       0.023856308 0.05890666 0.03982308 0.053697016
000230 f9 14 09 3d 89 b6 74 bc 87 ee 86 3d 48 d9 8b bd
       0.033467267 -0.014936098 0.06588464 -0.068285525
000240 76 85 ad bd 3c 37 1a bd 72 b7 7d bd 8a 50 91 3d
       -0.08472721 -0.03765033 -0.061942525 0.0709544
000250 b6 8b 33 3d 58 f7 b4 3d aa 98 39 bd 32 f1 a8 3d
       0.04383441 0.088362396 -0.045311607 0.08249129
000260 a2 9f 95 bd 4f ec 7c bd b6 09 b8 3d fe 58 07 3b
       -0.07305838 -0.0617488 0.08986227 0.0020652409
000270 9c 7e a8 3c bf 18 06 bd c8 b8 f3 3c 24 cd 43 bc
       0.020568185 -0.032738443 0.029751197 -0.011950765
000280 a3 bc 90 3d 93 a7 50 3d 6b 34 ee ba f4 02 0c bd
       0.070672296 0.05094106 -0.0018173581 -0.034182504
000290 e3 67 68 bd 4d ab 15 3d ef 6d 9c 3c 10 13 88 bd
       -0.0567397 0.03654032 0.01909539 -0.06644261
0002a0 45 1b 02 bd b9 e8 4b bc cd f1 93 3d d7 ff 65 bd
       -0.031764288 -0.012445622 0.07223854 -0.05615219
0002b0 f7 ce bf 3b 8b fb 52 bd a0 a2 ab 3d 7f d2 16 bd
       0.0058535296 -0.05150942 0.08380628 -0.03682184
0002c0 6d f6 a8 bc 4c 26 83 3d da 64 95 3d fc 63 41 3d
       -0.020625317 0.06403789 0.072946265 0.047214493
0002d0 47 c8 bd 3d 81 97 72 bd 84 69 09 bd 30 77 b7 3d
       0.092667155 -0.059226517 -0.033547893 0.0895828
0002e0 95 39 ad 3d b0 92 b3 3d 6c b4 8a bd c5 03 17 3d
       0.084582485 0.08768213 -0.06772694 0.03686883
0002f0 8b 4f ae 3d c6 48 4a 3d 2c 1e 84 3c c1 54 9e 3d
       0.08511265 0.04938581 0.016127668 0.07731009
000300 c6 6a a0 3d a0 c7 67 3d 0b 23 06 3d 85 bd 92 bd
       0.078328654 0.05658686 0.032748263 -0.07165054
000310 b0 ba ab bd 5d cb e3 3c d0 48 8c bd 7b 24 f6 bb
       -0.08385217 0.027806932 -0.068498254 -0.007511673
000320 e2 f1 e5 bc e2 f3 94 3b 87 de 4c bd 17 5d 7b 3d
       -0.02806944 0.0045456747 -0.050016906 0.061368074
000330 e0 be a3 3d 57 18 97 bd 17 04 9f 3d b5 06 83 bd
       0.07995391 -0.07377689 0.07764452 -0.06397764
000340 a6 ad 68 bd a8 fb 15 3d f7 50 bf bc 16 8a 8c bd
       -0.05680623 0.03661695 -0.023354037 -0.06862275
000350 7e 18 31 bd ef 26 b8 3d 91 99 7a bd 68 82 ea bc
       -0.04323625 0.08991801 -0.06118161 -0.028626636
000360 f8 8a 4f bd c9 30 1b 3d 29 dc 6a 3d a5 51 3c bd
       -0.05066964 0.037888322 0.057338867 -0.0459763
000370 75 db 8d 3b 75 6e 2d bc 7e 3e 82 bd bc b4 d3 3b
       0.00432914 -0.010585417 -0.06359576 0.006460754
000380 a2 3c 03 3d e7 54 89 3d cd e2 ae 3d ba fc 3b bd
       0.032040246 0.06705647 0.085393526 -0.045895316
000390 76 58 9e bc bf 47 cd bc c2 38 66 bd 9a 4f 41 3d
       -0.01932929 -0.025058625 -0.056206472 0.047195055
0003a0 18 c8 a0 3c 98 76 6c bc a2 15 82 3d fc 8d 7d bb
       0.019626662 -0.014432572 0.063517824 -0.0038689366
0003b0 fa 08 4c 3d 40 42 37 3d 6f c3 a7 bd 6c d9 e5 bb
       0.04981325 0.044740915 -0.08191573 -0.007014444
0003c0 97 b5 3e 3d d1 ec 95 bc 01 e6 28 bc 85 81 42 3d
       0.046559896 -0.0183014 -0.010308743 0.0474868
0003d0 e4 59 8b ba 0b 47 26 bd b3 ed 8d 3d 95 1b 4a 3d
       -0.0010631648 -0.040595096 0.06930103 0.04934271
0003e0 05 dd 2e 3c 3e 92 7c bd f9 3e 78 bd 12 05 3e bc
       0.010672812 -0.061662905 -0.06060693 -0.011597889
0003f0 87 ae b1 3b 87 e1 95 3d 4a eb 16 3a f0 33 d8 3b
       0.0054224166 0.073184066 0.00057571067 0.0065979883

conv_block.1.lin_l.weight f4 [128, 128]
000000 c0 c9 a8 bc 8c 69 c2 3d de 66 45 bd 22 e8 97 bd
       -0.020604014 0.09492788 -0.048193805 -0.07417323
000010 ab 75 ec bb 27 4f 65 3d 1f 2a 47 3d 0e 62 09 3d
       -0.0072161756 0.05598369 0.048624154 0.033540778
000020 15 f8 85 3d a1 a4 ba 3d 02 0e 7b bd f0 df a0 bd
       0.065414585 0.09113432 -0.061292656 -0.07855213
000030 57 f2 8b 3d 46 dd 3c 3d 74 2a 2d 3d 63 29 f2 3c
       0.06833332 0.04610946 0.042276815 0.02956075
000040 2a 3d c7 3b af 41 69 3b df 14 9c bc 66 19 69 3d
       0.0060802894 0.003559213 -0.01905292 0.056908987
000050 29 68 8f bd d1 4d 61 3d 83 76 ac bd 95 76 5a bc
       -0.07002289 0.055005852 -0.08421042 -0.013333936
000060 eb 61 8a 3d d6 d4 6d bc 2f 11 a8 bd fe 35 28 bd
       0.067569576 -0.014516076 -0.082064025 -0.041067116
000070 fd 4c 4c 3d 84 bc a2 3d 21 7a a1 bd 15 28 a4 bd
       0.04987811 0.07946113 -0.07884622 -0.080154575
000080 cf 62 cb bc 7e e1 6c 3d 5e 13 68 3d 79 97 3e 3d
       -0.024827389 0.057832234 0.056659095 0.046531174
000090 82 15 7e bd de 26 66 3d 18 b4 4f 3d fb 64 67 3d
       -0.06203223 0.05618941 0.05070886 0.056492787
0000a0 f0 00 10 bc e2 fe 28 bc 4d d5 5a 3d 2c b5 56 bc
       -0.008789286 -0.010314675 0.053426076 -0.013104718
0000b0 eb dc e8 bc 3d 45 6d 3c 4f fe ae 3b 41 5a 63 3d
       -0.028425654 0.01448184 0.0053403745 0.055505995
0000c0 e6 13 59 3c 39 85 61 bc 91 14 ab 3d ad 62 85 bd
       0.013249373 -0.013764673 0.08353532 -0.065129615
0000d0 64 4d af 3c e1 64 c5 3c cd c1 a1 3d 43 f7 af bd
       0.021399207 0.024095954 0.07898293 -0.08592083
0000e0 7e c0 1b 3d 97 e7 dd 3c 73 9c ab 3d 93 03 64 bd
       0.03802537 0.02708797 0.0837945 -0.05566747
0000f0 fa 41 d2 bc c2 ac 93 3c 59 2b c4 3d c8 a6 5f bc
       -0.025666226 0.018026713 0.095785804 -0.013650604
000100 d0 a4 9a bd 22 77 c3 3c 24 2b 0e 3d 76 e6 84 3d
       -0.07550967 0.023860518 0.03470911 0.064892694
000110 8c 8a aa bc ec 8d 90 bd cc 75 e0 bd 82 38 a4 3d
       -0.020818017 -0.070583194 -0.10959968 0.080185905
000120 e9 a7 3d bd 90 f7 14 bd 51 f3 01 bd ce 06 95 bd
       -0.04630271 -0.036368906 -0.031726185 -0.072766885
000130 28 52 9f 3d d5 02 58 bc ec 05 f6 3b 7e bc 3e bd
       0.07779342 -0.013184269 0.00750803 -0.04656648
000140 0b 72 a6 3d e6 e3 9f bd a9 ff 04 bd 50 89 ad bd
       0.08127221 -0.0780714 -0.03247038 -0.08473456
000150 fc 45 95 3d 68 eb 38 3d 94 95 ca bc 00 cc 8c 3d
       0.07288739 0.045146376 -0.024729528 0.068748474
000160 b1 b7 42 3d c3 05 11 3d 2e 3e 6d 3c 38 70 b6 3d
       0.047538463 0.035405885 0.014480157 0.08908123
000170 d9 e8 2a bc 7b 5d 96 3d bc f0 ba ba b7 f4 aa bd
       -0.010431492 0.07342049 -0.0014262418 -0.08347457
000180 a7 c4 b0 bc 55 0e d5 bd 58 34 8d 3c 15 b8 97 bd
       -0.021578146 -0.10403124 0.017236874 -0.07408158
000190 ba 4f 63 bd 3b 3d 1f 3d 14 ad 56 3d 52 54 9a bd
       -0.055495955 0.038876753 0.052411154 -0.07535614
0001a0 a5 f2 c0 bd 4a fa 69 3d 37 6a 88 3d 9c 7d 0c 3d
       -0.09421281 0.05712346 0.06660884 0.034299478
0001b0 98 8a 23 bd 24 d7 6d bd 42 99 3b 3c 7a e7 3d bc
       -0.039927095 -0.058066502 0.011450114 -0.011590833
0001c0 e5 33 82 bd 2e ea 53 3d 3a d6 a2 3c 64 fa 99 bd
       -0.06357554 0.051737003 0.019877542 -0.07518461
0001d0 7a f2 a0 3d 30 23 b1 bd eb 18 09 bd dc 97 85 3d
       0.07858749 -0.086492896 -0.03347103 0.065231055
0001e0 06 3d b8 3d 91 50 1f 3d f5 f5 42 bd 92 ff e7 bc
       0.08996014 0.038895193 -0.047597844 -0.028320108
0001f0 e0 4a 26 bd 79 01 1a bd 42 1f a9 3d db a4 20 3d
       -0.04059875 -0.03759906 0.08257915 0.03921972
000200 79 5d 61 bd ab fa e8 bd a4 ce c4 bc 6a e1 84 3c
       -0.055020783 -0.11375936 -0.024024315 0.016220767
000210 e6 42 ab bd f5 9e 85 bd 8a 9c a0 3d ba ad 7f 3d
       -0.08362369 -0.06524459 0.078423575 0.062421538
000220 7b 8d 6c 3d 3e 45 ef bc 34 89 9b 3c 0e 62 3d bd
       0.057752114 -0.029207822 0.018986322 -0.04623609
000230 80 08 69 bd ea b2 9e 3d f0 7d 80 bc 98 d0 7d bd
       -0.05689287 0.07748969 -0.015685052 -0.06196651
000240 e9 db bb 3c 6c 12 83 3d 8b d4 86 3d eb 8d f3 3c
       0.02293201 0.06399998 0.06583508 0.029730758
000250 06 32 2b 3d 35 c7 96 3d 34 72 eb 3c c9 e1 dd 3c
       0.041795753 0.073622145 0.02874098 0.027085202
000260 ba 13 b2 bd 21 48 11 bd 0e 23 e3 3c 3c ff 29 bd
       -0.08695169 -0.035469178 0.027726676 -0.041503176
000270 50 fa 4f bd 8a 18 46 3d 48 56 41 3d a0 db 74 bd
       -0.050775826 0.048363246 0.047201425 -0.059779763
000280 97 2c 12 3d e4 dc 61 3d 49 c4 34 bd 99 4d 32 3d
       0.035687055 0.0551423 -0.044132505 0.043531034
000290 52 71 2a 3d 8b d0 31 3d 47 8d a6 bb 8d fa aa bd
       0.041611977 0.043411773 -0.0050827595 -0.0834857
0002a0 82 3b 50 3c d6 ec 52 bd e3 e9 49 3d 5a 75 ef bc
       0.0127095 -0.051495396 0.049295317 -0.029230762
0002b0 87 ea 2e bd 36 73 c2 bc e3 91 9a 3d 47 6a 32 bc
       -0.04270413 -0.023736577 0.07547357 -0.010889596
0002c0 12 d4 03 bd 56 6f 74 bd 42 f1 b0 bd 29 b6 c0 3b
       -0.032184668 -0.05967649 -0.08639766 0.00588109
0002d0 3c 3f 58 bd d4 1c 74 bd f4 43 24 bd 88 a6 8f bd
       -0.05279468 -0.059597805 -0.040103868 -0.07014185
0002e0 51 4c 43 bd 09 22 5d 3d 3e d3 00 3d 0c 4e 2f 3d
       -0.047680203 0.053987537 0.031451456 0.04279904
0002f0 46 03 a9 bd d7 82 5e bc aa b9 bf 3c e1 df c9 3c
       -0.082525775 -0.013580999 0.023403961 0.024642887
000300 be 69 e5 3b 9f 7a a0 39 15 a1 ba 3b b0 db 85 3d
       0.007001131 0.00030608938 0.005695472 0.06536043
000310 fb 44 e4 3c e2 b1 48 3d c6 af 3c 3d d1 43 64 bb
       0.027864924 0.048997767 0.046066068 -0.003483046
000320 b6 17 a1 3d 65 2f 3a bd dc 8d 0c 3d ef 35 94 bd
       0.078658506 -0.045455355 0.034314975 -0.072368495
000330 79 25 42 bb 8b 57 95 bd 6e be e3 3c 72 0e 96 bc
       -0.0029624386 -0.07292088 0.027800765 -0.018317435
000340 41 32 9b bd d0 1b 1b 3d 97 c1 13 bd e2 bc a7 bd
       -0.075779445 0.03786832 -0.036073294 -0.081903234
000350 58 10 38 3d 35 d2 a5 bd 32 ae 1b 3d 64 f1 fd 3a
       0.04493746 -0.080967344 0.038007922 0.0019374308
000360 f9 18 a4 bd aa 50 9b bd 03 5a 42 3d 30 53 2d 3d
       -0.08012576 -0.07583745 0.047449123 0.042315662
000370 7e fd 99 3d 97 55 b3 3d 23 d8 b2 3d 1c 58 8e 3d
       0.07519053 0.08756559 0.08732631 0.06950399
000380 dc f1 82 bd 95 3d 8b bd 8d 4f 43 3d 72 ef 8f 3d
       -0.06393787 -0.06798855 0.047683287 0.070280924
000390 ab eb 13 bd 41 90 ae bd c0 b3 ad 3d 64 60 95 3d
       -0.036113422 -0.08523608 0.0848155 0.07293776
0003a0 16 3f c6 3c c0 0a 24 bc 89 00 22 bd a8 66 3c 3d
       0.024200004 -0.010012329 -0.03955129 0.045996338
0003b0 e5 62 a2 bd 86 59 f6 bc f9 ee 3a 3b 29 6c a1 3d
       -0.07929019 -0.030071985 0.0028523786 0.07881958
0003c0 82 e0 d8 bc dd 64 ad 3d cf 34 03 3d eb 82 ad bd
       -0.026474241 0.08466504 0.032032784 -0.08472236
0003d0 a8 24 59 bd 25 fd ae bd d2 5b 6e bd 61 6f 85 bd
       -0.053013474 -0.08544377 -0.058193035 -0.065153845
0003e0 3d 25 69 bd 25 be 5c bd 97 67 4a 3d 76 75 7a 3d
       -0.05692028 -0.053892273 0.049415197 0.061147176
0003f0 42 6f 11 3d 75 8d 38 3d df d4 da 3c 4d 89 11 bd
       0.035506494 0.04505678 0.026712833 -0.03553133

conv_block.1.lin_r.weight f4 [128, 128]
000000 7f 5e a1 bd 3f 26 85 3d e4 36 16 bd 72 b0 8c 3d
       -0.07879352 0.065014355 -0.03667344 0.06869592
000010 2d 8b 73 bd 0a 6a 6d 3d c9 a6 dc 3c 91 9f 8d 3d
       -0.0594589 0.057962455 0.026934998 0.069152005
000020 5c 95 fb 3c 3a e1 b6 3d 47 6f 8a bc 35 75 5b 3d
       0.030710869 0.08929677 -0.016898764 0.053578574
000030 08 38 93 bd fb 74 6d bd 2a b9 ab bd 34 3d 4a 3d
       -0.071884215 -0.05797289 -0.083849266 0.049374774
000040 cb 07 b3 bd fb aa 48 bc bc 0f 21 3d 5c 4c 19 bd
       -0.08741721 -0.012247796 0.039321646 -0.037426338
000050 67 f2 6f bc b6 99 83 3d 19 33 c8 3c 1d cd 35 bd
       -0.014645196 0.064258024 0.024438428 -0.044385064
000060 f8 e1 64 3d 7e b5 ce 3c 9c ef 6e bc 2b 21 85 3d
       0.055879563 0.025233027 -0.0145834945 0.06500467
000070 75 db 0a 3d db 5b 90 3c cd c1 5b 3d cb 63 6d 3d
       0.033900697 0.017621925 0.05365162 0.057956498
000080 ce 40 ab 3d c0 ef 38 bd be c3 aa bd 55 09 af bc
       0.0836197 -0.04515052 -0.08338116 -0.021366755
000090 6e 75 a4 3b 35 2d 36 3d ab 49 39 3a 48 fd 22 3d
       0.0050188815 0.044476707 0.00070681673 0.03979233
0000a0 5c 8f 2d bb 75 c8 7d 3c 96 b2 20 3d 4f 79 9d bd
       -0.0026483154 0.015489687 0.039232813 -0.076891534
0000b0 05 c5 40 3c b4 41 a0 bc 6f cd 3a 3d 2d 1e f3 3b
       0.011765723 -0.01956258 0.045606073 0.0074193687
0000c0 9f 8a ad bd be 3d 84 bd f9 19 a0 bd 78 f2 29 bc
       -0.084737055 -0.06457089 -0.07817454 -0.01037275
0000d0 a5 37 8e 3d 3b c7 28 3d 8c f1 b2 bd 55 f5 4b bd
       0.06944207 0.041205626 -0.08737478 -0.049794514
0000e0 75 c7 f1 3c 48 c4 64 3d 84 f9 9f bc d5 e4 37 3d
       0.029514054 0.05585125 -0.019528158 0.044895966
0000f0 6b d9 5a 3d 27 d4 1c 3d bc 1b 7f 3d 60 84 a7 bc
       0.053430002 0.03828826 0.06228231 -0.020448864
000100 15 1d fb bb 03 b4 7c bd 69 2c 0c 3d bf 12 db bc
       -0.007663379 -0.06169511 0.03422204 -0.026742337
000110 ec e5 be 3c b0 c7 0e bd 3f b8 fd 3c 2c b0 3a bc
       0.023302995 -0.034858406 0.030971644 -0.011394542
000120 f5 18 7a 3c 46 dc 88 bd 3d 63 54 3d 09 13 38 bd
       0.015264739 -0.06682639 0.051852454 -0.04494003
000130 4f 60 dd 3b 52 e5 83 bd 32 22 98 3d 74 ab 95 bd
       0.0067558656 -0.06440224 0.07428397 -0.07308093
000140 6d d9 7f bd d8 5e 84 3c 6f 3e cf bd df b9 c4 bc
       -0.062463213 0.016158506 -0.1011933 -0.024014411
000150 e7 ec 94 3c 66 9e 29 bd 5a cb 74 bd 67 19 44 3d
       0.01817937 -0.041410826 -0.059764244 0.047875788
000160 09 63 9d bd fb f4 95 3d 76 5b 9d 3b 9a 95 c7 bb
       -0.07684905 0.07322117 0.0048021628 -0.006090832
000170 16 75 6c 3c 2e 7a c9 bc 8c c7 01 3a 93 25 95 3c
       0.014432212 -0.024594393 0.0004950694 0.018206393
000180 27 83 a3 3d 1f 80 8e bd 90 ad 68 bd d4 ad 3a bc
       0.07984 -0.06958031 -0.056806147 -0.011393983
000190 c1 5e 58 bd b2 d0 96 bd 88 f1 73 bd ee 75 19 bd
       -0.05282474 -0.07364024 -0.059556514 -0.037465982
0001a0 9d 3f 1c 3d 55 ca a4 bd c6 ef 8a bd d8 3c 74 3c
       0.038146604 -0.08046404 -0.067840144 0.014907084
0001b0 0b 92 56 bd 5a 06 ba 3d e3 30 c1 3d 6b 7a 93 3d
       -0.05238537 0.09083243 0.094331525 0.07201084
0001c0 73 e3 a1 3d f7 ba 15 3b 3a a4 5c bd aa e8 20 bd
       0.079047106 0.0022847035 -0.053867556 -0.039284386
0001d0 5b 05 69 bd 4c 1a c1 3c 89 77 15 bd c9 8c 73 bd
       -0.056889873 0.02357211 -0.03649095 -0.059460435
0001e0 bf 0d 98 bd b9 b6 78 bd d7 32 8d 3c 27 9e 23 3d
       -0.07424497 -0.060721133 0.017236156 0.039945748
0001f0 cc fd 79 bd 6b 81 a6 3c 66 7c 16 3d 6d 3b b4 3d
       -0.061033055 0.020325383 0.03673973 0.08800397
000200 4e d0 69 bd 32 a4 b6 bd 53 db 90 3d fd b5 b4 bc
       -0.05708342 -0.089180365 0.07073083 -0.022059435
000210 10 8e 00 3d f3 74 99 bd 2b 94 8b bd c0 0a b3 3d
       0.03138548 -0.074930094 -0.0681537 0.08742285
000220 e0 00 88 3a 2c e1 37 3d 4c 6f 79 bd 96 a5 a4 3d
       0.0010376237 0.044892475 -0.060897157 0.080393955
000230 38 1c 9f bd ca d7 84 3d 86 84 87 3d ee 10 2e bc
       -0.07769054 0.06486471 0.06617074 -0.010624154
000240 4f 6e 0f 3d 2b 78 81 bd 0c 24 bb bc 6a 42 9a 3d
       0.035017308 -0.06321748 -0.022844337 0.07532199
000250 53 58 6a 3d 30 b3 1a bb e7 34 55 3d e1 d1 51 3c
       0.05721314 -0.002360534 0.052052405 0.012806387
000260 78 45 16 bd 1c 09 c4 3c 5a fd 9b bd 23 0d 5e bd
       -0.036687344 0.023930125 -0.07616682 -0.054211747
000270 67 34 d1 bc a8 18 a2 bc 11 d4 37 bd ca 12 84 3d
       -0.025537683 -0.019787148 -0.044879977 0.06448896
000280 87 ca 23 bd 9f 9f a3 3c 14 31 3f 3d 5d de b3 bd
       -0.039988067 0.019973574 0.046677664 -0.08782647
000290 fa 5a 87 3d d0 2c 2e bd 25 60 c3 bd 68 ba ac 3d
       0.06609149 -0.042523205 -0.095398225 0.08433992
0002a0 8e 2a 6e 3d 72 ec 99 bd d6 a4 fb bc 2d ef 9c bd
       0.058146052 -0.075158015 -0.030718248 -0.07662807
0002b0 3b 24 11 3c 09 cf 78 bd 35 9d 3c bd 3e c9 dd bd
       0.008858736 -0.06074432 -0.04604836 -0.108293995
0002c0 3e 8c 27 bd 9e d5 61 bc a8 96 81 bd ca b5 fb bc
       -0.04090523 -0.01378384 -0.063275635 -0.030726332
0002d0 e3 6a 01 bd 1d 78 ee 3c 9d 57 8a bb 81 b0 bb bc
       -0.031596076 0.029110009 -0.00422187 -0.022911312
0002e0 51 78 83 bd 5a 67 f0 bc ac 6c 85 3d 15 e6 b3 bd
       -0.06419433 -0.029346157 0.06514868 -0.08784119
0002f0 d6 8e 0d 3d d9 40 1a bc 64 34 0f 3c b8 2c b2 bc
       0.034560047 -0.009414875 0.008740518 -0.02174984
000300 f0 e3 83 bd 5a ac f1 bb 42 6f 0f 3c c9 26 8e bd
       -0.0643996 -0.0073752822 0.008754553 -0.069409914
000310 43 f1 94 3d 76 d2 a3 bb 63 7a 2d 3d 1c b6 39 3d
       0.072725795 -0.004999454 0.042353045 0.04533969
000320 73 69 2a 3d 08 fc 7e bb 02 0d b8 bb 66 c0 85 3d
       0.04160447 -0.0038907547 -0.005616785 0.06530838
000330 bc 77 3d 3d 9c e8 47 3d 62 65 a9 bd 48 77 69 3d
       0.046256766 0.048805818 -0.0827129 0.05699852
000340 77 d3 8d 3b 6c 11 98 3c 87 5c b6 3c 75 be 2c bd
       0.004328187 0.018562995 0.022260917 -0.04217382
000350 d8 dc 2a 3d 05 4c 53 3d d7 5c 54 bc 3c 59 6a bc
       0.04171452 0.05158617 -0.012961588 -0.014303502
000360 0b b2 ab bd e5 1c 1b bb af 2a ae 3d 03 22 9d 3d
       -0.083835684 -0.0023668346 0.08504235 0.07672503
000370 ca 90 db 3a 7f 95 84 3c 18 7e 40 bd e4 c6 14 bc
       0.0016751525 0.016184567 -0.046995252 -0.009080622
000380 ba c2 88 3d b2 53 29 bd 85 b2 12 3c 19 90 b3 3d
       0.06677766 -0.041339584 0.008953695 0.08767719
000390 86 0d 26 3d 25 b7 ce bb 82 7f 83 3d f5 04 e5 3c
       0.04054024 -0.0063084536 0.064208046 0.027956465
0003a0 01 ba 08 3d 04 3a 4e 3d 01 5a a1 3d 60 bb 4c 3d
       0.033380512 0.050348297 0.07878495 0.049983382
0003b0 0c 23 23 b9 dc 1f b3 bd fa c1 a9 3c 33 3c f2 bc
       -0.00015557947 -0.08746311 0.020722378 -0.02956972
0003c0 6f a4 88 bc f8 c8 a5 3b ce cb 9e 3d 00 41 8f bd
       -0.01667997 0.0050593577 0.077537164 -0.0699482
0003d0 6a df 07 3c cd e4 a4 ba 4b 96 3d bd b8 eb b1 bd
       0.008293012 -0.0012580395 -0.04628591 -0.08687538
0003e0 69 60 81 3d 8a 0a 54 bd d8 17 4a 3d fd 26 61 bc
       0.06317217 -0.051767863 0.049339145 -0.013742206
0003f0 b1 ac db 3b 46 14 9f bd 45 51 61 bd 75 cd 5d bd
       0.006703936 -0.07767539 -0.055009145 -0.054151017

conv_block.2.lin_l.weight f4 [128, 128]
000000 44 67 97 3d 6d dc 52 bc c1 e3 e1 bc 7c 5e a8 bd
       0.07392743 -0.012869936 -0.027574422 -0.082211465
000010 56 88 ba 3c 39 39 13 3d 50 bb 9b bd 52 b6 0c bd
       0.022770088 0.035943244 -0.076040864 -0.03435356
000020 e4 a4 11 bd 8c eb 56 3d 43 48 a4 bd 9c 65 93 3d
       -0.035557643 0.05247073 -0.08021595 0.07197115
000030 cd 8e b1 bc 4b 4b 8a 3b 40 ef 05 bd a7 d8 a4 3d
       -0.021674538 0.0042204014 -0.03269887 0.08049136
000040 ee 41 79 bd 2b 49 93 bd 75 d3 86 3d 6c 9a 9f 3d
       -0.06085389 -0.0719169 0.06583301 0.077931255
000050 d5 e1 d6 bb 87 6d 6a 3d 6d 7e 9e bd 45 49 99 bc
       -0.006557683 0.05723336 -0.077389576 -0.018711695
000060 d0 61 8c bd ea 57 3e 3d 37 37 b2 bb 5b 47 32 bd
       -0.06854594 0.04647056 -0.005438711 -0.04352508
000070 64 15 7b bd a7 d8 a0 3a a0 66 85 bd 2d 51 84 bc
       -0.061299697 0.0012271599 -0.06513715 -0.016151989
000080 bc 1f 42 bd 2c d1 63 3d fb db 60 bd 3a b6 9c bd
       -0.047393546 0.055619404 -0.05489729 -0.076519445
000090 48 67 0a bd e5 b1 9e 3d 6a bb 96 bd 3a 1d a2 bd
       -0.033789903 0.077487744 -0.07359965 -0.07915731
0000a0 cb 51 32 bd 13 95 46 3b 1a ad ca 3c 92 5a 82 bd
       -0.043535035 0.0030301258 0.024740744 -0.06364931
0000b0 ed 2f b9 bb 49 65 1a 3d 96 10 bd bc df bc 18 3d
       -0.005651465 0.03769425 -0.023079198 0.037289497
0000c0 0e 07 00 bd 6e a9 a8 3d 96 5f 31 bd c7 97 1d bd
       -0.031256728 0.08235441 -0.04330405 -0.038474824
0000d0 b1 10 8e bd 8e 09 91 3d b5 ed ec bc 73 ce c0 bc
       -0.069367774 0.070819005 -0.028921941 -0.023535943
0000e0 b1 e0 a0 bd 41 c8 09 3d c1 8e 8e 3c be 2a d7 bc
       -0.078553565 0.033638243 0.017402055 -0.026265498
0000f0 61 0d 96 bd cd a4 b6 3b 05 a5 9b bd 49 19 af 3c
       -0.073267706 0.005573845 -0.07599834 0.021374362
000100 44 90 a2 bd e2 c5 56 3d 6b 3b 2f 3d 4a 51 6b 3d
       -0.07937673 0.05243481 0.042781275 0.05745057
000110 2d 02 6d bc cd bb 7e 3d 7a 3b 7e bd 0e 20 5c bd
       -0.014465851 0.06219082 -0.06206844 -0.053741507
000120 06 e9 76 3d 6f bc 99 3d 2a 4a 5f 3d 3c 58 68 bd
       0.060280822 0.07506644 0.054514088 -0.05672477
000130 0c d5 3a 3d 46 e5 8a bd 01 8a 9d bd e4 5c 4a bc
       0.045613334 -0.06782012 -0.07692338 -0.012351248
000140 56 7f 92 3d 89 47 aa 3d 7b 2f 46 3d 68 dc bb bd
       0.07153194 0.083144255 0.048385125 -0.091728985
000150 df fc 7d bd 5f be 04 3d 02 a4 3b 3d 05 d0 ae 3d
       -0.062008735 0.032408115 0.045810707 0.0853577
000160 ba 74 7b 3c 5a 85 2c 3d 54 c6 03 bd 56 aa 66 bd
       0.015347654 0.04211936 -0.032171562 -0.05631479
000170 c4 53 67 bd 5c b7 6e bd 94 59 ab bd 0d d2 62 3d
       -0.05647637 -0.058280334 -0.08366695 0.0553761
000180 b1 2d 91 bd 36 9d 4f bd e0 06 6c bd 97 96 51 3d
       -0.07088793 -0.050687037 -0.057623744 0.051169004
000190 e3 34 a6 3d 4e a5 48 3a 56 b9 4e 3c 33 bd 8c 3c
       0.08115556 0.0007654027 0.01261743 0.017180061
0001a0 c0 f2 b2 3d aa 1f 50 bc 47 61 01 bd 52 a6 97 3d
       0.08737707 -0.012702862 -0.03158691 0.0740477
0001b0 c1 63 52 bd 92 88 7b 3d c1 d6 1a 3c 2b 0b 2c bd
       -0.051364664 0.06140954 0.009450615 -0.042002838
0001c0 0a 1d 97 3d 1a 2f 47 bd f4 8d f5 3c 94 53 25 3d
       0.07378586 -0.048628904 0.029974915 0.04036291
0001d0 c4 78 34 3d b5 47 2c bd 6a 41 fe bb 51 ee 59 bd
       0.044060484 -0.042060573 -0.007759263 -0.05320579
0001e0 0c f9 97 3c f8 37 91 bd 6f 9a 94 3d 12 11 95 3c
       0.018551372 -0.07090753 0.07256018 0.018196616
0001f0 7d 4c 24 bd 45 65 84 3c 7c 3b 89 bd 02 b8 8d b7
       -0.040112007 0.01616157 -0.06700799 -1.6894195e-05
000200 44 93 17 3d 28 fa a6 3d bd ae 34 39 85 df 35 3d
       0.037005678 0.08153182 0.00017231233 0.044402618
000210 12 0b 2f bd f5 6b f9 bc bd ee 24 bd 98 06 01 bd
       -0.042735167 -0.030446986 -0.04026674 -0.03150043
000220 00 1e 5b 3d 87 ee 52 bd 98 db b2 bd 2c ab a8 bc
       0.053495407 -0.05149701 -0.087332904 -0.020589434
000230 d6 da 08 bd 82 13 ae bd 5a f7 7b 3d e2 79 09 bd
       -0.033411823 -0.084998146 0.06151519 -0.033563502
000240 f0 26 58 3d 81 53 8f bd 58 5c c2 3c 99 cd 29 bd
       0.05277151 -0.06998349 0.023725674 -0.04145584
000250 67 81 f9 bc 29 76 3c bd d2 e7 62 bd 29 db 13 3d
       -0.030457212 -0.046011124 -0.055396862 0.03609768
000260 a5 c2 d4 3b 97 f0 a0 bd 0d de af 3d 5a 91 85 3d
       0.00649293 -0.07858389 0.08587275 0.06521864
000270 69 75 32 3d 4e 01 97 bd 99 e1 8c bd 81 99 2d 3d
       0.043569002 -0.07373296 -0.06878967 0.04238272
000280 14 c5 8f bd 55 8d 72 bd 9b f4 60 bd fd ae 2c 3d
       -0.070200115 -0.059216816 -0.054920774 0.04215907
000290 ef 8e c8 3a cb a1 ac bd 58 f5 ff bc 45 8b 92 bd
       0.0015301387 -0.08429297 -0.031244919 -0.0715547
0002a0 24 7f db 3c eb c2 b7 ba e3 2f 07 bd 96 74 4c bd
       0.026794024 -0.0014019882 -0.033004653 -0.049915873
0002b0 33 b7 e5 3c de 3c 9d bd 1a eb f5 3c bf 37 02 3d
       0.028041458 -0.07677625 0.030019332 0.031791445
0002c0 e6 80 97 bd 3f d5 07 bd 6a 25 80 bc ee 01 24 3c
       -0.07397632 -0.03316235 -0.01564284 0.010010226
0002d0 2b 92 d3 3b a6 8e a2 39 98 93 d5 bc 26 c6 98 bd
       0.0064566336 0.0003100533 -0.026071355 -0.07459669
0002e0 4a ed 02 3d 3c ea 23 3c 39 fa 95 bd 72 40 60 3d
       0.031964578 0.010004576 -0.07323117 0.05474896
0002f0 49 34 cf 3c cb f7 70 bd 07 39 d7 bc b6 4c f6 bc
       0.025293486 -0.058830064 -0.02627231 -0.030065876
000300 88 1a f7 3c 2b 28 95 3c 5b 3f 47 bd 33 08 94 bd
       0.030164018 0.01820763 -0.048644405 -0.072281264
000310 e4 a2 9a 3d 38 ee 89 bd 00 98 87 3d 30 69 54 bd
       0.075506 -0.0673489 0.066207886 -0.051858127
000320 2f e0 91 3d 4f 59 8c bc cf a0 1e bc a8 36 24 3d
       0.07122838 -0.01713243 -0.009681894 0.040091187
000330 1c 73 b4 3d ce 7c 8f 3c e5 5a 64 3d 03 5c a8 3b
       0.08811018 0.017515566 0.055750746 0.005137922
000340 f5 36 97 3d cf 5d 8e 3c b6 7c 9b 3d 6f 99 ab bd
       0.07383529 0.017378716 0.07592146 -0.083788745
000350 18 71 4e 3d 4e 31 0e bd 21 34 0c 3d 33 4b 92 3c
       0.050400823 -0.03471499 0.0342294 0.017858123
000360 cf 21 1e bb e5 5b 3d 3d 1b 24 55 bd 72 86 98 3d
       -0.0024129038 0.046230216 -0.052036386 0.074475184
000370 ee 7a da 3c 8c d5 37 3d 24 52 a5 3d 48 a9 03 3d
       0.026669946 0.04488139 0.08072308 0.03214386
000380 7f 16 a7 3d 10 5b ab 3d 5f d6 eb bb 2c bb 9a 3c
       0.08158588 0.08366978 -0.007197186 0.018888079
000390 df c1 b1 3d 25 9f 3d bc d1 f4 49 bd 2d 2a 0a bd
       0.08679556 -0.011573588 -0.04930574 -0.03373163
0003a0 9d ce 12 bc 20 d7 a1 bd f0 23 a9 bd ee 32 10 bd
       -0.008960393 -0.0790236 -0.08258808 -0.03520482
0003b0 b1 a8 5a bd 39 0f 8a 3d a5 65 8e bd 1a 26 38 bb
       -0.053383533 0.06741185 -0.06952981 -0.0028098882
0003c0 5b d9 ad bd 20 1e 73 ba 8d ca 82 bd 8e 5b 60 3d
       -0.08488723 -0.00092742033 -0.0638629 0.054774813
0003d0 08 b3 1e bd 6f d1 07 3d 7d d0 86 3d 66 d6 94 3d
       -0.038744956 0.033158716 0.06582735 0.07267456
0003e0 4b db 60 bd 56 f0 1a bc 54 24 db bc fd c5 8c bd
       -0.054896634 -0.009456715 -0.026750721 -0.06873701
0003f0 46 c0 38 3d 18 96 ff 3c 54 27 a8 bd 78 a1 42 3c
       0.04510524 0.0311995 -0.08210626 0.011879317

conv_block.2.lin_r.weight f4 [128, 128]
000000 c3 43 22 3d 4e 25 a1 3d 8f 72 b1 bb f7 fe 09 3c
       0.039615404 0.078684434 -0.005415268 0.008422605
000010 f5 da 40 3d 76 c2 9b bc 99 4d d6 bc fb c2 1c 3c
       0.047083814 -0.019013625 -0.026160048 0.009567971
000020 84 05 d0 3c fa 7e 85 bd 55 19 89 3b 86 2e 97 3d
       0.025393255 -0.065183595 0.004183928 0.073819205
000030 85 7e 16 3d 40 11 f6 bc a2 92 ad 3d 78 d3 9f bc
       0.036741752 -0.030037522 0.084752336 -0.019510016
000040 f6 86 fd 3c 3b d0 92 bb 23 e3 1c 3d 02 e6 8b 3d
       0.030948143 -0.0044803894 0.038302552 0.0683098
000050 44 83 6d 3c e0 46 01 bd 69 3f 54 bd 23 94 ab 3d
       0.014496628 -0.031561732 -0.051818285 0.08377864
000060 32 fa 98 bd 5c 7a a7 bd c1 b4 8f 3c ac 4b cd 3c
       -0.07469596 -0.08177635 0.017542245 0.025060497
000070 20 b6 a7 3d 51 c5 26 bd 4b d0 fa 3c fc 31 7c bc
       0.081890345 -0.04071552 0.0306169 -0.015392777
000080 87 e7 09 bc 04 de d0 bc c3 32 43 3d 56 32 35 bc
       -0.008417017 -0.02549649 0.047655832 -0.011059364
000090 b7 f5 cd bc 52 4d 6b bc 80 03 ef bb 82 43 08 bd
       -0.02514158 -0.014361696 -0.0072941184 -0.033267505
0000a0 df 57 a4 bd 42 4e 80 bd 24 d8 8d 3d 09 7a 21 bd
       -0.080245726 -0.062649265 0.06925991 -0.039423022
0000b0 7d b7 e1 bc c3 99 25 bd 00 5a 80 3d c3 1f 80 bc
       -0.027553314 -0.04042984 0.06267166 -0.015640145
0000c0 4a 95 c5 3b 0e 39 71 3d d6 91 09 3b 83 ff 55 3d
       0.0060297595 0.058892302 0.0020991466 0.052245628
0000d0 af c9 89 3d f6 e5 23 3d b7 5c 09 bd 5d 36 9e 3d
       0.06727921 0.04001423 -0.033535685 0.07725213
0000e0 e9 be 2c bc ae 94 30 3c 4b 83 26 bc bb e3 14 bc
       -0.010543563 0.0107776355 -0.010163139 -0.009087498
0000f0 9d 87 92 bd 0f 35 bf bc 2c 29 5c 3d 8e b0 a0 3c
       -0.071547724 -0.02334073 0.053750202 0.019615438
000100 58 fe 0e bd 74 78 35 bd 12 fb 8c 3d 1b 99 3f bd
       -0.03491053 -0.044304326 0.06883825 -0.046776872
000110 a8 07 84 bd 5f 9b 5e bd 86 c2 65 bd f9 c0 18 3d
       -0.06446773 -0.054347392 -0.056093715 0.037293408
000120 94 5c 47 bd 24 4f a5 bd a9 f3 98 3d 30 46 3d bd
       -0.048672274 -0.080717355 0.074683495 -0.046209514
000130 fb 63 af 3b fb 35 9a 3d af ed 70 bd da a8 8e bc
       0.005352495 0.07529827 -0.058820423 -0.0174145
000140 fd 48 29 bd 7c cd 30 bd 2b 98 8c bd f3 ff 92 bd
       -0.041329373 -0.043164715 -0.06864961 -0.07177725
000150 52 a3 9b 3d 4a 69 77 3d 82 b7 0f bd 26 6d fb bb
       0.0759951 0.060403146 -0.035087116 -0.0076729236
000160 50 45 59 bd a0 50 2b 3d e6 0a a5 3d 09 25 68 bd
       -0.053044617 0.041824937 0.08058719 -0.056675944
000170 4b c9 b1 3d a7 cd ba bd 58 bc 88 3d b5 bd 55 bd
       0.08680972 -0.09121256 0.06676549 -0.05218287
000180 0a 23 af bc 5d 07 a4 3d 73 a8 b7 b9 ee f1 a1 3d
       -0.021379013 0.08009217 -0.00035029984 0.079074726
000190 ce 9f 93 3d 38 37 6b 3d 26 62 35 3d fa 5b 8d bc
       0.07208215 0.057425708 0.044283055 -0.017255772
0001a0 e1 1b 71 3d 55 d4 60 3d 2c 34 b9 bc 08 58 74 3d
       0.058864478 0.054889996 -0.022607885 0.059654266
0001b0 23 a1 90 bc 1c 42 69 3d f7 57 cc bc 0a 40 4e 3d
       -0.017654961 0.056947812 -0.024944289 0.05035404
0001c0 dd 53 49 bc 1e 52 4e 3c 99 8b 8c bd b6 a8 0b 3d
       -0.012288061 0.01259282 -0.06862564 0.034096442
0001d0 4e d6 ad bd 45 c9 12 3c e8 f4 ef 3c 8e 30 85 3d
       -0.08488141 0.008959119 0.029291585 0.06503402
0001e0 12 3a 32 3d 46 6a a5 3d fa d9 9f 3c 9e 32 2c 3d
       0.04351241 0.08076911 0.019513119 0.04204046
0001f0 c9 51 98 3d fd 61 72 3d 09 b1 6f 3d bb 93 39 3c
       0.07437474 0.05917548 0.058518443 0.011326726
000200 92 da c2 bc 3a 1b 7c 3b bb 82 0c 3d c3 87 10 3c
       -0.023785863 0.0038468377 0.03430436 0.008821431
000210 6d 2d 80 bd 29 f0 6e bd 48 1b a7 39 71 a3 7c bd
       -0.06258664 -0.058334503 0.00031873048 -0.061679307
000220 3f 04 9f bd 9c a6 5b bd 78 90 95 bd 79 1e 61 3d
       -0.07764482 -0.053625688 -0.07302946 0.0549607
000230 5b 42 b1 3c c7 e5 8f bd 70 c0 71 bd 1c c3 f7 bc
       0.021638086 -0.070262484 -0.059021413 -0.030244403
000240 22 bd aa bd 03 85 83 bc 17 c8 9f bd 63 1e 6d bd
       -0.083368555 -0.016054636 -0.07801836 -0.057890307
000250 c7 a2 7b 3d ff 5f 8a bd d9 8d 4d bd 7f d8 bb bc
       0.061434533 -0.06756591 -0.050184105 -0.022930382
000260 2b ae 89 bd 3b 60 b3 3d 92 39 10 bd 6f 61 95 bd
       -0.06722673 0.08758589 -0.035211153 -0.072939746
000270 eb b7 28 3d 5c 9e 94 3d ae e9 f5 bb 9c 2b 81 bd
       0.041191023 0.07256767 -0.0075046634 -0.06307146
000280 58 50 35 3d f8 87 5e 3c ef 56 f7 3a e1 53 89 bd
       0.044266075 0.013582222 0.0018870513 -0.06705452
000290 62 ae b1 bd eb dc 6d bd e7 b2 89 bd 28 5e 92 bd
       -0.08675839 -0.058072012 -0.06723576 -0.07146865
0002a0 30 f0 80 bd 4b 49 0e bd ee b4 58 bd bb 8a 85 3d
       -0.06295812 -0.034737866 -0.052906923 0.06520601
0002b0 71 ef 18 bc c4 b4 d4 bb e7 73 08 3d a2 d6 9c bd
       -0.009334431 -0.0064912755 0.033313658 -0.076581255
0002c0 33 a8 a5 bd c8 9a 87 3d 1b 5e ed 3c c9 fd 27 bd
       -0.08088722 0.06621319 0.028975537 -0.041013513
0002d0 1f d2 89 3d c3 d3 15 3b 95 ee db bb c1 4f 2d 3d
       0.067295305 0.0022861816 -0.006711791 0.042312387
0002e0 63 06 5c 3b 7f 0a 55 3d 80 89 9f 3d 0f b9 87 bd
       0.0033573143 0.052011963 0.07789898 -0.06627094
0002f0 59 ca 67 3c c2 0e 98 3d e5 78 83 bd 70 64 c9 3c
       0.014147365 0.0742469 -0.06419543 0.024584025
000300 93 3c 45 3d 5a 81 d0 bc 81 bd f0 bc aa f1 4a bd
       0.04815347 -0.025452305 -0.029387238 -0.049546875
000310 b5 ef d1 bc 6d e2 53 bc bd 0f 4d 3d e0 7f 8f 3d
       -0.025626997 -0.012932402 0.050063837 0.07006812
000320 64 f5 00 bd 05 51 a5 3d 87 80 93 3b 69 df 9f bc
       -0.031484023 0.08072094 0.0045014056 -0.01951571
000330 c6 ff 59 bd 98 81 94 ba 43 ef 6c 3c 85 97 93 bd
       -0.05322244 -0.0011330126 0.014461341 -0.072066344
000340 c0 80 6a 3d 97 a7 e6 bc 81 c6 a1 3d 76 85 09 bd
       0.05725169 -0.028156085 0.0789919 -0.033574544
000350 4b d6 8b bd 82 a1 b1 3b 32 0c 04 bd cc 7c 52 bd
       -0.068279825 0.0054208646 -0.032238193 -0.051388547
000360 25 36 a5 bd 15 37 9f bd c3 46 5f bd 60 42 13 3c
       -0.08066968 -0.07774178 -0.054510843 0.008987993
000370 8d a3 37 3c bd c8 72 bd 89 39 a3 bd 9b 57 0e 3d
       0.011208427 -0.05927347 -0.07969958 0.034751516
000380 b7 86 5b 3d 16 7a 31 3c 42 58 4a bd 65 1e 4c bc
       0.05359527 0.01083233 -0.049400575 -0.0124584185
000390 1d 97 ac 3d a6 8e b6 3c ac 33 09 bd 8e a5 9f 3c
       0.0842726 0.022284817 -0.033496544 0.019488122
0003a0 29 18 11 3d 63 3a ab bd a0 cb 15 3d 89 11 53 bd
       0.03542343 -0.08360746 0.036571145 -0.051530395
0003b0 95 16 a0 bd 33 68 a4 bc 47 9e 09 bc 59 15 a2 3d
       -0.07816807 -0.020069217 -0.008399553 0.07914228
0003c0 51 81 38 bd ea f4 88 3d 36 a5 b3 3d cf 0b fb 3c
       -0.0450452 0.06687339 0.08771746 0.03064528
0003d0 ff 83 35 3d d3 73 4b bd 5e d3 b0 bd 52 31 3f bd
       0.044315334 -0.049671005 -0.08634065 -0.046677895
0003e0 bc 25 03 bd 44 0c ba bc 28 8e 93 3d b1 27 4d bd
       -0.03201841 -0.022710927 0.072048485 -0.05008668
0003f0 f5 7d 06 3d 16 d9 b4 bc 89 b9 46 bd c2 06 0c 3d
       0.032834966 -0.02207617 -0.048516784 0.034186132
